…
I0205 20:22:08.272989 14024 net.cpp:322] The NetState phase (1) differed from the phase (0) specified by a rule in layer data
I0205 20:22:08.276394 14024 net.cpp:58] Initializing net from parameters: 
state {
  phase: TEST
  level: 0
  stage: ""
}
layer {
  name: "data"
  type: "ImageData"
  top: "data"
  top: "label"
  include {
    phase: TEST
  }
  transform_param {
    mirror: false
    crop_size: 224
  }
  image_data_param {
    source: "/media/yves/sandisk3/caffe-master/data/ilsvrc12/val.txt"
    batch_size: 10
    shuffle: true
    root_folder: "/media/yves/sandisk3/caffe-master/data/ilsvrc12/resized/val/"
  }
}
layer {
  name: "data_bn"
  type: "BatchNorm"
  bottom: "data"
  top: "data_bn"
}
layer {
  name: "data_scale"
  type: "Scale"
  bottom: "data_bn"
  top: "data_bn"
  param {
    lr_mult: 1
    decay_mult: 1
  }
  param {
    lr_mult: 2
    decay_mult: 1
  }
  scale_param {
    bias_term: true
  }
}
layer {
  name: "conv1"
  type: "Convolution"
  bottom: "data_bn"
  top: "conv1"
  param {
    lr_mult: 1
    decay_mult: 1
  }
  param {
    lr_mult: 2
    decay_mult: 1
  }
  convolution_param {
    num_output: 64
    pad: 3
    kernel_size: 7
    stride: 2
    weight_filler {
      type: "msra"
      variance_norm: FAN_OUT
    }
    bias_filler {
      type: "constant"
      value: 0
    }
  }
}
layer {
  name: "conv1_bn"
  type: "BatchNorm"
  bottom: "conv1"
  top: "conv1"
}
layer {
  name: "conv1_scale"
  type: "Scale"
  bottom: "conv1"
  top: "conv1"
  param {
    lr_mult: 1
    decay_mult: 1
  }
  param {
    lr_mult: 2
    decay_mult: 1
  }
  scale_param {
    bias_term: true
  }
}
layer {
  name: "conv1_relu"
  type: "ReLU"
  bottom: "conv1"
  top: "conv1"
}
layer {
  name: "conv1_pool"
  type: "Pooling"
  bottom: "conv1"
  top: "conv1_pool"
  pooling_param {
    kernel_size: 3
    stride: 2
  }
}
layer {
  name: "layer_64_1_conv1"
  type: "Convolution"
  bottom: "conv1_pool"
  top: "layer_64_1_conv1"
  param {
    lr_mult: 1
    decay_mult: 1
  }
  convolution_param {
    num_output: 64
    bias_term: false
    pad: 0
    kernel_size: 1
    stride: 1
    weight_filler {
      type: "msra"
    }
    bias_filler {
      type: "constant"
      value: 0
    }
  }
}
layer {
  name: "layer_64_1_bn2"
  type: "BatchNorm"
  bottom: "layer_64_1_conv1"
  top: "layer_64_1_conv1"
}
layer {
  name: "layer_64_1_scale2"
  type: "Scale"
  bottom: "layer_64_1_conv1"
  top: "layer_64_1_conv1"
  param {
    lr_mult: 1
    decay_mult: 1
  }
  param {
    lr_mult: 2
    decay_mult: 1
  }
  scale_param {
    bias_term: true
  }
}
layer {
  name: "layer_64_1_relu2"
  type: "ReLU"
  bottom: "layer_64_1_conv1"
  top: "layer_64_1_conv1"
}
layer {
  name: "layer_64_1_conv2"
  type: "Convolution"
  bottom: "layer_64_1_conv1"
  top: "layer_64_1_conv2"
  param {
    lr_mult: 1
    decay_mult: 1
  }
  convolution_param {
    num_output: 64
    bias_term: false
    pad: 1
    kernel_size: 3
    stride: 1
    weight_filler {
      type: "msra"
    }
    bias_filler {
      type: "constant"
      value: 0
    }
  }
}
layer {
  name: "layer_64_1_bn3"
  type: "BatchNorm"
  bottom: "layer_64_1_conv2"
  top: "layer_64_1_conv2"
}
layer {
  name: "layer_64_1_scale3"
  type: "Scale"
  bottom: "layer_64_1_conv2"
  top: "layer_64_1_conv2"
  param {
    lr_mult: 1
    decay_mult: 1
  }
  param {
    lr_mult: 2
    decay_mult: 1
  }
  scale_param {
    bias_term: true
  }
}
layer {
  name: "layer_64_1_relu3"
  type: "ReLU"
  bottom: "layer_64_1_conv2"
  top: "layer_64_1_conv2"
}
layer {
  name: "layer_64_1_conv3"
  type: "Convolution"
  bottom: "layer_64_1_conv2"
  top: "layer_64_1_conv3"
  param {
    lr_mult: 1
    decay_mult: 1
  }
  convolution_param {
    num_output: 256
    bias_term: false
    pad: 0
    kernel_size: 1
    stride: 1
    weight_filler {
      type: "msra"
    }
    bias_filler {
      type: "constant"
      value: 0
    }
  }
}
layer {
  name: "layer_64_1_conv_expand"
  type: "Convolution"
  bottom: "layer_64_1_conv1"
  top: "layer_64_1_conv_expand"
  param {
    lr_mult: 1
    decay_mult: 1
  }
  convolution_param {
    num_output: 256
    bias_term: false
    pad: 0
    kernel_size: 1
    stride: 1
    weight_filler {
      type: "msra"
    }
    bias_filler {
      type: "constant"
      value: 0
    }
  }
}
layer {
  name: "layer_64_1_sum"
  type: "Eltwise"
  bottom: "layer_64_1_conv3"
  bottom: "layer_64_1_conv_expand"
  top: "layer_64_1_sum"
}
layer {
  name: "layer_64_2_bn1"
  type: "BatchNorm"
  bottom: "layer_64_1_sum"
  top: "layer_64_2_bn1"
}
layer {
  name: "layer_64_2_scale1"
  type: "Scale"
  bottom: "layer_64_2_bn1"
  top: "layer_64_2_bn1"
  param {
    lr_mult: 1
    decay_mult: 1
  }
  param {
    lr_mult: 2
    decay_mult: 1
  }
  scale_param {
    bias_term: true
  }
}
layer {
  name: "layer_64_2_relu1"
  type: "ReLU"
  bottom: "layer_64_2_bn1"
  top: "layer_64_2_bn1"
}
layer {
  name: "layer_64_2_conv1"
  type: "Convolution"
  bottom: "layer_64_2_bn1"
  top: "layer_64_2_conv1"
  param {
    lr_mult: 1
    decay_mult: 1
  }
  convolution_param {
    num_output: 64
    bias_term: false
    pad: 0
    kernel_size: 1
    stride: 1
    weight_filler {
      type: "msra"
    }
    bias_filler {
      type: "constant"
      value: 0
    }
  }
}
layer {
  name: "layer_64_2_bn2"
  type: "BatchNorm"
  bottom: "layer_64_2_conv1"
  top: "layer_64_2_conv1"
}
layer {
  name: "layer_64_2_scale2"
  type: "Scale"
  bottom: "layer_64_2_conv1"
  top: "layer_64_2_conv1"
  param {
    lr_mult: 1
    decay_mult: 1
  }
  param {
    lr_mult: 2
    decay_mult: 1
  }
  scale_param {
    bias_term: true
  }
}
layer {
  name: "layer_64_2_relu2"
  type: "ReLU"
  bottom: "layer_64_2_conv1"
  top: "layer_64_2_conv1"
}
layer {
  name: "layer_64_2_conv2"
  type: "Convolution"
  bottom: "layer_64_2_conv1"
  top: "layer_64_2_conv2"
  param {
    lr_mult: 1
    decay_mult: 1
  }
  convolution_param {
    num_output: 64
    bias_term: false
    pad: 1
    kernel_size: 3
    stride: 1
    weight_filler {
      type: "msra"
    }
    bias_filler {
      type: "constant"
      value: 0
    }
  }
}
layer {
  name: "layer_64_2_bn3"
  type: "BatchNorm"
  bottom: "layer_64_2_conv2"
  top: "layer_64_2_conv2"
}
layer {
  name: "layer_64_2_scale3"
  type: "Scale"
  bottom: "layer_64_2_conv2"
  top: "layer_64_2_conv2"
  param {
    lr_mult: 1
    decay_mult: 1
  }
  param {
    lr_mult: 2
    decay_mult: 1
  }
  scale_param {
    bias_term: true
  }
}
layer {
  name: "layer_64_2_relu3"
  type: "ReLU"
  bottom: "layer_64_2_conv2"
  top: "layer_64_2_conv2"
}
layer {
  name: "layer_64_2_conv3"
  type: "Convolution"
  bottom: "layer_64_2_conv2"
  top: "layer_64_2_conv3"
  param {
    lr_mult: 1
    decay_mult: 1
  }
  convolution_param {
    num_output: 256
    bias_term: false
    pad: 0
    kernel_size: 1
    stride: 1
    weight_filler {
      type: "msra"
    }
    bias_filler {
      type: "constant"
      value: 0
    }
  }
}
layer {
  name: "layer_64_2_sum"
  type: "Eltwise"
  bottom: "layer_64_2_conv3"
  bottom: "layer_64_1_sum"
  top: "layer_64_2_sum"
}
layer {
  name: "layer_64_3_bn1"
  type: "BatchNorm"
  bottom: "layer_64_2_sum"
  top: "layer_64_3_bn1"
}
layer {
  name: "layer_64_3_scale1"
  type: "Scale"
  bottom: "layer_64_3_bn1"
  top: "layer_64_3_bn1"
  param {
    lr_mult: 1
    decay_mult: 1
  }
  param {
    lr_mult: 2
    decay_mult: 1
  }
  scale_param {
    bias_term: true
  }
}
layer {
  name: "layer_64_3_relu1"
  type: "ReLU"
  bottom: "layer_64_3_bn1"
  top: "layer_64_3_bn1"
}
layer {
  name: "layer_64_3_conv1"
  type: "Convolution"
  bottom: "layer_64_3_bn1"
  top: "layer_64_3_conv1"
  param {
    lr_mult: 1
    decay_mult: 1
  }
  convolution_param {
    num_output: 64
    bias_term: false
    pad: 0
    kernel_size: 1
    stride: 1
    weight_filler {
      type: "msra"
    }
    bias_filler {
      type: "constant"
      value: 0
    }
  }
}
layer {
  name: "layer_64_3_bn2"
  type: "BatchNorm"
  bottom: "layer_64_3_conv1"
  top: "layer_64_3_conv1"
}
layer {
  name: "layer_64_3_scale2"
  type: "Scale"
  bottom: "layer_64_3_conv1"
  top: "layer_64_3_conv1"
  param {
    lr_mult: 1
    decay_mult: 1
  }
  param {
    lr_mult: 2
    decay_mult: 1
  }
  scale_param {
    bias_term: true
  }
}
layer {
  name: "layer_64_3_relu2"
  type: "ReLU"
  bottom: "layer_64_3_conv1"
  top: "layer_64_3_conv1"
}
layer {
  name: "layer_64_3_conv2"
  type: "Convolution"
  bottom: "layer_64_3_conv1"
  top: "layer_64_3_conv2"
  param {
    lr_mult: 1
    decay_mult: 1
  }
  convolution_param {
    num_output: 64
    bias_term: false
    pad: 1
    kernel_size: 3
    stride: 1
    weight_filler {
      type: "msra"
    }
    bias_filler {
      type: "constant"
      value: 0
    }
  }
}
layer {
  name: "layer_64_3_bn3"
  type: "BatchNorm"
  bottom: "layer_64_3_conv2"
  top: "layer_64_3_conv2"
}
layer {
  name: "layer_64_3_scale3"
  type: "Scale"
  bottom: "layer_64_3_conv2"
  top: "layer_64_3_conv2"
  param {
    lr_mult: 1
    decay_mult: 1
  }
  param {
    lr_mult: 2
    decay_mult: 1
  }
  scale_param {
    bias_term: true
  }
}
layer {
  name: "layer_64_3_relu3"
  type: "ReLU"
  bottom: "layer_64_3_conv2"
  top: "layer_64_3_conv2"
}
layer {
  name: "layer_64_3_conv3"
  type: "Convolution"
  bottom: "layer_64_3_conv2"
  top: "layer_64_3_conv3"
  param {
    lr_mult: 1
    decay_mult: 1
  }
  convolution_param {
    num_output: 256
    bias_term: false
    pad: 0
    kernel_size: 1
    stride: 1
    weight_filler {
      type: "msra"
    }
    bias_filler {
      type: "constant"
      value: 0
    }
  }
}
layer {
  name: "layer_64_3_sum"
  type: "Eltwise"
  bottom: "layer_64_3_conv3"
  bottom: "layer_64_2_sum"
  top: "layer_64_3_sum"
}
layer {
  name: "layer_128_1_bn1"
  type: "BatchNorm"
  bottom: "layer_64_3_sum"
  top: "layer_128_1_bn1"
}
layer {
  name: "layer_128_1_scale1"
  type: "Scale"
  bottom: "layer_128_1_bn1"
  top: "layer_128_1_bn1"
  param {
    lr_mult: 1
    decay_mult: 1
  }
  param {
    lr_mult: 2
    decay_mult: 1
  }
  scale_param {
    bias_term: true
  }
}
layer {
  name: "layer_128_1_relu1"
  type: "ReLU"
  bottom: "layer_128_1_bn1"
  top: "layer_128_1_bn1"
}
layer {
  name: "layer_128_1_conv1"
  type: "Convolution"
  bottom: "layer_128_1_bn1"
  top: "layer_128_1_conv1"
  param {
    lr_mult: 1
    decay_mult: 1
  }
  convolution_param {
    num_output: 128
    bias_term: false
    pad: 0
    kernel_size: 1
    stride: 1
    weight_filler {
      type: "msra"
    }
    bias_filler {
      type: "constant"
      value: 0
    }
  }
}
layer {
  name: "layer_128_1_bn2"
  type: "BatchNorm"
  bottom: "layer_128_1_conv1"
  top: "layer_128_1_conv1"
}
layer {
  name: "layer_128_1_scale2"
  type: "Scale"
  bottom: "layer_128_1_conv1"
  top: "layer_128_1_conv1"
  param {
    lr_mult: 1
    decay_mult: 1
  }
  param {
    lr_mult: 2
    decay_mult: 1
  }
  scale_param {
    bias_term: true
  }
}
layer {
  name: "layer_128_1_relu2"
  type: "ReLU"
  bottom: "layer_128_1_conv1"
  top: "layer_128_1_conv1"
}
layer {
  name: "layer_128_1_conv2"
  type: "Convolution"
  bottom: "layer_128_1_conv1"
  top: "layer_128_1_conv2"
  param {
    lr_mult: 1
    decay_mult: 1
  }
  convolution_param {
    num_output: 128
    bias_term: false
    pad: 1
    kernel_size: 3
    stride: 2
    weight_filler {
      type: "msra"
    }
    bias_filler {
      type: "constant"
      value: 0
    }
  }
}
layer {
  name: "layer_128_1_bn3"
  type: "BatchNorm"
  bottom: "layer_128_1_conv2"
  top: "layer_128_1_conv2"
}
layer {
  name: "layer_128_1_scale3"
  type: "Scale"
  bottom: "layer_128_1_conv2"
  top: "layer_128_1_conv2"
  param {
    lr_mult: 1
    decay_mult: 1
  }
  param {
    lr_mult: 2
    decay_mult: 1
  }
  scale_param {
    bias_term: true
  }
}
layer {
  name: "layer_128_1_relu3"
  type: "ReLU"
  bottom: "layer_128_1_conv2"
  top: "layer_128_1_conv2"
}
layer {
  name: "layer_128_1_conv3"
  type: "Convolution"
  bottom: "layer_128_1_conv2"
  top: "layer_128_1_conv3"
  param {
    lr_mult: 1
    decay_mult: 1
  }
  convolution_param {
    num_output: 512
    bias_term: false
    pad: 0
    kernel_size: 1
    stride: 1
    weight_filler {
      type: "msra"
    }
    bias_filler {
      type: "constant"
      value: 0
    }
  }
}
layer {
  name: "layer_128_1_conv_expand"
  type: "Convolution"
  bottom: "layer_128_1_bn1"
  top: "layer_128_1_conv_expand"
  param {
    lr_mult: 1
    decay_mult: 1
  }
  convolution_param {
    num_output: 512
    bias_term: false
    pad: 0
    kernel_size: 1
    stride: 2
    weight_filler {
      type: "msra"
    }
    bias_filler {
      type: "constant"
      value: 0
    }
  }
}
layer {
  name: "layer_128_1_sum"
  type: "Eltwise"
  bottom: "layer_128_1_conv3"
  bottom: "layer_128_1_conv_expand"
  top: "layer_128_1_sum"
}
layer {
  name: "layer_128_2_bn1"
  type: "BatchNorm"
  bottom: "layer_128_1_sum"
  top: "layer_128_2_bn1"
}
layer {
  name: "layer_128_2_scale1"
  type: "Scale"
  bottom: "layer_128_2_bn1"
  top: "layer_128_2_bn1"
  param {
    lr_mult: 1
    decay_mult: 1
  }
  param {
    lr_mult: 2
    decay_mult: 1
  }
  scale_param {
    bias_term: true
  }
}
layer {
  name: "layer_128_2_relu1"
  type: "ReLU"
  bottom: "layer_128_2_bn1"
  top: "layer_128_2_bn1"
}
layer {
  name: "layer_128_2_conv1"
  type: "Convolution"
  bottom: "layer_128_2_bn1"
  top: "layer_128_2_conv1"
  param {
    lr_mult: 1
    decay_mult: 1
  }
  convolution_param {
    num_output: 128
    bias_term: false
    pad: 0
    kernel_size: 1
    stride: 1
    weight_filler {
      type: "msra"
    }
    bias_filler {
      type: "constant"
      value: 0
    }
  }
}
layer {
  name: "layer_128_2_bn2"
  type: "BatchNorm"
  bottom: "layer_128_2_conv1"
  top: "layer_128_2_conv1"
}
layer {
  name: "layer_128_2_scale2"
  type: "Scale"
  bottom: "layer_128_2_conv1"
  top: "layer_128_2_conv1"
  param {
    lr_mult: 1
    decay_mult: 1
  }
  param {
    lr_mult: 2
    decay_mult: 1
  }
  scale_param {
    bias_term: true
  }
}
layer {
  name: "layer_128_2_relu2"
  type: "ReLU"
  bottom: "layer_128_2_conv1"
  top: "layer_128_2_conv1"
}
layer {
  name: "layer_128_2_conv2"
  type: "Convolution"
  bottom: "layer_128_2_conv1"
  top: "layer_128_2_conv2"
  param {
    lr_mult: 1
    decay_mult: 1
  }
  convolution_param {
    num_output: 128
    bias_term: false
    pad: 1
    kernel_size: 3
    stride: 1
    weight_filler {
      type: "msra"
    }
    bias_filler {
      type: "constant"
      value: 0
    }
  }
}
layer {
  name: "layer_128_2_bn3"
  type: "BatchNorm"
  bottom: "layer_128_2_conv2"
  top: "layer_128_2_conv2"
}
layer {
  name: "layer_128_2_scale3"
  type: "Scale"
  bottom: "layer_128_2_conv2"
  top: "layer_128_2_conv2"
  param {
    lr_mult: 1
    decay_mult: 1
  }
  param {
    lr_mult: 2
    decay_mult: 1
  }
  scale_param {
    bias_term: true
  }
}
layer {
  name: "layer_128_2_relu3"
  type: "ReLU"
  bottom: "layer_128_2_conv2"
  top: "layer_128_2_conv2"
}
layer {
  name: "layer_128_2_conv3"
  type: "Convolution"
  bottom: "layer_128_2_conv2"
  top: "layer_128_2_conv3"
  param {
    lr_mult: 1
    decay_mult: 1
  }
  convolution_param {
    num_output: 512
    bias_term: false
    pad: 0
    kernel_size: 1
    stride: 1
    weight_filler {
      type: "msra"
    }
    bias_filler {
      type: "constant"
      value: 0
    }
  }
}
layer {
  name: "layer_128_2_sum"
  type: "Eltwise"
  bottom: "layer_128_2_conv3"
  bottom: "layer_128_1_sum"
  top: "layer_128_2_sum"
}
layer {
  name: "layer_128_3_bn1"
  type: "BatchNorm"
  bottom: "layer_128_2_sum"
  top: "layer_128_3_bn1"
}
layer {
  name: "layer_128_3_scale1"
  type: "Scale"
  bottom: "layer_128_3_bn1"
  top: "layer_128_3_bn1"
  param {
    lr_mult: 1
    decay_mult: 1
  }
  param {
    lr_mult: 2
    decay_mult: 1
  }
  scale_param {
    bias_term: true
  }
}
layer {
  name: "layer_128_3_relu1"
  type: "ReLU"
  bottom: "layer_128_3_bn1"
  top: "layer_128_3_bn1"
}
layer {
  name: "layer_128_3_conv1"
  type: "Convolution"
  bottom: "layer_128_3_bn1"
  top: "layer_128_3_conv1"
  param {
    lr_mult: 1
    decay_mult: 1
  }
  convolution_param {
    num_output: 128
    bias_term: false
    pad: 0
    kernel_size: 1
    stride: 1
    weight_filler {
      type: "msra"
    }
    bias_filler {
      type: "constant"
      value: 0
    }
  }
}
layer {
  name: "layer_128_3_bn2"
  type: "BatchNorm"
  bottom: "layer_128_3_conv1"
  top: "layer_128_3_conv1"
}
layer {
  name: "layer_128_3_scale2"
  type: "Scale"
  bottom: "layer_128_3_conv1"
  top: "layer_128_3_conv1"
  param {
    lr_mult: 1
    decay_mult: 1
  }
  param {
    lr_mult: 2
    decay_mult: 1
  }
  scale_param {
    bias_term: true
  }
}
layer {
  name: "layer_128_3_relu2"
  type: "ReLU"
  bottom: "layer_128_3_conv1"
  top: "layer_128_3_conv1"
}
layer {
  name: "layer_128_3_conv2"
  type: "Convolution"
  bottom: "layer_128_3_conv1"
  top: "layer_128_3_conv2"
  param {
    lr_mult: 1
    decay_mult: 1
  }
  convolution_param {
    num_output: 128
    bias_term: false
    pad: 1
    kernel_size: 3
    stride: 1
    weight_filler {
      type: "msra"
    }
    bias_filler {
      type: "constant"
      value: 0
    }
  }
}
layer {
  name: "layer_128_3_bn3"
  type: "BatchNorm"
  bottom: "layer_128_3_conv2"
  top: "layer_128_3_conv2"
}
layer {
  name: "layer_128_3_scale3"
  type: "Scale"
  bottom: "layer_128_3_conv2"
  top: "layer_128_3_conv2"
  param {
    lr_mult: 1
    decay_mult: 1
  }
  param {
    lr_mult: 2
    decay_mult: 1
  }
  scale_param {
    bias_term: true
  }
}
layer {
  name: "layer_128_3_relu3"
  type: "ReLU"
  bottom: "layer_128_3_conv2"
  top: "layer_128_3_conv2"
}
layer {
  name: "layer_128_3_conv3"
  type: "Convolution"
  bottom: "layer_128_3_conv2"
  top: "layer_128_3_conv3"
  param {
    lr_mult: 1
    decay_mult: 1
  }
  convolution_param {
    num_output: 512
    bias_term: false
    pad: 0
    kernel_size: 1
    stride: 1
    weight_filler {
      type: "msra"
    }
    bias_filler {
      type: "constant"
      value: 0
    }
  }
}
layer {
  name: "layer_128_3_sum"
  type: "Eltwise"
  bottom: "layer_128_3_conv3"
  bottom: "layer_128_2_sum"
  top: "layer_128_3_sum"
}
layer {
  name: "layer_128_4_bn1"
  type: "BatchNorm"
  bottom: "layer_128_3_sum"
  top: "layer_128_4_bn1"
}
layer {
  name: "layer_128_4_scale1"
  type: "Scale"
  bottom: "layer_128_4_bn1"
  top: "layer_128_4_bn1"
  param {
    lr_mult: 1
    decay_mult: 1
  }
  param {
    lr_mult: 2
    decay_mult: 1
  }
  scale_param {
    bias_term: true
  }
}
layer {
  name: "layer_128_4_relu1"
  type: "ReLU"
  bottom: "layer_128_4_bn1"
  top: "layer_128_4_bn1"
}
layer {
  name: "layer_128_4_conv1"
  type: "Convolution"
  bottom: "layer_128_4_bn1"
  top: "layer_128_4_conv1"
  param {
    lr_mult: 1
    decay_mult: 1
  }
  convolution_param {
    num_output: 128
    bias_term: false
    pad: 0
    kernel_size: 1
    stride: 1
    weight_filler {
      type: "msra"
    }
    bias_filler {
      type: "constant"
      value: 0
    }
  }
}
layer {
  name: "layer_128_4_bn2"
  type: "BatchNorm"
  bottom: "layer_128_4_conv1"
  top: "layer_128_4_conv1"
}
layer {
  name: "layer_128_4_scale2"
  type: "Scale"
  bottom: "layer_128_4_conv1"
  top: "layer_128_4_conv1"
  param {
    lr_mult: 1
    decay_mult: 1
  }
  param {
    lr_mult: 2
    decay_mult: 1
  }
  scale_param {
    bias_term: true
  }
}
layer {
  name: "layer_128_4_relu2"
  type: "ReLU"
  bottom: "layer_128_4_conv1"
  top: "layer_128_4_conv1"
}
layer {
  name: "layer_128_4_conv2"
  type: "Convolution"
  bottom: "layer_128_4_conv1"
  top: "layer_128_4_conv2"
  param {
    lr_mult: 1
    decay_mult: 1
  }
  convolution_param {
    num_output: 128
    bias_term: false
    pad: 1
    kernel_size: 3
    stride: 1
    weight_filler {
      type: "msra"
    }
    bias_filler {
      type: "constant"
      value: 0
    }
  }
}
layer {
  name: "layer_128_4_bn3"
  type: "BatchNorm"
  bottom: "layer_128_4_conv2"
  top: "layer_128_4_conv2"
}
layer {
  name: "layer_128_4_scale3"
  type: "Scale"
  bottom: "layer_128_4_conv2"
  top: "layer_128_4_conv2"
  param {
    lr_mult: 1
    decay_mult: 1
  }
  param {
    lr_mult: 2
    decay_mult: 1
  }
  scale_param {
    bias_term: true
  }
}
layer {
  name: "layer_128_4_relu3"
  type: "ReLU"
  bottom: "layer_128_4_conv2"
  top: "layer_128_4_conv2"
}
layer {
  name: "layer_128_4_conv3"
  type: "Convolution"
  bottom: "layer_128_4_conv2"
  top: "layer_128_4_conv3"
  param {
    lr_mult: 1
    decay_mult: 1
  }
  convolution_param {
    num_output: 512
    bias_term: false
    pad: 0
    kernel_size: 1
    stride: 1
    weight_filler {
      type: "msra"
    }
    bias_filler {
      type: "constant"
      value: 0
    }
  }
}
layer {
  name: "layer_128_4_sum"
  type: "Eltwise"
  bottom: "layer_128_4_conv3"
  bottom: "layer_128_3_sum"
  top: "layer_128_4_sum"
}
layer {
  name: "layer_256_1_bn1"
  type: "BatchNorm"
  bottom: "layer_128_4_sum"
  top: "layer_256_1_bn1"
}
layer {
  name: "layer_256_1_scale1"
  type: "Scale"
  bottom: "layer_256_1_bn1"
  top: "layer_256_1_bn1"
  param {
    lr_mult: 1
    decay_mult: 1
  }
  param {
    lr_mult: 2
    decay_mult: 1
  }
  scale_param {
    bias_term: true
  }
}
layer {
  name: "layer_256_1_relu1"
  type: "ReLU"
  bottom: "layer_256_1_bn1"
  top: "layer_256_1_bn1"
}
layer {
  name: "layer_256_1_conv1"
  type: "Convolution"
  bottom: "layer_256_1_bn1"
  top: "layer_256_1_conv1"
  param {
    lr_mult: 1
    decay_mult: 1
  }
  convolution_param {
    num_output: 256
    bias_term: false
    pad: 0
    kernel_size: 1
    stride: 1
    weight_filler {
      type: "msra"
    }
    bias_filler {
      type: "constant"
      value: 0
    }
  }
}
layer {
  name: "layer_256_1_bn2"
  type: "BatchNorm"
  bottom: "layer_256_1_conv1"
  top: "layer_256_1_conv1"
}
layer {
  name: "layer_256_1_scale2"
  type: "Scale"
  bottom: "layer_256_1_conv1"
  top: "layer_256_1_conv1"
  param {
    lr_mult: 1
    decay_mult: 1
  }
  param {
    lr_mult: 2
    decay_mult: 1
  }
  scale_param {
    bias_term: true
  }
}
layer {
  name: "layer_256_1_relu2"
  type: "ReLU"
  bottom: "layer_256_1_conv1"
  top: "layer_256_1_conv1"
}
layer {
  name: "layer_256_1_conv2"
  type: "Convolution"
  bottom: "layer_256_1_conv1"
  top: "layer_256_1_conv2"
  param {
    lr_mult: 1
    decay_mult: 1
  }
  convolution_param {
    num_output: 256
    bias_term: false
    pad: 1
    kernel_size: 3
    stride: 2
    weight_filler {
      type: "msra"
    }
    bias_filler {
      type: "constant"
      value: 0
    }
  }
}
layer {
  name: "layer_256_1_bn3"
  type: "BatchNorm"
  bottom: "layer_256_1_conv2"
  top: "layer_256_1_conv2"
}
layer {
  name: "layer_256_1_scale3"
  type: "Scale"
  bottom: "layer_256_1_conv2"
  top: "layer_256_1_conv2"
  param {
    lr_mult: 1
    decay_mult: 1
  }
  param {
    lr_mult: 2
    decay_mult: 1
  }
  scale_param {
    bias_term: true
  }
}
layer {
  name: "layer_256_1_relu3"
  type: "ReLU"
  bottom: "layer_256_1_conv2"
  top: "layer_256_1_conv2"
}
layer {
  name: "layer_256_1_conv3"
  type: "Convolution"
  bottom: "layer_256_1_conv2"
  top: "layer_256_1_conv3"
  param {
    lr_mult: 1
    decay_mult: 1
  }
  convolution_param {
    num_output: 1024
    bias_term: false
    pad: 0
    kernel_size: 1
    stride: 1
    weight_filler {
      type: "msra"
    }
    bias_filler {
      type: "constant"
      value: 0
    }
  }
}
layer {
  name: "layer_256_1_conv_expand"
  type: "Convolution"
  bottom: "layer_256_1_bn1"
  top: "layer_256_1_conv_expand"
  param {
    lr_mult: 1
    decay_mult: 1
  }
  convolution_param {
    num_output: 1024
    bias_term: false
    pad: 0
    kernel_size: 1
    stride: 2
    weight_filler {
      type: "msra"
    }
    bias_filler {
      type: "constant"
      value: 0
    }
  }
}
layer {
  name: "layer_256_1_sum"
  type: "Eltwise"
  bottom: "layer_256_1_conv3"
  bottom: "layer_256_1_conv_expand"
  top: "layer_256_1_sum"
}
layer {
  name: "layer_256_2_bn1"
  type: "BatchNorm"
  bottom: "layer_256_1_sum"
  top: "layer_256_2_bn1"
}
layer {
  name: "layer_256_2_scale1"
  type: "Scale"
  bottom: "layer_256_2_bn1"
  top: "layer_256_2_bn1"
  param {
    lr_mult: 1
    decay_mult: 1
  }
  param {
    lr_mult: 2
    decay_mult: 1
  }
  scale_param {
    bias_term: true
  }
}
layer {
  name: "layer_256_2_relu1"
  type: "ReLU"
  bottom: "layer_256_2_bn1"
  top: "layer_256_2_bn1"
}
layer {
  name: "layer_256_2_conv1"
  type: "Convolution"
  bottom: "layer_256_2_bn1"
  top: "layer_256_2_conv1"
  param {
    lr_mult: 1
    decay_mult: 1
  }
  convolution_param {
    num_output: 256
    bias_term: false
    pad: 0
    kernel_size: 1
    stride: 1
    weight_filler {
      type: "msra"
    }
    bias_filler {
      type: "constant"
      value: 0
    }
  }
}
layer {
  name: "layer_256_2_bn2"
  type: "BatchNorm"
  bottom: "layer_256_2_conv1"
  top: "layer_256_2_conv1"
}
layer {
  name: "layer_256_2_scale2"
  type: "Scale"
  bottom: "layer_256_2_conv1"
  top: "layer_256_2_conv1"
  param {
    lr_mult: 1
    decay_mult: 1
  }
  param {
    lr_mult: 2
    decay_mult: 1
  }
  scale_param {
    bias_term: true
  }
}
layer {
  name: "layer_256_2_relu2"
  type: "ReLU"
  bottom: "layer_256_2_conv1"
  top: "layer_256_2_conv1"
}
layer {
  name: "layer_256_2_conv2"
  type: "Convolution"
  bottom: "layer_256_2_conv1"
  top: "layer_256_2_conv2"
  param {
    lr_mult: 1
    decay_mult: 1
  }
  convolution_param {
    num_output: 256
    bias_term: false
    pad: 1
    kernel_size: 3
    stride: 1
    weight_filler {
      type: "msra"
    }
    bias_filler {
      type: "constant"
      value: 0
    }
  }
}
layer {
  name: "layer_256_2_bn3"
  type: "BatchNorm"
  bottom: "layer_256_2_conv2"
  top: "layer_256_2_conv2"
}
layer {
  name: "layer_256_2_scale3"
  type: "Scale"
  bottom: "layer_256_2_conv2"
  top: "layer_256_2_conv2"
  param {
    lr_mult: 1
    decay_mult: 1
  }
  param {
    lr_mult: 2
    decay_mult: 1
  }
  scale_param {
    bias_term: true
  }
}
layer {
  name: "layer_256_2_relu3"
  type: "ReLU"
  bottom: "layer_256_2_conv2"
  top: "layer_256_2_conv2"
}
layer {
  name: "layer_256_2_conv3"
  type: "Convolution"
  bottom: "layer_256_2_conv2"
  top: "layer_256_2_conv3"
  param {
    lr_mult: 1
    decay_mult: 1
  }
  convolution_param {
    num_output: 1024
    bias_term: false
    pad: 0
    kernel_size: 1
    stride: 1
    weight_filler {
      type: "msra"
    }
    bias_filler {
      type: "constant"
      value: 0
    }
  }
}
layer {
  name: "layer_256_2_sum"
  type: "Eltwise"
  bottom: "layer_256_2_conv3"
  bottom: "layer_256_1_sum"
  top: "layer_256_2_sum"
}
layer {
  name: "layer_256_3_bn1"
  type: "BatchNorm"
  bottom: "layer_256_2_sum"
  top: "layer_256_3_bn1"
}
layer {
  name: "layer_256_3_scale1"
  type: "Scale"
  bottom: "layer_256_3_bn1"
  top: "layer_256_3_bn1"
  param {
    lr_mult: 1
    decay_mult: 1
  }
  param {
    lr_mult: 2
    decay_mult: 1
  }
  scale_param {
    bias_term: true
  }
}
layer {
  name: "layer_256_3_relu1"
  type: "ReLU"
  bottom: "layer_256_3_bn1"
  top: "layer_256_3_bn1"
}
layer {
  name: "layer_256_3_conv1"
  type: "Convolution"
  bottom: "layer_256_3_bn1"
  top: "layer_256_3_conv1"
  param {
    lr_mult: 1
    decay_mult: 1
  }
  convolution_param {
    num_output: 256
    bias_term: false
    pad: 0
    kernel_size: 1
    stride: 1
    weight_filler {
      type: "msra"
    }
    bias_filler {
      type: "constant"
      value: 0
    }
  }
}
layer {
  name: "layer_256_3_bn2"
  type: "BatchNorm"
  bottom: "layer_256_3_conv1"
  top: "layer_256_3_conv1"
}
layer {
  name: "layer_256_3_scale2"
  type: "Scale"
  bottom: "layer_256_3_conv1"
  top: "layer_256_3_conv1"
  param {
    lr_mult: 1
    decay_mult: 1
  }
  param {
    lr_mult: 2
    decay_mult: 1
  }
  scale_param {
    bias_term: true
  }
}
layer {
  name: "layer_256_3_relu2"
  type: "ReLU"
  bottom: "layer_256_3_conv1"
  top: "layer_256_3_conv1"
}
layer {
  name: "layer_256_3_conv2"
  type: "Convolution"
  bottom: "layer_256_3_conv1"
  top: "layer_256_3_conv2"
  param {
    lr_mult: 1
    decay_mult: 1
  }
  convolution_param {
    num_output: 256
    bias_term: false
    pad: 1
    kernel_size: 3
    stride: 1
    weight_filler {
      type: "msra"
    }
    bias_filler {
      type: "constant"
      value: 0
    }
  }
}
layer {
  name: "layer_256_3_bn3"
  type: "BatchNorm"
  bottom: "layer_256_3_conv2"
  top: "layer_256_3_conv2"
}
layer {
  name: "layer_256_3_scale3"
  type: "Scale"
  bottom: "layer_256_3_conv2"
  top: "layer_256_3_conv2"
  param {
    lr_mult: 1
    decay_mult: 1
  }
  param {
    lr_mult: 2
    decay_mult: 1
  }
  scale_param {
    bias_term: true
  }
}
layer {
  name: "layer_256_3_relu3"
  type: "ReLU"
  bottom: "layer_256_3_conv2"
  top: "layer_256_3_conv2"
}
layer {
  name: "layer_256_3_conv3"
  type: "Convolution"
  bottom: "layer_256_3_conv2"
  top: "layer_256_3_conv3"
  param {
    lr_mult: 1
    decay_mult: 1
  }
  convolution_param {
    num_output: 1024
    bias_term: false
    pad: 0
    kernel_size: 1
    stride: 1
    weight_filler {
      type: "msra"
    }
    bias_filler {
      type: "constant"
      value: 0
    }
  }
}
layer {
  name: "layer_256_3_sum"
  type: "Eltwise"
  bottom: "layer_256_3_conv3"
  bottom: "layer_256_2_sum"
  top: "layer_256_3_sum"
}
layer {
  name: "layer_256_4_bn1"
  type: "BatchNorm"
  bottom: "layer_256_3_sum"
  top: "layer_256_4_bn1"
}
layer {
  name: "layer_256_4_scale1"
  type: "Scale"
  bottom: "layer_256_4_bn1"
  top: "layer_256_4_bn1"
  param {
    lr_mult: 1
    decay_mult: 1
  }
  param {
    lr_mult: 2
    decay_mult: 1
  }
  scale_param {
    bias_term: true
  }
}
layer {
  name: "layer_256_4_relu1"
  type: "ReLU"
  bottom: "layer_256_4_bn1"
  top: "layer_256_4_bn1"
}
layer {
  name: "layer_256_4_conv1"
  type: "Convolution"
  bottom: "layer_256_4_bn1"
  top: "layer_256_4_conv1"
  param {
    lr_mult: 1
    decay_mult: 1
  }
  convolution_param {
    num_output: 256
    bias_term: false
    pad: 0
    kernel_size: 1
    stride: 1
    weight_filler {
      type: "msra"
    }
    bias_filler {
      type: "constant"
      value: 0
    }
  }
}
layer {
  name: "layer_256_4_bn2"
  type: "BatchNorm"
  
I0205 20:22:08.277477 14024 layer_factory.hpp:77] Creating layer data
I0205 20:22:08.277904 14024 net.cpp:100] Creating Layer data
I0205 20:22:08.277916 14024 net.cpp:408] data -> data
I0205 20:22:08.277933 14024 net.cpp:408] data -> label
I0205 20:22:08.278563 14024 image_data_layer.cpp:38] Opening file /media/yves/sandisk3/caffe-master/data/ilsvrc12/val.txt
I0205 20:22:08.288060 14024 image_data_layer.cpp:53] Shuffling data
I0205 20:22:08.291158 14024 image_data_layer.cpp:58] A total of 50000 images.
I0205 20:22:08.304167 14024 image_data_layer.cpp:85] output data size: 10,3,224,224
I0205 20:22:08.312598 14024 net.cpp:150] Setting up data
I0205 20:22:08.312628 14024 net.cpp:157] Top shape: 10 3 224 224 (1505280)
I0205 20:22:08.312634 14024 net.cpp:157] Top shape: 10 (10)
I0205 20:22:08.312638 14024 net.cpp:165] Memory required for data: 6021160
I0205 20:22:08.312645 14024 layer_factory.hpp:77] Creating layer label_data_1_split
I0205 20:22:08.312980 14024 net.cpp:100] Creating Layer label_data_1_split
I0205 20:22:08.312993 14024 net.cpp:434] label_data_1_split <- label
I0205 20:22:08.313002 14024 net.cpp:408] label_data_1_split -> label_data_1_split_0
I0205 20:22:08.313012 14024 net.cpp:408] label_data_1_split -> label_data_1_split_1
I0205 20:22:08.313038 14024 net.cpp:408] label_data_1_split -> label_data_1_split_2
I0205 20:22:08.313077 14024 net.cpp:150] Setting up label_data_1_split
I0205 20:22:08.313084 14024 net.cpp:157] Top shape: 10 (10)
I0205 20:22:08.313087 14024 net.cpp:157] Top shape: 10 (10)
I0205 20:22:08.313091 14024 net.cpp:157] Top shape: 10 (10)
I0205 20:22:08.313094 14024 net.cpp:165] Memory required for data: 6021280
I0205 20:22:08.313097 14024 layer_factory.hpp:77] Creating layer data_bn
I0205 20:22:08.313105 14024 net.cpp:100] Creating Layer data_bn
I0205 20:22:08.313108 14024 net.cpp:434] data_bn <- data
I0205 20:22:08.313112 14024 net.cpp:408] data_bn -> data_bn
I0205 20:22:08.313766 14024 net.cpp:150] Setting up data_bn
I0205 20:22:08.313781 14024 net.cpp:157] Top shape: 10 3 224 224 (1505280)
I0205 20:22:08.313784 14024 net.cpp:165] Memory required for data: 12042400
I0205 20:22:08.313798 14024 layer_factory.hpp:77] Creating layer data_scale
I0205 20:22:08.314108 14024 net.cpp:100] Creating Layer data_scale
I0205 20:22:08.314119 14024 net.cpp:434] data_scale <- data_bn
I0205 20:22:08.314131 14024 net.cpp:395] data_scale -> data_bn (in-place)
I0205 20:22:08.314162 14024 layer_factory.hpp:77] Creating layer data_scale
I0205 20:22:08.314249 14024 net.cpp:150] Setting up data_scale
I0205 20:22:08.314256 14024 net.cpp:157] Top shape: 10 3 224 224 (1505280)
I0205 20:22:08.314260 14024 net.cpp:165] Memory required for data: 18063520
I0205 20:22:08.314265 14024 layer_factory.hpp:77] Creating layer conv1
I0205 20:22:08.314276 14024 net.cpp:100] Creating Layer conv1
I0205 20:22:08.314280 14024 net.cpp:434] conv1 <- data_bn
I0205 20:22:08.314285 14024 net.cpp:408] conv1 -> conv1
I0205 20:22:10.384109 14024 net.cpp:150] Setting up conv1
I0205 20:22:10.384137 14024 net.cpp:157] Top shape: 10 64 112 112 (8028160)
I0205 20:22:10.384142 14024 net.cpp:165] Memory required for data: 50176160
I0205 20:22:10.384150 14024 layer_factory.hpp:77] Creating layer conv1_bn
I0205 20:22:10.384157 14024 net.cpp:100] Creating Layer conv1_bn
I0205 20:22:10.384161 14024 net.cpp:434] conv1_bn <- conv1
I0205 20:22:10.384166 14024 net.cpp:395] conv1_bn -> conv1 (in-place)
I0205 20:22:10.384285 14024 net.cpp:150] Setting up conv1_bn
I0205 20:22:10.384292 14024 net.cpp:157] Top shape: 10 64 112 112 (8028160)
I0205 20:22:10.384296 14024 net.cpp:165] Memory required for data: 82288800
I0205 20:22:10.384305 14024 layer_factory.hpp:77] Creating layer conv1_scale
I0205 20:22:10.384310 14024 net.cpp:100] Creating Layer conv1_scale
I0205 20:22:10.384313 14024 net.cpp:434] conv1_scale <- conv1
I0205 20:22:10.384317 14024 net.cpp:395] conv1_scale -> conv1 (in-place)
I0205 20:22:10.384343 14024 layer_factory.hpp:77] Creating layer conv1_scale
I0205 20:22:10.384413 14024 net.cpp:150] Setting up conv1_scale
I0205 20:22:10.384419 14024 net.cpp:157] Top shape: 10 64 112 112 (8028160)
I0205 20:22:10.384424 14024 net.cpp:165] Memory required for data: 114401440
I0205 20:22:10.384431 14024 layer_factory.hpp:77] Creating layer conv1_relu
I0205 20:22:10.384439 14024 net.cpp:100] Creating Layer conv1_relu
I0205 20:22:10.384444 14024 net.cpp:434] conv1_relu <- conv1
I0205 20:22:10.384450 14024 net.cpp:395] conv1_relu -> conv1 (in-place)
I0205 20:22:10.384567 14024 net.cpp:150] Setting up conv1_relu
I0205 20:22:10.384574 14024 net.cpp:157] Top shape: 10 64 112 112 (8028160)
I0205 20:22:10.384579 14024 net.cpp:165] Memory required for data: 146514080
I0205 20:22:10.384584 14024 layer_factory.hpp:77] Creating layer conv1_pool
I0205 20:22:10.384595 14024 net.cpp:100] Creating Layer conv1_pool
I0205 20:22:10.384600 14024 net.cpp:434] conv1_pool <- conv1
I0205 20:22:10.384606 14024 net.cpp:408] conv1_pool -> conv1_pool
I0205 20:22:10.391161 14024 net.cpp:150] Setting up conv1_pool
I0205 20:22:10.391180 14024 net.cpp:157] Top shape: 10 64 56 56 (2007040)
I0205 20:22:10.391185 14024 net.cpp:165] Memory required for data: 154542240
I0205 20:22:10.391191 14024 layer_factory.hpp:77] Creating layer layer_64_1_conv1
I0205 20:22:10.391202 14024 net.cpp:100] Creating Layer layer_64_1_conv1
I0205 20:22:10.391211 14024 net.cpp:434] layer_64_1_conv1 <- conv1_pool
I0205 20:22:10.391218 14024 net.cpp:408] layer_64_1_conv1 -> layer_64_1_conv1
I0205 20:22:10.392410 14024 net.cpp:150] Setting up layer_64_1_conv1
I0205 20:22:10.392424 14024 net.cpp:157] Top shape: 10 64 56 56 (2007040)
I0205 20:22:10.392429 14024 net.cpp:165] Memory required for data: 162570400
I0205 20:22:10.392437 14024 layer_factory.hpp:77] Creating layer layer_64_1_bn2
I0205 20:22:10.392444 14024 net.cpp:100] Creating Layer layer_64_1_bn2
I0205 20:22:10.392451 14024 net.cpp:434] layer_64_1_bn2 <- layer_64_1_conv1
I0205 20:22:10.392457 14024 net.cpp:395] layer_64_1_bn2 -> layer_64_1_conv1 (in-place)
I0205 20:22:10.392570 14024 net.cpp:150] Setting up layer_64_1_bn2
I0205 20:22:10.392577 14024 net.cpp:157] Top shape: 10 64 56 56 (2007040)
I0205 20:22:10.392581 14024 net.cpp:165] Memory required for data: 170598560
I0205 20:22:10.392590 14024 layer_factory.hpp:77] Creating layer layer_64_1_scale2
I0205 20:22:10.392598 14024 net.cpp:100] Creating Layer layer_64_1_scale2
I0205 20:22:10.392608 14024 net.cpp:434] layer_64_1_scale2 <- layer_64_1_conv1
I0205 20:22:10.392623 14024 net.cpp:395] layer_64_1_scale2 -> layer_64_1_conv1 (in-place)
I0205 20:22:10.392657 14024 layer_factory.hpp:77] Creating layer layer_64_1_scale2
I0205 20:22:10.392732 14024 net.cpp:150] Setting up layer_64_1_scale2
I0205 20:22:10.392740 14024 net.cpp:157] Top shape: 10 64 56 56 (2007040)
I0205 20:22:10.392745 14024 net.cpp:165] Memory required for data: 178626720
I0205 20:22:10.392755 14024 layer_factory.hpp:77] Creating layer layer_64_1_relu2
I0205 20:22:10.392765 14024 net.cpp:100] Creating Layer layer_64_1_relu2
I0205 20:22:10.392769 14024 net.cpp:434] layer_64_1_relu2 <- layer_64_1_conv1
I0205 20:22:10.392776 14024 net.cpp:395] layer_64_1_relu2 -> layer_64_1_conv1 (in-place)
I0205 20:22:10.393049 14024 net.cpp:150] Setting up layer_64_1_relu2
I0205 20:22:10.393059 14024 net.cpp:157] Top shape: 10 64 56 56 (2007040)
I0205 20:22:10.393065 14024 net.cpp:165] Memory required for data: 186654880
I0205 20:22:10.393070 14024 layer_factory.hpp:77] Creating layer layer_64_1_conv1_layer_64_1_relu2_0_split
I0205 20:22:10.393077 14024 net.cpp:100] Creating Layer layer_64_1_conv1_layer_64_1_relu2_0_split
I0205 20:22:10.393082 14024 net.cpp:434] layer_64_1_conv1_layer_64_1_relu2_0_split <- layer_64_1_conv1
I0205 20:22:10.393088 14024 net.cpp:408] layer_64_1_conv1_layer_64_1_relu2_0_split -> layer_64_1_conv1_layer_64_1_relu2_0_split_0
I0205 20:22:10.393097 14024 net.cpp:408] layer_64_1_conv1_layer_64_1_relu2_0_split -> layer_64_1_conv1_layer_64_1_relu2_0_split_1
I0205 20:22:10.393128 14024 net.cpp:150] Setting up layer_64_1_conv1_layer_64_1_relu2_0_split
I0205 20:22:10.393136 14024 net.cpp:157] Top shape: 10 64 56 56 (2007040)
I0205 20:22:10.393141 14024 net.cpp:157] Top shape: 10 64 56 56 (2007040)
I0205 20:22:10.393146 14024 net.cpp:165] Memory required for data: 202711200
I0205 20:22:10.393151 14024 layer_factory.hpp:77] Creating layer layer_64_1_conv2
I0205 20:22:10.393159 14024 net.cpp:100] Creating Layer layer_64_1_conv2
I0205 20:22:10.393164 14024 net.cpp:434] layer_64_1_conv2 <- layer_64_1_conv1_layer_64_1_relu2_0_split_0
I0205 20:22:10.393172 14024 net.cpp:408] layer_64_1_conv2 -> layer_64_1_conv2
I0205 20:22:10.394381 14024 net.cpp:150] Setting up layer_64_1_conv2
I0205 20:22:10.394392 14024 net.cpp:157] Top shape: 10 64 56 56 (2007040)
I0205 20:22:10.394397 14024 net.cpp:165] Memory required for data: 210739360
I0205 20:22:10.394403 14024 layer_factory.hpp:77] Creating layer layer_64_1_bn3
I0205 20:22:10.394410 14024 net.cpp:100] Creating Layer layer_64_1_bn3
I0205 20:22:10.394417 14024 net.cpp:434] layer_64_1_bn3 <- layer_64_1_conv2
I0205 20:22:10.394423 14024 net.cpp:395] layer_64_1_bn3 -> layer_64_1_conv2 (in-place)
I0205 20:22:10.394536 14024 net.cpp:150] Setting up layer_64_1_bn3
I0205 20:22:10.394544 14024 net.cpp:157] Top shape: 10 64 56 56 (2007040)
I0205 20:22:10.394548 14024 net.cpp:165] Memory required for data: 218767520
I0205 20:22:10.394557 14024 layer_factory.hpp:77] Creating layer layer_64_1_scale3
I0205 20:22:10.394567 14024 net.cpp:100] Creating Layer layer_64_1_scale3
I0205 20:22:10.394572 14024 net.cpp:434] layer_64_1_scale3 <- layer_64_1_conv2
I0205 20:22:10.394578 14024 net.cpp:395] layer_64_1_scale3 -> layer_64_1_conv2 (in-place)
I0205 20:22:10.394609 14024 layer_factory.hpp:77] Creating layer layer_64_1_scale3
I0205 20:22:10.394681 14024 net.cpp:150] Setting up layer_64_1_scale3
I0205 20:22:10.394690 14024 net.cpp:157] Top shape: 10 64 56 56 (2007040)
I0205 20:22:10.394693 14024 net.cpp:165] Memory required for data: 226795680
I0205 20:22:10.394701 14024 layer_factory.hpp:77] Creating layer layer_64_1_relu3
I0205 20:22:10.394707 14024 net.cpp:100] Creating Layer layer_64_1_relu3
I0205 20:22:10.394713 14024 net.cpp:434] layer_64_1_relu3 <- layer_64_1_conv2
I0205 20:22:10.394719 14024 net.cpp:395] layer_64_1_relu3 -> layer_64_1_conv2 (in-place)
I0205 20:22:10.394989 14024 net.cpp:150] Setting up layer_64_1_relu3
I0205 20:22:10.394999 14024 net.cpp:157] Top shape: 10 64 56 56 (2007040)
I0205 20:22:10.395007 14024 net.cpp:165] Memory required for data: 234823840
I0205 20:22:10.395017 14024 layer_factory.hpp:77] Creating layer layer_64_1_conv3
I0205 20:22:10.395026 14024 net.cpp:100] Creating Layer layer_64_1_conv3
I0205 20:22:10.395032 14024 net.cpp:434] layer_64_1_conv3 <- layer_64_1_conv2
I0205 20:22:10.395040 14024 net.cpp:408] layer_64_1_conv3 -> layer_64_1_conv3
I0205 20:22:10.395891 14024 net.cpp:150] Setting up layer_64_1_conv3
I0205 20:22:10.395902 14024 net.cpp:157] Top shape: 10 256 56 56 (8028160)
I0205 20:22:10.395908 14024 net.cpp:165] Memory required for data: 266936480
I0205 20:22:10.395915 14024 layer_factory.hpp:77] Creating layer layer_64_1_conv_expand
I0205 20:22:10.395925 14024 net.cpp:100] Creating Layer layer_64_1_conv_expand
I0205 20:22:10.395931 14024 net.cpp:434] layer_64_1_conv_expand <- layer_64_1_conv1_layer_64_1_relu2_0_split_1
I0205 20:22:10.395937 14024 net.cpp:408] layer_64_1_conv_expand -> layer_64_1_conv_expand
I0205 20:22:10.396613 14024 net.cpp:150] Setting up layer_64_1_conv_expand
I0205 20:22:10.396622 14024 net.cpp:157] Top shape: 10 256 56 56 (8028160)
I0205 20:22:10.396627 14024 net.cpp:165] Memory required for data: 299049120
I0205 20:22:10.396634 14024 layer_factory.hpp:77] Creating layer layer_64_1_sum
I0205 20:22:10.396646 14024 net.cpp:100] Creating Layer layer_64_1_sum
I0205 20:22:10.396652 14024 net.cpp:434] layer_64_1_sum <- layer_64_1_conv3
I0205 20:22:10.396659 14024 net.cpp:434] layer_64_1_sum <- layer_64_1_conv_expand
I0205 20:22:10.396666 14024 net.cpp:408] layer_64_1_sum -> layer_64_1_sum
I0205 20:22:10.396687 14024 net.cpp:150] Setting up layer_64_1_sum
I0205 20:22:10.396694 14024 net.cpp:157] Top shape: 10 256 56 56 (8028160)
I0205 20:22:10.396699 14024 net.cpp:165] Memory required for data: 331161760
I0205 20:22:10.396704 14024 layer_factory.hpp:77] Creating layer layer_64_1_sum_layer_64_1_sum_0_split
I0205 20:22:10.396710 14024 net.cpp:100] Creating Layer layer_64_1_sum_layer_64_1_sum_0_split
I0205 20:22:10.396715 14024 net.cpp:434] layer_64_1_sum_layer_64_1_sum_0_split <- layer_64_1_sum
I0205 20:22:10.396721 14024 net.cpp:408] layer_64_1_sum_layer_64_1_sum_0_split -> layer_64_1_sum_layer_64_1_sum_0_split_0
I0205 20:22:10.396728 14024 net.cpp:408] layer_64_1_sum_layer_64_1_sum_0_split -> layer_64_1_sum_layer_64_1_sum_0_split_1
I0205 20:22:10.396757 14024 net.cpp:150] Setting up layer_64_1_sum_layer_64_1_sum_0_split
I0205 20:22:10.396764 14024 net.cpp:157] Top shape: 10 256 56 56 (8028160)
I0205 20:22:10.396770 14024 net.cpp:157] Top shape: 10 256 56 56 (8028160)
I0205 20:22:10.396775 14024 net.cpp:165] Memory required for data: 395387040
I0205 20:22:10.396780 14024 layer_factory.hpp:77] Creating layer layer_64_2_bn1
I0205 20:22:10.396786 14024 net.cpp:100] Creating Layer layer_64_2_bn1
I0205 20:22:10.396791 14024 net.cpp:434] layer_64_2_bn1 <- layer_64_1_sum_layer_64_1_sum_0_split_0
I0205 20:22:10.396797 14024 net.cpp:408] layer_64_2_bn1 -> layer_64_2_bn1
I0205 20:22:10.396910 14024 net.cpp:150] Setting up layer_64_2_bn1
I0205 20:22:10.396917 14024 net.cpp:157] Top shape: 10 256 56 56 (8028160)
I0205 20:22:10.396922 14024 net.cpp:165] Memory required for data: 427499680
I0205 20:22:10.396931 14024 layer_factory.hpp:77] Creating layer layer_64_2_scale1
I0205 20:22:10.396939 14024 net.cpp:100] Creating Layer layer_64_2_scale1
I0205 20:22:10.396944 14024 net.cpp:434] layer_64_2_scale1 <- layer_64_2_bn1
I0205 20:22:10.396950 14024 net.cpp:395] layer_64_2_scale1 -> layer_64_2_bn1 (in-place)
I0205 20:22:10.396980 14024 layer_factory.hpp:77] Creating layer layer_64_2_scale1
I0205 20:22:10.397049 14024 net.cpp:150] Setting up layer_64_2_scale1
I0205 20:22:10.397058 14024 net.cpp:157] Top shape: 10 256 56 56 (8028160)
I0205 20:22:10.397061 14024 net.cpp:165] Memory required for data: 459612320
I0205 20:22:10.397068 14024 layer_factory.hpp:77] Creating layer layer_64_2_relu1
I0205 20:22:10.397075 14024 net.cpp:100] Creating Layer layer_64_2_relu1
I0205 20:22:10.397080 14024 net.cpp:434] layer_64_2_relu1 <- layer_64_2_bn1
I0205 20:22:10.397089 14024 net.cpp:395] layer_64_2_relu1 -> layer_64_2_bn1 (in-place)
I0205 20:22:10.397361 14024 net.cpp:150] Setting up layer_64_2_relu1
I0205 20:22:10.397372 14024 net.cpp:157] Top shape: 10 256 56 56 (8028160)
I0205 20:22:10.397377 14024 net.cpp:165] Memory required for data: 491724960
I0205 20:22:10.397382 14024 layer_factory.hpp:77] Creating layer layer_64_2_conv1
I0205 20:22:10.397392 14024 net.cpp:100] Creating Layer layer_64_2_conv1
I0205 20:22:10.397397 14024 net.cpp:434] layer_64_2_conv1 <- layer_64_2_bn1
I0205 20:22:10.397403 14024 net.cpp:408] layer_64_2_conv1 -> layer_64_2_conv1
I0205 20:22:10.398250 14024 net.cpp:150] Setting up layer_64_2_conv1
I0205 20:22:10.398262 14024 net.cpp:157] Top shape: 10 64 56 56 (2007040)
I0205 20:22:10.398267 14024 net.cpp:165] Memory required for data: 499753120
I0205 20:22:10.398272 14024 layer_factory.hpp:77] Creating layer layer_64_2_bn2
I0205 20:22:10.398280 14024 net.cpp:100] Creating Layer layer_64_2_bn2
I0205 20:22:10.398285 14024 net.cpp:434] layer_64_2_bn2 <- layer_64_2_conv1
I0205 20:22:10.398291 14024 net.cpp:395] layer_64_2_bn2 -> layer_64_2_conv1 (in-place)
I0205 20:22:10.398403 14024 net.cpp:150] Setting up layer_64_2_bn2
I0205 20:22:10.398411 14024 net.cpp:157] Top shape: 10 64 56 56 (2007040)
I0205 20:22:10.398416 14024 net.cpp:165] Memory required for data: 507781280
I0205 20:22:10.398427 14024 layer_factory.hpp:77] Creating layer layer_64_2_scale2
I0205 20:22:10.398437 14024 net.cpp:100] Creating Layer layer_64_2_scale2
I0205 20:22:10.398442 14024 net.cpp:434] layer_64_2_scale2 <- layer_64_2_conv1
I0205 20:22:10.398448 14024 net.cpp:395] layer_64_2_scale2 -> layer_64_2_conv1 (in-place)
I0205 20:22:10.398478 14024 layer_factory.hpp:77] Creating layer layer_64_2_scale2
I0205 20:22:10.398553 14024 net.cpp:150] Setting up layer_64_2_scale2
I0205 20:22:10.398561 14024 net.cpp:157] Top shape: 10 64 56 56 (2007040)
I0205 20:22:10.398566 14024 net.cpp:165] Memory required for data: 515809440
I0205 20:22:10.398572 14024 layer_factory.hpp:77] Creating layer layer_64_2_relu2
I0205 20:22:10.398579 14024 net.cpp:100] Creating Layer layer_64_2_relu2
I0205 20:22:10.398584 14024 net.cpp:434] layer_64_2_relu2 <- layer_64_2_conv1
I0205 20:22:10.398591 14024 net.cpp:395] layer_64_2_relu2 -> layer_64_2_conv1 (in-place)
I0205 20:22:10.398695 14024 net.cpp:150] Setting up layer_64_2_relu2
I0205 20:22:10.398703 14024 net.cpp:157] Top shape: 10 64 56 56 (2007040)
I0205 20:22:10.398707 14024 net.cpp:165] Memory required for data: 523837600
I0205 20:22:10.398712 14024 layer_factory.hpp:77] Creating layer layer_64_2_conv2
I0205 20:22:10.398721 14024 net.cpp:100] Creating Layer layer_64_2_conv2
I0205 20:22:10.398727 14024 net.cpp:434] layer_64_2_conv2 <- layer_64_2_conv1
I0205 20:22:10.398733 14024 net.cpp:408] layer_64_2_conv2 -> layer_64_2_conv2
I0205 20:22:10.399957 14024 net.cpp:150] Setting up layer_64_2_conv2
I0205 20:22:10.399968 14024 net.cpp:157] Top shape: 10 64 56 56 (2007040)
I0205 20:22:10.399974 14024 net.cpp:165] Memory required for data: 531865760
I0205 20:22:10.399981 14024 layer_factory.hpp:77] Creating layer layer_64_2_bn3
I0205 20:22:10.399988 14024 net.cpp:100] Creating Layer layer_64_2_bn3
I0205 20:22:10.399993 14024 net.cpp:434] layer_64_2_bn3 <- layer_64_2_conv2
I0205 20:22:10.399999 14024 net.cpp:395] layer_64_2_bn3 -> layer_64_2_conv2 (in-place)
I0205 20:22:10.400115 14024 net.cpp:150] Setting up layer_64_2_bn3
I0205 20:22:10.400123 14024 net.cpp:157] Top shape: 10 64 56 56 (2007040)
I0205 20:22:10.400127 14024 net.cpp:165] Memory required for data: 539893920
I0205 20:22:10.400136 14024 layer_factory.hpp:77] Creating layer layer_64_2_scale3
I0205 20:22:10.400144 14024 net.cpp:100] Creating Layer layer_64_2_scale3
I0205 20:22:10.400149 14024 net.cpp:434] layer_64_2_scale3 <- layer_64_2_conv2
I0205 20:22:10.400156 14024 net.cpp:395] layer_64_2_scale3 -> layer_64_2_conv2 (in-place)
I0205 20:22:10.400185 14024 layer_factory.hpp:77] Creating layer layer_64_2_scale3
I0205 20:22:10.400259 14024 net.cpp:150] Setting up layer_64_2_scale3
I0205 20:22:10.400266 14024 net.cpp:157] Top shape: 10 64 56 56 (2007040)
I0205 20:22:10.400280 14024 net.cpp:165] Memory required for data: 547922080
I0205 20:22:10.400288 14024 layer_factory.hpp:77] Creating layer layer_64_2_relu3
I0205 20:22:10.400297 14024 net.cpp:100] Creating Layer layer_64_2_relu3
I0205 20:22:10.400302 14024 net.cpp:434] layer_64_2_relu3 <- layer_64_2_conv2
I0205 20:22:10.400308 14024 net.cpp:395] layer_64_2_relu3 -> layer_64_2_conv2 (in-place)
I0205 20:22:10.400414 14024 net.cpp:150] Setting up layer_64_2_relu3
I0205 20:22:10.400423 14024 net.cpp:157] Top shape: 10 64 56 56 (2007040)
I0205 20:22:10.400427 14024 net.cpp:165] Memory required for data: 555950240
I0205 20:22:10.400432 14024 layer_factory.hpp:77] Creating layer layer_64_2_conv3
I0205 20:22:10.400441 14024 net.cpp:100] Creating Layer layer_64_2_conv3
I0205 20:22:10.400446 14024 net.cpp:434] layer_64_2_conv3 <- layer_64_2_conv2
I0205 20:22:10.400454 14024 net.cpp:408] layer_64_2_conv3 -> layer_64_2_conv3
I0205 20:22:10.401309 14024 net.cpp:150] Setting up layer_64_2_conv3
I0205 20:22:10.401320 14024 net.cpp:157] Top shape: 10 256 56 56 (8028160)
I0205 20:22:10.401325 14024 net.cpp:165] Memory required for data: 588062880
I0205 20:22:10.401332 14024 layer_factory.hpp:77] Creating layer layer_64_2_sum
I0205 20:22:10.401340 14024 net.cpp:100] Creating Layer layer_64_2_sum
I0205 20:22:10.401345 14024 net.cpp:434] layer_64_2_sum <- layer_64_2_conv3
I0205 20:22:10.401351 14024 net.cpp:434] layer_64_2_sum <- layer_64_1_sum_layer_64_1_sum_0_split_1
I0205 20:22:10.401357 14024 net.cpp:408] layer_64_2_sum -> layer_64_2_sum
I0205 20:22:10.401379 14024 net.cpp:150] Setting up layer_64_2_sum
I0205 20:22:10.401386 14024 net.cpp:157] Top shape: 10 256 56 56 (8028160)
I0205 20:22:10.401391 14024 net.cpp:165] Memory required for data: 620175520
I0205 20:22:10.401396 14024 layer_factory.hpp:77] Creating layer layer_64_2_sum_layer_64_2_sum_0_split
I0205 20:22:10.401402 14024 net.cpp:100] Creating Layer layer_64_2_sum_layer_64_2_sum_0_split
I0205 20:22:10.401407 14024 net.cpp:434] layer_64_2_sum_layer_64_2_sum_0_split <- layer_64_2_sum
I0205 20:22:10.401413 14024 net.cpp:408] layer_64_2_sum_layer_64_2_sum_0_split -> layer_64_2_sum_layer_64_2_sum_0_split_0
I0205 20:22:10.401422 14024 net.cpp:408] layer_64_2_sum_layer_64_2_sum_0_split -> layer_64_2_sum_layer_64_2_sum_0_split_1
I0205 20:22:10.401449 14024 net.cpp:150] Setting up layer_64_2_sum_layer_64_2_sum_0_split
I0205 20:22:10.401458 14024 net.cpp:157] Top shape: 10 256 56 56 (8028160)
I0205 20:22:10.401463 14024 net.cpp:157] Top shape: 10 256 56 56 (8028160)
I0205 20:22:10.401468 14024 net.cpp:165] Memory required for data: 684400800
I0205 20:22:10.401471 14024 layer_factory.hpp:77] Creating layer layer_64_3_bn1
I0205 20:22:10.401479 14024 net.cpp:100] Creating Layer layer_64_3_bn1
I0205 20:22:10.401484 14024 net.cpp:434] layer_64_3_bn1 <- layer_64_2_sum_layer_64_2_sum_0_split_0
I0205 20:22:10.401489 14024 net.cpp:408] layer_64_3_bn1 -> layer_64_3_bn1
I0205 20:22:10.401602 14024 net.cpp:150] Setting up layer_64_3_bn1
I0205 20:22:10.401609 14024 net.cpp:157] Top shape: 10 256 56 56 (8028160)
I0205 20:22:10.401613 14024 net.cpp:165] Memory required for data: 716513440
I0205 20:22:10.401623 14024 layer_factory.hpp:77] Creating layer layer_64_3_scale1
I0205 20:22:10.401629 14024 net.cpp:100] Creating Layer layer_64_3_scale1
I0205 20:22:10.401634 14024 net.cpp:434] layer_64_3_scale1 <- layer_64_3_bn1
I0205 20:22:10.401640 14024 net.cpp:395] layer_64_3_scale1 -> layer_64_3_bn1 (in-place)
I0205 20:22:10.401671 14024 layer_factory.hpp:77] Creating layer layer_64_3_scale1
I0205 20:22:10.401741 14024 net.cpp:150] Setting up layer_64_3_scale1
I0205 20:22:10.401749 14024 net.cpp:157] Top shape: 10 256 56 56 (8028160)
I0205 20:22:10.401753 14024 net.cpp:165] Memory required for data: 748626080
I0205 20:22:10.401760 14024 layer_factory.hpp:77] Creating layer layer_64_3_relu1
I0205 20:22:10.401767 14024 net.cpp:100] Creating Layer layer_64_3_relu1
I0205 20:22:10.401772 14024 net.cpp:434] layer_64_3_relu1 <- layer_64_3_bn1
I0205 20:22:10.401778 14024 net.cpp:395] layer_64_3_relu1 -> layer_64_3_bn1 (in-place)
I0205 20:22:10.401895 14024 net.cpp:150] Setting up layer_64_3_relu1
I0205 20:22:10.401904 14024 net.cpp:157] Top shape: 10 256 56 56 (8028160)
I0205 20:22:10.401909 14024 net.cpp:165] Memory required for data: 780738720
I0205 20:22:10.401914 14024 layer_factory.hpp:77] Creating layer layer_64_3_conv1
I0205 20:22:10.401923 14024 net.cpp:100] Creating Layer layer_64_3_conv1
I0205 20:22:10.401928 14024 net.cpp:434] layer_64_3_conv1 <- layer_64_3_bn1
I0205 20:22:10.401935 14024 net.cpp:408] layer_64_3_conv1 -> layer_64_3_conv1
I0205 20:22:10.402793 14024 net.cpp:150] Setting up layer_64_3_conv1
I0205 20:22:10.402804 14024 net.cpp:157] Top shape: 10 64 56 56 (2007040)
I0205 20:22:10.402811 14024 net.cpp:165] Memory required for data: 788766880
I0205 20:22:10.402817 14024 layer_factory.hpp:77] Creating layer layer_64_3_bn2
I0205 20:22:10.402824 14024 net.cpp:100] Creating Layer layer_64_3_bn2
I0205 20:22:10.402830 14024 net.cpp:434] layer_64_3_bn2 <- layer_64_3_conv1
I0205 20:22:10.402837 14024 net.cpp:395] layer_64_3_bn2 -> layer_64_3_conv1 (in-place)
I0205 20:22:10.402951 14024 net.cpp:150] Setting up layer_64_3_bn2
I0205 20:22:10.402958 14024 net.cpp:157] Top shape: 10 64 56 56 (2007040)
I0205 20:22:10.402963 14024 net.cpp:165] Memory required for data: 796795040
I0205 20:22:10.402971 14024 layer_factory.hpp:77] Creating layer layer_64_3_scale2
I0205 20:22:10.402979 14024 net.cpp:100] Creating Layer layer_64_3_scale2
I0205 20:22:10.402984 14024 net.cpp:434] layer_64_3_scale2 <- layer_64_3_conv1
I0205 20:22:10.402990 14024 net.cpp:395] layer_64_3_scale2 -> layer_64_3_conv1 (in-place)
I0205 20:22:10.403022 14024 layer_factory.hpp:77] Creating layer layer_64_3_scale2
I0205 20:22:10.403095 14024 net.cpp:150] Setting up layer_64_3_scale2
I0205 20:22:10.403103 14024 net.cpp:157] Top shape: 10 64 56 56 (2007040)
I0205 20:22:10.403108 14024 net.cpp:165] Memory required for data: 804823200
I0205 20:22:10.403115 14024 layer_factory.hpp:77] Creating layer layer_64_3_relu2
I0205 20:22:10.403122 14024 net.cpp:100] Creating Layer layer_64_3_relu2
I0205 20:22:10.403127 14024 net.cpp:434] layer_64_3_relu2 <- layer_64_3_conv1
I0205 20:22:10.403133 14024 net.cpp:395] layer_64_3_relu2 -> layer_64_3_conv1 (in-place)
I0205 20:22:10.403239 14024 net.cpp:150] Setting up layer_64_3_relu2
I0205 20:22:10.403246 14024 net.cpp:157] Top shape: 10 64 56 56 (2007040)
I0205 20:22:10.403251 14024 net.cpp:165] Memory required for data: 812851360
I0205 20:22:10.403256 14024 layer_factory.hpp:77] Creating layer layer_64_3_conv2
I0205 20:22:10.403265 14024 net.cpp:100] Creating Layer layer_64_3_conv2
I0205 20:22:10.403270 14024 net.cpp:434] layer_64_3_conv2 <- layer_64_3_conv1
I0205 20:22:10.403277 14024 net.cpp:408] layer_64_3_conv2 -> layer_64_3_conv2
I0205 20:22:10.404655 14024 net.cpp:150] Setting up layer_64_3_conv2
I0205 20:22:10.404667 14024 net.cpp:157] Top shape: 10 64 56 56 (2007040)
I0205 20:22:10.404673 14024 net.cpp:165] Memory required for data: 820879520
I0205 20:22:10.404680 14024 layer_factory.hpp:77] Creating layer layer_64_3_bn3
I0205 20:22:10.404687 14024 net.cpp:100] Creating Layer layer_64_3_bn3
I0205 20:22:10.404692 14024 net.cpp:434] layer_64_3_bn3 <- layer_64_3_conv2
I0205 20:22:10.404700 14024 net.cpp:395] layer_64_3_bn3 -> layer_64_3_conv2 (in-place)
I0205 20:22:10.404814 14024 net.cpp:150] Setting up layer_64_3_bn3
I0205 20:22:10.404822 14024 net.cpp:157] Top shape: 10 64 56 56 (2007040)
I0205 20:22:10.404827 14024 net.cpp:165] Memory required for data: 828907680
I0205 20:22:10.404835 14024 layer_factory.hpp:77] Creating layer layer_64_3_scale3
I0205 20:22:10.404844 14024 net.cpp:100] Creating Layer layer_64_3_scale3
I0205 20:22:10.404848 14024 net.cpp:434] layer_64_3_scale3 <- layer_64_3_conv2
I0205 20:22:10.404855 14024 net.cpp:395] layer_64_3_scale3 -> layer_64_3_conv2 (in-place)
I0205 20:22:10.404884 14024 layer_factory.hpp:77] Creating layer layer_64_3_scale3
I0205 20:22:10.404958 14024 net.cpp:150] Setting up layer_64_3_scale3
I0205 20:22:10.404965 14024 net.cpp:157] Top shape: 10 64 56 56 (2007040)
I0205 20:22:10.404974 14024 net.cpp:165] Memory required for data: 836935840
I0205 20:22:10.404988 14024 layer_factory.hpp:77] Creating layer layer_64_3_relu3
I0205 20:22:10.404994 14024 net.cpp:100] Creating Layer layer_64_3_relu3
I0205 20:22:10.404999 14024 net.cpp:434] layer_64_3_relu3 <- layer_64_3_conv2
I0205 20:22:10.405005 14024 net.cpp:395] layer_64_3_relu3 -> layer_64_3_conv2 (in-place)
I0205 20:22:10.405275 14024 net.cpp:150] Setting up layer_64_3_relu3
I0205 20:22:10.405287 14024 net.cpp:157] Top shape: 10 64 56 56 (2007040)
I0205 20:22:10.405292 14024 net.cpp:165] Memory required for data: 844964000
I0205 20:22:10.405297 14024 layer_factory.hpp:77] Creating layer layer_64_3_conv3
I0205 20:22:10.405306 14024 net.cpp:100] Creating Layer layer_64_3_conv3
I0205 20:22:10.405311 14024 net.cpp:434] layer_64_3_conv3 <- layer_64_3_conv2
I0205 20:22:10.405319 14024 net.cpp:408] layer_64_3_conv3 -> layer_64_3_conv3
I0205 20:22:10.406013 14024 net.cpp:150] Setting up layer_64_3_conv3
I0205 20:22:10.406023 14024 net.cpp:157] Top shape: 10 256 56 56 (8028160)
I0205 20:22:10.406028 14024 net.cpp:165] Memory required for data: 877076640
I0205 20:22:10.406034 14024 layer_factory.hpp:77] Creating layer layer_64_3_sum
I0205 20:22:10.406041 14024 net.cpp:100] Creating Layer layer_64_3_sum
I0205 20:22:10.406046 14024 net.cpp:434] layer_64_3_sum <- layer_64_3_conv3
I0205 20:22:10.406052 14024 net.cpp:434] layer_64_3_sum <- layer_64_2_sum_layer_64_2_sum_0_split_1
I0205 20:22:10.406059 14024 net.cpp:408] layer_64_3_sum -> layer_64_3_sum
I0205 20:22:10.406080 14024 net.cpp:150] Setting up layer_64_3_sum
I0205 20:22:10.406086 14024 net.cpp:157] Top shape: 10 256 56 56 (8028160)
I0205 20:22:10.406090 14024 net.cpp:165] Memory required for data: 909189280
I0205 20:22:10.406095 14024 layer_factory.hpp:77] Creating layer layer_128_1_bn1
I0205 20:22:10.406101 14024 net.cpp:100] Creating Layer layer_128_1_bn1
I0205 20:22:10.406106 14024 net.cpp:434] layer_128_1_bn1 <- layer_64_3_sum
I0205 20:22:10.406112 14024 net.cpp:408] layer_128_1_bn1 -> layer_128_1_bn1
I0205 20:22:10.406229 14024 net.cpp:150] Setting up layer_128_1_bn1
I0205 20:22:10.406236 14024 net.cpp:157] Top shape: 10 256 56 56 (8028160)
I0205 20:22:10.406240 14024 net.cpp:165] Memory required for data: 941301920
I0205 20:22:10.406255 14024 layer_factory.hpp:77] Creating layer layer_128_1_scale1
I0205 20:22:10.406263 14024 net.cpp:100] Creating Layer layer_128_1_scale1
I0205 20:22:10.406268 14024 net.cpp:434] layer_128_1_scale1 <- layer_128_1_bn1
I0205 20:22:10.406275 14024 net.cpp:395] layer_128_1_scale1 -> layer_128_1_bn1 (in-place)
I0205 20:22:10.406306 14024 layer_factory.hpp:77] Creating layer layer_128_1_scale1
I0205 20:22:10.406375 14024 net.cpp:150] Setting up layer_128_1_scale1
I0205 20:22:10.406383 14024 net.cpp:157] Top shape: 10 256 56 56 (8028160)
I0205 20:22:10.406388 14024 net.cpp:165] Memory required for data: 973414560
I0205 20:22:10.406395 14024 layer_factory.hpp:77] Creating layer layer_128_1_relu1
I0205 20:22:10.406401 14024 net.cpp:100] Creating Layer layer_128_1_relu1
I0205 20:22:10.406406 14024 net.cpp:434] layer_128_1_relu1 <- layer_128_1_bn1
I0205 20:22:10.406412 14024 net.cpp:395] layer_128_1_relu1 -> layer_128_1_bn1 (in-place)
I0205 20:22:10.406682 14024 net.cpp:150] Setting up layer_128_1_relu1
I0205 20:22:10.406692 14024 net.cpp:157] Top shape: 10 256 56 56 (8028160)
I0205 20:22:10.406698 14024 net.cpp:165] Memory required for data: 1005527200
I0205 20:22:10.406703 14024 layer_factory.hpp:77] Creating layer layer_128_1_bn1_layer_128_1_relu1_0_split
I0205 20:22:10.406710 14024 net.cpp:100] Creating Layer layer_128_1_bn1_layer_128_1_relu1_0_split
I0205 20:22:10.406715 14024 net.cpp:434] layer_128_1_bn1_layer_128_1_relu1_0_split <- layer_128_1_bn1
I0205 20:22:10.406721 14024 net.cpp:408] layer_128_1_bn1_layer_128_1_relu1_0_split -> layer_128_1_bn1_layer_128_1_relu1_0_split_0
I0205 20:22:10.406729 14024 net.cpp:408] layer_128_1_bn1_layer_128_1_relu1_0_split -> layer_128_1_bn1_layer_128_1_relu1_0_split_1
I0205 20:22:10.406764 14024 net.cpp:150] Setting up layer_128_1_bn1_layer_128_1_relu1_0_split
I0205 20:22:10.406775 14024 net.cpp:157] Top shape: 10 256 56 56 (8028160)
I0205 20:22:10.406781 14024 net.cpp:157] Top shape: 10 256 56 56 (8028160)
I0205 20:22:10.406786 14024 net.cpp:165] Memory required for data: 1069752480
I0205 20:22:10.406791 14024 layer_factory.hpp:77] Creating layer layer_128_1_conv1
I0205 20:22:10.406800 14024 net.cpp:100] Creating Layer layer_128_1_conv1
I0205 20:22:10.406805 14024 net.cpp:434] layer_128_1_conv1 <- layer_128_1_bn1_layer_128_1_relu1_0_split_0
I0205 20:22:10.406812 14024 net.cpp:408] layer_128_1_conv1 -> layer_128_1_conv1
I0205 20:22:10.407985 14024 net.cpp:150] Setting up layer_128_1_conv1
I0205 20:22:10.407999 14024 net.cpp:157] Top shape: 10 128 56 56 (4014080)
I0205 20:22:10.408004 14024 net.cpp:165] Memory required for data: 1085808800
I0205 20:22:10.408012 14024 layer_factory.hpp:77] Creating layer layer_128_1_bn2
I0205 20:22:10.408020 14024 net.cpp:100] Creating Layer layer_128_1_bn2
I0205 20:22:10.408025 14024 net.cpp:434] layer_128_1_bn2 <- layer_128_1_conv1
I0205 20:22:10.408031 14024 net.cpp:395] layer_128_1_bn2 -> layer_128_1_conv1 (in-place)
I0205 20:22:10.408154 14024 net.cpp:150] Setting up layer_128_1_bn2
I0205 20:22:10.408162 14024 net.cpp:157] Top shape: 10 128 56 56 (4014080)
I0205 20:22:10.408167 14024 net.cpp:165] Memory required for data: 1101865120
I0205 20:22:10.408176 14024 layer_factory.hpp:77] Creating layer layer_128_1_scale2
I0205 20:22:10.408185 14024 net.cpp:100] Creating Layer layer_128_1_scale2
I0205 20:22:10.408190 14024 net.cpp:434] layer_128_1_scale2 <- layer_128_1_conv1
I0205 20:22:10.408195 14024 net.cpp:395] layer_128_1_scale2 -> layer_128_1_conv1 (in-place)
I0205 20:22:10.408227 14024 layer_factory.hpp:77] Creating layer layer_128_1_scale2
I0205 20:22:10.408298 14024 net.cpp:150] Setting up layer_128_1_scale2
I0205 20:22:10.408305 14024 net.cpp:157] Top shape: 10 128 56 56 (4014080)
I0205 20:22:10.408309 14024 net.cpp:165] Memory required for data: 1117921440
I0205 20:22:10.408318 14024 layer_factory.hpp:77] Creating layer layer_128_1_relu2
I0205 20:22:10.408324 14024 net.cpp:100] Creating Layer layer_128_1_relu2
I0205 20:22:10.408329 14024 net.cpp:434] layer_128_1_relu2 <- layer_128_1_conv1
I0205 20:22:10.408334 14024 net.cpp:395] layer_128_1_relu2 -> layer_128_1_conv1 (in-place)
I0205 20:22:10.408442 14024 net.cpp:150] Setting up layer_128_1_relu2
I0205 20:22:10.408452 14024 net.cpp:157] Top shape: 10 128 56 56 (4014080)
I0205 20:22:10.408455 14024 net.cpp:165] Memory required for data: 1133977760
I0205 20:22:10.408460 14024 layer_factory.hpp:77] Creating layer layer_128_1_conv2
I0205 20:22:10.408469 14024 net.cpp:100] Creating Layer layer_128_1_conv2
I0205 20:22:10.408474 14024 net.cpp:434] layer_128_1_conv2 <- layer_128_1_conv1
I0205 20:22:10.408481 14024 net.cpp:408] layer_128_1_conv2 -> layer_128_1_conv2
I0205 20:22:10.412472 14024 net.cpp:150] Setting up layer_128_1_conv2
I0205 20:22:10.412487 14024 net.cpp:157] Top shape: 10 128 28 28 (1003520)
I0205 20:22:10.412492 14024 net.cpp:165] Memory required for data: 1137991840
I0205 20:22:10.412499 14024 layer_factory.hpp:77] Creating layer layer_128_1_bn3
I0205 20:22:10.412508 14024 net.cpp:100] Creating Layer layer_128_1_bn3
I0205 20:22:10.412513 14024 net.cpp:434] layer_128_1_bn3 <- layer_128_1_conv2
I0205 20:22:10.412519 14024 net.cpp:395] layer_128_1_bn3 -> layer_128_1_conv2 (in-place)
I0205 20:22:10.413072 14024 net.cpp:150] Setting up layer_128_1_bn3
I0205 20:22:10.413084 14024 net.cpp:157] Top shape: 10 128 28 28 (1003520)
I0205 20:22:10.413089 14024 net.cpp:165] Memory required for data: 1142005920
I0205 20:22:10.413099 14024 layer_factory.hpp:77] Creating layer layer_128_1_scale3
I0205 20:22:10.413106 14024 net.cpp:100] Creating Layer layer_128_1_scale3
I0205 20:22:10.413112 14024 net.cpp:434] layer_128_1_scale3 <- layer_128_1_conv2
I0205 20:22:10.413118 14024 net.cpp:395] layer_128_1_scale3 -> layer_128_1_conv2 (in-place)
I0205 20:22:10.413152 14024 layer_factory.hpp:77] Creating layer layer_128_1_scale3
I0205 20:22:10.413231 14024 net.cpp:150] Setting up layer_128_1_scale3
I0205 20:22:10.413244 14024 net.cpp:157] Top shape: 10 128 28 28 (1003520)
I0205 20:22:10.413249 14024 net.cpp:165] Memory required for data: 1146020000
I0205 20:22:10.413257 14024 layer_factory.hpp:77] Creating layer layer_128_1_relu3
I0205 20:22:10.413264 14024 net.cpp:100] Creating Layer layer_128_1_relu3
I0205 20:22:10.413269 14024 net.cpp:434] layer_128_1_relu3 <- layer_128_1_conv2
I0205 20:22:10.413275 14024 net.cpp:395] layer_128_1_relu3 -> layer_128_1_conv2 (in-place)
I0205 20:22:10.413388 14024 net.cpp:150] Setting up layer_128_1_relu3
I0205 20:22:10.413398 14024 net.cpp:157] Top shape: 10 128 28 28 (1003520)
I0205 20:22:10.413401 14024 net.cpp:165] Memory required for data: 1150034080
I0205 20:22:10.413406 14024 layer_factory.hpp:77] Creating layer layer_128_1_conv3
I0205 20:22:10.413416 14024 net.cpp:100] Creating Layer layer_128_1_conv3
I0205 20:22:10.413421 14024 net.cpp:434] layer_128_1_conv3 <- layer_128_1_conv2
I0205 20:22:10.413429 14024 net.cpp:408] layer_128_1_conv3 -> layer_128_1_conv3
I0205 20:22:10.415204 14024 net.cpp:150] Setting up layer_128_1_conv3
I0205 20:22:10.415216 14024 net.cpp:157] Top shape: 10 512 28 28 (4014080)
I0205 20:22:10.415221 14024 net.cpp:165] Memory required for data: 1166090400
I0205 20:22:10.415228 14024 layer_factory.hpp:77] Creating layer layer_128_1_conv_expand
I0205 20:22:10.415238 14024 net.cpp:100] Creating Layer layer_128_1_conv_expand
I0205 20:22:10.415244 14024 net.cpp:434] layer_128_1_conv_expand <- layer_128_1_bn1_layer_128_1_relu1_0_split_1
I0205 20:22:10.415251 14024 net.cpp:408] layer_128_1_conv_expand -> layer_128_1_conv_expand
I0205 20:22:10.418174 14024 net.cpp:150] Setting up layer_128_1_conv_expand
I0205 20:22:10.418186 14024 net.cpp:157] Top shape: 10 512 28 28 (4014080)
I0205 20:22:10.418191 14024 net.cpp:165] Memory required for data: 1182146720
I0205 20:22:10.418198 14024 layer_factory.hpp:77] Creating layer layer_128_1_sum
I0205 20:22:10.418206 14024 net.cpp:100] Creating Layer layer_128_1_sum
I0205 20:22:10.418211 14024 net.cpp:434] layer_128_1_sum <- layer_128_1_conv3
I0205 20:22:10.418217 14024 net.cpp:434] layer_128_1_sum <- layer_128_1_conv_expand
I0205 20:22:10.418225 14024 net.cpp:408] layer_128_1_sum -> layer_128_1_sum
I0205 20:22:10.418246 14024 net.cpp:150] Setting up layer_128_1_sum
I0205 20:22:10.418253 14024 net.cpp:157] Top shape: 10 512 28 28 (4014080)
I0205 20:22:10.418258 14024 net.cpp:165] Memory required for data: 1198203040
I0205 20:22:10.418262 14024 layer_factory.hpp:77] Creating layer layer_128_1_sum_layer_128_1_sum_0_split
I0205 20:22:10.418274 14024 net.cpp:100] Creating Layer layer_128_1_sum_layer_128_1_sum_0_split
I0205 20:22:10.418282 14024 net.cpp:434] layer_128_1_sum_layer_128_1_sum_0_split <- layer_128_1_sum
I0205 20:22:10.418287 14024 net.cpp:408] layer_128_1_sum_layer_128_1_sum_0_split -> layer_128_1_sum_layer_128_1_sum_0_split_0
I0205 20:22:10.418295 14024 net.cpp:408] layer_128_1_sum_layer_128_1_sum_0_split -> layer_128_1_sum_layer_128_1_sum_0_split_1
I0205 20:22:10.418325 14024 net.cpp:150] Setting up layer_128_1_sum_layer_128_1_sum_0_split
I0205 20:22:10.418332 14024 net.cpp:157] Top shape: 10 512 28 28 (4014080)
I0205 20:22:10.418337 14024 net.cpp:157] Top shape: 10 512 28 28 (4014080)
I0205 20:22:10.418342 14024 net.cpp:165] Memory required for data: 1230315680
I0205 20:22:10.418347 14024 layer_factory.hpp:77] Creating layer layer_128_2_bn1
I0205 20:22:10.418354 14024 net.cpp:100] Creating Layer layer_128_2_bn1
I0205 20:22:10.418359 14024 net.cpp:434] layer_128_2_bn1 <- layer_128_1_sum_layer_128_1_sum_0_split_0
I0205 20:22:10.418365 14024 net.cpp:408] layer_128_2_bn1 -> layer_128_2_bn1
I0205 20:22:10.418483 14024 net.cpp:150] Setting up layer_128_2_bn1
I0205 20:22:10.418490 14024 net.cpp:157] Top shape: 10 512 28 28 (4014080)
I0205 20:22:10.418495 14024 net.cpp:165] Memory required for data: 1246372000
I0205 20:22:10.418503 14024 layer_factory.hpp:77] Creating layer layer_128_2_scale1
I0205 20:22:10.418511 14024 net.cpp:100] Creating Layer layer_128_2_scale1
I0205 20:22:10.418520 14024 net.cpp:434] layer_128_2_scale1 <- layer_128_2_bn1
I0205 20:22:10.418532 14024 net.cpp:395] layer_128_2_scale1 -> layer_128_2_bn1 (in-place)
I0205 20:22:10.418563 14024 layer_factory.hpp:77] Creating layer layer_128_2_scale1
I0205 20:22:10.418632 14024 net.cpp:150] Setting up layer_128_2_scale1
I0205 20:22:10.418640 14024 net.cpp:157] Top shape: 10 512 28 28 (4014080)
I0205 20:22:10.418644 14024 net.cpp:165] Memory required for data: 1262428320
I0205 20:22:10.418653 14024 layer_factory.hpp:77] Creating layer layer_128_2_relu1
I0205 20:22:10.418658 14024 net.cpp:100] Creating Layer layer_128_2_relu1
I0205 20:22:10.418663 14024 net.cpp:434] layer_128_2_relu1 <- layer_128_2_bn1
I0205 20:22:10.418670 14024 net.cpp:395] layer_128_2_relu1 -> layer_128_2_bn1 (in-place)
I0205 20:22:10.418782 14024 net.cpp:150] Setting up layer_128_2_relu1
I0205 20:22:10.418790 14024 net.cpp:157] Top shape: 10 512 28 28 (4014080)
I0205 20:22:10.418795 14024 net.cpp:165] Memory required for data: 1278484640
I0205 20:22:10.418800 14024 layer_factory.hpp:77] Creating layer layer_128_2_conv1
I0205 20:22:10.418810 14024 net.cpp:100] Creating Layer layer_128_2_conv1
I0205 20:22:10.418815 14024 net.cpp:434] layer_128_2_conv1 <- layer_128_2_bn1
I0205 20:22:10.418823 14024 net.cpp:408] layer_128_2_conv1 -> layer_128_2_conv1
I0205 20:22:10.420574 14024 net.cpp:150] Setting up layer_128_2_conv1
I0205 20:22:10.420586 14024 net.cpp:157] Top shape: 10 128 28 28 (1003520)
I0205 20:22:10.420593 14024 net.cpp:165] Memory required for data: 1282498720
I0205 20:22:10.420598 14024 layer_factory.hpp:77] Creating layer layer_128_2_bn2
I0205 20:22:10.420606 14024 net.cpp:100] Creating Layer layer_128_2_bn2
I0205 20:22:10.420611 14024 net.cpp:434] layer_128_2_bn2 <- layer_128_2_conv1
I0205 20:22:10.420619 14024 net.cpp:395] layer_128_2_bn2 -> layer_128_2_conv1 (in-place)
I0205 20:22:10.420729 14024 net.cpp:150] Setting up layer_128_2_bn2
I0205 20:22:10.420737 14024 net.cpp:157] Top shape: 10 128 28 28 (1003520)
I0205 20:22:10.420742 14024 net.cpp:165] Memory required for data: 1286512800
I0205 20:22:10.420750 14024 layer_factory.hpp:77] Creating layer layer_128_2_scale2
I0205 20:22:10.420758 14024 net.cpp:100] Creating Layer layer_128_2_scale2
I0205 20:22:10.420763 14024 net.cpp:434] layer_128_2_scale2 <- layer_128_2_conv1
I0205 20:22:10.420769 14024 net.cpp:395] layer_128_2_scale2 -> layer_128_2_conv1 (in-place)
I0205 20:22:10.420800 14024 layer_factory.hpp:77] Creating layer layer_128_2_scale2
I0205 20:22:10.420871 14024 net.cpp:150] Setting up layer_128_2_scale2
I0205 20:22:10.420879 14024 net.cpp:157] Top shape: 10 128 28 28 (1003520)
I0205 20:22:10.420883 14024 net.cpp:165] Memory required for data: 1290526880
I0205 20:22:10.420892 14024 layer_factory.hpp:77] Creating layer layer_128_2_relu2
I0205 20:22:10.420897 14024 net.cpp:100] Creating Layer layer_128_2_relu2
I0205 20:22:10.420902 14024 net.cpp:434] layer_128_2_relu2 <- layer_128_2_conv1
I0205 20:22:10.420908 14024 net.cpp:395] layer_128_2_relu2 -> layer_128_2_conv1 (in-place)
I0205 20:22:10.421016 14024 net.cpp:150] Setting up layer_128_2_relu2
I0205 20:22:10.421025 14024 net.cpp:157] Top shape: 10 128 28 28 (1003520)
I0205 20:22:10.421030 14024 net.cpp:165] Memory required for data: 1294540960
I0205 20:22:10.421035 14024 layer_factory.hpp:77] Creating layer layer_128_2_conv2
I0205 20:22:10.421043 14024 net.cpp:100] Creating Layer layer_128_2_conv2
I0205 20:22:10.421048 14024 net.cpp:434] layer_128_2_conv2 <- layer_128_2_conv1
I0205 20:22:10.421056 14024 net.cpp:408] layer_128_2_conv2 -> layer_128_2_conv2
I0205 20:22:10.424425 14024 net.cpp:150] Setting up layer_128_2_conv2
I0205 20:22:10.424438 14024 net.cpp:157] Top shape: 10 128 28 28 (1003520)
I0205 20:22:10.424444 14024 net.cpp:165] Memory required for data: 1298555040
I0205 20:22:10.424450 14024 layer_factory.hpp:77] Creating layer layer_128_2_bn3
I0205 20:22:10.424458 14024 net.cpp:100] Creating Layer layer_128_2_bn3
I0205 20:22:10.424463 14024 net.cpp:434] layer_128_2_bn3 <- layer_128_2_conv2
I0205 20:22:10.424473 14024 net.cpp:395] layer_128_2_bn3 -> layer_128_2_conv2 (in-place)
I0205 20:22:10.424597 14024 net.cpp:150] Setting up layer_128_2_bn3
I0205 20:22:10.424604 14024 net.cpp:157] Top shape: 10 128 28 28 (1003520)
I0205 20:22:10.424609 14024 net.cpp:165] Memory required for data: 1302569120
I0205 20:22:10.424618 14024 layer_factory.hpp:77] Creating layer layer_128_2_scale3
I0205 20:22:10.424625 14024 net.cpp:100] Creating Layer layer_128_2_scale3
I0205 20:22:10.424630 14024 net.cpp:434] layer_128_2_scale3 <- layer_128_2_conv2
I0205 20:22:10.424638 14024 net.cpp:395] layer_128_2_scale3 -> layer_128_2_conv2 (in-place)
I0205 20:22:10.424669 14024 layer_factory.hpp:77] Creating layer layer_128_2_scale3
I0205 20:22:10.424741 14024 net.cpp:150] Setting up layer_128_2_scale3
I0205 20:22:10.424748 14024 net.cpp:157] Top shape: 10 128 28 28 (1003520)
I0205 20:22:10.424753 14024 net.cpp:165] Memory required for data: 1306583200
I0205 20:22:10.424760 14024 layer_factory.hpp:77] Creating layer layer_128_2_relu3
I0205 20:22:10.424767 14024 net.cpp:100] Creating Layer layer_128_2_relu3
I0205 20:22:10.424772 14024 net.cpp:434] layer_128_2_relu3 <- layer_128_2_conv2
I0205 20:22:10.424778 14024 net.cpp:395] layer_128_2_relu3 -> layer_128_2_conv2 (in-place)
I0205 20:22:10.424890 14024 net.cpp:150] Setting up layer_128_2_relu3
I0205 20:22:10.424898 14024 net.cpp:157] Top shape: 10 128 28 28 (1003520)
I0205 20:22:10.424902 14024 net.cpp:165] Memory required for data: 1310597280
I0205 20:22:10.424907 14024 layer_factory.hpp:77] Creating layer layer_128_2_conv3
I0205 20:22:10.424917 14024 net.cpp:100] Creating Layer layer_128_2_conv3
I0205 20:22:10.424922 14024 net.cpp:434] layer_128_2_conv3 <- layer_128_2_conv2
I0205 20:22:10.424929 14024 net.cpp:408] layer_128_2_conv3 -> layer_128_2_conv3
I0205 20:22:10.426684 14024 net.cpp:150] Setting up layer_128_2_conv3
I0205 20:22:10.426697 14024 net.cpp:157] Top shape: 10 512 28 28 (4014080)
I0205 20:22:10.426702 14024 net.cpp:165] Memory required for data: 1326653600
I0205 20:22:10.426708 14024 layer_factory.hpp:77] Creating layer layer_128_2_sum
I0205 20:22:10.426717 14024 net.cpp:100] Creating Layer layer_128_2_sum
I0205 20:22:10.426722 14024 net.cpp:434] layer_128_2_sum <- layer_128_2_conv3
I0205 20:22:10.426728 14024 net.cpp:434] layer_128_2_sum <- layer_128_1_sum_layer_128_1_sum_0_split_1
I0205 20:22:10.426734 14024 net.cpp:408] layer_128_2_sum -> layer_128_2_sum
I0205 20:22:10.426756 14024 net.cpp:150] Setting up layer_128_2_sum
I0205 20:22:10.426764 14024 net.cpp:157] Top shape: 10 512 28 28 (4014080)
I0205 20:22:10.426769 14024 net.cpp:165] Memory required for data: 1342709920
I0205 20:22:10.426772 14024 layer_factory.hpp:77] Creating layer layer_128_2_sum_layer_128_2_sum_0_split
I0205 20:22:10.426779 14024 net.cpp:100] Creating Layer layer_128_2_sum_layer_128_2_sum_0_split
I0205 20:22:10.426784 14024 net.cpp:434] layer_128_2_sum_layer_128_2_sum_0_split <- layer_128_2_sum
I0205 20:22:10.426790 14024 net.cpp:408] layer_128_2_sum_layer_128_2_sum_0_split -> layer_128_2_sum_layer_128_2_sum_0_split_0
I0205 20:22:10.426797 14024 net.cpp:408] layer_128_2_sum_layer_128_2_sum_0_split -> layer_128_2_sum_layer_128_2_sum_0_split_1
I0205 20:22:10.426828 14024 net.cpp:150] Setting up layer_128_2_sum_layer_128_2_sum_0_split
I0205 20:22:10.426836 14024 net.cpp:157] Top shape: 10 512 28 28 (4014080)
I0205 20:22:10.426841 14024 net.cpp:157] Top shape: 10 512 28 28 (4014080)
I0205 20:22:10.426846 14024 net.cpp:165] Memory required for data: 1374822560
I0205 20:22:10.426851 14024 layer_factory.hpp:77] Creating layer layer_128_3_bn1
I0205 20:22:10.426856 14024 net.cpp:100] Creating Layer layer_128_3_bn1
I0205 20:22:10.426862 14024 net.cpp:434] layer_128_3_bn1 <- layer_128_2_sum_layer_128_2_sum_0_split_0
I0205 20:22:10.426867 14024 net.cpp:408] layer_128_3_bn1 -> layer_128_3_bn1
I0205 20:22:10.426991 14024 net.cpp:150] Setting up layer_128_3_bn1
I0205 20:22:10.426998 14024 net.cpp:157] Top shape: 10 512 28 28 (4014080)
I0205 20:22:10.427003 14024 net.cpp:165] Memory required for data: 1390878880
I0205 20:22:10.427017 14024 layer_factory.hpp:77] Creating layer layer_128_3_scale1
I0205 20:22:10.427031 14024 net.cpp:100] Creating Layer layer_128_3_scale1
I0205 20:22:10.427037 14024 net.cpp:434] layer_128_3_scale1 <- layer_128_3_bn1
I0205 20:22:10.427043 14024 net.cpp:395] layer_128_3_scale1 -> layer_128_3_bn1 (in-place)
I0205 20:22:10.427075 14024 layer_factory.hpp:77] Creating layer layer_128_3_scale1
I0205 20:22:10.427146 14024 net.cpp:150] Setting up layer_128_3_scale1
I0205 20:22:10.427155 14024 net.cpp:157] Top shape: 10 512 28 28 (4014080)
I0205 20:22:10.427158 14024 net.cpp:165] Memory required for data: 1406935200
I0205 20:22:10.427166 14024 layer_factory.hpp:77] Creating layer layer_128_3_relu1
I0205 20:22:10.427172 14024 net.cpp:100] Creating Layer layer_128_3_relu1
I0205 20:22:10.427177 14024 net.cpp:434] layer_128_3_relu1 <- layer_128_3_bn1
I0205 20:22:10.427183 14024 net.cpp:395] layer_128_3_relu1 -> layer_128_3_bn1 (in-place)
I0205 20:22:10.427464 14024 net.cpp:150] Setting up layer_128_3_relu1
I0205 20:22:10.427474 14024 net.cpp:157] Top shape: 10 512 28 28 (4014080)
I0205 20:22:10.427480 14024 net.cpp:165] Memory required for data: 1422991520
I0205 20:22:10.427484 14024 layer_factory.hpp:77] Creating layer layer_128_3_conv1
I0205 20:22:10.427495 14024 net.cpp:100] Creating Layer layer_128_3_conv1
I0205 20:22:10.427500 14024 net.cpp:434] layer_128_3_conv1 <- layer_128_3_bn1
I0205 20:22:10.427510 14024 net.cpp:408] layer_128_3_conv1 -> layer_128_3_conv1
I0205 20:22:10.429774 14024 net.cpp:150] Setting up layer_128_3_conv1
I0205 20:22:10.429788 14024 net.cpp:157] Top shape: 10 128 28 28 (1003520)
I0205 20:22:10.429795 14024 net.cpp:165] Memory required for data: 1427005600
I0205 20:22:10.429801 14024 layer_factory.hpp:77] Creating layer layer_128_3_bn2
I0205 20:22:10.429810 14024 net.cpp:100] Creating Layer layer_128_3_bn2
I0205 20:22:10.429814 14024 net.cpp:434] layer_128_3_bn2 <- layer_128_3_conv1
I0205 20:22:10.429822 14024 net.cpp:395] layer_128_3_bn2 -> layer_128_3_conv1 (in-place)
I0205 20:22:10.429950 14024 net.cpp:150] Setting up layer_128_3_bn2
I0205 20:22:10.429958 14024 net.cpp:157] Top shape: 10 128 28 28 (1003520)
I0205 20:22:10.429963 14024 net.cpp:165] Memory required for data: 1431019680
I0205 20:22:10.429972 14024 layer_factory.hpp:77] Creating layer layer_128_3_scale2
I0205 20:22:10.429980 14024 net.cpp:100] Creating Layer layer_128_3_scale2
I0205 20:22:10.429985 14024 net.cpp:434] layer_128_3_scale2 <- layer_128_3_conv1
I0205 20:22:10.429991 14024 net.cpp:395] layer_128_3_scale2 -> layer_128_3_conv1 (in-place)
I0205 20:22:10.430024 14024 layer_factory.hpp:77] Creating layer layer_128_3_scale2
I0205 20:22:10.430102 14024 net.cpp:150] Setting up layer_128_3_scale2
I0205 20:22:10.430109 14024 net.cpp:157] Top shape: 10 128 28 28 (1003520)
I0205 20:22:10.430114 14024 net.cpp:165] Memory required for data: 1435033760
I0205 20:22:10.430121 14024 layer_factory.hpp:77] Creating layer layer_128_3_relu2
I0205 20:22:10.430130 14024 net.cpp:100] Creating Layer layer_128_3_relu2
I0205 20:22:10.430133 14024 net.cpp:434] layer_128_3_relu2 <- layer_128_3_conv1
I0205 20:22:10.430140 14024 net.cpp:395] layer_128_3_relu2 -> layer_128_3_conv1 (in-place)
I0205 20:22:10.430258 14024 net.cpp:150] Setting up layer_128_3_relu2
I0205 20:22:10.430269 14024 net.cpp:157] Top shape: 10 128 28 28 (1003520)
I0205 20:22:10.430274 14024 net.cpp:165] Memory required for data: 1439047840
I0205 20:22:10.430279 14024 layer_factory.hpp:77] Creating layer layer_128_3_conv2
I0205 20:22:10.430289 14024 net.cpp:100] Creating Layer layer_128_3_conv2
I0205 20:22:10.430294 14024 net.cpp:434] layer_128_3_conv2 <- layer_128_3_conv1
I0205 20:22:10.430300 14024 net.cpp:408] layer_128_3_conv2 -> layer_128_3_conv2
I0205 20:22:10.434181 14024 net.cpp:150] Setting up layer_128_3_conv2
I0205 20:22:10.434196 14024 net.cpp:157] Top shape: 10 128 28 28 (1003520)
I0205 20:22:10.434201 14024 net.cpp:165] Memory required for data: 1443061920
I0205 20:22:10.434208 14024 layer_factory.hpp:77] Creating layer layer_128_3_bn3
I0205 20:22:10.434216 14024 net.cpp:100] Creating Layer layer_128_3_bn3
I0205 20:22:10.434226 14024 net.cpp:434] layer_128_3_bn3 <- layer_128_3_conv2
I0205 20:22:10.434240 14024 net.cpp:395] layer_128_3_bn3 -> layer_128_3_conv2 (in-place)
I0205 20:22:10.434376 14024 net.cpp:150] Setting up layer_128_3_bn3
I0205 20:22:10.434383 14024 net.cpp:157] Top shape: 10 128 28 28 (1003520)
I0205 20:22:10.434388 14024 net.cpp:165] Memory required for data: 1447076000
I0205 20:22:10.434396 14024 layer_factory.hpp:77] Creating layer layer_128_3_scale3
I0205 20:22:10.434406 14024 net.cpp:100] Creating Layer layer_128_3_scale3
I0205 20:22:10.434411 14024 net.cpp:434] layer_128_3_scale3 <- layer_128_3_conv2
I0205 20:22:10.434417 14024 net.cpp:395] layer_128_3_scale3 -> layer_128_3_conv2 (in-place)
I0205 20:22:10.434451 14024 layer_factory.hpp:77] Creating layer layer_128_3_scale3
I0205 20:22:10.434532 14024 net.cpp:150] Setting up layer_128_3_scale3
I0205 20:22:10.434540 14024 net.cpp:157] Top shape: 10 128 28 28 (1003520)
I0205 20:22:10.434545 14024 net.cpp:165] Memory required for data: 1451090080
I0205 20:22:10.434551 14024 layer_factory.hpp:77] Creating layer layer_128_3_relu3
I0205 20:22:10.434558 14024 net.cpp:100] Creating Layer layer_128_3_relu3
I0205 20:22:10.434563 14024 net.cpp:434] layer_128_3_relu3 <- layer_128_3_conv2
I0205 20:22:10.434571 14024 net.cpp:395] layer_128_3_relu3 -> layer_128_3_conv2 (in-place)
I0205 20:22:10.434689 14024 net.cpp:150] Setting up layer_128_3_relu3
I0205 20:22:10.434698 14024 net.cpp:157] Top shape: 10 128 28 28 (1003520)
I0205 20:22:10.434702 14024 net.cpp:165] Memory required for data: 1455104160
I0205 20:22:10.434707 14024 layer_factory.hpp:77] Creating layer layer_128_3_conv3
I0205 20:22:10.434717 14024 net.cpp:100] Creating Layer layer_128_3_conv3
I0205 20:22:10.434722 14024 net.cpp:434] layer_128_3_conv3 <- layer_128_3_conv2
I0205 20:22:10.434731 14024 net.cpp:408] layer_128_3_conv3 -> layer_128_3_conv3
I0205 20:22:10.436569 14024 net.cpp:150] Setting up layer_128_3_conv3
I0205 20:22:10.436583 14024 net.cpp:157] Top shape: 10 512 28 28 (4014080)
I0205 20:22:10.436589 14024 net.cpp:165] Memory required for data: 1471160480
I0205 20:22:10.436594 14024 layer_factory.hpp:77] Creating layer layer_128_3_sum
I0205 20:22:10.436604 14024 net.cpp:100] Creating Layer layer_128_3_sum
I0205 20:22:10.436609 14024 net.cpp:434] layer_128_3_sum <- layer_128_3_conv3
I0205 20:22:10.436614 14024 net.cpp:434] layer_128_3_sum <- layer_128_2_sum_layer_128_2_sum_0_split_1
I0205 20:22:10.436621 14024 net.cpp:408] layer_128_3_sum -> layer_128_3_sum
I0205 20:22:10.436645 14024 net.cpp:150] Setting up layer_128_3_sum
I0205 20:22:10.436652 14024 net.cpp:157] Top shape: 10 512 28 28 (4014080)
I0205 20:22:10.436656 14024 net.cpp:165] Memory required for data: 1487216800
I0205 20:22:10.436661 14024 layer_factory.hpp:77] Creating layer layer_128_3_sum_layer_128_3_sum_0_split
I0205 20:22:10.436668 14024 net.cpp:100] Creating Layer layer_128_3_sum_layer_128_3_sum_0_split
I0205 20:22:10.436673 14024 net.cpp:434] layer_128_3_sum_layer_128_3_sum_0_split <- layer_128_3_sum
I0205 20:22:10.436681 14024 net.cpp:408] layer_128_3_sum_layer_128_3_sum_0_split -> layer_128_3_sum_layer_128_3_sum_0_split_0
I0205 20:22:10.436688 14024 net.cpp:408] layer_128_3_sum_layer_128_3_sum_0_split -> layer_128_3_sum_layer_128_3_sum_0_split_1
I0205 20:22:10.436722 14024 net.cpp:150] Setting up layer_128_3_sum_layer_128_3_sum_0_split
I0205 20:22:10.436728 14024 net.cpp:157] Top shape: 10 512 28 28 (4014080)
I0205 20:22:10.436734 14024 net.cpp:157] Top shape: 10 512 28 28 (4014080)
I0205 20:22:10.436738 14024 net.cpp:165] Memory required for data: 1519329440
I0205 20:22:10.436743 14024 layer_factory.hpp:77] Creating layer layer_128_4_bn1
I0205 20:22:10.436749 14024 net.cpp:100] Creating Layer layer_128_4_bn1
I0205 20:22:10.436754 14024 net.cpp:434] layer_128_4_bn1 <- layer_128_3_sum_layer_128_3_sum_0_split_0
I0205 20:22:10.436760 14024 net.cpp:408] layer_128_4_bn1 -> layer_128_4_bn1
I0205 20:22:10.436895 14024 net.cpp:150] Setting up layer_128_4_bn1
I0205 20:22:10.436902 14024 net.cpp:157] Top shape: 10 512 28 28 (4014080)
I0205 20:22:10.436910 14024 net.cpp:165] Memory required for data: 1535385760
I0205 20:22:10.436925 14024 layer_factory.hpp:77] Creating layer layer_128_4_scale1
I0205 20:22:10.436933 14024 net.cpp:100] Creating Layer layer_128_4_scale1
I0205 20:22:10.436938 14024 net.cpp:434] layer_128_4_scale1 <- layer_128_4_bn1
I0205 20:22:10.436944 14024 net.cpp:395] layer_128_4_scale1 -> layer_128_4_bn1 (in-place)
I0205 20:22:10.436980 14024 layer_factory.hpp:77] Creating layer layer_128_4_scale1
I0205 20:22:10.437058 14024 net.cpp:150] Setting up layer_128_4_scale1
I0205 20:22:10.437067 14024 net.cpp:157] Top shape: 10 512 28 28 (4014080)
I0205 20:22:10.437070 14024 net.cpp:165] Memory required for data: 1551442080
I0205 20:22:10.437077 14024 layer_factory.hpp:77] Creating layer layer_128_4_relu1
I0205 20:22:10.437084 14024 net.cpp:100] Creating Layer layer_128_4_relu1
I0205 20:22:10.437089 14024 net.cpp:434] layer_128_4_relu1 <- layer_128_4_bn1
I0205 20:22:10.437094 14024 net.cpp:395] layer_128_4_relu1 -> layer_128_4_bn1 (in-place)
I0205 20:22:10.437212 14024 net.cpp:150] Setting up layer_128_4_relu1
I0205 20:22:10.437221 14024 net.cpp:157] Top shape: 10 512 28 28 (4014080)
I0205 20:22:10.437225 14024 net.cpp:165] Memory required for data: 1567498400
I0205 20:22:10.437229 14024 layer_factory.hpp:77] Creating layer layer_128_4_conv1
I0205 20:22:10.437239 14024 net.cpp:100] Creating Layer layer_128_4_conv1
I0205 20:22:10.437244 14024 net.cpp:434] layer_128_4_conv1 <- layer_128_4_bn1
I0205 20:22:10.437252 14024 net.cpp:408] layer_128_4_conv1 -> layer_128_4_conv1
I0205 20:22:10.439071 14024 net.cpp:150] Setting up layer_128_4_conv1
I0205 20:22:10.439083 14024 net.cpp:157] Top shape: 10 128 28 28 (1003520)
I0205 20:22:10.439088 14024 net.cpp:165] Memory required for data: 1571512480
I0205 20:22:10.439095 14024 layer_factory.hpp:77] Creating layer layer_128_4_bn2
I0205 20:22:10.439103 14024 net.cpp:100] Creating Layer layer_128_4_bn2
I0205 20:22:10.439108 14024 net.cpp:434] layer_128_4_bn2 <- layer_128_4_conv1
I0205 20:22:10.439115 14024 net.cpp:395] layer_128_4_bn2 -> layer_128_4_conv1 (in-place)
I0205 20:22:10.439249 14024 net.cpp:150] Setting up layer_128_4_bn2
I0205 20:22:10.439257 14024 net.cpp:157] Top shape: 10 128 28 28 (1003520)
I0205 20:22:10.439261 14024 net.cpp:165] Memory required for data: 1575526560
I0205 20:22:10.439270 14024 layer_factory.hpp:77] Creating layer layer_128_4_scale2
I0205 20:22:10.439277 14024 net.cpp:100] Creating Layer layer_128_4_scale2
I0205 20:22:10.439282 14024 net.cpp:434] layer_128_4_scale2 <- layer_128_4_conv1
I0205 20:22:10.439290 14024 net.cpp:395] layer_128_4_scale2 -> layer_128_4_conv1 (in-place)
I0205 20:22:10.439323 14024 layer_factory.hpp:77] Creating layer layer_128_4_scale2
I0205 20:22:10.439402 14024 net.cpp:150] Setting up layer_128_4_scale2
I0205 20:22:10.439409 14024 net.cpp:157] Top shape: 10 128 28 28 (1003520)
I0205 20:22:10.439414 14024 net.cpp:165] Memory required for data: 1579540640
I0205 20:22:10.439421 14024 layer_factory.hpp:77] Creating layer layer_128_4_relu2
I0205 20:22:10.439427 14024 net.cpp:100] Creating Layer layer_128_4_relu2
I0205 20:22:10.439432 14024 net.cpp:434] layer_128_4_relu2 <- layer_128_4_conv1
I0205 20:22:10.439438 14024 net.cpp:395] layer_128_4_relu2 -> layer_128_4_conv1 (in-place)
I0205 20:22:10.439558 14024 net.cpp:150] Setting up layer_128_4_relu2
I0205 20:22:10.439566 14024 net.cpp:157] Top shape: 10 128 28 28 (1003520)
I0205 20:22:10.439570 14024 net.cpp:165] Memory required for data: 1583554720
I0205 20:22:10.439575 14024 layer_factory.hpp:77] Creating layer layer_128_4_conv2
I0205 20:22:10.439585 14024 net.cpp:100] Creating Layer layer_128_4_conv2
I0205 20:22:10.439592 14024 net.cpp:434] layer_128_4_conv2 <- layer_128_4_conv1
I0205 20:22:10.439601 14024 net.cpp:408] layer_128_4_conv2 -> layer_128_4_conv2
I0205 20:22:10.443035 14024 net.cpp:150] Setting up layer_128_4_conv2
I0205 20:22:10.443048 14024 net.cpp:157] Top shape: 10 128 28 28 (1003520)
I0205 20:22:10.443053 14024 net.cpp:165] Memory required for data: 1587568800
I0205 20:22:10.443078 14024 layer_factory.hpp:77] Creating layer layer_128_4_bn3
I0205 20:22:10.443092 14024 net.cpp:100] Creating Layer layer_128_4_bn3
I0205 20:22:10.443099 14024 net.cpp:434] layer_128_4_bn3 <- layer_128_4_conv2
I0205 20:22:10.443105 14024 net.cpp:395] layer_128_4_bn3 -> layer_128_4_conv2 (in-place)
I0205 20:22:10.443239 14024 net.cpp:150] Setting up layer_128_4_bn3
I0205 20:22:10.443246 14024 net.cpp:157] Top shape: 10 128 28 28 (1003520)
I0205 20:22:10.443251 14024 net.cpp:165] Memory required for data: 1591582880
I0205 20:22:10.443260 14024 layer_factory.hpp:77] Creating layer layer_128_4_scale3
I0205 20:22:10.443267 14024 net.cpp:100] Creating Layer layer_128_4_scale3
I0205 20:22:10.443272 14024 net.cpp:434] layer_128_4_scale3 <- layer_128_4_conv2
I0205 20:22:10.443279 14024 net.cpp:395] layer_128_4_scale3 -> layer_128_4_conv2 (in-place)
I0205 20:22:10.443313 14024 layer_factory.hpp:77] Creating layer layer_128_4_scale3
I0205 20:22:10.443393 14024 net.cpp:150] Setting up layer_128_4_scale3
I0205 20:22:10.443400 14024 net.cpp:157] Top shape: 10 128 28 28 (1003520)
I0205 20:22:10.443405 14024 net.cpp:165] Memory required for data: 1595596960
I0205 20:22:10.443413 14024 layer_factory.hpp:77] Creating layer layer_128_4_relu3
I0205 20:22:10.443418 14024 net.cpp:100] Creating Layer layer_128_4_relu3
I0205 20:22:10.443423 14024 net.cpp:434] layer_128_4_relu3 <- layer_128_4_conv2
I0205 20:22:10.443430 14024 net.cpp:395] layer_128_4_relu3 -> layer_128_4_conv2 (in-place)
I0205 20:22:10.443552 14024 net.cpp:150] Setting up layer_128_4_relu3
I0205 20:22:10.443560 14024 net.cpp:157] Top shape: 10 128 28 28 (1003520)
I0205 20:22:10.443565 14024 net.cpp:165] Memory required for data: 1599611040
I0205 20:22:10.443569 14024 layer_factory.hpp:77] Creating layer layer_128_4_conv3
I0205 20:22:10.443579 14024 net.cpp:100] Creating Layer layer_128_4_conv3
I0205 20:22:10.443584 14024 net.cpp:434] layer_128_4_conv3 <- layer_128_4_conv2
I0205 20:22:10.443593 14024 net.cpp:408] layer_128_4_conv3 -> layer_128_4_conv3
I0205 20:22:10.445416 14024 net.cpp:150] Setting up layer_128_4_conv3
I0205 20:22:10.445428 14024 net.cpp:157] Top shape: 10 512 28 28 (4014080)
I0205 20:22:10.445433 14024 net.cpp:165] Memory required for data: 1615667360
I0205 20:22:10.445441 14024 layer_factory.hpp:77] Creating layer layer_128_4_sum
I0205 20:22:10.445447 14024 net.cpp:100] Creating Layer layer_128_4_sum
I0205 20:22:10.445452 14024 net.cpp:434] layer_128_4_sum <- layer_128_4_conv3
I0205 20:22:10.445459 14024 net.cpp:434] layer_128_4_sum <- layer_128_3_sum_layer_128_3_sum_0_split_1
I0205 20:22:10.445466 14024 net.cpp:408] layer_128_4_sum -> layer_128_4_sum
I0205 20:22:10.445492 14024 net.cpp:150] Setting up layer_128_4_sum
I0205 20:22:10.445499 14024 net.cpp:157] Top shape: 10 512 28 28 (4014080)
I0205 20:22:10.445503 14024 net.cpp:165] Memory required for data: 1631723680
I0205 20:22:10.445508 14024 layer_factory.hpp:77] Creating layer layer_256_1_bn1
I0205 20:22:10.445514 14024 net.cpp:100] Creating Layer layer_256_1_bn1
I0205 20:22:10.445519 14024 net.cpp:434] layer_256_1_bn1 <- layer_128_4_sum
I0205 20:22:10.445526 14024 net.cpp:408] layer_256_1_bn1 -> layer_256_1_bn1
I0205 20:22:10.445663 14024 net.cpp:150] Setting up layer_256_1_bn1
I0205 20:22:10.445670 14024 net.cpp:157] Top shape: 10 512 28 28 (4014080)
I0205 20:22:10.445675 14024 net.cpp:165] Memory required for data: 1647780000
I0205 20:22:10.445683 14024 layer_factory.hpp:77] Creating layer layer_256_1_scale1
I0205 20:22:10.445693 14024 net.cpp:100] Creating Layer layer_256_1_scale1
I0205 20:22:10.445698 14024 net.cpp:434] layer_256_1_scale1 <- layer_256_1_bn1
I0205 20:22:10.445703 14024 net.cpp:395] layer_256_1_scale1 -> layer_256_1_bn1 (in-place)
I0205 20:22:10.445739 14024 layer_factory.hpp:77] Creating layer layer_256_1_scale1
I0205 20:22:10.445818 14024 net.cpp:150] Setting up layer_256_1_scale1
I0205 20:22:10.445825 14024 net.cpp:157] Top shape: 10 512 28 28 (4014080)
I0205 20:22:10.445830 14024 net.cpp:165] Memory required for data: 1663836320
I0205 20:22:10.445840 14024 layer_factory.hpp:77] Creating layer layer_256_1_relu1
I0205 20:22:10.445854 14024 net.cpp:100] Creating Layer layer_256_1_relu1
I0205 20:22:10.445860 14024 net.cpp:434] layer_256_1_relu1 <- layer_256_1_bn1
I0205 20:22:10.445866 14024 net.cpp:395] layer_256_1_relu1 -> layer_256_1_bn1 (in-place)
I0205 20:22:10.446158 14024 net.cpp:150] Setting up layer_256_1_relu1
I0205 20:22:10.446168 14024 net.cpp:157] Top shape: 10 512 28 28 (4014080)
I0205 20:22:10.446174 14024 net.cpp:165] Memory required for data: 1679892640
I0205 20:22:10.446178 14024 layer_factory.hpp:77] Creating layer layer_256_1_bn1_layer_256_1_relu1_0_split
I0205 20:22:10.446187 14024 net.cpp:100] Creating Layer layer_256_1_bn1_layer_256_1_relu1_0_split
I0205 20:22:10.446192 14024 net.cpp:434] layer_256_1_bn1_layer_256_1_relu1_0_split <- layer_256_1_bn1
I0205 20:22:10.446198 14024 net.cpp:408] layer_256_1_bn1_layer_256_1_relu1_0_split -> layer_256_1_bn1_layer_256_1_relu1_0_split_0
I0205 20:22:10.446205 14024 net.cpp:408] layer_256_1_bn1_layer_256_1_relu1_0_split -> layer_256_1_bn1_layer_256_1_relu1_0_split_1
I0205 20:22:10.446240 14024 net.cpp:150] Setting up layer_256_1_bn1_layer_256_1_relu1_0_split
I0205 20:22:10.446247 14024 net.cpp:157] Top shape: 10 512 28 28 (4014080)
I0205 20:22:10.446254 14024 net.cpp:157] Top shape: 10 512 28 28 (4014080)
I0205 20:22:10.446257 14024 net.cpp:165] Memory required for data: 1712005280
I0205 20:22:10.446262 14024 layer_factory.hpp:77] Creating layer layer_256_1_conv1
I0205 20:22:10.446272 14024 net.cpp:100] Creating Layer layer_256_1_conv1
I0205 20:22:10.446277 14024 net.cpp:434] layer_256_1_conv1 <- layer_256_1_bn1_layer_256_1_relu1_0_split_0
I0205 20:22:10.446285 14024 net.cpp:408] layer_256_1_conv1 -> layer_256_1_conv1
I0205 20:22:10.449283 14024 net.cpp:150] Setting up layer_256_1_conv1
I0205 20:22:10.449296 14024 net.cpp:157] Top shape: 10 256 28 28 (2007040)
I0205 20:22:10.449301 14024 net.cpp:165] Memory required for data: 1720033440
I0205 20:22:10.449307 14024 layer_factory.hpp:77] Creating layer layer_256_1_bn2
I0205 20:22:10.449316 14024 net.cpp:100] Creating Layer layer_256_1_bn2
I0205 20:22:10.449321 14024 net.cpp:434] layer_256_1_bn2 <- layer_256_1_conv1
I0205 20:22:10.449327 14024 net.cpp:395] layer_256_1_bn2 -> layer_256_1_conv1 (in-place)
I0205 20:22:10.449461 14024 net.cpp:150] Setting up layer_256_1_bn2
I0205 20:22:10.449470 14024 net.cpp:157] Top shape: 10 256 28 28 (2007040)
I0205 20:22:10.449473 14024 net.cpp:165] Memory required for data: 1728061600
I0205 20:22:10.449482 14024 layer_factory.hpp:77] Creating layer layer_256_1_scale2
I0205 20:22:10.449491 14024 net.cpp:100] Creating Layer layer_256_1_scale2
I0205 20:22:10.449496 14024 net.cpp:434] layer_256_1_scale2 <- layer_256_1_conv1
I0205 20:22:10.449502 14024 net.cpp:395] layer_256_1_scale2 -> layer_256_1_conv1 (in-place)
I0205 20:22:10.449537 14024 layer_factory.hpp:77] Creating layer layer_256_1_scale2
I0205 20:22:10.449620 14024 net.cpp:150] Setting up layer_256_1_scale2
I0205 20:22:10.449626 14024 net.cpp:157] Top shape: 10 256 28 28 (2007040)
I0205 20:22:10.449631 14024 net.cpp:165] Memory required for data: 1736089760
I0205 20:22:10.449638 14024 layer_factory.hpp:77] Creating layer layer_256_1_relu2
I0205 20:22:10.449645 14024 net.cpp:100] Creating Layer layer_256_1_relu2
I0205 20:22:10.449650 14024 net.cpp:434] layer_256_1_relu2 <- layer_256_1_conv1
I0205 20:22:10.449654 14024 net.cpp:395] layer_256_1_relu2 -> layer_256_1_conv1 (in-place)
I0205 20:22:10.449774 14024 net.cpp:150] Setting up layer_256_1_relu2
I0205 20:22:10.449784 14024 net.cpp:157] Top shape: 10 256 28 28 (2007040)
I0205 20:22:10.449787 14024 net.cpp:165] Memory required for data: 1744117920
I0205 20:22:10.449792 14024 layer_factory.hpp:77] Creating layer layer_256_1_conv2
I0205 20:22:10.449802 14024 net.cpp:100] Creating Layer layer_256_1_conv2
I0205 20:22:10.449807 14024 net.cpp:434] layer_256_1_conv2 <- layer_256_1_conv1
I0205 20:22:10.449816 14024 net.cpp:408] layer_256_1_conv2 -> layer_256_1_conv2
I0205 20:22:10.461454 14024 net.cpp:150] Setting up layer_256_1_conv2
I0205 20:22:10.461475 14024 net.cpp:157] Top shape: 10 256 14 14 (501760)
I0205 20:22:10.461486 14024 net.cpp:165] Memory required for data: 1746124960
I0205 20:22:10.461494 14024 layer_factory.hpp:77] Creating layer layer_256_1_bn3
I0205 20:22:10.461504 14024 net.cpp:100] Creating Layer layer_256_1_bn3
I0205 20:22:10.461510 14024 net.cpp:434] layer_256_1_bn3 <- layer_256_1_conv2
I0205 20:22:10.461518 14024 net.cpp:395] layer_256_1_bn3 -> layer_256_1_conv2 (in-place)
I0205 20:22:10.461652 14024 net.cpp:150] Setting up layer_256_1_bn3
I0205 20:22:10.461660 14024 net.cpp:157] Top shape: 10 256 14 14 (501760)
I0205 20:22:10.461665 14024 net.cpp:165] Memory required for data: 1748132000
I0205 20:22:10.461673 14024 layer_factory.hpp:77] Creating layer layer_256_1_scale3
I0205 20:22:10.461681 14024 net.cpp:100] Creating Layer layer_256_1_scale3
I0205 20:22:10.461686 14024 net.cpp:434] layer_256_1_scale3 <- layer_256_1_conv2
I0205 20:22:10.461694 14024 net.cpp:395] layer_256_1_scale3 -> layer_256_1_conv2 (in-place)
I0205 20:22:10.461730 14024 layer_factory.hpp:77] Creating layer layer_256_1_scale3
I0205 20:22:10.461812 14024 net.cpp:150] Setting up layer_256_1_scale3
I0205 20:22:10.461819 14024 net.cpp:157] Top shape: 10 256 14 14 (501760)
I0205 20:22:10.461823 14024 net.cpp:165] Memory required for data: 1750139040
I0205 20:22:10.461830 14024 layer_factory.hpp:77] Creating layer layer_256_1_relu3
I0205 20:22:10.461838 14024 net.cpp:100] Creating Layer layer_256_1_relu3
I0205 20:22:10.461843 14024 net.cpp:434] layer_256_1_relu3 <- layer_256_1_conv2
I0205 20:22:10.461848 14024 net.cpp:395] layer_256_1_relu3 -> layer_256_1_conv2 (in-place)
I0205 20:22:10.461968 14024 net.cpp:150] Setting up layer_256_1_relu3
I0205 20:22:10.461977 14024 net.cpp:157] Top shape: 10 256 14 14 (501760)
I0205 20:22:10.461982 14024 net.cpp:165] Memory required for data: 1752146080
I0205 20:22:10.461985 14024 layer_factory.hpp:77] Creating layer layer_256_1_conv3
I0205 20:22:10.461995 14024 net.cpp:100] Creating Layer layer_256_1_conv3
I0205 20:22:10.462002 14024 net.cpp:434] layer_256_1_conv3 <- layer_256_1_conv2
I0205 20:22:10.462009 14024 net.cpp:408] layer_256_1_conv3 -> layer_256_1_conv3
I0205 20:22:10.467756 14024 net.cpp:150] Setting up layer_256_1_conv3
I0205 20:22:10.467774 14024 net.cpp:157] Top shape: 10 1024 14 14 (2007040)
I0205 20:22:10.467780 14024 net.cpp:165] Memory required for data: 1760174240
I0205 20:22:10.467787 14024 layer_factory.hpp:77] Creating layer layer_256_1_conv_expand
I0205 20:22:10.467798 14024 net.cpp:100] Creating Layer layer_256_1_conv_expand
I0205 20:22:10.467804 14024 net.cpp:434] layer_256_1_conv_expand <- layer_256_1_bn1_layer_256_1_relu1_0_split_1
I0205 20:22:10.467813 14024 net.cpp:408] layer_256_1_conv_expand -> layer_256_1_conv_expand
I0205 20:22:10.478232 14024 net.cpp:150] Setting up layer_256_1_conv_expand
I0205 20:22:10.478248 14024 net.cpp:157] Top shape: 10 1024 14 14 (2007040)
I0205 20:22:10.478253 14024 net.cpp:165] Memory required for data: 1768202400
I0205 20:22:10.478261 14024 layer_factory.hpp:77] Creating layer layer_256_1_sum
I0205 20:22:10.478269 14024 net.cpp:100] Creating Layer layer_256_1_sum
I0205 20:22:10.478277 14024 net.cpp:434] layer_256_1_sum <- layer_256_1_conv3
I0205 20:22:10.478283 14024 net.cpp:434] layer_256_1_sum <- layer_256_1_conv_expand
I0205 20:22:10.478289 14024 net.cpp:408] layer_256_1_sum -> layer_256_1_sum
I0205 20:22:10.478313 14024 net.cpp:150] Setting up layer_256_1_sum
I0205 20:22:10.478320 14024 net.cpp:157] Top shape: 10 1024 14 14 (2007040)
I0205 20:22:10.478325 14024 net.cpp:165] Memory required for data: 1776230560
I0205 20:22:10.478329 14024 layer_factory.hpp:77] Creating layer layer_256_1_sum_layer_256_1_sum_0_split
I0205 20:22:10.478338 14024 net.cpp:100] Creating Layer layer_256_1_sum_layer_256_1_sum_0_split
I0205 20:22:10.478343 14024 net.cpp:434] layer_256_1_sum_layer_256_1_sum_0_split <- layer_256_1_sum
I0205 20:22:10.478349 14024 net.cpp:408] layer_256_1_sum_layer_256_1_sum_0_split -> layer_256_1_sum_layer_256_1_sum_0_split_0
I0205 20:22:10.478361 14024 net.cpp:408] layer_256_1_sum_layer_256_1_sum_0_split -> layer_256_1_sum_layer_256_1_sum_0_split_1
I0205 20:22:10.478399 14024 net.cpp:150] Setting up layer_256_1_sum_layer_256_1_sum_0_split
I0205 20:22:10.478407 14024 net.cpp:157] Top shape: 10 1024 14 14 (2007040)
I0205 20:22:10.478412 14024 net.cpp:157] Top shape: 10 1024 14 14 (2007040)
I0205 20:22:10.478417 14024 net.cpp:165] Memory required for data: 1792286880
I0205 20:22:10.478421 14024 layer_factory.hpp:77] Creating layer layer_256_2_bn1
I0205 20:22:10.478430 14024 net.cpp:100] Creating Layer layer_256_2_bn1
I0205 20:22:10.478435 14024 net.cpp:434] layer_256_2_bn1 <- layer_256_1_sum_layer_256_1_sum_0_split_0
I0205 20:22:10.478440 14024 net.cpp:408] layer_256_2_bn1 -> layer_256_2_bn1
I0205 20:22:10.478586 14024 net.cpp:150] Setting up layer_256_2_bn1
I0205 20:22:10.478595 14024 net.cpp:157] Top shape: 10 1024 14 14 (2007040)
I0205 20:22:10.478598 14024 net.cpp:165] Memory required for data: 1800315040
I0205 20:22:10.478607 14024 layer_factory.hpp:77] Creating layer layer_256_2_scale1
I0205 20:22:10.478615 14024 net.cpp:100] Creating Layer layer_256_2_scale1
I0205 20:22:10.478621 14024 net.cpp:434] layer_256_2_scale1 <- layer_256_2_bn1
I0205 20:22:10.478627 14024 net.cpp:395] layer_256_2_scale1 -> layer_256_2_bn1 (in-place)
I0205 20:22:10.478662 14024 layer_factory.hpp:77] Creating layer layer_256_2_scale1
I0205 20:22:10.478746 14024 net.cpp:150] Setting up layer_256_2_scale1
I0205 20:22:10.478754 14024 net.cpp:157] Top shape: 10 1024 14 14 (2007040)
I0205 20:22:10.478760 14024 net.cpp:165] Memory required for data: 1808343200
I0205 20:22:10.478766 14024 layer_factory.hpp:77] Creating layer layer_256_2_relu1
I0205 20:22:10.478772 14024 net.cpp:100] Creating Layer layer_256_2_relu1
I0205 20:22:10.478777 14024 net.cpp:434] layer_256_2_relu1 <- layer_256_2_bn1
I0205 20:22:10.478785 14024 net.cpp:395] layer_256_2_relu1 -> layer_256_2_bn1 (in-place)
I0205 20:22:10.479079 14024 net.cpp:150] Setting up layer_256_2_relu1
I0205 20:22:10.479089 14024 net.cpp:157] Top shape: 10 1024 14 14 (2007040)
I0205 20:22:10.479094 14024 net.cpp:165] Memory required for data: 1816371360
I0205 20:22:10.479099 14024 layer_factory.hpp:77] Creating layer layer_256_2_conv1
I0205 20:22:10.479111 14024 net.cpp:100] Creating Layer layer_256_2_conv1
I0205 20:22:10.479117 14024 net.cpp:434] layer_256_2_conv1 <- layer_256_2_bn1
I0205 20:22:10.479126 14024 net.cpp:408] layer_256_2_conv1 -> layer_256_2_conv1
I0205 20:22:10.484479 14024 net.cpp:150] Setting up layer_256_2_conv1
I0205 20:22:10.484493 14024 net.cpp:157] Top shape: 10 256 14 14 (501760)
I0205 20:22:10.484498 14024 net.cpp:165] Memory required for data: 1818378400
I0205 20:22:10.484503 14024 layer_factory.hpp:77] Creating layer layer_256_2_bn2
I0205 20:22:10.484511 14024 net.cpp:100] Creating Layer layer_256_2_bn2
I0205 20:22:10.484516 14024 net.cpp:434] layer_256_2_bn2 <- layer_256_2_conv1
I0205 20:22:10.484522 14024 net.cpp:395] layer_256_2_bn2 -> layer_256_2_conv1 (in-place)
I0205 20:22:10.484695 14024 net.cpp:150] Setting up layer_256_2_bn2
I0205 20:22:10.484704 14024 net.cpp:157] Top shape: 10 256 14 14 (501760)
I0205 20:22:10.484709 14024 net.cpp:165] Memory required for data: 1820385440
I0205 20:22:10.484717 14024 layer_factory.hpp:77] Creating layer layer_256_2_scale2
I0205 20:22:10.484724 14024 net.cpp:100] Creating Layer layer_256_2_scale2
I0205 20:22:10.484729 14024 net.cpp:434] layer_256_2_scale2 <- layer_256_2_conv1
I0205 20:22:10.484735 14024 net.cpp:395] layer_256_2_scale2 -> layer_256_2_conv1 (in-place)
I0205 20:22:10.484771 14024 layer_factory.hpp:77] Creating layer layer_256_2_scale2
I0205 20:22:10.484869 14024 net.cpp:150] Setting up layer_256_2_scale2
I0205 20:22:10.484880 14024 net.cpp:157] Top shape: 10 256 14 14 (501760)
I0205 20:22:10.484884 14024 net.cpp:165] Memory required for data: 1822392480
I0205 20:22:10.484892 14024 layer_factory.hpp:77] Creating layer layer_256_2_relu2
I0205 20:22:10.484910 14024 net.cpp:100] Creating Layer layer_256_2_relu2
I0205 20:22:10.484916 14024 net.cpp:434] layer_256_2_relu2 <- layer_256_2_conv1
I0205 20:22:10.484925 14024 net.cpp:395] layer_256_2_relu2 -> layer_256_2_conv1 (in-place)
I0205 20:22:10.485085 14024 net.cpp:150] Setting up layer_256_2_relu2
I0205 20:22:10.485096 14024 net.cpp:157] Top shape: 10 256 14 14 (501760)
I0205 20:22:10.485100 14024 net.cpp:165] Memory required for data: 1824399520
I0205 20:22:10.485105 14024 layer_factory.hpp:77] Creating layer layer_256_2_conv2
I0205 20:22:10.485117 14024 net.cpp:100] Creating Layer layer_256_2_conv2
I0205 20:22:10.485122 14024 net.cpp:434] layer_256_2_conv2 <- layer_256_2_conv1
I0205 20:22:10.485131 14024 net.cpp:408] layer_256_2_conv2 -> layer_256_2_conv2
I0205 20:22:10.496804 14024 net.cpp:150] Setting up layer_256_2_conv2
I0205 20:22:10.496841 14024 net.cpp:157] Top shape: 10 256 14 14 (501760)
I0205 20:22:10.496847 14024 net.cpp:165] Memory required for data: 1826406560
I0205 20:22:10.496855 14024 layer_factory.hpp:77] Creating layer layer_256_2_bn3
I0205 20:22:10.496877 14024 net.cpp:100] Creating Layer layer_256_2_bn3
I0205 20:22:10.496883 14024 net.cpp:434] layer_256_2_bn3 <- layer_256_2_conv2
I0205 20:22:10.496891 14024 net.cpp:395] layer_256_2_bn3 -> layer_256_2_conv2 (in-place)
I0205 20:22:10.497035 14024 net.cpp:150] Setting up layer_256_2_bn3
I0205 20:22:10.497043 14024 net.cpp:157] Top shape: 10 256 14 14 (501760)
I0205 20:22:10.497048 14024 net.cpp:165] Memory required for data: 1828413600
I0205 20:22:10.497056 14024 layer_factory.hpp:77] Creating layer layer_256_2_scale3
I0205 20:22:10.497066 14024 net.cpp:100] Creating Layer layer_256_2_scale3
I0205 20:22:10.497071 14024 net.cpp:434] layer_256_2_scale3 <- layer_256_2_conv2
I0205 20:22:10.497077 14024 net.cpp:395] layer_256_2_scale3 -> layer_256_2_conv2 (in-place)
I0205 20:22:10.497117 14024 layer_factory.hpp:77] Creating layer layer_256_2_scale3
I0205 20:22:10.497200 14024 net.cpp:150] Setting up layer_256_2_scale3
I0205 20:22:10.497206 14024 net.cpp:157] Top shape: 10 256 14 14 (501760)
I0205 20:22:10.497210 14024 net.cpp:165] Memory required for data: 1830420640
I0205 20:22:10.497217 14024 layer_factory.hpp:77] Creating layer layer_256_2_relu3
I0205 20:22:10.497225 14024 net.cpp:100] Creating Layer layer_256_2_relu3
I0205 20:22:10.497229 14024 net.cpp:434] layer_256_2_relu3 <- layer_256_2_conv2
I0205 20:22:10.497236 14024 net.cpp:395] layer_256_2_relu3 -> layer_256_2_conv2 (in-place)
I0205 20:22:10.497357 14024 net.cpp:150] Setting up layer_256_2_relu3
I0205 20:22:10.497365 14024 net.cpp:157] Top shape: 10 256 14 14 (501760)
I0205 20:22:10.497370 14024 net.cpp:165] Memory required for data: 1832427680
I0205 20:22:10.497375 14024 layer_factory.hpp:77] Creating layer layer_256_2_conv3
I0205 20:22:10.497385 14024 net.cpp:100] Creating Layer layer_256_2_conv3
I0205 20:22:10.497390 14024 net.cpp:434] layer_256_2_conv3 <- layer_256_2_conv2
I0205 20:22:10.497398 14024 net.cpp:408] layer_256_2_conv3 -> layer_256_2_conv3
I0205 20:22:10.503314 14024 net.cpp:150] Setting up layer_256_2_conv3
I0205 20:22:10.503329 14024 net.cpp:157] Top shape: 10 1024 14 14 (2007040)
I0205 20:22:10.503334 14024 net.cpp:165] Memory required for data: 1840455840
I0205 20:22:10.503341 14024 layer_factory.hpp:77] Creating layer layer_256_2_sum
I0205 20:22:10.503352 14024 net.cpp:100] Creating Layer layer_256_2_sum
I0205 20:22:10.503357 14024 net.cpp:434] layer_256_2_sum <- layer_256_2_conv3
I0205 20:22:10.503365 14024 net.cpp:434] layer_256_2_sum <- layer_256_1_sum_layer_256_1_sum_0_split_1
I0205 20:22:10.503371 14024 net.cpp:408] layer_256_2_sum -> layer_256_2_sum
I0205 20:22:10.503396 14024 net.cpp:150] Setting up layer_256_2_sum
I0205 20:22:10.503404 14024 net.cpp:157] Top shape: 10 1024 14 14 (2007040)
I0205 20:22:10.503408 14024 net.cpp:165] Memory required for data: 1848484000
I0205 20:22:10.503412 14024 layer_factory.hpp:77] Creating layer layer_256_2_sum_layer_256_2_sum_0_split
I0205 20:22:10.503419 14024 net.cpp:100] Creating Layer layer_256_2_sum_layer_256_2_sum_0_split
I0205 20:22:10.503424 14024 net.cpp:434] layer_256_2_sum_layer_256_2_sum_0_split <- layer_256_2_sum
I0205 20:22:10.503437 14024 net.cpp:408] layer_256_2_sum_layer_256_2_sum_0_split -> layer_256_2_sum_layer_256_2_sum_0_split_0
I0205 20:22:10.503451 14024 net.cpp:408] layer_256_2_sum_layer_256_2_sum_0_split -> layer_256_2_sum_layer_256_2_sum_0_split_1
I0205 20:22:10.503484 14024 net.cpp:150] Setting up layer_256_2_sum_layer_256_2_sum_0_split
I0205 20:22:10.503491 14024 net.cpp:157] Top shape: 10 1024 14 14 (2007040)
I0205 20:22:10.503497 14024 net.cpp:157] Top shape: 10 1024 14 14 (2007040)
I0205 20:22:10.503501 14024 net.cpp:165] Memory required for data: 1864540320
I0205 20:22:10.503506 14024 layer_factory.hpp:77] Creating layer layer_256_3_bn1
I0205 20:22:10.503512 14024 net.cpp:100] Creating Layer layer_256_3_bn1
I0205 20:22:10.503517 14024 net.cpp:434] layer_256_3_bn1 <- layer_256_2_sum_layer_256_2_sum_0_split_0
I0205 20:22:10.503523 14024 net.cpp:408] layer_256_3_bn1 -> layer_256_3_bn1
I0205 20:22:10.503666 14024 net.cpp:150] Setting up layer_256_3_bn1
I0205 20:22:10.503674 14024 net.cpp:157] Top shape: 10 1024 14 14 (2007040)
I0205 20:22:10.503679 14024 net.cpp:165] Memory required for data: 1872568480
I0205 20:22:10.503687 14024 layer_factory.hpp:77] Creating layer layer_256_3_scale1
I0205 20:22:10.503696 14024 net.cpp:100] Creating Layer layer_256_3_scale1
I0205 20:22:10.503701 14024 net.cpp:434] layer_256_3_scale1 <- layer_256_3_bn1
I0205 20:22:10.503707 14024 net.cpp:395] layer_256_3_scale1 -> layer_256_3_bn1 (in-place)
I0205 20:22:10.503741 14024 layer_factory.hpp:77] Creating layer layer_256_3_scale1
I0205 20:22:10.503834 14024 net.cpp:150] Setting up layer_256_3_scale1
I0205 20:22:10.503842 14024 net.cpp:157] Top shape: 10 1024 14 14 (2007040)
I0205 20:22:10.503846 14024 net.cpp:165] Memory required for data: 1880596640
I0205 20:22:10.503854 14024 layer_factory.hpp:77] Creating layer layer_256_3_relu1
I0205 20:22:10.503860 14024 net.cpp:100] Creating Layer layer_256_3_relu1
I0205 20:22:10.503865 14024 net.cpp:434] layer_256_3_relu1 <- layer_256_3_bn1
I0205 20:22:10.503872 14024 net.cpp:395] layer_256_3_relu1 -> layer_256_3_bn1 (in-place)
I0205 20:22:10.504190 14024 net.cpp:150] Setting up layer_256_3_relu1
I0205 20:22:10.504200 14024 net.cpp:157] Top shape: 10 1024 14 14 (2007040)
I0205 20:22:10.504205 14024 net.cpp:165] Memory required for data: 1888624800
I0205 20:22:10.504210 14024 layer_factory.hpp:77] Creating layer layer_256_3_conv1
I0205 20:22:10.504220 14024 net.cpp:100] Creating Layer layer_256_3_conv1
I0205 20:22:10.504226 14024 net.cpp:434] layer_256_3_conv1 <- layer_256_3_bn1
I0205 20:22:10.504235 14024 net.cpp:408] layer_256_3_conv1 -> layer_256_3_conv1
I0205 20:22:10.509399 14024 net.cpp:150] Setting up layer_256_3_conv1
I0205 20:22:10.509410 14024 net.cpp:157] Top shape: 10 256 14 14 (501760)
I0205 20:22:10.509415 14024 net.cpp:165] Memory required for data: 1890631840
I0205 20:22:10.509423 14024 layer_factory.hpp:77] Creating layer layer_256_3_bn2
I0205 20:22:10.509430 14024 net.cpp:100] Creating Layer layer_256_3_bn2
I0205 20:22:10.509435 14024 net.cpp:434] layer_256_3_bn2 <- layer_256_3_conv1
I0205 20:22:10.509441 14024 net.cpp:395] layer_256_3_bn2 -> layer_256_3_conv1 (in-place)
I0205 20:22:10.509577 14024 net.cpp:150] Setting up layer_256_3_bn2
I0205 20:22:10.509584 14024 net.cpp:157] Top shape: 10 256 14 14 (501760)
I0205 20:22:10.509589 14024 net.cpp:165] Memory required for data: 1892638880
I0205 20:22:10.509598 14024 layer_factory.hpp:77] Creating layer layer_256_3_scale2
I0205 20:22:10.509606 14024 net.cpp:100] Creating Layer layer_256_3_scale2
I0205 20:22:10.509611 14024 net.cpp:434] layer_256_3_scale2 <- layer_256_3_conv1
I0205 20:22:10.509618 14024 net.cpp:395] layer_256_3_scale2 -> layer_256_3_conv1 (in-place)
I0205 20:22:10.509654 14024 layer_factory.hpp:77] Creating layer layer_256_3_scale2
I0205 20:22:10.509737 14024 net.cpp:150] Setting up layer_256_3_scale2
I0205 20:22:10.509744 14024 net.cpp:157] Top shape: 10 256 14 14 (501760)
I0205 20:22:10.509748 14024 net.cpp:165] Memory required for data: 1894645920
I0205 20:22:10.509755 14024 layer_factory.hpp:77] Creating layer layer_256_3_relu2
I0205 20:22:10.509768 14024 net.cpp:100] Creating Layer layer_256_3_relu2
I0205 20:22:10.509780 14024 net.cpp:434] layer_256_3_relu2 <- layer_256_3_conv1
I0205 20:22:10.509786 14024 net.cpp:395] layer_256_3_relu2 -> layer_256_3_conv1 (in-place)
I0205 20:22:10.510092 14024 net.cpp:150] Setting up layer_256_3_relu2
I0205 20:22:10.510105 14024 net.cpp:157] Top shape: 10 256 14 14 (501760)
I0205 20:22:10.510112 14024 net.cpp:165] Memory required for data: 1896652960
I0205 20:22:10.510115 14024 layer_factory.hpp:77] Creating layer layer_256_3_conv2
I0205 20:22:10.510125 14024 net.cpp:100] Creating Layer layer_256_3_conv2
I0205 20:22:10.510131 14024 net.cpp:434] layer_256_3_conv2 <- layer_256_3_conv1
I0205 20:22:10.510138 14024 net.cpp:408] layer_256_3_conv2 -> layer_256_3_conv2
I0205 20:22:10.521968 14024 net.cpp:150] Setting up layer_256_3_conv2
I0205 20:22:10.521984 14024 net.cpp:157] Top shape: 10 256 14 14 (501760)
I0205 20:22:10.521989 14024 net.cpp:165] Memory required for data: 1898660000
I0205 20:22:10.521996 14024 layer_factory.hpp:77] Creating layer layer_256_3_bn3
I0205 20:22:10.522006 14024 net.cpp:100] Creating Layer layer_256_3_bn3
I0205 20:22:10.522011 14024 net.cpp:434] layer_256_3_bn3 <- layer_256_3_conv2
I0205 20:22:10.522018 14024 net.cpp:395] layer_256_3_bn3 -> layer_256_3_conv2 (in-place)
I0205 20:22:10.522161 14024 net.cpp:150] Setting up layer_256_3_bn3
I0205 20:22:10.522168 14024 net.cpp:157] Top shape: 10 256 14 14 (501760)
I0205 20:22:10.522172 14024 net.cpp:165] Memory required for data: 1900667040
I0205 20:22:10.522181 14024 layer_factory.hpp:77] Creating layer layer_256_3_scale3
I0205 20:22:10.522189 14024 net.cpp:100] Creating Layer layer_256_3_scale3
I0205 20:22:10.522194 14024 net.cpp:434] layer_256_3_scale3 <- layer_256_3_conv2
I0205 20:22:10.522202 14024 net.cpp:395] layer_256_3_scale3 -> layer_256_3_conv2 (in-place)
I0205 20:22:10.522238 14024 layer_factory.hpp:77] Creating layer layer_256_3_scale3
I0205 20:22:10.522325 14024 net.cpp:150] Setting up layer_256_3_scale3
I0205 20:22:10.522333 14024 net.cpp:157] Top shape: 10 256 14 14 (501760)
I0205 20:22:10.522338 14024 net.cpp:165] Memory required for data: 1902674080
I0205 20:22:10.522346 14024 layer_factory.hpp:77] Creating layer layer_256_3_relu3
I0205 20:22:10.522352 14024 net.cpp:100] Creating Layer layer_256_3_relu3
I0205 20:22:10.522357 14024 net.cpp:434] layer_256_3_relu3 <- layer_256_3_conv2
I0205 20:22:10.522362 14024 net.cpp:395] layer_256_3_relu3 -> layer_256_3_conv2 (in-place)
I0205 20:22:10.522485 14024 net.cpp:150] Setting up layer_256_3_relu3
I0205 20:22:10.522495 14024 net.cpp:157] Top shape: 10 256 14 14 (501760)
I0205 20:22:10.522498 14024 net.cpp:165] Memory required for data: 1904681120
I0205 20:22:10.522503 14024 layer_factory.hpp:77] Creating layer layer_256_3_conv3
I0205 20:22:10.522513 14024 net.cpp:100] Creating Layer layer_256_3_conv3
I0205 20:22:10.522518 14024 net.cpp:434] layer_256_3_conv3 <- layer_256_3_conv2
I0205 20:22:10.522526 14024 net.cpp:408] layer_256_3_conv3 -> layer_256_3_conv3
I0205 20:22:10.528434 14024 net.cpp:150] Setting up layer_256_3_conv3
I0205 20:22:10.528453 14024 net.cpp:157] Top shape: 10 1024 14 14 (2007040)
I0205 20:22:10.528458 14024 net.cpp:165] Memory required for data: 1912709280
I0205 20:22:10.528465 14024 layer_factory.hpp:77] Creating layer layer_256_3_sum
I0205 20:22:10.528475 14024 net.cpp:100] Creating Layer layer_256_3_sum
I0205 20:22:10.528481 14024 net.cpp:434] layer_256_3_sum <- layer_256_3_conv3
I0205 20:22:10.528486 14024 net.cpp:434] layer_256_3_sum <- layer_256_2_sum_layer_256_2_sum_0_split_1
I0205 20:22:10.528493 14024 net.cpp:408] layer_256_3_sum -> layer_256_3_sum
I0205 20:22:10.528522 14024 net.cpp:150] Setting up layer_256_3_sum
I0205 20:22:10.528532 14024 net.cpp:157] Top shape: 10 1024 14 14 (2007040)
I0205 20:22:10.528537 14024 net.cpp:165] Memory required for data: 1920737440
I0205 20:22:10.528542 14024 layer_factory.hpp:77] Creating layer layer_256_3_sum_layer_256_3_sum_0_split
I0205 20:22:10.528548 14024 net.cpp:100] Creating Layer layer_256_3_sum_layer_256_3_sum_0_split
I0205 20:22:10.528558 14024 net.cpp:434] layer_256_3_sum_layer_256_3_sum_0_split <- layer_256_3_sum
I0205 20:22:10.528571 14024 net.cpp:408] layer_256_3_sum_layer_256_3_sum_0_split -> layer_256_3_sum_layer_256_3_sum_0_split_0
I0205 20:22:10.528579 14024 net.cpp:408] layer_256_3_sum_layer_256_3_sum_0_split -> layer_256_3_sum_layer_256_3_sum_0_split_1
I0205 20:22:10.528614 14024 net.cpp:150] Setting up layer_256_3_sum_layer_256_3_sum_0_split
I0205 20:22:10.528620 14024 net.cpp:157] Top shape: 10 1024 14 14 (2007040)
I0205 20:22:10.528626 14024 net.cpp:157] Top shape: 10 1024 14 14 (2007040)
I0205 20:22:10.528630 14024 net.cpp:165] Memory required for data: 1936793760
I0205 20:22:10.528635 14024 layer_factory.hpp:77] Creating layer layer_256_4_bn1
I0205 20:22:10.528645 14024 net.cpp:100] Creating Layer layer_256_4_bn1
I0205 20:22:10.528650 14024 net.cpp:434] layer_256_4_bn1 <- layer_256_3_sum_layer_256_3_sum_0_split_0
I0205 20:22:10.528656 14024 net.cpp:408] layer_256_4_bn1 -> layer_256_4_bn1
I0205 20:22:10.528807 14024 net.cpp:150] Setting up layer_256_4_bn1
I0205 20:22:10.528815 14024 net.cpp:157] Top shape: 10 1024 14 14 (2007040)
I0205 20:22:10.528820 14024 net.cpp:165] Memory required for data: 1944821920
I0205 20:22:10.528828 14024 layer_factory.hpp:77] Creating layer layer_256_4_scale1
I0205 20:22:10.528837 14024 net.cpp:100] Creating Layer layer_256_4_scale1
I0205 20:22:10.528842 14024 net.cpp:434] layer_256_4_scale1 <- layer_256_4_bn1
I0205 20:22:10.528848 14024 net.cpp:395] layer_256_4_scale1 -> layer_256_4_bn1 (in-place)
I0205 20:22:10.528884 14024 layer_factory.hpp:77] Creating layer layer_256_4_scale1
I0205 20:22:10.528975 14024 net.cpp:150] Setting up layer_256_4_scale1
I0205 20:22:10.528981 14024 net.cpp:157] Top shape: 10 1024 14 14 (2007040)
I0205 20:22:10.528986 14024 net.cpp:165] Memory required for data: 1952850080
I0205 20:22:10.528993 14024 layer_factory.hpp:77] Creating layer layer_256_4_relu1
I0205 20:22:10.529000 14024 net.cpp:100] Creating Layer layer_256_4_relu1
I0205 20:22:10.529006 14024 net.cpp:434] layer_256_4_relu1 <- layer_256_4_bn1
I0205 20:22:10.529011 14024 net.cpp:395] layer_256_4_relu1 -> layer_256_4_bn1 (in-place)
I0205 20:22:10.529132 14024 net.cpp:150] Setting up layer_256_4_relu1
I0205 20:22:10.529140 14024 net.cpp:157] Top shape: 10 1024 14 14 (2007040)
I0205 20:22:10.529145 14024 net.cpp:165] Memory required for data: 1960878240
I0205 20:22:10.529150 14024 layer_factory.hpp:77] Creating layer layer_256_4_conv1
I0205 20:22:10.529161 14024 net.cpp:100] Creating Layer layer_256_4_conv1
I0205 20:22:10.529166 14024 net.cpp:434] layer_256_4_conv1 <- layer_256_4_bn1
I0205 20:22:10.529173 14024 net.cpp:408] layer_256_4_conv1 -> layer_256_4_conv1
I0205 20:22:10.534533 14024 net.cpp:150] Setting up layer_256_4_conv1
I0205 20:22:10.534548 14024 net.cpp:157] Top shape: 10 256 14 14 (501760)
I0205 20:22:10.534554 14024 net.cpp:165] Memory required for data: 1962885280
I0205 20:22:10.534560 14024 layer_factory.hpp:77] Creating layer layer_256_4_bn2
I0205 20:22:10.534567 14024 net.cpp:100] Creating Layer layer_256_4_bn2
I0205 20:22:10.534572 14024 net.cpp:434] layer_256_4_bn2 <- layer_256_4_conv1
I0205 20:22:10.534579 14024 net.cpp:395] layer_256_4_bn2 -> layer_256_4_conv1 (in-place)
I0205 20:22:10.534720 14024 net.cpp:150] Setting up layer_256_4_bn2
I0205 20:22:10.534729 14024 net.cpp:157] Top shape: 10 256 14 14 (501760)
I0205 20:22:10.534732 14024 net.cpp:165] Memory required for data: 1964892320
I0205 20:22:10.534741 14024 layer_factory.hpp:77] Creating layer layer_256_4_scale2
I0205 20:22:10.534749 14024 net.cpp:100] Creating Layer layer_256_4_scale2
I0205 20:22:10.534754 14024 net.cpp:434] layer_256_4_scale2 <- layer_256_4_conv1
I0205 20:22:10.534760 14024 net.cpp:395] layer_256_4_scale2 -> layer_256_4_conv1 (in-place)
I0205 20:22:10.534797 14024 layer_factory.hpp:77] Creating layer layer_256_4_scale2
I0205 20:22:10.534880 14024 net.cpp:150] Setting up layer_256_4_scale2
I0205 20:22:10.534888 14024 net.cpp:157] Top shape: 10 256 14 14 (501760)
I0205 20:22:10.534893 14024 net.cpp:165] Memory required for data: 1966899360
I0205 20:22:10.534904 14024 layer_factory.hpp:77] Creating layer layer_256_4_relu2
I0205 20:22:10.534915 14024 net.cpp:100] Creating Layer layer_256_4_relu2
I0205 20:22:10.534921 14024 net.cpp:434] layer_256_4_relu2 <- layer_256_4_conv1
I0205 20:22:10.534929 14024 net.cpp:395] layer_256_4_relu2 -> layer_256_4_conv1 (in-place)
I0205 20:22:10.535048 14024 net.cpp:150] Setting up layer_256_4_relu2
I0205 20:22:10.535056 14024 net.cpp:157] Top shape: 10 256 14 14 (501760)
I0205 20:22:10.535060 14024 net.cpp:165] Memory required for data: 1968906400
I0205 20:22:10.535065 14024 layer_factory.hpp:77] Creating layer layer_256_4_conv2
I0205 20:22:10.535075 14024 net.cpp:100] Creating Layer layer_256_4_conv2
I0205 20:22:10.535080 14024 net.cpp:434] layer_256_4_conv2 <- layer_256_4_conv1
I0205 20:22:10.535089 14024 net.cpp:408] layer_256_4_conv2 -> layer_256_4_conv2
I0205 20:22:10.546924 14024 net.cpp:150] Setting up layer_256_4_conv2
I0205 20:22:10.546941 14024 net.cpp:157] Top shape: 10 256 14 14 (501760)
I0205 20:22:10.546947 14024 net.cpp:165] Memory required for data: 1970913440
I0205 20:22:10.546954 14024 layer_factory.hpp:77] Creating layer layer_256_4_bn3
I0205 20:22:10.546962 14024 net.cpp:100] Creating Layer layer_256_4_bn3
I0205 20:22:10.546967 14024 net.cpp:434] layer_256_4_bn3 <- layer_256_4_conv2
I0205 20:22:10.546974 14024 net.cpp:395] layer_256_4_bn3 -> layer_256_4_conv2 (in-place)
I0205 20:22:10.547118 14024 net.cpp:150] Setting up layer_256_4_bn3
I0205 20:22:10.547127 14024 net.cpp:157] Top shape: 10 256 14 14 (501760)
I0205 20:22:10.547132 14024 net.cpp:165] Memory required for data: 1972920480
I0205 20:22:10.547139 14024 layer_factory.hpp:77] Creating layer layer_256_4_scale3
I0205 20:22:10.547147 14024 net.cpp:100] Creating Layer layer_256_4_scale3
I0205 20:22:10.547152 14024 net.cpp:434] layer_256_4_scale3 <- layer_256_4_conv2
I0205 20:22:10.547158 14024 net.cpp:395] layer_256_4_scale3 -> layer_256_4_conv2 (in-place)
I0205 20:22:10.547196 14024 layer_factory.hpp:77] Creating layer layer_256_4_scale3
I0205 20:22:10.547282 14024 net.cpp:150] Setting up layer_256_4_scale3
I0205 20:22:10.547291 14024 net.cpp:157] Top shape: 10 256 14 14 (501760)
I0205 20:22:10.547294 14024 net.cpp:165] Memory required for data: 1974927520
I0205 20:22:10.547302 14024 layer_factory.hpp:77] Creating layer layer_256_4_relu3
I0205 20:22:10.547308 14024 net.cpp:100] Creating Layer layer_256_4_relu3
I0205 20:22:10.547313 14024 net.cpp:434] layer_256_4_relu3 <- layer_256_4_conv2
I0205 20:22:10.547320 14024 net.cpp:395] layer_256_4_relu3 -> layer_256_4_conv2 (in-place)
I0205 20:22:10.547444 14024 net.cpp:150] Setting up layer_256_4_relu3
I0205 20:22:10.547452 14024 net.cpp:157] Top shape: 10 256 14 14 (501760)
I0205 20:22:10.547456 14024 net.cpp:165] Memory required for data: 1976934560
I0205 20:22:10.547461 14024 layer_factory.hpp:77] Creating layer layer_256_4_conv3
I0205 20:22:10.547472 14024 net.cpp:100] Creating Layer layer_256_4_conv3
I0205 20:22:10.547477 14024 net.cpp:434] layer_256_4_conv3 <- layer_256_4_conv2
I0205 20:22:10.547485 14024 net.cpp:408] layer_256_4_conv3 -> layer_256_4_conv3
I0205 20:22:10.553290 14024 net.cpp:150] Setting up layer_256_4_conv3
I0205 20:22:10.553304 14024 net.cpp:157] Top shape: 10 1024 14 14 (2007040)
I0205 20:22:10.553309 14024 net.cpp:165] Memory required for data: 1984962720
I0205 20:22:10.553316 14024 layer_factory.hpp:77] Creating layer layer_256_4_sum
I0205 20:22:10.553325 14024 net.cpp:100] Creating Layer layer_256_4_sum
I0205 20:22:10.553331 14024 net.cpp:434] layer_256_4_sum <- layer_256_4_conv3
I0205 20:22:10.553339 14024 net.cpp:434] layer_256_4_sum <- layer_256_3_sum_layer_256_3_sum_0_split_1
I0205 20:22:10.553344 14024 net.cpp:408] layer_256_4_sum -> layer_256_4_sum
I0205 20:22:10.553371 14024 net.cpp:150] Setting up layer_256_4_sum
I0205 20:22:10.553378 14024 net.cpp:157] Top shape: 10 1024 14 14 (2007040)
I0205 20:22:10.553382 14024 net.cpp:165] Memory required for data: 1992990880
I0205 20:22:10.553387 14024 layer_factory.hpp:77] Creating layer layer_256_4_sum_layer_256_4_sum_0_split
I0205 20:22:10.553398 14024 net.cpp:100] Creating Layer layer_256_4_sum_layer_256_4_sum_0_split
I0205 20:22:10.553411 14024 net.cpp:434] layer_256_4_sum_layer_256_4_sum_0_split <- layer_256_4_sum
I0205 20:22:10.553417 14024 net.cpp:408] layer_256_4_sum_layer_256_4_sum_0_split -> layer_256_4_sum_layer_256_4_sum_0_split_0
I0205 20:22:10.553426 14024 net.cpp:408] layer_256_4_sum_layer_256_4_sum_0_split -> layer_256_4_sum_layer_256_4_sum_0_split_1
I0205 20:22:10.553458 14024 net.cpp:150] Setting up layer_256_4_sum_layer_256_4_sum_0_split
I0205 20:22:10.553467 14024 net.cpp:157] Top shape: 10 1024 14 14 (2007040)
I0205 20:22:10.553472 14024 net.cpp:157] Top shape: 10 1024 14 14 (2007040)
I0205 20:22:10.553477 14024 net.cpp:165] Memory required for data: 2009047200
I0205 20:22:10.553481 14024 layer_factory.hpp:77] Creating layer layer_256_5_bn1
I0205 20:22:10.553488 14024 net.cpp:100] Creating Layer layer_256_5_bn1
I0205 20:22:10.553493 14024 net.cpp:434] layer_256_5_bn1 <- layer_256_4_sum_layer_256_4_sum_0_split_0
I0205 20:22:10.553498 14024 net.cpp:408] layer_256_5_bn1 -> layer_256_5_bn1
I0205 20:22:10.553650 14024 net.cpp:150] Setting up layer_256_5_bn1
I0205 20:22:10.553658 14024 net.cpp:157] Top shape: 10 1024 14 14 (2007040)
I0205 20:22:10.553663 14024 net.cpp:165] Memory required for data: 2017075360
I0205 20:22:10.553671 14024 layer_factory.hpp:77] Creating layer layer_256_5_scale1
I0205 20:22:10.553683 14024 net.cpp:100] Creating Layer layer_256_5_scale1
I0205 20:22:10.553688 14024 net.cpp:434] layer_256_5_scale1 <- layer_256_5_bn1
I0205 20:22:10.553694 14024 net.cpp:395] layer_256_5_scale1 -> layer_256_5_bn1 (in-place)
I0205 20:22:10.553730 14024 layer_factory.hpp:77] Creating layer layer_256_5_scale1
I0205 20:22:10.553822 14024 net.cpp:150] Setting up layer_256_5_scale1
I0205 20:22:10.553829 14024 net.cpp:157] Top shape: 10 1024 14 14 (2007040)
I0205 20:22:10.553833 14024 net.cpp:165] Memory required for data: 2025103520
I0205 20:22:10.553840 14024 layer_factory.hpp:77] Creating layer layer_256_5_relu1
I0205 20:22:10.553846 14024 net.cpp:100] Creating Layer layer_256_5_relu1
I0205 20:22:10.553851 14024 net.cpp:434] layer_256_5_relu1 <- layer_256_5_bn1
I0205 20:22:10.553858 14024 net.cpp:395] layer_256_5_relu1 -> layer_256_5_bn1 (in-place)
I0205 20:22:10.554174 14024 net.cpp:150] Setting up layer_256_5_relu1
I0205 20:22:10.554185 14024 net.cpp:157] Top shape: 10 1024 14 14 (2007040)
I0205 20:22:10.554190 14024 net.cpp:165] Memory required for data: 2033131680
I0205 20:22:10.554195 14024 layer_factory.hpp:77] Creating layer layer_256_5_conv1
I0205 20:22:10.554205 14024 net.cpp:100] Creating Layer layer_256_5_conv1
I0205 20:22:10.554211 14024 net.cpp:434] layer_256_5_conv1 <- layer_256_5_bn1
I0205 20:22:10.554219 14024 net.cpp:408] layer_256_5_conv1 -> layer_256_5_conv1
I0205 20:22:10.559424 14024 net.cpp:150] Setting up layer_256_5_conv1
I0205 20:22:10.559437 14024 net.cpp:157] Top shape: 10 256 14 14 (501760)
I0205 20:22:10.559442 14024 net.cpp:165] Memory required for data: 2035138720
I0205 20:22:10.559449 14024 layer_factory.hpp:77] Creating layer layer_256_5_bn2
I0205 20:22:10.559458 14024 net.cpp:100] Creating Layer layer_256_5_bn2
I0205 20:22:10.559463 14024 net.cpp:434] layer_256_5_bn2 <- layer_256_5_conv1
I0205 20:22:10.559470 14024 net.cpp:395] layer_256_5_bn2 -> layer_256_5_conv1 (in-place)
I0205 20:22:10.559613 14024 net.cpp:150] Setting up layer_256_5_bn2
I0205 20:22:10.559622 14024 net.cpp:157] Top shape: 10 256 14 14 (501760)
I0205 20:22:10.559625 14024 net.cpp:165] Memory required for data: 2037145760
I0205 20:22:10.559634 14024 layer_factory.hpp:77] Creating layer layer_256_5_scale2
I0205 20:22:10.559643 14024 net.cpp:100] Creating Layer layer_256_5_scale2
I0205 20:22:10.559648 14024 net.cpp:434] layer_256_5_scale2 <- layer_256_5_conv1
I0205 20:22:10.559654 14024 net.cpp:395] layer_256_5_scale2 -> layer_256_5_conv1 (in-place)
I0205 20:22:10.559690 14024 layer_factory.hpp:77] Creating layer layer_256_5_scale2
I0205 20:22:10.559782 14024 net.cpp:150] Setting up layer_256_5_scale2
I0205 20:22:10.559794 14024 net.cpp:157] Top shape: 10 256 14 14 (501760)
I0205 20:22:10.559805 14024 net.cpp:165] Memory required for data: 2039152800
I0205 20:22:10.559813 14024 layer_factory.hpp:77] Creating layer layer_256_5_relu2
I0205 20:22:10.559819 14024 net.cpp:100] Creating Layer layer_256_5_relu2
I0205 20:22:10.559824 14024 net.cpp:434] layer_256_5_relu2 <- layer_256_5_conv1
I0205 20:22:10.559833 14024 net.cpp:395] layer_256_5_relu2 -> layer_256_5_conv1 (in-place)
I0205 20:22:10.560158 14024 net.cpp:150] Setting up layer_256_5_relu2
I0205 20:22:10.560168 14024 net.cpp:157] Top shape: 10 256 14 14 (501760)
I0205 20:22:10.560173 14024 net.cpp:165] Memory required for data: 2041159840
I0205 20:22:10.560178 14024 layer_factory.hpp:77] Creating layer layer_256_5_conv2
I0205 20:22:10.560187 14024 net.cpp:100] Creating Layer layer_256_5_conv2
I0205 20:22:10.560194 14024 net.cpp:434] layer_256_5_conv2 <- layer_256_5_conv1
I0205 20:22:10.560201 14024 net.cpp:408] layer_256_5_conv2 -> layer_256_5_conv2
I0205 20:22:10.572175 14024 net.cpp:150] Setting up layer_256_5_conv2
I0205 20:22:10.572212 14024 net.cpp:157] Top shape: 10 256 14 14 (501760)
I0205 20:22:10.572218 14024 net.cpp:165] Memory required for data: 2043166880
I0205 20:22:10.572226 14024 layer_factory.hpp:77] Creating layer layer_256_5_bn3
I0205 20:22:10.572237 14024 net.cpp:100] Creating Layer layer_256_5_bn3
I0205 20:22:10.572243 14024 net.cpp:434] layer_256_5_bn3 <- layer_256_5_conv2
I0205 20:22:10.572263 14024 net.cpp:395] layer_256_5_bn3 -> layer_256_5_conv2 (in-place)
I0205 20:22:10.572417 14024 net.cpp:150] Setting up layer_256_5_bn3
I0205 20:22:10.572425 14024 net.cpp:157] Top shape: 10 256 14 14 (501760)
I0205 20:22:10.572430 14024 net.cpp:165] Memory required for data: 2045173920
I0205 20:22:10.572438 14024 layer_factory.hpp:77] Creating layer layer_256_5_scale3
I0205 20:22:10.572448 14024 net.cpp:100] Creating Layer layer_256_5_scale3
I0205 20:22:10.572453 14024 net.cpp:434] layer_256_5_scale3 <- layer_256_5_conv2
I0205 20:22:10.572459 14024 net.cpp:395] layer_256_5_scale3 -> layer_256_5_conv2 (in-place)
I0205 20:22:10.572497 14024 layer_factory.hpp:77] Creating layer layer_256_5_scale3
I0205 20:22:10.572585 14024 net.cpp:150] Setting up layer_256_5_scale3
I0205 20:22:10.572594 14024 net.cpp:157] Top shape: 10 256 14 14 (501760)
I0205 20:22:10.572599 14024 net.cpp:165] Memory required for data: 2047180960
I0205 20:22:10.572607 14024 layer_factory.hpp:77] Creating layer layer_256_5_relu3
I0205 20:22:10.572613 14024 net.cpp:100] Creating Layer layer_256_5_relu3
I0205 20:22:10.572618 14024 net.cpp:434] layer_256_5_relu3 <- layer_256_5_conv2
I0205 20:22:10.572623 14024 net.cpp:395] layer_256_5_relu3 -> layer_256_5_conv2 (in-place)
I0205 20:22:10.572748 14024 net.cpp:150] Setting up layer_256_5_relu3
I0205 20:22:10.572757 14024 net.cpp:157] Top shape: 10 256 14 14 (501760)
I0205 20:22:10.572762 14024 net.cpp:165] Memory required for data: 2049188000
I0205 20:22:10.572767 14024 layer_factory.hpp:77] Creating layer layer_256_5_conv3
I0205 20:22:10.572777 14024 net.cpp:100] Creating Layer layer_256_5_conv3
I0205 20:22:10.572783 14024 net.cpp:434] layer_256_5_conv3 <- layer_256_5_conv2
I0205 20:22:10.572790 14024 net.cpp:408] layer_256_5_conv3 -> layer_256_5_conv3
I0205 20:22:10.578748 14024 net.cpp:150] Setting up layer_256_5_conv3
I0205 20:22:10.578763 14024 net.cpp:157] Top shape: 10 1024 14 14 (2007040)
I0205 20:22:10.578768 14024 net.cpp:165] Memory required for data: 2057216160
I0205 20:22:10.578775 14024 layer_factory.hpp:77] Creating layer layer_256_5_sum
I0205 20:22:10.578784 14024 net.cpp:100] Creating Layer layer_256_5_sum
I0205 20:22:10.578790 14024 net.cpp:434] layer_256_5_sum <- layer_256_5_conv3
I0205 20:22:10.578796 14024 net.cpp:434] layer_256_5_sum <- layer_256_4_sum_layer_256_4_sum_0_split_1
I0205 20:22:10.578804 14024 net.cpp:408] layer_256_5_sum -> layer_256_5_sum
I0205 20:22:10.578830 14024 net.cpp:150] Setting up layer_256_5_sum
I0205 20:22:10.578837 14024 net.cpp:157] Top shape: 10 1024 14 14 (2007040)
I0205 20:22:10.578848 14024 net.cpp:165] Memory required for data: 2065244320
I0205 20:22:10.578860 14024 layer_factory.hpp:77] Creating layer layer_256_5_sum_layer_256_5_sum_0_split
I0205 20:22:10.578867 14024 net.cpp:100] Creating Layer layer_256_5_sum_layer_256_5_sum_0_split
I0205 20:22:10.578872 14024 net.cpp:434] layer_256_5_sum_layer_256_5_sum_0_split <- layer_256_5_sum
I0205 20:22:10.578878 14024 net.cpp:408] layer_256_5_sum_layer_256_5_sum_0_split -> layer_256_5_sum_layer_256_5_sum_0_split_0
I0205 20:22:10.578886 14024 net.cpp:408] layer_256_5_sum_layer_256_5_sum_0_split -> layer_256_5_sum_layer_256_5_sum_0_split_1
I0205 20:22:10.578920 14024 net.cpp:150] Setting up layer_256_5_sum_layer_256_5_sum_0_split
I0205 20:22:10.578927 14024 net.cpp:157] Top shape: 10 1024 14 14 (2007040)
I0205 20:22:10.578933 14024 net.cpp:157] Top shape: 10 1024 14 14 (2007040)
I0205 20:22:10.578938 14024 net.cpp:165] Memory required for data: 2081300640
I0205 20:22:10.578943 14024 layer_factory.hpp:77] Creating layer layer_256_6_bn1
I0205 20:22:10.578949 14024 net.cpp:100] Creating Layer layer_256_6_bn1
I0205 20:22:10.578955 14024 net.cpp:434] layer_256_6_bn1 <- layer_256_5_sum_layer_256_5_sum_0_split_0
I0205 20:22:10.578960 14024 net.cpp:408] layer_256_6_bn1 -> layer_256_6_bn1
I0205 20:22:10.579114 14024 net.cpp:150] Setting up layer_256_6_bn1
I0205 20:22:10.579123 14024 net.cpp:157] Top shape: 10 1024 14 14 (2007040)
I0205 20:22:10.579126 14024 net.cpp:165] Memory required for data: 2089328800
I0205 20:22:10.579135 14024 layer_factory.hpp:77] Creating layer layer_256_6_scale1
I0205 20:22:10.579144 14024 net.cpp:100] Creating Layer layer_256_6_scale1
I0205 20:22:10.579149 14024 net.cpp:434] layer_256_6_scale1 <- layer_256_6_bn1
I0205 20:22:10.579155 14024 net.cpp:395] layer_256_6_scale1 -> layer_256_6_bn1 (in-place)
I0205 20:22:10.579191 14024 layer_factory.hpp:77] Creating layer layer_256_6_scale1
I0205 20:22:10.579285 14024 net.cpp:150] Setting up layer_256_6_scale1
I0205 20:22:10.579293 14024 net.cpp:157] Top shape: 10 1024 14 14 (2007040)
I0205 20:22:10.579298 14024 net.cpp:165] Memory required for data: 2097356960
I0205 20:22:10.579305 14024 layer_factory.hpp:77] Creating layer layer_256_6_relu1
I0205 20:22:10.579313 14024 net.cpp:100] Creating Layer layer_256_6_relu1
I0205 20:22:10.579319 14024 net.cpp:434] layer_256_6_relu1 <- layer_256_6_bn1
I0205 20:22:10.579324 14024 net.cpp:395] layer_256_6_relu1 -> layer_256_6_bn1 (in-place)
I0205 20:22:10.579447 14024 net.cpp:150] Setting up layer_256_6_relu1
I0205 20:22:10.579455 14024 net.cpp:157] Top shape: 10 1024 14 14 (2007040)
I0205 20:22:10.579460 14024 net.cpp:165] Memory required for data: 2105385120
I0205 20:22:10.579464 14024 layer_factory.hpp:77] Creating layer layer_256_6_conv1
I0205 20:22:10.579475 14024 net.cpp:100] Creating Layer layer_256_6_conv1
I0205 20:22:10.579480 14024 net.cpp:434] layer_256_6_conv1 <- layer_256_6_bn1
I0205 20:22:10.579488 14024 net.cpp:408] layer_256_6_conv1 -> layer_256_6_conv1
I0205 20:22:10.584933 14024 net.cpp:150] Setting up layer_256_6_conv1
I0205 20:22:10.584949 14024 net.cpp:157] Top shape: 10 256 14 14 (501760)
I0205 20:22:10.584954 14024 net.cpp:165] Memory required for data: 2107392160
I0205 20:22:10.584959 14024 layer_factory.hpp:77] Creating layer layer_256_6_bn2
I0205 20:22:10.584967 14024 net.cpp:100] Creating Layer layer_256_6_bn2
I0205 20:22:10.584972 14024 net.cpp:434] layer_256_6_bn2 <- layer_256_6_conv1
I0205 20:22:10.584978 14024 net.cpp:395] layer_256_6_bn2 -> layer_256_6_conv1 (in-place)
I0205 20:22:10.585180 14024 net.cpp:150] Setting up layer_256_6_bn2
I0205 20:22:10.585191 14024 net.cpp:157] Top shape: 10 256 14 14 (501760)
I0205 20:22:10.585196 14024 net.cpp:165] Memory required for data: 2109399200
I0205 20:22:10.585206 14024 layer_factory.hpp:77] Creating layer layer_256_6_scale2
I0205 20:22:10.585214 14024 net.cpp:100] Creating Layer layer_256_6_scale2
I0205 20:22:10.585219 14024 net.cpp:434] layer_256_6_scale2 <- layer_256_6_conv1
I0205 20:22:10.585225 14024 net.cpp:395] layer_256_6_scale2 -> layer_256_6_conv1 (in-place)
I0205 20:22:10.585274 14024 layer_factory.hpp:77] Creating layer layer_256_6_scale2
I0205 20:22:10.585376 14024 net.cpp:150] Setting up layer_256_6_scale2
I0205 20:22:10.585384 14024 net.cpp:157] Top shape: 10 256 14 14 (501760)
I0205 20:22:10.585389 14024 net.cpp:165] Memory required for data: 2111406240
I0205 20:22:10.585397 14024 layer_factory.hpp:77] Creating layer layer_256_6_relu2
I0205 20:22:10.585407 14024 net.cpp:100] Creating Layer layer_256_6_relu2
I0205 20:22:10.585412 14024 net.cpp:434] layer_256_6_relu2 <- layer_256_6_conv1
I0205 20:22:10.585417 14024 net.cpp:395] layer_256_6_relu2 -> layer_256_6_conv1 (in-place)
I0205 20:22:10.585544 14024 net.cpp:150] Setting up layer_256_6_relu2
I0205 20:22:10.585553 14024 net.cpp:157] Top shape: 10 256 14 14 (501760)
I0205 20:22:10.585558 14024 net.cpp:165] Memory required for data: 2113413280
I0205 20:22:10.585562 14024 layer_factory.hpp:77] Creating layer layer_256_6_conv2
I0205 20:22:10.585574 14024 net.cpp:100] Creating Layer layer_256_6_conv2
I0205 20:22:10.585579 14024 net.cpp:434] layer_256_6_conv2 <- layer_256_6_conv1
I0205 20:22:10.585587 14024 net.cpp:408] layer_256_6_conv2 -> layer_256_6_conv2
I0205 20:22:10.597224 14024 net.cpp:150] Setting up layer_256_6_conv2
I0205 20:22:10.597259 14024 net.cpp:157] Top shape: 10 256 14 14 (501760)
I0205 20:22:10.597265 14024 net.cpp:165] Memory required for data: 2115420320
I0205 20:22:10.597272 14024 layer_factory.hpp:77] Creating layer layer_256_6_bn3
I0205 20:22:10.597293 14024 net.cpp:100] Creating Layer layer_256_6_bn3
I0205 20:22:10.597299 14024 net.cpp:434] layer_256_6_bn3 <- layer_256_6_conv2
I0205 20:22:10.597306 14024 net.cpp:395] layer_256_6_bn3 -> layer_256_6_conv2 (in-place)
I0205 20:22:10.597465 14024 net.cpp:150] Setting up layer_256_6_bn3
I0205 20:22:10.597472 14024 net.cpp:157] Top shape: 10 256 14 14 (501760)
I0205 20:22:10.597477 14024 net.cpp:165] Memory required for data: 2117427360
I0205 20:22:10.597486 14024 layer_factory.hpp:77] Creating layer layer_256_6_scale3
I0205 20:22:10.597493 14024 net.cpp:100] Creating Layer layer_256_6_scale3
I0205 20:22:10.597498 14024 net.cpp:434] layer_256_6_scale3 <- layer_256_6_conv2
I0205 20:22:10.597504 14024 net.cpp:395] layer_256_6_scale3 -> layer_256_6_conv2 (in-place)
I0205 20:22:10.597545 14024 layer_factory.hpp:77] Creating layer layer_256_6_scale3
I0205 20:22:10.597633 14024 net.cpp:150] Setting up layer_256_6_scale3
I0205 20:22:10.597641 14024 net.cpp:157] Top shape: 10 256 14 14 (501760)
I0205 20:22:10.597645 14024 net.cpp:165] Memory required for data: 2119434400
I0205 20:22:10.597652 14024 layer_factory.hpp:77] Creating layer layer_256_6_relu3
I0205 20:22:10.597659 14024 net.cpp:100] Creating Layer layer_256_6_relu3
I0205 20:22:10.597664 14024 net.cpp:434] layer_256_6_relu3 <- layer_256_6_conv2
I0205 20:22:10.597671 14024 net.cpp:395] layer_256_6_relu3 -> layer_256_6_conv2 (in-place)
I0205 20:22:10.597800 14024 net.cpp:150] Setting up layer_256_6_relu3
I0205 20:22:10.597807 14024 net.cpp:157] Top shape: 10 256 14 14 (501760)
I0205 20:22:10.597812 14024 net.cpp:165] Memory required for data: 2121441440
I0205 20:22:10.597817 14024 layer_factory.hpp:77] Creating layer layer_256_6_conv3
I0205 20:22:10.597827 14024 net.cpp:100] Creating Layer layer_256_6_conv3
I0205 20:22:10.597833 14024 net.cpp:434] layer_256_6_conv3 <- layer_256_6_conv2
I0205 20:22:10.597841 14024 net.cpp:408] layer_256_6_conv3 -> layer_256_6_conv3
I0205 20:22:10.604251 14024 net.cpp:150] Setting up layer_256_6_conv3
I0205 20:22:10.604285 14024 net.cpp:157] Top shape: 10 1024 14 14 (2007040)
I0205 20:22:10.604290 14024 net.cpp:165] Memory required for data: 2129469600
I0205 20:22:10.604298 14024 layer_factory.hpp:77] Creating layer layer_256_6_sum
I0205 20:22:10.604322 14024 net.cpp:100] Creating Layer layer_256_6_sum
I0205 20:22:10.604331 14024 net.cpp:434] layer_256_6_sum <- layer_256_6_conv3
I0205 20:22:10.604338 14024 net.cpp:434] layer_256_6_sum <- layer_256_5_sum_layer_256_5_sum_0_split_1
I0205 20:22:10.604346 14024 net.cpp:408] layer_256_6_sum -> layer_256_6_sum
I0205 20:22:10.604392 14024 net.cpp:150] Setting up layer_256_6_sum
I0205 20:22:10.604419 14024 net.cpp:157] Top shape: 10 1024 14 14 (2007040)
I0205 20:22:10.604449 14024 net.cpp:165] Memory required for data: 2137497760
I0205 20:22:10.604454 14024 layer_factory.hpp:77] Creating layer layer_512_1_bn1
I0205 20:22:10.604462 14024 net.cpp:100] Creating Layer layer_512_1_bn1
I0205 20:22:10.604470 14024 net.cpp:434] layer_512_1_bn1 <- layer_256_6_sum
I0205 20:22:10.604488 14024 net.cpp:408] layer_512_1_bn1 -> layer_512_1_bn1
I0205 20:22:10.604755 14024 net.cpp:150] Setting up layer_512_1_bn1
I0205 20:22:10.604769 14024 net.cpp:157] Top shape: 10 1024 14 14 (2007040)
I0205 20:22:10.604774 14024 net.cpp:165] Memory required for data: 2145525920
I0205 20:22:10.604785 14024 layer_factory.hpp:77] Creating layer layer_512_1_scale1
I0205 20:22:10.604794 14024 net.cpp:100] Creating Layer layer_512_1_scale1
I0205 20:22:10.604799 14024 net.cpp:434] layer_512_1_scale1 <- layer_512_1_bn1
I0205 20:22:10.604809 14024 net.cpp:395] layer_512_1_scale1 -> layer_512_1_bn1 (in-place)
I0205 20:22:10.604882 14024 layer_factory.hpp:77] Creating layer layer_512_1_scale1
I0205 20:22:10.605135 14024 net.cpp:150] Setting up layer_512_1_scale1
I0205 20:22:10.605146 14024 net.cpp:157] Top shape: 10 1024 14 14 (2007040)
I0205 20:22:10.605152 14024 net.cpp:165] Memory required for data: 2153554080
I0205 20:22:10.605159 14024 layer_factory.hpp:77] Creating layer layer_512_1_relu1
I0205 20:22:10.605168 14024 net.cpp:100] Creating Layer layer_512_1_relu1
I0205 20:22:10.605175 14024 net.cpp:434] layer_512_1_relu1 <- layer_512_1_bn1
I0205 20:22:10.605181 14024 net.cpp:395] layer_512_1_relu1 -> layer_512_1_bn1 (in-place)
I0205 20:22:10.605654 14024 net.cpp:150] Setting up layer_512_1_relu1
I0205 20:22:10.605669 14024 net.cpp:157] Top shape: 10 1024 14 14 (2007040)
I0205 20:22:10.605674 14024 net.cpp:165] Memory required for data: 2161582240
I0205 20:22:10.605679 14024 layer_factory.hpp:77] Creating layer layer_512_1_bn1_layer_512_1_relu1_0_split
I0205 20:22:10.605686 14024 net.cpp:100] Creating Layer layer_512_1_bn1_layer_512_1_relu1_0_split
I0205 20:22:10.605708 14024 net.cpp:434] layer_512_1_bn1_layer_512_1_relu1_0_split <- layer_512_1_bn1
I0205 20:22:10.605715 14024 net.cpp:408] layer_512_1_bn1_layer_512_1_relu1_0_split -> layer_512_1_bn1_layer_512_1_relu1_0_split_0
I0205 20:22:10.605722 14024 net.cpp:408] layer_512_1_bn1_layer_512_1_relu1_0_split -> layer_512_1_bn1_layer_512_1_relu1_0_split_1
I0205 20:22:10.605788 14024 net.cpp:150] Setting up layer_512_1_bn1_layer_512_1_relu1_0_split
I0205 20:22:10.605799 14024 net.cpp:157] Top shape: 10 1024 14 14 (2007040)
I0205 20:22:10.605805 14024 net.cpp:157] Top shape: 10 1024 14 14 (2007040)
I0205 20:22:10.605810 14024 net.cpp:165] Memory required for data: 2177638560
I0205 20:22:10.605815 14024 layer_factory.hpp:77] Creating layer layer_512_1_conv1
I0205 20:22:10.605828 14024 net.cpp:100] Creating Layer layer_512_1_conv1
I0205 20:22:10.605834 14024 net.cpp:434] layer_512_1_conv1 <- layer_512_1_bn1_layer_512_1_relu1_0_split_0
I0205 20:22:10.605844 14024 net.cpp:408] layer_512_1_conv1 -> layer_512_1_conv1
I0205 20:22:10.616473 14024 net.cpp:150] Setting up layer_512_1_conv1
I0205 20:22:10.616506 14024 net.cpp:157] Top shape: 10 512 14 14 (1003520)
I0205 20:22:10.616511 14024 net.cpp:165] Memory required for data: 2181652640
I0205 20:22:10.616518 14024 layer_factory.hpp:77] Creating layer layer_512_1_bn2
I0205 20:22:10.616526 14024 net.cpp:100] Creating Layer layer_512_1_bn2
I0205 20:22:10.616533 14024 net.cpp:434] layer_512_1_bn2 <- layer_512_1_conv1
I0205 20:22:10.616554 14024 net.cpp:395] layer_512_1_bn2 -> layer_512_1_conv1 (in-place)
I0205 20:22:10.616829 14024 net.cpp:150] Setting up layer_512_1_bn2
I0205 20:22:10.616857 14024 net.cpp:157] Top shape: 10 512 14 14 (1003520)
I0205 20:22:10.616863 14024 net.cpp:165] Memory required for data: 2185666720
I0205 20:22:10.616873 14024 layer_factory.hpp:77] Creating layer layer_512_1_scale2
I0205 20:22:10.616894 14024 net.cpp:100] Creating Layer layer_512_1_scale2
I0205 20:22:10.616899 14024 net.cpp:434] layer_512_1_scale2 <- layer_512_1_conv1
I0205 20:22:10.616910 14024 net.cpp:395] layer_512_1_scale2 -> layer_512_1_conv1 (in-place)
I0205 20:22:10.616966 14024 layer_factory.hpp:77] Creating layer layer_512_1_scale2
I0205 20:22:10.617135 14024 net.cpp:150] Setting up layer_512_1_scale2
I0205 20:22:10.617146 14024 net.cpp:157] Top shape: 10 512 14 14 (1003520)
I0205 20:22:10.617149 14024 net.cpp:165] Memory required for data: 2189680800
I0205 20:22:10.617156 14024 layer_factory.hpp:77] Creating layer layer_512_1_relu2
I0205 20:22:10.617163 14024 net.cpp:100] Creating Layer layer_512_1_relu2
I0205 20:22:10.617168 14024 net.cpp:434] layer_512_1_relu2 <- layer_512_1_conv1
I0205 20:22:10.617172 14024 net.cpp:395] layer_512_1_relu2 -> layer_512_1_conv1 (in-place)
I0205 20:22:10.617913 14024 net.cpp:150] Setting up layer_512_1_relu2
I0205 20:22:10.617944 14024 net.cpp:157] Top shape: 10 512 14 14 (1003520)
I0205 20:22:10.617962 14024 net.cpp:165] Memory required for data: 2193694880
I0205 20:22:10.617969 14024 layer_factory.hpp:77] Creating layer layer_512_1_conv2
I0205 20:22:10.617980 14024 net.cpp:100] Creating Layer layer_512_1_conv2
I0205 20:22:10.617987 14024 net.cpp:434] layer_512_1_conv2 <- layer_512_1_conv1
I0205 20:22:10.617996 14024 net.cpp:408] layer_512_1_conv2 -> layer_512_1_conv2
I0205 20:22:10.662356 14024 net.cpp:150] Setting up layer_512_1_conv2
I0205 20:22:10.662394 14024 net.cpp:157] Top shape: 10 512 7 7 (250880)
I0205 20:22:10.662400 14024 net.cpp:165] Memory required for data: 2194698400
I0205 20:22:10.662408 14024 layer_factory.hpp:77] Creating layer layer_512_1_bn3
I0205 20:22:10.662420 14024 net.cpp:100] Creating Layer layer_512_1_bn3
I0205 20:22:10.662427 14024 net.cpp:434] layer_512_1_bn3 <- layer_512_1_conv2
I0205 20:22:10.662434 14024 net.cpp:395] layer_512_1_bn3 -> layer_512_1_conv2 (in-place)
I0205 20:22:10.662698 14024 net.cpp:150] Setting up layer_512_1_bn3
I0205 20:22:10.662725 14024 net.cpp:157] Top shape: 10 512 7 7 (250880)
I0205 20:22:10.662730 14024 net.cpp:165] Memory required for data: 2195701920
I0205 20:22:10.662772 14024 layer_factory.hpp:77] Creating layer layer_512_1_scale3
I0205 20:22:10.662811 14024 net.cpp:100] Creating Layer layer_512_1_scale3
I0205 20:22:10.662818 14024 net.cpp:434] layer_512_1_scale3 <- layer_512_1_conv2
I0205 20:22:10.662838 14024 net.cpp:395] layer_512_1_scale3 -> layer_512_1_conv2 (in-place)
I0205 20:22:10.662884 14024 layer_factory.hpp:77] Creating layer layer_512_1_scale3
I0205 20:22:10.663075 14024 net.cpp:150] Setting up layer_512_1_scale3
I0205 20:22:10.663101 14024 net.cpp:157] Top shape: 10 512 7 7 (250880)
I0205 20:22:10.663120 14024 net.cpp:165] Memory required for data: 2196705440
I0205 20:22:10.663127 14024 layer_factory.hpp:77] Creating layer layer_512_1_relu3
I0205 20:22:10.663136 14024 net.cpp:100] Creating Layer layer_512_1_relu3
I0205 20:22:10.663141 14024 net.cpp:434] layer_512_1_relu3 <- layer_512_1_conv2
I0205 20:22:10.663159 14024 net.cpp:395] layer_512_1_relu3 -> layer_512_1_conv2 (in-place)
I0205 20:22:10.663314 14024 net.cpp:150] Setting up layer_512_1_relu3
I0205 20:22:10.663341 14024 net.cpp:157] Top shape: 10 512 7 7 (250880)
I0205 20:22:10.663347 14024 net.cpp:165] Memory required for data: 2197708960
I0205 20:22:10.663352 14024 layer_factory.hpp:77] Creating layer layer_512_1_conv3
I0205 20:22:10.663375 14024 net.cpp:100] Creating Layer layer_512_1_conv3
I0205 20:22:10.663383 14024 net.cpp:434] layer_512_1_conv3 <- layer_512_1_conv2
I0205 20:22:10.663393 14024 net.cpp:408] layer_512_1_conv3 -> layer_512_1_conv3
I0205 20:22:10.683904 14024 net.cpp:150] Setting up layer_512_1_conv3
I0205 20:22:10.683940 14024 net.cpp:157] Top shape: 10 2048 7 7 (1003520)
I0205 20:22:10.683959 14024 net.cpp:165] Memory required for data: 2201723040
I0205 20:22:10.683967 14024 layer_factory.hpp:77] Creating layer layer_512_1_conv_expand
I0205 20:22:10.683982 14024 net.cpp:100] Creating Layer layer_512_1_conv_expand
I0205 20:22:10.683991 14024 net.cpp:434] layer_512_1_conv_expand <- layer_512_1_bn1_layer_512_1_relu1_0_split_1
I0205 20:22:10.684002 14024 net.cpp:408] layer_512_1_conv_expand -> layer_512_1_conv_expand
I0205 20:22:10.723577 14024 net.cpp:150] Setting up layer_512_1_conv_expand
I0205 20:22:10.723600 14024 net.cpp:157] Top shape: 10 2048 7 7 (1003520)
I0205 20:22:10.723605 14024 net.cpp:165] Memory required for data: 2205737120
I0205 20:22:10.723611 14024 layer_factory.hpp:77] Creating layer layer_512_1_sum
I0205 20:22:10.723618 14024 net.cpp:100] Creating Layer layer_512_1_sum
I0205 20:22:10.723624 14024 net.cpp:434] layer_512_1_sum <- layer_512_1_conv3
I0205 20:22:10.723628 14024 net.cpp:434] layer_512_1_sum <- layer_512_1_conv_expand
I0205 20:22:10.723634 14024 net.cpp:408] layer_512_1_sum -> layer_512_1_sum
I0205 20:22:10.723657 14024 net.cpp:150] Setting up layer_512_1_sum
I0205 20:22:10.723664 14024 net.cpp:157] Top shape: 10 2048 7 7 (1003520)
I0205 20:22:10.723666 14024 net.cpp:165] Memory required for data: 2209751200
I0205 20:22:10.723670 14024 layer_factory.hpp:77] Creating layer layer_512_1_sum_layer_512_1_sum_0_split
I0205 20:22:10.723673 14024 net.cpp:100] Creating Layer layer_512_1_sum_layer_512_1_sum_0_split
I0205 20:22:10.723677 14024 net.cpp:434] layer_512_1_sum_layer_512_1_sum_0_split <- layer_512_1_sum
I0205 20:22:10.723681 14024 net.cpp:408] layer_512_1_sum_layer_512_1_sum_0_split -> layer_512_1_sum_layer_512_1_sum_0_split_0
I0205 20:22:10.723685 14024 net.cpp:408] layer_512_1_sum_layer_512_1_sum_0_split -> layer_512_1_sum_layer_512_1_sum_0_split_1
I0205 20:22:10.723717 14024 net.cpp:150] Setting up layer_512_1_sum_layer_512_1_sum_0_split
I0205 20:22:10.723726 14024 net.cpp:157] Top shape: 10 2048 7 7 (1003520)
I0205 20:22:10.723731 14024 net.cpp:157] Top shape: 10 2048 7 7 (1003520)
I0205 20:22:10.723734 14024 net.cpp:165] Memory required for data: 2217779360
I0205 20:22:10.723738 14024 layer_factory.hpp:77] Creating layer layer_512_2_bn1
I0205 20:22:10.723747 14024 net.cpp:100] Creating Layer layer_512_2_bn1
I0205 20:22:10.723752 14024 net.cpp:434] layer_512_2_bn1 <- layer_512_1_sum_layer_512_1_sum_0_split_0
I0205 20:22:10.723758 14024 net.cpp:408] layer_512_2_bn1 -> layer_512_2_bn1
I0205 20:22:10.724120 14024 net.cpp:150] Setting up layer_512_2_bn1
I0205 20:22:10.724131 14024 net.cpp:157] Top shape: 10 2048 7 7 (1003520)
I0205 20:22:10.724135 14024 net.cpp:165] Memory required for data: 2221793440
I0205 20:22:10.724144 14024 layer_factory.hpp:77] Creating layer layer_512_2_scale1
I0205 20:22:10.724154 14024 net.cpp:100] Creating Layer layer_512_2_scale1
I0205 20:22:10.724159 14024 net.cpp:434] layer_512_2_scale1 <- layer_512_2_bn1
I0205 20:22:10.724166 14024 net.cpp:395] layer_512_2_scale1 -> layer_512_2_bn1 (in-place)
I0205 20:22:10.724215 14024 layer_factory.hpp:77] Creating layer layer_512_2_scale1
I0205 20:22:10.724329 14024 net.cpp:150] Setting up layer_512_2_scale1
I0205 20:22:10.724337 14024 net.cpp:157] Top shape: 10 2048 7 7 (1003520)
I0205 20:22:10.724340 14024 net.cpp:165] Memory required for data: 2225807520
I0205 20:22:10.724345 14024 layer_factory.hpp:77] Creating layer layer_512_2_relu1
I0205 20:22:10.724350 14024 net.cpp:100] Creating Layer layer_512_2_relu1
I0205 20:22:10.724354 14024 net.cpp:434] layer_512_2_relu1 <- layer_512_2_bn1
I0205 20:22:10.724359 14024 net.cpp:395] layer_512_2_relu1 -> layer_512_2_bn1 (in-place)
I0205 20:22:10.724491 14024 net.cpp:150] Setting up layer_512_2_relu1
I0205 20:22:10.724503 14024 net.cpp:157] Top shape: 10 2048 7 7 (1003520)
I0205 20:22:10.724508 14024 net.cpp:165] Memory required for data: 2229821600
I0205 20:22:10.724512 14024 layer_factory.hpp:77] Creating layer layer_512_2_conv1
I0205 20:22:10.724522 14024 net.cpp:100] Creating Layer layer_512_2_conv1
I0205 20:22:10.724529 14024 net.cpp:434] layer_512_2_conv1 <- layer_512_2_bn1
I0205 20:22:10.724536 14024 net.cpp:408] layer_512_2_conv1 -> layer_512_2_conv1
I0205 20:22:10.745450 14024 net.cpp:150] Setting up layer_512_2_conv1
I0205 20:22:10.745487 14024 net.cpp:157] Top shape: 10 512 7 7 (250880)
I0205 20:22:10.745493 14024 net.cpp:165] Memory required for data: 2230825120
I0205 20:22:10.745502 14024 layer_factory.hpp:77] Creating layer layer_512_2_bn2
I0205 20:22:10.745530 14024 net.cpp:100] Creating Layer layer_512_2_bn2
I0205 20:22:10.745544 14024 net.cpp:434] layer_512_2_bn2 <- layer_512_2_conv1
I0205 20:22:10.745553 14024 net.cpp:395] layer_512_2_bn2 -> layer_512_2_conv1 (in-place)
I0205 20:22:10.745805 14024 net.cpp:150] Setting up layer_512_2_bn2
I0205 20:22:10.745831 14024 net.cpp:157] Top shape: 10 512 7 7 (250880)
I0205 20:22:10.745836 14024 net.cpp:165] Memory required for data: 2231828640
I0205 20:22:10.745858 14024 layer_factory.hpp:77] Creating layer layer_512_2_scale2
I0205 20:22:10.745868 14024 net.cpp:100] Creating Layer layer_512_2_scale2
I0205 20:22:10.745874 14024 net.cpp:434] layer_512_2_scale2 <- layer_512_2_conv1
I0205 20:22:10.745880 14024 net.cpp:395] layer_512_2_scale2 -> layer_512_2_conv1 (in-place)
I0205 20:22:10.745930 14024 layer_factory.hpp:77] Creating layer layer_512_2_scale2
I0205 20:22:10.746378 14024 net.cpp:150] Setting up layer_512_2_scale2
I0205 20:22:10.746390 14024 net.cpp:157] Top shape: 10 512 7 7 (250880)
I0205 20:22:10.746395 14024 net.cpp:165] Memory required for data: 2232832160
I0205 20:22:10.746403 14024 layer_factory.hpp:77] Creating layer layer_512_2_relu2
I0205 20:22:10.746412 14024 net.cpp:100] Creating Layer layer_512_2_relu2
I0205 20:22:10.746415 14024 net.cpp:434] layer_512_2_relu2 <- layer_512_2_conv1
I0205 20:22:10.746420 14024 net.cpp:395] layer_512_2_relu2 -> layer_512_2_conv1 (in-place)
I0205 20:22:10.746600 14024 net.cpp:150] Setting up layer_512_2_relu2
I0205 20:22:10.746613 14024 net.cpp:157] Top shape: 10 512 7 7 (250880)
I0205 20:22:10.746619 14024 net.cpp:165] Memory required for data: 2233835680
I0205 20:22:10.746624 14024 layer_factory.hpp:77] Creating layer layer_512_2_conv2
I0205 20:22:10.746639 14024 net.cpp:100] Creating Layer layer_512_2_conv2
I0205 20:22:10.746645 14024 net.cpp:434] layer_512_2_conv2 <- layer_512_2_conv1
I0205 20:22:10.746654 14024 net.cpp:408] layer_512_2_conv2 -> layer_512_2_conv2
I0205 20:22:10.791070 14024 net.cpp:150] Setting up layer_512_2_conv2
I0205 20:22:10.791093 14024 net.cpp:157] Top shape: 10 512 7 7 (250880)
I0205 20:22:10.791098 14024 net.cpp:165] Memory required for data: 2234839200
I0205 20:22:10.791107 14024 layer_factory.hpp:77] Creating layer layer_512_2_bn3
I0205 20:22:10.791117 14024 net.cpp:100] Creating Layer layer_512_2_bn3
I0205 20:22:10.791124 14024 net.cpp:434] layer_512_2_bn3 <- layer_512_2_conv2
I0205 20:22:10.791132 14024 net.cpp:395] layer_512_2_bn3 -> layer_512_2_conv2 (in-place)
I0205 20:22:10.791402 14024 net.cpp:150] Setting up layer_512_2_bn3
I0205 20:22:10.791415 14024 net.cpp:157] Top shape: 10 512 7 7 (250880)
I0205 20:22:10.791420 14024 net.cpp:165] Memory required for data: 2235842720
I0205 20:22:10.791429 14024 layer_factory.hpp:77] Creating layer layer_512_2_scale3
I0205 20:22:10.791438 14024 net.cpp:100] Creating Layer layer_512_2_scale3
I0205 20:22:10.791445 14024 net.cpp:434] layer_512_2_scale3 <- layer_512_2_conv2
I0205 20:22:10.791452 14024 net.cpp:395] layer_512_2_scale3 -> layer_512_2_conv2 (in-place)
I0205 20:22:10.791499 14024 layer_factory.hpp:77] Creating layer layer_512_2_scale3
I0205 20:22:10.791662 14024 net.cpp:150] Setting up layer_512_2_scale3
I0205 20:22:10.791689 14024 net.cpp:157] Top shape: 10 512 7 7 (250880)
I0205 20:22:10.791694 14024 net.cpp:165] Memory required for data: 2236846240
I0205 20:22:10.791702 14024 layer_factory.hpp:77] Creating layer layer_512_2_relu3
I0205 20:22:10.791723 14024 net.cpp:100] Creating Layer layer_512_2_relu3
I0205 20:22:10.791728 14024 net.cpp:434] layer_512_2_relu3 <- layer_512_2_conv2
I0205 20:22:10.791733 14024 net.cpp:395] layer_512_2_relu3 -> layer_512_2_conv2 (in-place)
I0205 20:22:10.791962 14024 net.cpp:150] Setting up layer_512_2_relu3
I0205 20:22:10.791975 14024 net.cpp:157] Top shape: 10 512 7 7 (250880)
I0205 20:22:10.791980 14024 net.cpp:165] Memory required for data: 2237849760
I0205 20:22:10.791985 14024 layer_factory.hpp:77] Creating layer layer_512_2_conv3
I0205 20:22:10.792018 14024 net.cpp:100] Creating Layer layer_512_2_conv3
I0205 20:22:10.792029 14024 net.cpp:434] layer_512_2_conv3 <- layer_512_2_conv2
I0205 20:22:10.792045 14024 net.cpp:408] layer_512_2_conv3 -> layer_512_2_conv3
I0205 20:22:10.812893 14024 net.cpp:150] Setting up layer_512_2_conv3
I0205 20:22:10.812916 14024 net.cpp:157] Top shape: 10 2048 7 7 (1003520)
I0205 20:22:10.812922 14024 net.cpp:165] Memory required for data: 2241863840
I0205 20:22:10.812932 14024 layer_factory.hpp:77] Creating layer layer_512_2_sum
I0205 20:22:10.812942 14024 net.cpp:100] Creating Layer layer_512_2_sum
I0205 20:22:10.812948 14024 net.cpp:434] layer_512_2_sum <- layer_512_2_conv3
I0205 20:22:10.812957 14024 net.cpp:434] layer_512_2_sum <- layer_512_1_sum_layer_512_1_sum_0_split_1
I0205 20:22:10.812965 14024 net.cpp:408] layer_512_2_sum -> layer_512_2_sum
I0205 20:22:10.813000 14024 net.cpp:150] Setting up layer_512_2_sum
I0205 20:22:10.813014 14024 net.cpp:157] Top shape: 10 2048 7 7 (1003520)
I0205 20:22:10.813019 14024 net.cpp:165] Memory required for data: 2245877920
I0205 20:22:10.813024 14024 layer_factory.hpp:77] Creating layer layer_512_2_sum_layer_512_2_sum_0_split
I0205 20:22:10.813030 14024 net.cpp:100] Creating Layer layer_512_2_sum_layer_512_2_sum_0_split
I0205 20:22:10.813035 14024 net.cpp:434] layer_512_2_sum_layer_512_2_sum_0_split <- layer_512_2_sum
I0205 20:22:10.813043 14024 net.cpp:408] layer_512_2_sum_layer_512_2_sum_0_split -> layer_512_2_sum_layer_512_2_sum_0_split_0
I0205 20:22:10.813051 14024 net.cpp:408] layer_512_2_sum_layer_512_2_sum_0_split -> layer_512_2_sum_layer_512_2_sum_0_split_1
I0205 20:22:10.813098 14024 net.cpp:150] Setting up layer_512_2_sum_layer_512_2_sum_0_split
I0205 20:22:10.813107 14024 net.cpp:157] Top shape: 10 2048 7 7 (1003520)
I0205 20:22:10.813113 14024 net.cpp:157] Top shape: 10 2048 7 7 (1003520)
I0205 20:22:10.813117 14024 net.cpp:165] Memory required for data: 2253906080
I0205 20:22:10.813122 14024 layer_factory.hpp:77] Creating layer layer_512_3_bn1
I0205 20:22:10.813130 14024 net.cpp:100] Creating Layer layer_512_3_bn1
I0205 20:22:10.813136 14024 net.cpp:434] layer_512_3_bn1 <- layer_512_2_sum_layer_512_2_sum_0_split_0
I0205 20:22:10.813143 14024 net.cpp:408] layer_512_3_bn1 -> layer_512_3_bn1
I0205 20:22:10.813434 14024 net.cpp:150] Setting up layer_512_3_bn1
I0205 20:22:10.813462 14024 net.cpp:157] Top shape: 10 2048 7 7 (1003520)
I0205 20:22:10.813467 14024 net.cpp:165] Memory required for data: 2257920160
I0205 20:22:10.813478 14024 layer_factory.hpp:77] Creating layer layer_512_3_scale1
I0205 20:22:10.813485 14024 net.cpp:100] Creating Layer layer_512_3_scale1
I0205 20:22:10.813491 14024 net.cpp:434] layer_512_3_scale1 <- layer_512_3_bn1
I0205 20:22:10.813510 14024 net.cpp:395] layer_512_3_scale1 -> layer_512_3_bn1 (in-place)
I0205 20:22:10.813558 14024 layer_factory.hpp:77] Creating layer layer_512_3_scale1
I0205 20:22:10.813750 14024 net.cpp:150] Setting up layer_512_3_scale1
I0205 20:22:10.813762 14024 net.cpp:157] Top shape: 10 2048 7 7 (1003520)
I0205 20:22:10.813768 14024 net.cpp:165] Memory required for data: 2261934240
I0205 20:22:10.813776 14024 layer_factory.hpp:77] Creating layer layer_512_3_relu1
I0205 20:22:10.813784 14024 net.cpp:100] Creating Layer layer_512_3_relu1
I0205 20:22:10.813791 14024 net.cpp:434] layer_512_3_relu1 <- layer_512_3_bn1
I0205 20:22:10.813796 14024 net.cpp:395] layer_512_3_relu1 -> layer_512_3_bn1 (in-place)
I0205 20:22:10.813963 14024 net.cpp:150] Setting up layer_512_3_relu1
I0205 20:22:10.813977 14024 net.cpp:157] Top shape: 10 2048 7 7 (1003520)
I0205 20:22:10.813982 14024 net.cpp:165] Memory required for data: 2265948320
I0205 20:22:10.813987 14024 layer_factory.hpp:77] Creating layer layer_512_3_conv1
I0205 20:22:10.813998 14024 net.cpp:100] Creating Layer layer_512_3_conv1
I0205 20:22:10.814004 14024 net.cpp:434] layer_512_3_conv1 <- layer_512_3_bn1
I0205 20:22:10.814013 14024 net.cpp:408] layer_512_3_conv1 -> layer_512_3_conv1
I0205 20:22:10.835196 14024 net.cpp:150] Setting up layer_512_3_conv1
I0205 20:22:10.835232 14024 net.cpp:157] Top shape: 10 512 7 7 (250880)
I0205 20:22:10.835237 14024 net.cpp:165] Memory required for data: 2266951840
I0205 20:22:10.835269 14024 layer_factory.hpp:77] Creating layer layer_512_3_bn2
I0205 20:22:10.835281 14024 net.cpp:100] Creating Layer layer_512_3_bn2
I0205 20:22:10.835289 14024 net.cpp:434] layer_512_3_bn2 <- layer_512_3_conv1
I0205 20:22:10.835297 14024 net.cpp:395] layer_512_3_bn2 -> layer_512_3_conv1 (in-place)
I0205 20:22:10.835559 14024 net.cpp:150] Setting up layer_512_3_bn2
I0205 20:22:10.835572 14024 net.cpp:157] Top shape: 10 512 7 7 (250880)
I0205 20:22:10.835592 14024 net.cpp:165] Memory required for data: 2267955360
I0205 20:22:10.835602 14024 layer_factory.hpp:77] Creating layer layer_512_3_scale2
I0205 20:22:10.835611 14024 net.cpp:100] Creating Layer layer_512_3_scale2
I0205 20:22:10.835619 14024 net.cpp:434] layer_512_3_scale2 <- layer_512_3_conv1
I0205 20:22:10.835639 14024 net.cpp:395] layer_512_3_scale2 -> layer_512_3_conv1 (in-place)
I0205 20:22:10.835687 14024 layer_factory.hpp:77] Creating layer layer_512_3_scale2
I0205 20:22:10.835877 14024 net.cpp:150] Setting up layer_512_3_scale2
I0205 20:22:10.835891 14024 net.cpp:157] Top shape: 10 512 7 7 (250880)
I0205 20:22:10.835912 14024 net.cpp:165] Memory required for data: 2268958880
I0205 20:22:10.835921 14024 layer_factory.hpp:77] Creating layer layer_512_3_relu2
I0205 20:22:10.835927 14024 net.cpp:100] Creating Layer layer_512_3_relu2
I0205 20:22:10.835933 14024 net.cpp:434] layer_512_3_relu2 <- layer_512_3_conv1
I0205 20:22:10.835942 14024 net.cpp:395] layer_512_3_relu2 -> layer_512_3_conv1 (in-place)
I0205 20:22:10.836488 14024 net.cpp:150] Setting up layer_512_3_relu2
I0205 20:22:10.836503 14024 net.cpp:157] Top shape: 10 512 7 7 (250880)
I0205 20:22:10.836508 14024 net.cpp:165] Memory required for data: 2269962400
I0205 20:22:10.836513 14024 layer_factory.hpp:77] Creating layer layer_512_3_conv2
I0205 20:22:10.836525 14024 net.cpp:100] Creating Layer layer_512_3_conv2
I0205 20:22:10.836547 14024 net.cpp:434] layer_512_3_conv2 <- layer_512_3_conv1
I0205 20:22:10.836556 14024 net.cpp:408] layer_512_3_conv2 -> layer_512_3_conv2
I0205 20:22:10.883889 14024 net.cpp:150] Setting up layer_512_3_conv2
I0205 20:22:10.883913 14024 net.cpp:157] Top shape: 10 512 7 7 (250880)
I0205 20:22:10.883919 14024 net.cpp:165] Memory required for data: 2270965920
I0205 20:22:10.883927 14024 layer_factory.hpp:77] Creating layer layer_512_3_bn3
I0205 20:22:10.883939 14024 net.cpp:100] Creating Layer layer_512_3_bn3
I0205 20:22:10.883945 14024 net.cpp:434] layer_512_3_bn3 <- layer_512_3_conv2
I0205 20:22:10.883954 14024 net.cpp:395] layer_512_3_bn3 -> layer_512_3_conv2 (in-place)
I0205 20:22:10.884217 14024 net.cpp:150] Setting up layer_512_3_bn3
I0205 20:22:10.884229 14024 net.cpp:157] Top shape: 10 512 7 7 (250880)
I0205 20:22:10.884235 14024 net.cpp:165] Memory required for data: 2271969440
I0205 20:22:10.884244 14024 layer_factory.hpp:77] Creating layer layer_512_3_scale3
I0205 20:22:10.884255 14024 net.cpp:100] Creating Layer layer_512_3_scale3
I0205 20:22:10.884261 14024 net.cpp:434] layer_512_3_scale3 <- layer_512_3_conv2
I0205 20:22:10.884269 14024 net.cpp:395] layer_512_3_scale3 -> layer_512_3_conv2 (in-place)
I0205 20:22:10.884320 14024 layer_factory.hpp:77] Creating layer layer_512_3_scale3
I0205 20:22:10.884466 14024 net.cpp:150] Setting up layer_512_3_scale3
I0205 20:22:10.884477 14024 net.cpp:157] Top shape: 10 512 7 7 (250880)
I0205 20:22:10.884483 14024 net.cpp:165] Memory required for data: 2272972960
I0205 20:22:10.884490 14024 layer_factory.hpp:77] Creating layer layer_512_3_relu3
I0205 20:22:10.884498 14024 net.cpp:100] Creating Layer layer_512_3_relu3
I0205 20:22:10.884502 14024 net.cpp:434] layer_512_3_relu3 <- layer_512_3_conv2
I0205 20:22:10.884510 14024 net.cpp:395] layer_512_3_relu3 -> layer_512_3_conv2 (in-place)
I0205 20:22:10.884688 14024 net.cpp:150] Setting up layer_512_3_relu3
I0205 20:22:10.884702 14024 net.cpp:157] Top shape: 10 512 7 7 (250880)
I0205 20:22:10.884708 14024 net.cpp:165] Memory required for data: 2273976480
I0205 20:22:10.884713 14024 layer_factory.hpp:77] Creating layer layer_512_3_conv3
I0205 20:22:10.884732 14024 net.cpp:100] Creating Layer layer_512_3_conv3
I0205 20:22:10.884745 14024 net.cpp:434] layer_512_3_conv3 <- layer_512_3_conv2
I0205 20:22:10.884754 14024 net.cpp:408] layer_512_3_conv3 -> layer_512_3_conv3
I0205 20:22:10.905458 14024 net.cpp:150] Setting up layer_512_3_conv3
I0205 20:22:10.905479 14024 net.cpp:157] Top shape: 10 2048 7 7 (1003520)
I0205 20:22:10.905485 14024 net.cpp:165] Memory required for data: 2277990560
I0205 20:22:10.905493 14024 layer_factory.hpp:77] Creating layer layer_512_3_sum
I0205 20:22:10.905505 14024 net.cpp:100] Creating Layer layer_512_3_sum
I0205 20:22:10.905513 14024 net.cpp:434] layer_512_3_sum <- layer_512_3_conv3
I0205 20:22:10.905520 14024 net.cpp:434] layer_512_3_sum <- layer_512_2_sum_layer_512_2_sum_0_split_1
I0205 20:22:10.905529 14024 net.cpp:408] layer_512_3_sum -> layer_512_3_sum
I0205 20:22:10.905562 14024 net.cpp:150] Setting up layer_512_3_sum
I0205 20:22:10.905573 14024 net.cpp:157] Top shape: 10 2048 7 7 (1003520)
I0205 20:22:10.905578 14024 net.cpp:165] Memory required for data: 2282004640
I0205 20:22:10.905583 14024 layer_factory.hpp:77] Creating layer last_bn
I0205 20:22:10.905592 14024 net.cpp:100] Creating Layer last_bn
I0205 20:22:10.905598 14024 net.cpp:434] last_bn <- layer_512_3_sum
I0205 20:22:10.905604 14024 net.cpp:395] last_bn -> layer_512_3_sum (in-place)
I0205 20:22:10.905856 14024 net.cpp:150] Setting up last_bn
I0205 20:22:10.905869 14024 net.cpp:157] Top shape: 10 2048 7 7 (1003520)
I0205 20:22:10.905875 14024 net.cpp:165] Memory required for data: 2286018720
I0205 20:22:10.905884 14024 layer_factory.hpp:77] Creating layer last_scale
I0205 20:22:10.905894 14024 net.cpp:100] Creating Layer last_scale
I0205 20:22:10.905900 14024 net.cpp:434] last_scale <- layer_512_3_sum
I0205 20:22:10.905908 14024 net.cpp:395] last_scale -> layer_512_3_sum (in-place)
I0205 20:22:10.905961 14024 layer_factory.hpp:77] Creating layer last_scale
I0205 20:22:10.906100 14024 net.cpp:150] Setting up last_scale
I0205 20:22:10.906111 14024 net.cpp:157] Top shape: 10 2048 7 7 (1003520)
I0205 20:22:10.906116 14024 net.cpp:165] Memory required for data: 2290032800
I0205 20:22:10.906124 14024 layer_factory.hpp:77] Creating layer last_relu
I0205 20:22:10.906132 14024 net.cpp:100] Creating Layer last_relu
I0205 20:22:10.906137 14024 net.cpp:434] last_relu <- layer_512_3_sum
I0205 20:22:10.906144 14024 net.cpp:395] last_relu -> layer_512_3_sum (in-place)
I0205 20:22:10.906327 14024 net.cpp:150] Setting up last_relu
I0205 20:22:10.906340 14024 net.cpp:157] Top shape: 10 2048 7 7 (1003520)
I0205 20:22:10.906347 14024 net.cpp:165] Memory required for data: 2294046880
I0205 20:22:10.906352 14024 layer_factory.hpp:77] Creating layer global_pool
I0205 20:22:10.906360 14024 net.cpp:100] Creating Layer global_pool
I0205 20:22:10.906365 14024 net.cpp:434] global_pool <- layer_512_3_sum
I0205 20:22:10.906374 14024 net.cpp:408] global_pool -> global_pool
I0205 20:22:10.906576 14024 net.cpp:150] Setting up global_pool
I0205 20:22:10.906590 14024 net.cpp:157] Top shape: 10 2048 1 1 (20480)
I0205 20:22:10.906596 14024 net.cpp:165] Memory required for data: 2294128800
I0205 20:22:10.906601 14024 layer_factory.hpp:77] Creating layer score
I0205 20:22:10.906615 14024 net.cpp:100] Creating Layer score
I0205 20:22:10.906620 14024 net.cpp:434] score <- global_pool
I0205 20:22:10.906628 14024 net.cpp:408] score -> score
I0205 20:22:10.909415 14024 net.cpp:150] Setting up score
I0205 20:22:10.909440 14024 net.cpp:157] Top shape: 10 1000 (10000)
I0205 20:22:10.909446 14024 net.cpp:165] Memory required for data: 2294168800
I0205 20:22:10.909456 14024 layer_factory.hpp:77] Creating layer score_score_0_split
I0205 20:22:10.909466 14024 net.cpp:100] Creating Layer score_score_0_split
I0205 20:22:10.909473 14024 net.cpp:434] score_score_0_split <- score
I0205 20:22:10.909482 14024 net.cpp:408] score_score_0_split -> score_score_0_split_0
I0205 20:22:10.909492 14024 net.cpp:408] score_score_0_split -> score_score_0_split_1
I0205 20:22:10.909500 14024 net.cpp:408] score_score_0_split -> score_score_0_split_2
I0205 20:22:10.909574 14024 net.cpp:150] Setting up score_score_0_split
I0205 20:22:10.909591 14024 net.cpp:157] Top shape: 10 1000 (10000)
I0205 20:22:10.909597 14024 net.cpp:157] Top shape: 10 1000 (10000)
I0205 20:22:10.909602 14024 net.cpp:157] Top shape: 10 1000 (10000)
I0205 20:22:10.909607 14024 net.cpp:165] Memory required for data: 2294288800
I0205 20:22:10.909611 14024 layer_factory.hpp:77] Creating layer loss
I0205 20:22:10.909620 14024 net.cpp:100] Creating Layer loss
I0205 20:22:10.909626 14024 net.cpp:434] loss <- score_score_0_split_0
I0205 20:22:10.909631 14024 net.cpp:434] loss <- label_data_1_split_0
I0205 20:22:10.909637 14024 net.cpp:408] loss -> loss
…
