…
I0131 23:30:01.311308  8699 net.cpp:322] The NetState phase (1) differed from the phase (0) specified by a rule in layer data
I0131 23:30:01.312485  8699 net.cpp:58] Initializing net from parameters: 
state {
  phase: TEST
  level: 0
  stage: ""
}
layer {
  name: "data"
  type: "ImageData"
  top: "data"
  top: "label"
  include {
    phase: TEST
  }
  transform_param {
    mirror: false
    crop_size: 224
  }
  image_data_param {
    source: "/media/yves/sandisk3/caffe-master/data/ilsvrc12/val.txt"
    batch_size: 10
    shuffle: true
    root_folder: "/media/yves/sandisk3/caffe-master/data/ilsvrc12/resized/val/"
  }
}
layer {
  name: "data_bn"
  type: "BatchNorm"
  bottom: "data"
  top: "data_bn"
}
layer {
  name: "data_scale"
  type: "Scale"
  bottom: "data_bn"
  top: "data_bn"
  param {
    lr_mult: 1
    decay_mult: 1
  }
  param {
    lr_mult: 2
    decay_mult: 1
  }
  scale_param {
    bias_term: true
  }
}
layer {
  name: "conv1"
  type: "Convolution"
  bottom: "data_bn"
  top: "conv1"
  param {
    lr_mult: 1
    decay_mult: 1
  }
  param {
    lr_mult: 2
    decay_mult: 1
  }
  convolution_param {
    num_output: 64
    pad: 3
    kernel_size: 7
    stride: 2
    weight_filler {
      type: "msra"
      variance_norm: FAN_OUT
    }
    bias_filler {
      type: "constant"
      value: 0
    }
  }
}
layer {
  name: "conv1_bn"
  type: "BatchNorm"
  bottom: "conv1"
  top: "conv1"
}
layer {
  name: "conv1_scale"
  type: "Scale"
  bottom: "conv1"
  top: "conv1"
  param {
    lr_mult: 1
    decay_mult: 1
  }
  param {
    lr_mult: 2
    decay_mult: 1
  }
  scale_param {
    bias_term: true
  }
}
layer {
  name: "conv1_relu"
  type: "ReLU"
  bottom: "conv1"
  top: "conv1"
}
layer {
  name: "conv1_pool"
  type: "Pooling"
  bottom: "conv1"
  top: "conv1_pool"
  pooling_param {
    kernel_size: 3
    stride: 2
  }
}
layer {
  name: "layer_64_1_conv1"
  type: "Convolution"
  bottom: "conv1_pool"
  top: "layer_64_1_conv1"
  param {
    lr_mult: 1
    decay_mult: 1
  }
  convolution_param {
    num_output: 64
    bias_term: false
    pad: 0
    kernel_size: 1
    stride: 1
    weight_filler {
      type: "msra"
    }
    bias_filler {
      type: "constant"
      value: 0
    }
  }
}
layer {
  name: "layer_64_1_bn2"
  type: "BatchNorm"
  bottom: "layer_64_1_conv1"
  top: "layer_64_1_conv1"
}
layer {
  name: "layer_64_1_scale2"
  type: "Scale"
  bottom: "layer_64_1_conv1"
  top: "layer_64_1_conv1"
  param {
    lr_mult: 1
    decay_mult: 1
  }
  param {
    lr_mult: 2
    decay_mult: 1
  }
  scale_param {
    bias_term: true
  }
}
layer {
  name: "layer_64_1_relu2"
  type: "ReLU"
  bottom: "layer_64_1_conv1"
  top: "layer_64_1_conv1"
}
layer {
  name: "layer_64_1_conv2"
  type: "Convolution"
  bottom: "layer_64_1_conv1"
  top: "layer_64_1_conv2"
  param {
    lr_mult: 1
    decay_mult: 1
  }
  convolution_param {
    num_output: 64
    bias_term: false
    pad: 1
    kernel_size: 3
    stride: 1
    weight_filler {
      type: "msra"
    }
    bias_filler {
      type: "constant"
      value: 0
    }
  }
}
layer {
  name: "layer_64_1_bn3"
  type: "BatchNorm"
  bottom: "layer_64_1_conv2"
  top: "layer_64_1_conv2"
}
layer {
  name: "layer_64_1_scale3"
  type: "Scale"
  bottom: "layer_64_1_conv2"
  top: "layer_64_1_conv2"
  param {
    lr_mult: 1
    decay_mult: 1
  }
  param {
    lr_mult: 2
    decay_mult: 1
  }
  scale_param {
    bias_term: true
  }
}
layer {
  name: "layer_64_1_relu3"
  type: "ReLU"
  bottom: "layer_64_1_conv2"
  top: "layer_64_1_conv2"
}
layer {
  name: "layer_64_1_conv3"
  type: "Convolution"
  bottom: "layer_64_1_conv2"
  top: "layer_64_1_conv3"
  param {
    lr_mult: 1
    decay_mult: 1
  }
  convolution_param {
    num_output: 256
    bias_term: false
    pad: 0
    kernel_size: 1
    stride: 1
    weight_filler {
      type: "msra"
    }
    bias_filler {
      type: "constant"
      value: 0
    }
  }
}
layer {
  name: "layer_64_1_conv_expand"
  type: "Convolution"
  bottom: "layer_64_1_conv1"
  top: "layer_64_1_conv_expand"
  param {
    lr_mult: 1
    decay_mult: 1
  }
  convolution_param {
    num_output: 256
    bias_term: false
    pad: 0
    kernel_size: 1
    stride: 1
    weight_filler {
      type: "msra"
    }
    bias_filler {
      type: "constant"
      value: 0
    }
  }
}
layer {
  name: "layer_64_1_sum"
  type: "Eltwise"
  bottom: "layer_64_1_conv3"
  bottom: "layer_64_1_conv_expand"
  top: "layer_64_1_sum"
}
layer {
  name: "layer_64_2_bn1"
  type: "BatchNorm"
  bottom: "layer_64_1_sum"
  top: "layer_64_2_bn1"
}
layer {
  name: "layer_64_2_scale1"
  type: "Scale"
  bottom: "layer_64_2_bn1"
  top: "layer_64_2_bn1"
  param {
    lr_mult: 1
    decay_mult: 1
  }
  param {
    lr_mult: 2
    decay_mult: 1
  }
  scale_param {
    bias_term: true
  }
}
layer {
  name: "layer_64_2_relu1"
  type: "ReLU"
  bottom: "layer_64_2_bn1"
  top: "layer_64_2_bn1"
}
layer {
  name: "layer_64_2_conv1"
  type: "Convolution"
  bottom: "layer_64_2_bn1"
  top: "layer_64_2_conv1"
  param {
    lr_mult: 1
    decay_mult: 1
  }
  convolution_param {
    num_output: 64
    bias_term: false
    pad: 0
    kernel_size: 1
    stride: 1
    weight_filler {
      type: "msra"
    }
    bias_filler {
      type: "constant"
      value: 0
    }
  }
}
layer {
  name: "layer_64_2_bn2"
  type: "BatchNorm"
  bottom: "layer_64_2_conv1"
  top: "layer_64_2_conv1"
}
layer {
  name: "layer_64_2_scale2"
  type: "Scale"
  bottom: "layer_64_2_conv1"
  top: "layer_64_2_conv1"
  param {
    lr_mult: 1
    decay_mult: 1
  }
  param {
    lr_mult: 2
    decay_mult: 1
  }
  scale_param {
    bias_term: true
  }
}
layer {
  name: "layer_64_2_relu2"
  type: "ReLU"
  bottom: "layer_64_2_conv1"
  top: "layer_64_2_conv1"
}
layer {
  name: "layer_64_2_conv2"
  type: "Convolution"
  bottom: "layer_64_2_conv1"
  top: "layer_64_2_conv2"
  param {
    lr_mult: 1
    decay_mult: 1
  }
  convolution_param {
    num_output: 64
    bias_term: false
    pad: 1
    kernel_size: 3
    stride: 1
    weight_filler {
      type: "msra"
    }
    bias_filler {
      type: "constant"
      value: 0
    }
  }
}
layer {
  name: "layer_64_2_bn3"
  type: "BatchNorm"
  bottom: "layer_64_2_conv2"
  top: "layer_64_2_conv2"
}
layer {
  name: "layer_64_2_scale3"
  type: "Scale"
  bottom: "layer_64_2_conv2"
  top: "layer_64_2_conv2"
  param {
    lr_mult: 1
    decay_mult: 1
  }
  param {
    lr_mult: 2
    decay_mult: 1
  }
  scale_param {
    bias_term: true
  }
}
layer {
  name: "layer_64_2_relu3"
  type: "ReLU"
  bottom: "layer_64_2_conv2"
  top: "layer_64_2_conv2"
}
layer {
  name: "layer_64_2_conv3"
  type: "Convolution"
  bottom: "layer_64_2_conv2"
  top: "layer_64_2_conv3"
  param {
    lr_mult: 1
    decay_mult: 1
  }
  convolution_param {
    num_output: 256
    bias_term: false
    pad: 0
    kernel_size: 1
    stride: 1
    weight_filler {
      type: "msra"
    }
    bias_filler {
      type: "constant"
      value: 0
    }
  }
}
layer {
  name: "layer_64_2_sum"
  type: "Eltwise"
  bottom: "layer_64_2_conv3"
  bottom: "layer_64_1_sum"
  top: "layer_64_2_sum"
}
layer {
  name: "layer_64_3_bn1"
  type: "BatchNorm"
  bottom: "layer_64_2_sum"
  top: "layer_64_3_bn1"
}
layer {
  name: "layer_64_3_scale1"
  type: "Scale"
  bottom: "layer_64_3_bn1"
  top: "layer_64_3_bn1"
  param {
    lr_mult: 1
    decay_mult: 1
  }
  param {
    lr_mult: 2
    decay_mult: 1
  }
  scale_param {
    bias_term: true
  }
}
layer {
  name: "layer_64_3_relu1"
  type: "ReLU"
  bottom: "layer_64_3_bn1"
  top: "layer_64_3_bn1"
}
layer {
  name: "layer_64_3_conv1"
  type: "Convolution"
  bottom: "layer_64_3_bn1"
  top: "layer_64_3_conv1"
  param {
    lr_mult: 1
    decay_mult: 1
  }
  convolution_param {
    num_output: 64
    bias_term: false
    pad: 0
    kernel_size: 1
    stride: 1
    weight_filler {
      type: "msra"
    }
    bias_filler {
      type: "constant"
      value: 0
    }
  }
}
layer {
  name: "layer_64_3_bn2"
  type: "BatchNorm"
  bottom: "layer_64_3_conv1"
  top: "layer_64_3_conv1"
}
layer {
  name: "layer_64_3_scale2"
  type: "Scale"
  bottom: "layer_64_3_conv1"
  top: "layer_64_3_conv1"
  param {
    lr_mult: 1
    decay_mult: 1
  }
  param {
    lr_mult: 2
    decay_mult: 1
  }
  scale_param {
    bias_term: true
  }
}
layer {
  name: "layer_64_3_relu2"
  type: "ReLU"
  bottom: "layer_64_3_conv1"
  top: "layer_64_3_conv1"
}
layer {
  name: "layer_64_3_conv2"
  type: "Convolution"
  bottom: "layer_64_3_conv1"
  top: "layer_64_3_conv2"
  param {
    lr_mult: 1
    decay_mult: 1
  }
  convolution_param {
    num_output: 64
    bias_term: false
    pad: 1
    kernel_size: 3
    stride: 1
    weight_filler {
      type: "msra"
    }
    bias_filler {
      type: "constant"
      value: 0
    }
  }
}
layer {
  name: "layer_64_3_bn3"
  type: "BatchNorm"
  bottom: "layer_64_3_conv2"
  top: "layer_64_3_conv2"
}
layer {
  name: "layer_64_3_scale3"
  type: "Scale"
  bottom: "layer_64_3_conv2"
  top: "layer_64_3_conv2"
  param {
    lr_mult: 1
    decay_mult: 1
  }
  param {
    lr_mult: 2
    decay_mult: 1
  }
  scale_param {
    bias_term: true
  }
}
layer {
  name: "layer_64_3_relu3"
  type: "ReLU"
  bottom: "layer_64_3_conv2"
  top: "layer_64_3_conv2"
}
layer {
  name: "layer_64_3_conv3"
  type: "Convolution"
  bottom: "layer_64_3_conv2"
  top: "layer_64_3_conv3"
  param {
    lr_mult: 1
    decay_mult: 1
  }
  convolution_param {
    num_output: 256
    bias_term: false
    pad: 0
    kernel_size: 1
    stride: 1
    weight_filler {
      type: "msra"
    }
    bias_filler {
      type: "constant"
      value: 0
    }
  }
}
layer {
  name: "layer_64_3_sum"
  type: "Eltwise"
  bottom: "layer_64_3_conv3"
  bottom: "layer_64_2_sum"
  top: "layer_64_3_sum"
}
layer {
  name: "layer_128_1_bn1"
  type: "BatchNorm"
  bottom: "layer_64_3_sum"
  top: "layer_128_1_bn1"
}
layer {
  name: "layer_128_1_scale1"
  type: "Scale"
  bottom: "layer_128_1_bn1"
  top: "layer_128_1_bn1"
  param {
    lr_mult: 1
    decay_mult: 1
  }
  param {
    lr_mult: 2
    decay_mult: 1
  }
  scale_param {
    bias_term: true
  }
}
layer {
  name: "layer_128_1_relu1"
  type: "ReLU"
  bottom: "layer_128_1_bn1"
  top: "layer_128_1_bn1"
}
layer {
  name: "layer_128_1_conv1"
  type: "Convolution"
  bottom: "layer_128_1_bn1"
  top: "layer_128_1_conv1"
  param {
    lr_mult: 1
    decay_mult: 1
  }
  convolution_param {
    num_output: 128
    bias_term: false
    pad: 0
    kernel_size: 1
    stride: 1
    weight_filler {
      type: "msra"
    }
    bias_filler {
      type: "constant"
      value: 0
    }
  }
}
layer {
  name: "layer_128_1_bn2"
  type: "BatchNorm"
  bottom: "layer_128_1_conv1"
  top: "layer_128_1_conv1"
}
layer {
  name: "layer_128_1_scale2"
  type: "Scale"
  bottom: "layer_128_1_conv1"
  top: "layer_128_1_conv1"
  param {
    lr_mult: 1
    decay_mult: 1
  }
  param {
    lr_mult: 2
    decay_mult: 1
  }
  scale_param {
    bias_term: true
  }
}
layer {
  name: "layer_128_1_relu2"
  type: "ReLU"
  bottom: "layer_128_1_conv1"
  top: "layer_128_1_conv1"
}
layer {
  name: "layer_128_1_conv2"
  type: "Convolution"
  bottom: "layer_128_1_conv1"
  top: "layer_128_1_conv2"
  param {
    lr_mult: 1
    decay_mult: 1
  }
  convolution_param {
    num_output: 128
    bias_term: false
    pad: 1
    kernel_size: 3
    stride: 2
    weight_filler {
      type: "msra"
    }
    bias_filler {
      type: "constant"
      value: 0
    }
  }
}
layer {
  name: "layer_128_1_bn3"
  type: "BatchNorm"
  bottom: "layer_128_1_conv2"
  top: "layer_128_1_conv2"
}
layer {
  name: "layer_128_1_scale3"
  type: "Scale"
  bottom: "layer_128_1_conv2"
  top: "layer_128_1_conv2"
  param {
    lr_mult: 1
    decay_mult: 1
  }
  param {
    lr_mult: 2
    decay_mult: 1
  }
  scale_param {
    bias_term: true
  }
}
layer {
  name: "layer_128_1_relu3"
  type: "ReLU"
  bottom: "layer_128_1_conv2"
  top: "layer_128_1_conv2"
}
layer {
  name: "layer_128_1_conv3"
  type: "Convolution"
  bottom: "layer_128_1_conv2"
  top: "layer_128_1_conv3"
  param {
    lr_mult: 1
    decay_mult: 1
  }
  convolution_param {
    num_output: 512
    bias_term: false
    pad: 0
    kernel_size: 1
    stride: 1
    weight_filler {
      type: "msra"
    }
    bias_filler {
      type: "constant"
      value: 0
    }
  }
}
layer {
  name: "layer_128_1_conv_expand"
  type: "Convolution"
  bottom: "layer_128_1_bn1"
  top: "layer_128_1_conv_expand"
  param {
    lr_mult: 1
    decay_mult: 1
  }
  convolution_param {
    num_output: 512
    bias_term: false
    pad: 0
    kernel_size: 1
    stride: 2
    weight_filler {
      type: "msra"
    }
    bias_filler {
      type: "constant"
      value: 0
    }
  }
}
layer {
  name: "layer_128_1_sum"
  type: "Eltwise"
  bottom: "layer_128_1_conv3"
  bottom: "layer_128_1_conv_expand"
  top: "layer_128_1_sum"
}
layer {
  name: "layer_128_2_bn1"
  type: "BatchNorm"
  bottom: "layer_128_1_sum"
  top: "layer_128_2_bn1"
}
layer {
  name: "layer_128_2_scale1"
  type: "Scale"
  bottom: "layer_128_2_bn1"
  top: "layer_128_2_bn1"
  param {
    lr_mult: 1
    decay_mult: 1
  }
  param {
    lr_mult: 2
    decay_mult: 1
  }
  scale_param {
    bias_term: true
  }
}
layer {
  name: "layer_128_2_relu1"
  type: "ReLU"
  bottom: "layer_128_2_bn1"
  top: "layer_128_2_bn1"
}
layer {
  name: "layer_128_2_conv1"
  type: "Convolution"
  bottom: "layer_128_2_bn1"
  top: "layer_128_2_conv1"
  param {
    lr_mult: 1
    decay_mult: 1
  }
  convolution_param {
    num_output: 128
    bias_term: false
    pad: 0
    kernel_size: 1
    stride: 1
    weight_filler {
      type: "msra"
    }
    bias_filler {
      type: "constant"
      value: 0
    }
  }
}
layer {
  name: "layer_128_2_bn2"
  type: "BatchNorm"
  bottom: "layer_128_2_conv1"
  top: "layer_128_2_conv1"
}
layer {
  name: "layer_128_2_scale2"
  type: "Scale"
  bottom: "layer_128_2_conv1"
  top: "layer_128_2_conv1"
  param {
    lr_mult: 1
    decay_mult: 1
  }
  param {
    lr_mult: 2
    decay_mult: 1
  }
  scale_param {
    bias_term: true
  }
}
layer {
  name: "layer_128_2_relu2"
  type: "ReLU"
  bottom: "layer_128_2_conv1"
  top: "layer_128_2_conv1"
}
layer {
  name: "layer_128_2_conv2"
  type: "Convolution"
  bottom: "layer_128_2_conv1"
  top: "layer_128_2_conv2"
  param {
    lr_mult: 1
    decay_mult: 1
  }
  convolution_param {
    num_output: 128
    bias_term: false
    pad: 1
    kernel_size: 3
    stride: 1
    weight_filler {
      type: "msra"
    }
    bias_filler {
      type: "constant"
      value: 0
    }
  }
}
layer {
  name: "layer_128_2_bn3"
  type: "BatchNorm"
  bottom: "layer_128_2_conv2"
  top: "layer_128_2_conv2"
}
layer {
  name: "layer_128_2_scale3"
  type: "Scale"
  bottom: "layer_128_2_conv2"
  top: "layer_128_2_conv2"
  param {
    lr_mult: 1
    decay_mult: 1
  }
  param {
    lr_mult: 2
    decay_mult: 1
  }
  scale_param {
    bias_term: true
  }
}
layer {
  name: "layer_128_2_relu3"
  type: "ReLU"
  bottom: "layer_128_2_conv2"
  top: "layer_128_2_conv2"
}
layer {
  name: "layer_128_2_conv3"
  type: "Convolution"
  bottom: "layer_128_2_conv2"
  top: "layer_128_2_conv3"
  param {
    lr_mult: 1
    decay_mult: 1
  }
  convolution_param {
    num_output: 512
    bias_term: false
    pad: 0
    kernel_size: 1
    stride: 1
    weight_filler {
      type: "msra"
    }
    bias_filler {
      type: "constant"
      value: 0
    }
  }
}
layer {
  name: "layer_128_2_sum"
  type: "Eltwise"
  bottom: "layer_128_2_conv3"
  bottom: "layer_128_1_sum"
  top: "layer_128_2_sum"
}
layer {
  name: "layer_128_3_bn1"
  type: "BatchNorm"
  bottom: "layer_128_2_sum"
  top: "layer_128_3_bn1"
}
layer {
  name: "layer_128_3_scale1"
  type: "Scale"
  bottom: "layer_128_3_bn1"
  top: "layer_128_3_bn1"
  param {
    lr_mult: 1
    decay_mult: 1
  }
  param {
    lr_mult: 2
    decay_mult: 1
  }
  scale_param {
    bias_term: true
  }
}
layer {
  name: "layer_128_3_relu1"
  type: "ReLU"
  bottom: "layer_128_3_bn1"
  top: "layer_128_3_bn1"
}
layer {
  name: "layer_128_3_conv1"
  type: "Convolution"
  bottom: "layer_128_3_bn1"
  top: "layer_128_3_conv1"
  param {
    lr_mult: 1
    decay_mult: 1
  }
  convolution_param {
    num_output: 128
    bias_term: false
    pad: 0
    kernel_size: 1
    stride: 1
    weight_filler {
      type: "msra"
    }
    bias_filler {
      type: "constant"
      value: 0
    }
  }
}
layer {
  name: "layer_128_3_bn2"
  type: "BatchNorm"
  bottom: "layer_128_3_conv1"
  top: "layer_128_3_conv1"
}
layer {
  name: "layer_128_3_scale2"
  type: "Scale"
  bottom: "layer_128_3_conv1"
  top: "layer_128_3_conv1"
  param {
    lr_mult: 1
    decay_mult: 1
  }
  param {
    lr_mult: 2
    decay_mult: 1
  }
  scale_param {
    bias_term: true
  }
}
layer {
  name: "layer_128_3_relu2"
  type: "ReLU"
  bottom: "layer_128_3_conv1"
  top: "layer_128_3_conv1"
}
layer {
  name: "layer_128_3_conv2"
  type: "Convolution"
  bottom: "layer_128_3_conv1"
  top: "layer_128_3_conv2"
  param {
    lr_mult: 1
    decay_mult: 1
  }
  convolution_param {
    num_output: 128
    bias_term: false
    pad: 1
    kernel_size: 3
    stride: 1
    weight_filler {
      type: "msra"
    }
    bias_filler {
      type: "constant"
      value: 0
    }
  }
}
layer {
  name: "layer_128_3_bn3"
  type: "BatchNorm"
  bottom: "layer_128_3_conv2"
  top: "layer_128_3_conv2"
}
layer {
  name: "layer_128_3_scale3"
  type: "Scale"
  bottom: "layer_128_3_conv2"
  top: "layer_128_3_conv2"
  param {
    lr_mult: 1
    decay_mult: 1
  }
  param {
    lr_mult: 2
    decay_mult: 1
  }
  scale_param {
    bias_term: true
  }
}
layer {
  name: "layer_128_3_relu3"
  type: "ReLU"
  bottom: "layer_128_3_conv2"
  top: "layer_128_3_conv2"
}
layer {
  name: "layer_128_3_conv3"
  type: "Convolution"
  bottom: "layer_128_3_conv2"
  top: "layer_128_3_conv3"
  param {
    lr_mult: 1
    decay_mult: 1
  }
  convolution_param {
    num_output: 512
    bias_term: false
    pad: 0
    kernel_size: 1
    stride: 1
    weight_filler {
      type: "msra"
    }
    bias_filler {
      type: "constant"
      value: 0
    }
  }
}
layer {
  name: "layer_128_3_sum"
  type: "Eltwise"
  bottom: "layer_128_3_conv3"
  bottom: "layer_128_2_sum"
  top: "layer_128_3_sum"
}
layer {
  name: "layer_128_4_bn1"
  type: "BatchNorm"
  bottom: "layer_128_3_sum"
  top: "layer_128_4_bn1"
}
layer {
  name: "layer_128_4_scale1"
  type: "Scale"
  bottom: "layer_128_4_bn1"
  top: "layer_128_4_bn1"
  param {
    lr_mult: 1
    decay_mult: 1
  }
  param {
    lr_mult: 2
    decay_mult: 1
  }
  scale_param {
    bias_term: true
  }
}
layer {
  name: "layer_128_4_relu1"
  type: "ReLU"
  bottom: "layer_128_4_bn1"
  top: "layer_128_4_bn1"
}
layer {
  name: "layer_128_4_conv1"
  type: "Convolution"
  bottom: "layer_128_4_bn1"
  top: "layer_128_4_conv1"
  param {
    lr_mult: 1
    decay_mult: 1
  }
  convolution_param {
    num_output: 128
    bias_term: false
    pad: 0
    kernel_size: 1
    stride: 1
    weight_filler {
      type: "msra"
    }
    bias_filler {
      type: "constant"
      value: 0
    }
  }
}
layer {
  name: "layer_128_4_bn2"
  type: "BatchNorm"
  bottom: "layer_128_4_conv1"
  top: "layer_128_4_conv1"
}
layer {
  name: "layer_128_4_scale2"
  type: "Scale"
  bottom: "layer_128_4_conv1"
  top: "layer_128_4_conv1"
  param {
    lr_mult: 1
    decay_mult: 1
  }
  param {
    lr_mult: 2
    decay_mult: 1
  }
  scale_param {
    bias_term: true
  }
}
layer {
  name: "layer_128_4_relu2"
  type: "ReLU"
  bottom: "layer_128_4_conv1"
  top: "layer_128_4_conv1"
}
layer {
  name: "layer_128_4_conv2"
  type: "Convolution"
  bottom: "layer_128_4_conv1"
  top: "layer_128_4_conv2"
  param {
    lr_mult: 1
    decay_mult: 1
  }
  convolution_param {
    num_output: 128
    bias_term: false
    pad: 1
    kernel_size: 3
    stride: 1
    weight_filler {
      type: "msra"
    }
    bias_filler {
      type: "constant"
      value: 0
    }
  }
}
layer {
  name: "layer_128_4_bn3"
  type: "BatchNorm"
  bottom: "layer_128_4_conv2"
  top: "layer_128_4_conv2"
}
layer {
  name: "layer_128_4_scale3"
  type: "Scale"
  bottom: "layer_128_4_conv2"
  top: "layer_128_4_conv2"
  param {
    lr_mult: 1
    decay_mult: 1
  }
  param {
    lr_mult: 2
    decay_mult: 1
  }
  scale_param {
    bias_term: true
  }
}
layer {
  name: "layer_128_4_relu3"
  type: "ReLU"
  bottom: "layer_128_4_conv2"
  top: "layer_128_4_conv2"
}
layer {
  name: "layer_128_4_conv3"
  type: "Convolution"
  bottom: "layer_128_4_conv2"
  top: "layer_128_4_conv3"
  param {
    lr_mult: 1
    decay_mult: 1
  }
  convolution_param {
    num_output: 512
    bias_term: false
    pad: 0
    kernel_size: 1
    stride: 1
    weight_filler {
      type: "msra"
    }
    bias_filler {
      type: "constant"
      value: 0
    }
  }
}
layer {
  name: "layer_128_4_sum"
  type: "Eltwise"
  bottom: "layer_128_4_conv3"
  bottom: "layer_128_3_sum"
  top: "layer_128_4_sum"
}
layer {
  name: "layer_256_1_bn1"
  type: "BatchNorm"
  bottom: "layer_128_4_sum"
  top: "layer_256_1_bn1"
}
layer {
  name: "layer_256_1_scale1"
  type: "Scale"
  bottom: "layer_256_1_bn1"
  top: "layer_256_1_bn1"
  param {
    lr_mult: 1
    decay_mult: 1
  }
  param {
    lr_mult: 2
    decay_mult: 1
  }
  scale_param {
    bias_term: true
  }
}
layer {
  name: "layer_256_1_relu1"
  type: "ReLU"
  bottom: "layer_256_1_bn1"
  top: "layer_256_1_bn1"
}
layer {
  name: "layer_256_1_conv1"
  type: "Convolution"
  bottom: "layer_256_1_bn1"
  top: "layer_256_1_conv1"
  param {
    lr_mult: 1
    decay_mult: 1
  }
  convolution_param {
    num_output: 256
    bias_term: false
    pad: 0
    kernel_size: 1
    stride: 1
    weight_filler {
      type: "msra"
    }
    bias_filler {
      type: "constant"
      value: 0
    }
  }
}
layer {
  name: "layer_256_1_bn2"
  type: "BatchNorm"
  bottom: "layer_256_1_conv1"
  top: "layer_256_1_conv1"
}
layer {
  name: "layer_256_1_scale2"
  type: "Scale"
  bottom: "layer_256_1_conv1"
  top: "layer_256_1_conv1"
  param {
    lr_mult: 1
    decay_mult: 1
  }
  param {
    lr_mult: 2
    decay_mult: 1
  }
  scale_param {
    bias_term: true
  }
}
layer {
  name: "layer_256_1_relu2"
  type: "ReLU"
  bottom: "layer_256_1_conv1"
  top: "layer_256_1_conv1"
}
layer {
  name: "layer_256_1_conv2"
  type: "Convolution"
  bottom: "layer_256_1_conv1"
  top: "layer_256_1_conv2"
  param {
    lr_mult: 1
    decay_mult: 1
  }
  convolution_param {
    num_output: 256
    bias_term: false
    pad: 1
    kernel_size: 3
    stride: 2
    weight_filler {
      type: "msra"
    }
    bias_filler {
      type: "constant"
      value: 0
    }
  }
}
layer {
  name: "layer_256_1_bn3"
  type: "BatchNorm"
  bottom: "layer_256_1_conv2"
  top: "layer_256_1_conv2"
}
layer {
  name: "layer_256_1_scale3"
  type: "Scale"
  bottom: "layer_256_1_conv2"
  top: "layer_256_1_conv2"
  param {
    lr_mult: 1
    decay_mult: 1
  }
  param {
    lr_mult: 2
    decay_mult: 1
  }
  scale_param {
    bias_term: true
  }
}
layer {
  name: "layer_256_1_relu3"
  type: "ReLU"
  bottom: "layer_256_1_conv2"
  top: "layer_256_1_conv2"
}
layer {
  name: "layer_256_1_conv3"
  type: "Convolution"
  bottom: "layer_256_1_conv2"
  top: "layer_256_1_conv3"
  param {
    lr_mult: 1
    decay_mult: 1
  }
  convolution_param {
    num_output: 1024
    bias_term: false
    pad: 0
    kernel_size: 1
    stride: 1
    weight_filler {
      type: "msra"
    }
    bias_filler {
      type: "constant"
      value: 0
    }
  }
}
layer {
  name: "layer_256_1_conv_expand"
  type: "Convolution"
  bottom: "layer_256_1_bn1"
  top: "layer_256_1_conv_expand"
  param {
    lr_mult: 1
    decay_mult: 1
  }
  convolution_param {
    num_output: 1024
    bias_term: false
    pad: 0
    kernel_size: 1
    stride: 2
    weight_filler {
      type: "msra"
    }
    bias_filler {
      type: "constant"
      value: 0
    }
  }
}
layer {
  name: "layer_256_1_sum"
  type: "Eltwise"
  bottom: "layer_256_1_conv3"
  bottom: "layer_256_1_conv_expand"
  top: "layer_256_1_sum"
}
layer {
  name: "layer_256_2_bn1"
  type: "BatchNorm"
  bottom: "layer_256_1_sum"
  top: "layer_256_2_bn1"
}
layer {
  name: "layer_256_2_scale1"
  type: "Scale"
  bottom: "layer_256_2_bn1"
  top: "layer_256_2_bn1"
  param {
    lr_mult: 1
    decay_mult: 1
  }
  param {
    lr_mult: 2
    decay_mult: 1
  }
  scale_param {
    bias_term: true
  }
}
layer {
  name: "layer_256_2_relu1"
  type: "ReLU"
  bottom: "layer_256_2_bn1"
  top: "layer_256_2_bn1"
}
layer {
  name: "layer_256_2_conv1"
  type: "Convolution"
  bottom: "layer_256_2_bn1"
  top: "layer_256_2_conv1"
  param {
    lr_mult: 1
    decay_mult: 1
  }
  convolution_param {
    num_output: 256
    bias_term: false
    pad: 0
    kernel_size: 1
    stride: 1
    weight_filler {
      type: "msra"
    }
    bias_filler {
      type: "constant"
      value: 0
    }
  }
}
layer {
  name: "layer_256_2_bn2"
  type: "BatchNorm"
  bottom: "layer_256_2_conv1"
  top: "layer_256_2_conv1"
}
layer {
  name: "layer_256_2_scale2"
  type: "Scale"
  bottom: "layer_256_2_conv1"
  top: "layer_256_2_conv1"
  param {
    lr_mult: 1
    decay_mult: 1
  }
  param {
    lr_mult: 2
    decay_mult: 1
  }
  scale_param {
    bias_term: true
  }
}
layer {
  name: "layer_256_2_relu2"
  type: "ReLU"
  bottom: "layer_256_2_conv1"
  top: "layer_256_2_conv1"
}
layer {
  name: "layer_256_2_conv2"
  type: "Convolution"
  bottom: "layer_256_2_conv1"
  top: "layer_256_2_conv2"
  param {
    lr_mult: 1
    decay_mult: 1
  }
  convolution_param {
    num_output: 256
    bias_term: false
    pad: 1
    kernel_size: 3
    stride: 1
    weight_filler {
      type: "msra"
    }
    bias_filler {
      type: "constant"
      value: 0
    }
  }
}
layer {
  name: "layer_256_2_bn3"
  type: "BatchNorm"
  bottom: "layer_256_2_conv2"
  top: "layer_256_2_conv2"
}
layer {
  name: "layer_256_2_scale3"
  type: "Scale"
  bottom: "layer_256_2_conv2"
  top: "layer_256_2_conv2"
  param {
    lr_mult: 1
    decay_mult: 1
  }
  param {
    lr_mult: 2
    decay_mult: 1
  }
  scale_param {
    bias_term: true
  }
}
layer {
  name: "layer_256_2_relu3"
  type: "ReLU"
  bottom: "layer_256_2_conv2"
  top: "layer_256_2_conv2"
}
layer {
  name: "layer_256_2_conv3"
  type: "Convolution"
  bottom: "layer_256_2_conv2"
  top: "layer_256_2_conv3"
  param {
    lr_mult: 1
    decay_mult: 1
  }
  convolution_param {
    num_output: 1024
    bias_term: false
    pad: 0
    kernel_size: 1
    stride: 1
    weight_filler {
      type: "msra"
    }
    bias_filler {
      type: "constant"
      value: 0
    }
  }
}
layer {
  name: "layer_256_2_sum"
  type: "Eltwise"
  bottom: "layer_256_2_conv3"
  bottom: "layer_256_1_sum"
  top: "layer_256_2_sum"
}
layer {
  name: "layer_256_3_bn1"
  type: "BatchNorm"
  bottom: "layer_256_2_sum"
  top: "layer_256_3_bn1"
}
layer {
  name: "layer_256_3_scale1"
  type: "Scale"
  bottom: "layer_256_3_bn1"
  top: "layer_256_3_bn1"
  param {
    lr_mult: 1
    decay_mult: 1
  }
  param {
    lr_mult: 2
    decay_mult: 1
  }
  scale_param {
    bias_term: true
  }
}
layer {
  name: "layer_256_3_relu1"
  type: "ReLU"
  bottom: "layer_256_3_bn1"
  top: "layer_256_3_bn1"
}
layer {
  name: "layer_256_3_conv1"
  type: "Convolution"
  bottom: "layer_256_3_bn1"
  top: "layer_256_3_conv1"
  param {
    lr_mult: 1
    decay_mult: 1
  }
  convolution_param {
    num_output: 256
    bias_term: false
    pad: 0
    kernel_size: 1
    stride: 1
    weight_filler {
      type: "msra"
    }
    bias_filler {
      type: "constant"
      value: 0
    }
  }
}
layer {
  name: "layer_256_3_bn2"
  type: "BatchNorm"
  bottom: "layer_256_3_conv1"
  top: "layer_256_3_conv1"
}
layer {
  name: "layer_256_3_scale2"
  type: "Scale"
  bottom: "layer_256_3_conv1"
  top: "layer_256_3_conv1"
  param {
    lr_mult: 1
    decay_mult: 1
  }
  param {
    lr_mult: 2
    decay_mult: 1
  }
  scale_param {
    bias_term: true
  }
}
layer {
  name: "layer_256_3_relu2"
  type: "ReLU"
  bottom: "layer_256_3_conv1"
  top: "layer_256_3_conv1"
}
layer {
  name: "layer_256_3_conv2"
  type: "Convolution"
  bottom: "layer_256_3_conv1"
  top: "layer_256_3_conv2"
  param {
    lr_mult: 1
    decay_mult: 1
  }
  convolution_param {
    num_output: 256
    bias_term: false
    pad: 1
    kernel_size: 3
    stride: 1
    weight_filler {
      type: "msra"
    }
    bias_filler {
      type: "constant"
      value: 0
    }
  }
}
layer {
  name: "layer_256_3_bn3"
  type: "BatchNorm"
  bottom: "layer_256_3_conv2"
  top: "layer_256_3_conv2"
}
layer {
  name: "layer_256_3_scale3"
  type: "Scale"
  bottom: "layer_256_3_conv2"
  top: "layer_256_3_conv2"
  param {
    lr_mult: 1
    decay_mult: 1
  }
  param {
    lr_mult: 2
    decay_mult: 1
  }
  scale_param {
    bias_term: true
  }
}
layer {
  name: "layer_256_3_relu3"
  type: "ReLU"
  bottom: "layer_256_3_conv2"
  top: "layer_256_3_conv2"
}
layer {
  name: "layer_256_3_conv3"
  type: "Convolution"
  bottom: "layer_256_3_conv2"
  top: "layer_256_3_conv3"
  param {
    lr_mult: 1
    decay_mult: 1
  }
  convolution_param {
    num_output: 1024
    bias_term: false
    pad: 0
    kernel_size: 1
    stride: 1
    weight_filler {
      type: "msra"
    }
    bias_filler {
      type: "constant"
      value: 0
    }
  }
}
layer {
  name: "layer_256_3_sum"
  type: "Eltwise"
  bottom: "layer_256_3_conv3"
  bottom: "layer_256_2_sum"
  top: "layer_256_3_sum"
}
layer {
  name: "layer_256_4_bn1"
  type: "BatchNorm"
  bottom: "layer_256_3_sum"
  top: "layer_256_4_bn1"
}
layer {
  name: "layer_256_4_scale1"
  type: "Scale"
  bottom: "layer_256_4_bn1"
  top: "layer_256_4_bn1"
  param {
    lr_mult: 1
    decay_mult: 1
  }
  param {
    lr_mult: 2
    decay_mult: 1
  }
  scale_param {
    bias_term: true
  }
}
layer {
  name: "layer_256_4_relu1"
  type: "ReLU"
  bottom: "layer_256_4_bn1"
  top: "layer_256_4_bn1"
}
layer {
  name: "layer_256_4_conv1"
  type: "Convolution"
  bottom: "layer_256_4_bn1"
  top: "layer_256_4_conv1"
  param {
    lr_mult: 1
    decay_mult: 1
  }
  convolution_param {
    num_output: 256
    bias_term: false
    pad: 0
    kernel_size: 1
    stride: 1
    weight_filler {
      type: "msra"
    }
    bias_filler {
      type: "constant"
      value: 0
    }
  }
}
layer {
  name: "layer_256_4_bn2"
  type: "BatchNorm"
  
I0131 23:30:01.313377  8699 layer_factory.hpp:77] Creating layer data
I0131 23:30:01.313413  8699 net.cpp:100] Creating Layer data
I0131 23:30:01.313421  8699 net.cpp:408] data -> data
I0131 23:30:01.313437  8699 net.cpp:408] data -> label
I0131 23:30:01.313452  8699 image_data_layer.cpp:38] Opening file /media/yves/sandisk3/caffe-master/data/ilsvrc12/val.txt
I0131 23:30:01.322959  8699 image_data_layer.cpp:53] Shuffling data
I0131 23:30:01.326226  8699 image_data_layer.cpp:58] A total of 50000 images.
I0131 23:30:01.332792  8699 image_data_layer.cpp:85] output data size: 10,3,224,224
I0131 23:30:01.341048  8699 net.cpp:150] Setting up data
I0131 23:30:01.341087  8699 net.cpp:157] Top shape: 10 3 224 224 (1505280)
I0131 23:30:01.341094  8699 net.cpp:157] Top shape: 10 (10)
I0131 23:30:01.341099  8699 net.cpp:165] Memory required for data: 6021160
I0131 23:30:01.341106  8699 layer_factory.hpp:77] Creating layer label_data_1_split
I0131 23:30:01.341121  8699 net.cpp:100] Creating Layer label_data_1_split
I0131 23:30:01.341128  8699 net.cpp:434] label_data_1_split <- label
I0131 23:30:01.341140  8699 net.cpp:408] label_data_1_split -> label_data_1_split_0
I0131 23:30:01.341151  8699 net.cpp:408] label_data_1_split -> label_data_1_split_1
I0131 23:30:01.341158  8699 net.cpp:408] label_data_1_split -> label_data_1_split_2
I0131 23:30:01.341203  8699 net.cpp:150] Setting up label_data_1_split
I0131 23:30:01.341212  8699 net.cpp:157] Top shape: 10 (10)
I0131 23:30:01.341217  8699 net.cpp:157] Top shape: 10 (10)
I0131 23:30:01.341223  8699 net.cpp:157] Top shape: 10 (10)
I0131 23:30:01.341226  8699 net.cpp:165] Memory required for data: 6021280
I0131 23:30:01.341231  8699 layer_factory.hpp:77] Creating layer data_bn
I0131 23:30:01.341238  8699 net.cpp:100] Creating Layer data_bn
I0131 23:30:01.341243  8699 net.cpp:434] data_bn <- data
I0131 23:30:01.341250  8699 net.cpp:408] data_bn -> data_bn
I0131 23:30:01.342142  8699 net.cpp:150] Setting up data_bn
I0131 23:30:01.342154  8699 net.cpp:157] Top shape: 10 3 224 224 (1505280)
I0131 23:30:01.342159  8699 net.cpp:165] Memory required for data: 12042400
I0131 23:30:01.342175  8699 layer_factory.hpp:77] Creating layer data_scale
I0131 23:30:01.342190  8699 net.cpp:100] Creating Layer data_scale
I0131 23:30:01.342202  8699 net.cpp:434] data_scale <- data_bn
I0131 23:30:01.342216  8699 net.cpp:395] data_scale -> data_bn (in-place)
I0131 23:30:01.342258  8699 layer_factory.hpp:77] Creating layer data_scale
I0131 23:30:01.342381  8699 net.cpp:150] Setting up data_scale
I0131 23:30:01.342393  8699 net.cpp:157] Top shape: 10 3 224 224 (1505280)
I0131 23:30:01.342397  8699 net.cpp:165] Memory required for data: 18063520
I0131 23:30:01.342407  8699 layer_factory.hpp:77] Creating layer conv1
I0131 23:30:01.342422  8699 net.cpp:100] Creating Layer conv1
I0131 23:30:01.342428  8699 net.cpp:434] conv1 <- data_bn
I0131 23:30:01.342435  8699 net.cpp:408] conv1 -> conv1
I0131 23:30:01.483237  8699 net.cpp:150] Setting up conv1
I0131 23:30:01.483279  8699 net.cpp:157] Top shape: 10 64 112 112 (8028160)
I0131 23:30:01.483284  8699 net.cpp:165] Memory required for data: 50176160
I0131 23:30:01.483295  8699 layer_factory.hpp:77] Creating layer conv1_bn
I0131 23:30:01.483305  8699 net.cpp:100] Creating Layer conv1_bn
I0131 23:30:01.483311  8699 net.cpp:434] conv1_bn <- conv1
I0131 23:30:01.483319  8699 net.cpp:395] conv1_bn -> conv1 (in-place)
I0131 23:30:01.483499  8699 net.cpp:150] Setting up conv1_bn
I0131 23:30:01.483525  8699 net.cpp:157] Top shape: 10 64 112 112 (8028160)
I0131 23:30:01.483530  8699 net.cpp:165] Memory required for data: 82288800
I0131 23:30:01.483554  8699 layer_factory.hpp:77] Creating layer conv1_scale
I0131 23:30:01.483564  8699 net.cpp:100] Creating Layer conv1_scale
I0131 23:30:01.483570  8699 net.cpp:434] conv1_scale <- conv1
I0131 23:30:01.483577  8699 net.cpp:395] conv1_scale -> conv1 (in-place)
I0131 23:30:01.483613  8699 layer_factory.hpp:77] Creating layer conv1_scale
I0131 23:30:01.483764  8699 net.cpp:150] Setting up conv1_scale
I0131 23:30:01.483788  8699 net.cpp:157] Top shape: 10 64 112 112 (8028160)
I0131 23:30:01.483793  8699 net.cpp:165] Memory required for data: 114401440
I0131 23:30:01.483800  8699 layer_factory.hpp:77] Creating layer conv1_relu
I0131 23:30:01.483808  8699 net.cpp:100] Creating Layer conv1_relu
I0131 23:30:01.483825  8699 net.cpp:434] conv1_relu <- conv1
I0131 23:30:01.483830  8699 net.cpp:395] conv1_relu -> conv1 (in-place)
I0131 23:30:01.483988  8699 net.cpp:150] Setting up conv1_relu
I0131 23:30:01.484014  8699 net.cpp:157] Top shape: 10 64 112 112 (8028160)
I0131 23:30:01.484019  8699 net.cpp:165] Memory required for data: 146514080
I0131 23:30:01.484024  8699 layer_factory.hpp:77] Creating layer conv1_pool
I0131 23:30:01.484048  8699 net.cpp:100] Creating Layer conv1_pool
I0131 23:30:01.484055  8699 net.cpp:434] conv1_pool <- conv1
I0131 23:30:01.484062  8699 net.cpp:408] conv1_pool -> conv1_pool
I0131 23:30:01.484109  8699 net.cpp:150] Setting up conv1_pool
I0131 23:30:01.484118  8699 net.cpp:157] Top shape: 10 64 56 56 (2007040)
I0131 23:30:01.484123  8699 net.cpp:165] Memory required for data: 154542240
I0131 23:30:01.484128  8699 layer_factory.hpp:77] Creating layer layer_64_1_conv1
I0131 23:30:01.484138  8699 net.cpp:100] Creating Layer layer_64_1_conv1
I0131 23:30:01.484143  8699 net.cpp:434] layer_64_1_conv1 <- conv1_pool
I0131 23:30:01.484150  8699 net.cpp:408] layer_64_1_conv1 -> layer_64_1_conv1
I0131 23:30:01.485780  8699 net.cpp:150] Setting up layer_64_1_conv1
I0131 23:30:01.485795  8699 net.cpp:157] Top shape: 10 64 56 56 (2007040)
I0131 23:30:01.485802  8699 net.cpp:165] Memory required for data: 162570400
I0131 23:30:01.485808  8699 layer_factory.hpp:77] Creating layer layer_64_1_bn2
I0131 23:30:01.485816  8699 net.cpp:100] Creating Layer layer_64_1_bn2
I0131 23:30:01.485821  8699 net.cpp:434] layer_64_1_bn2 <- layer_64_1_conv1
I0131 23:30:01.485829  8699 net.cpp:395] layer_64_1_bn2 -> layer_64_1_conv1 (in-place)
I0131 23:30:01.486006  8699 net.cpp:150] Setting up layer_64_1_bn2
I0131 23:30:01.486017  8699 net.cpp:157] Top shape: 10 64 56 56 (2007040)
I0131 23:30:01.486022  8699 net.cpp:165] Memory required for data: 170598560
I0131 23:30:01.486032  8699 layer_factory.hpp:77] Creating layer layer_64_1_scale2
I0131 23:30:01.486038  8699 net.cpp:100] Creating Layer layer_64_1_scale2
I0131 23:30:01.486049  8699 net.cpp:434] layer_64_1_scale2 <- layer_64_1_conv1
I0131 23:30:01.486066  8699 net.cpp:395] layer_64_1_scale2 -> layer_64_1_conv1 (in-place)
I0131 23:30:01.486105  8699 layer_factory.hpp:77] Creating layer layer_64_1_scale2
I0131 23:30:01.486217  8699 net.cpp:150] Setting up layer_64_1_scale2
I0131 23:30:01.486227  8699 net.cpp:157] Top shape: 10 64 56 56 (2007040)
I0131 23:30:01.486232  8699 net.cpp:165] Memory required for data: 178626720
I0131 23:30:01.486241  8699 layer_factory.hpp:77] Creating layer layer_64_1_relu2
I0131 23:30:01.486250  8699 net.cpp:100] Creating Layer layer_64_1_relu2
I0131 23:30:01.486255  8699 net.cpp:434] layer_64_1_relu2 <- layer_64_1_conv1
I0131 23:30:01.486263  8699 net.cpp:395] layer_64_1_relu2 -> layer_64_1_conv1 (in-place)
I0131 23:30:01.486662  8699 net.cpp:150] Setting up layer_64_1_relu2
I0131 23:30:01.486675  8699 net.cpp:157] Top shape: 10 64 56 56 (2007040)
I0131 23:30:01.486681  8699 net.cpp:165] Memory required for data: 186654880
I0131 23:30:01.486686  8699 layer_factory.hpp:77] Creating layer layer_64_1_conv1_layer_64_1_relu2_0_split
I0131 23:30:01.486693  8699 net.cpp:100] Creating Layer layer_64_1_conv1_layer_64_1_relu2_0_split
I0131 23:30:01.486699  8699 net.cpp:434] layer_64_1_conv1_layer_64_1_relu2_0_split <- layer_64_1_conv1
I0131 23:30:01.486706  8699 net.cpp:408] layer_64_1_conv1_layer_64_1_relu2_0_split -> layer_64_1_conv1_layer_64_1_relu2_0_split_0
I0131 23:30:01.486716  8699 net.cpp:408] layer_64_1_conv1_layer_64_1_relu2_0_split -> layer_64_1_conv1_layer_64_1_relu2_0_split_1
I0131 23:30:01.486760  8699 net.cpp:150] Setting up layer_64_1_conv1_layer_64_1_relu2_0_split
I0131 23:30:01.486770  8699 net.cpp:157] Top shape: 10 64 56 56 (2007040)
I0131 23:30:01.486776  8699 net.cpp:157] Top shape: 10 64 56 56 (2007040)
I0131 23:30:01.486781  8699 net.cpp:165] Memory required for data: 202711200
I0131 23:30:01.486786  8699 layer_factory.hpp:77] Creating layer layer_64_1_conv2
I0131 23:30:01.486799  8699 net.cpp:100] Creating Layer layer_64_1_conv2
I0131 23:30:01.486804  8699 net.cpp:434] layer_64_1_conv2 <- layer_64_1_conv1_layer_64_1_relu2_0_split_0
I0131 23:30:01.486810  8699 net.cpp:408] layer_64_1_conv2 -> layer_64_1_conv2
I0131 23:30:01.488718  8699 net.cpp:150] Setting up layer_64_1_conv2
I0131 23:30:01.488730  8699 net.cpp:157] Top shape: 10 64 56 56 (2007040)
I0131 23:30:01.488735  8699 net.cpp:165] Memory required for data: 210739360
I0131 23:30:01.488742  8699 layer_factory.hpp:77] Creating layer layer_64_1_bn3
I0131 23:30:01.488751  8699 net.cpp:100] Creating Layer layer_64_1_bn3
I0131 23:30:01.488756  8699 net.cpp:434] layer_64_1_bn3 <- layer_64_1_conv2
I0131 23:30:01.488764  8699 net.cpp:395] layer_64_1_bn3 -> layer_64_1_conv2 (in-place)
I0131 23:30:01.488950  8699 net.cpp:150] Setting up layer_64_1_bn3
I0131 23:30:01.488961  8699 net.cpp:157] Top shape: 10 64 56 56 (2007040)
I0131 23:30:01.488966  8699 net.cpp:165] Memory required for data: 218767520
I0131 23:30:01.488976  8699 layer_factory.hpp:77] Creating layer layer_64_1_scale3
I0131 23:30:01.488986  8699 net.cpp:100] Creating Layer layer_64_1_scale3
I0131 23:30:01.488991  8699 net.cpp:434] layer_64_1_scale3 <- layer_64_1_conv2
I0131 23:30:01.489001  8699 net.cpp:395] layer_64_1_scale3 -> layer_64_1_conv2 (in-place)
I0131 23:30:01.489042  8699 layer_factory.hpp:77] Creating layer layer_64_1_scale3
I0131 23:30:01.489154  8699 net.cpp:150] Setting up layer_64_1_scale3
I0131 23:30:01.489164  8699 net.cpp:157] Top shape: 10 64 56 56 (2007040)
I0131 23:30:01.489168  8699 net.cpp:165] Memory required for data: 226795680
I0131 23:30:01.489176  8699 layer_factory.hpp:77] Creating layer layer_64_1_relu3
I0131 23:30:01.489182  8699 net.cpp:100] Creating Layer layer_64_1_relu3
I0131 23:30:01.489187  8699 net.cpp:434] layer_64_1_relu3 <- layer_64_1_conv2
I0131 23:30:01.489193  8699 net.cpp:395] layer_64_1_relu3 -> layer_64_1_conv2 (in-place)
I0131 23:30:01.489589  8699 net.cpp:150] Setting up layer_64_1_relu3
I0131 23:30:01.489603  8699 net.cpp:157] Top shape: 10 64 56 56 (2007040)
I0131 23:30:01.489614  8699 net.cpp:165] Memory required for data: 234823840
I0131 23:30:01.489624  8699 layer_factory.hpp:77] Creating layer layer_64_1_conv3
I0131 23:30:01.489635  8699 net.cpp:100] Creating Layer layer_64_1_conv3
I0131 23:30:01.489642  8699 net.cpp:434] layer_64_1_conv3 <- layer_64_1_conv2
I0131 23:30:01.489651  8699 net.cpp:408] layer_64_1_conv3 -> layer_64_1_conv3
I0131 23:30:01.491036  8699 net.cpp:150] Setting up layer_64_1_conv3
I0131 23:30:01.491050  8699 net.cpp:157] Top shape: 10 256 56 56 (8028160)
I0131 23:30:01.491056  8699 net.cpp:165] Memory required for data: 266936480
I0131 23:30:01.491063  8699 layer_factory.hpp:77] Creating layer layer_64_1_conv_expand
I0131 23:30:01.491075  8699 net.cpp:100] Creating Layer layer_64_1_conv_expand
I0131 23:30:01.491081  8699 net.cpp:434] layer_64_1_conv_expand <- layer_64_1_conv1_layer_64_1_relu2_0_split_1
I0131 23:30:01.491089  8699 net.cpp:408] layer_64_1_conv_expand -> layer_64_1_conv_expand
I0131 23:30:01.492220  8699 net.cpp:150] Setting up layer_64_1_conv_expand
I0131 23:30:01.492235  8699 net.cpp:157] Top shape: 10 256 56 56 (8028160)
I0131 23:30:01.492241  8699 net.cpp:165] Memory required for data: 299049120
I0131 23:30:01.492249  8699 layer_factory.hpp:77] Creating layer layer_64_1_sum
I0131 23:30:01.492260  8699 net.cpp:100] Creating Layer layer_64_1_sum
I0131 23:30:01.492266  8699 net.cpp:434] layer_64_1_sum <- layer_64_1_conv3
I0131 23:30:01.492272  8699 net.cpp:434] layer_64_1_sum <- layer_64_1_conv_expand
I0131 23:30:01.492280  8699 net.cpp:408] layer_64_1_sum -> layer_64_1_sum
I0131 23:30:01.492306  8699 net.cpp:150] Setting up layer_64_1_sum
I0131 23:30:01.492316  8699 net.cpp:157] Top shape: 10 256 56 56 (8028160)
I0131 23:30:01.492321  8699 net.cpp:165] Memory required for data: 331161760
I0131 23:30:01.492326  8699 layer_factory.hpp:77] Creating layer layer_64_1_sum_layer_64_1_sum_0_split
I0131 23:30:01.492333  8699 net.cpp:100] Creating Layer layer_64_1_sum_layer_64_1_sum_0_split
I0131 23:30:01.492338  8699 net.cpp:434] layer_64_1_sum_layer_64_1_sum_0_split <- layer_64_1_sum
I0131 23:30:01.492344  8699 net.cpp:408] layer_64_1_sum_layer_64_1_sum_0_split -> layer_64_1_sum_layer_64_1_sum_0_split_0
I0131 23:30:01.492352  8699 net.cpp:408] layer_64_1_sum_layer_64_1_sum_0_split -> layer_64_1_sum_layer_64_1_sum_0_split_1
I0131 23:30:01.492391  8699 net.cpp:150] Setting up layer_64_1_sum_layer_64_1_sum_0_split
I0131 23:30:01.492401  8699 net.cpp:157] Top shape: 10 256 56 56 (8028160)
I0131 23:30:01.492408  8699 net.cpp:157] Top shape: 10 256 56 56 (8028160)
I0131 23:30:01.492411  8699 net.cpp:165] Memory required for data: 395387040
I0131 23:30:01.492416  8699 layer_factory.hpp:77] Creating layer layer_64_2_bn1
I0131 23:30:01.492424  8699 net.cpp:100] Creating Layer layer_64_2_bn1
I0131 23:30:01.492429  8699 net.cpp:434] layer_64_2_bn1 <- layer_64_1_sum_layer_64_1_sum_0_split_0
I0131 23:30:01.492435  8699 net.cpp:408] layer_64_2_bn1 -> layer_64_2_bn1
I0131 23:30:01.492616  8699 net.cpp:150] Setting up layer_64_2_bn1
I0131 23:30:01.492629  8699 net.cpp:157] Top shape: 10 256 56 56 (8028160)
I0131 23:30:01.492633  8699 net.cpp:165] Memory required for data: 427499680
I0131 23:30:01.492643  8699 layer_factory.hpp:77] Creating layer layer_64_2_scale1
I0131 23:30:01.492653  8699 net.cpp:100] Creating Layer layer_64_2_scale1
I0131 23:30:01.492658  8699 net.cpp:434] layer_64_2_scale1 <- layer_64_2_bn1
I0131 23:30:01.492666  8699 net.cpp:395] layer_64_2_scale1 -> layer_64_2_bn1 (in-place)
I0131 23:30:01.492700  8699 layer_factory.hpp:77] Creating layer layer_64_2_scale1
I0131 23:30:01.492804  8699 net.cpp:150] Setting up layer_64_2_scale1
I0131 23:30:01.492815  8699 net.cpp:157] Top shape: 10 256 56 56 (8028160)
I0131 23:30:01.492820  8699 net.cpp:165] Memory required for data: 459612320
I0131 23:30:01.492827  8699 layer_factory.hpp:77] Creating layer layer_64_2_relu1
I0131 23:30:01.492835  8699 net.cpp:100] Creating Layer layer_64_2_relu1
I0131 23:30:01.492841  8699 net.cpp:434] layer_64_2_relu1 <- layer_64_2_bn1
I0131 23:30:01.492851  8699 net.cpp:395] layer_64_2_relu1 -> layer_64_2_bn1 (in-place)
I0131 23:30:01.493254  8699 net.cpp:150] Setting up layer_64_2_relu1
I0131 23:30:01.493268  8699 net.cpp:157] Top shape: 10 256 56 56 (8028160)
I0131 23:30:01.493273  8699 net.cpp:165] Memory required for data: 491724960
I0131 23:30:01.493276  8699 layer_factory.hpp:77] Creating layer layer_64_2_conv1
I0131 23:30:01.493286  8699 net.cpp:100] Creating Layer layer_64_2_conv1
I0131 23:30:01.493293  8699 net.cpp:434] layer_64_2_conv1 <- layer_64_2_bn1
I0131 23:30:01.493301  8699 net.cpp:408] layer_64_2_conv1 -> layer_64_2_conv1
I0131 23:30:01.494652  8699 net.cpp:150] Setting up layer_64_2_conv1
I0131 23:30:01.494663  8699 net.cpp:157] Top shape: 10 64 56 56 (2007040)
I0131 23:30:01.494669  8699 net.cpp:165] Memory required for data: 499753120
I0131 23:30:01.494676  8699 layer_factory.hpp:77] Creating layer layer_64_2_bn2
I0131 23:30:01.494684  8699 net.cpp:100] Creating Layer layer_64_2_bn2
I0131 23:30:01.494690  8699 net.cpp:434] layer_64_2_bn2 <- layer_64_2_conv1
I0131 23:30:01.494696  8699 net.cpp:395] layer_64_2_bn2 -> layer_64_2_conv1 (in-place)
I0131 23:30:01.494887  8699 net.cpp:150] Setting up layer_64_2_bn2
I0131 23:30:01.494900  8699 net.cpp:157] Top shape: 10 64 56 56 (2007040)
I0131 23:30:01.494905  8699 net.cpp:165] Memory required for data: 507781280
I0131 23:30:01.494920  8699 layer_factory.hpp:77] Creating layer layer_64_2_scale2
I0131 23:30:01.494928  8699 net.cpp:100] Creating Layer layer_64_2_scale2
I0131 23:30:01.494933  8699 net.cpp:434] layer_64_2_scale2 <- layer_64_2_conv1
I0131 23:30:01.494940  8699 net.cpp:395] layer_64_2_scale2 -> layer_64_2_conv1 (in-place)
I0131 23:30:01.494982  8699 layer_factory.hpp:77] Creating layer layer_64_2_scale2
I0131 23:30:01.495100  8699 net.cpp:150] Setting up layer_64_2_scale2
I0131 23:30:01.495111  8699 net.cpp:157] Top shape: 10 64 56 56 (2007040)
I0131 23:30:01.495115  8699 net.cpp:165] Memory required for data: 515809440
I0131 23:30:01.495122  8699 layer_factory.hpp:77] Creating layer layer_64_2_relu2
I0131 23:30:01.495129  8699 net.cpp:100] Creating Layer layer_64_2_relu2
I0131 23:30:01.495133  8699 net.cpp:434] layer_64_2_relu2 <- layer_64_2_conv1
I0131 23:30:01.495138  8699 net.cpp:395] layer_64_2_relu2 -> layer_64_2_conv1 (in-place)
I0131 23:30:01.495302  8699 net.cpp:150] Setting up layer_64_2_relu2
I0131 23:30:01.495316  8699 net.cpp:157] Top shape: 10 64 56 56 (2007040)
I0131 23:30:01.495321  8699 net.cpp:165] Memory required for data: 523837600
I0131 23:30:01.495326  8699 layer_factory.hpp:77] Creating layer layer_64_2_conv2
I0131 23:30:01.495337  8699 net.cpp:100] Creating Layer layer_64_2_conv2
I0131 23:30:01.495343  8699 net.cpp:434] layer_64_2_conv2 <- layer_64_2_conv1
I0131 23:30:01.495352  8699 net.cpp:408] layer_64_2_conv2 -> layer_64_2_conv2
I0131 23:30:01.497200  8699 net.cpp:150] Setting up layer_64_2_conv2
I0131 23:30:01.497212  8699 net.cpp:157] Top shape: 10 64 56 56 (2007040)
I0131 23:30:01.497217  8699 net.cpp:165] Memory required for data: 531865760
I0131 23:30:01.497225  8699 layer_factory.hpp:77] Creating layer layer_64_2_bn3
I0131 23:30:01.497232  8699 net.cpp:100] Creating Layer layer_64_2_bn3
I0131 23:30:01.497238  8699 net.cpp:434] layer_64_2_bn3 <- layer_64_2_conv2
I0131 23:30:01.497244  8699 net.cpp:395] layer_64_2_bn3 -> layer_64_2_conv2 (in-place)
I0131 23:30:01.497434  8699 net.cpp:150] Setting up layer_64_2_bn3
I0131 23:30:01.497447  8699 net.cpp:157] Top shape: 10 64 56 56 (2007040)
I0131 23:30:01.497452  8699 net.cpp:165] Memory required for data: 539893920
I0131 23:30:01.497460  8699 layer_factory.hpp:77] Creating layer layer_64_2_scale3
I0131 23:30:01.497468  8699 net.cpp:100] Creating Layer layer_64_2_scale3
I0131 23:30:01.497473  8699 net.cpp:434] layer_64_2_scale3 <- layer_64_2_conv2
I0131 23:30:01.497480  8699 net.cpp:395] layer_64_2_scale3 -> layer_64_2_conv2 (in-place)
I0131 23:30:01.497521  8699 layer_factory.hpp:77] Creating layer layer_64_2_scale3
I0131 23:30:01.497637  8699 net.cpp:150] Setting up layer_64_2_scale3
I0131 23:30:01.497649  8699 net.cpp:157] Top shape: 10 64 56 56 (2007040)
I0131 23:30:01.497663  8699 net.cpp:165] Memory required for data: 547922080
I0131 23:30:01.497673  8699 layer_factory.hpp:77] Creating layer layer_64_2_relu3
I0131 23:30:01.497681  8699 net.cpp:100] Creating Layer layer_64_2_relu3
I0131 23:30:01.497687  8699 net.cpp:434] layer_64_2_relu3 <- layer_64_2_conv2
I0131 23:30:01.497694  8699 net.cpp:395] layer_64_2_relu3 -> layer_64_2_conv2 (in-place)
I0131 23:30:01.497854  8699 net.cpp:150] Setting up layer_64_2_relu3
I0131 23:30:01.497866  8699 net.cpp:157] Top shape: 10 64 56 56 (2007040)
I0131 23:30:01.497872  8699 net.cpp:165] Memory required for data: 555950240
I0131 23:30:01.497877  8699 layer_factory.hpp:77] Creating layer layer_64_2_conv3
I0131 23:30:01.497889  8699 net.cpp:100] Creating Layer layer_64_2_conv3
I0131 23:30:01.497895  8699 net.cpp:434] layer_64_2_conv3 <- layer_64_2_conv2
I0131 23:30:01.497903  8699 net.cpp:408] layer_64_2_conv3 -> layer_64_2_conv3
I0131 23:30:01.499294  8699 net.cpp:150] Setting up layer_64_2_conv3
I0131 23:30:01.499310  8699 net.cpp:157] Top shape: 10 256 56 56 (8028160)
I0131 23:30:01.499315  8699 net.cpp:165] Memory required for data: 588062880
I0131 23:30:01.499323  8699 layer_factory.hpp:77] Creating layer layer_64_2_sum
I0131 23:30:01.499331  8699 net.cpp:100] Creating Layer layer_64_2_sum
I0131 23:30:01.499337  8699 net.cpp:434] layer_64_2_sum <- layer_64_2_conv3
I0131 23:30:01.499343  8699 net.cpp:434] layer_64_2_sum <- layer_64_1_sum_layer_64_1_sum_0_split_1
I0131 23:30:01.499352  8699 net.cpp:408] layer_64_2_sum -> layer_64_2_sum
I0131 23:30:01.499377  8699 net.cpp:150] Setting up layer_64_2_sum
I0131 23:30:01.499387  8699 net.cpp:157] Top shape: 10 256 56 56 (8028160)
I0131 23:30:01.499392  8699 net.cpp:165] Memory required for data: 620175520
I0131 23:30:01.499395  8699 layer_factory.hpp:77] Creating layer layer_64_2_sum_layer_64_2_sum_0_split
I0131 23:30:01.499402  8699 net.cpp:100] Creating Layer layer_64_2_sum_layer_64_2_sum_0_split
I0131 23:30:01.499408  8699 net.cpp:434] layer_64_2_sum_layer_64_2_sum_0_split <- layer_64_2_sum
I0131 23:30:01.499413  8699 net.cpp:408] layer_64_2_sum_layer_64_2_sum_0_split -> layer_64_2_sum_layer_64_2_sum_0_split_0
I0131 23:30:01.499419  8699 net.cpp:408] layer_64_2_sum_layer_64_2_sum_0_split -> layer_64_2_sum_layer_64_2_sum_0_split_1
I0131 23:30:01.499454  8699 net.cpp:150] Setting up layer_64_2_sum_layer_64_2_sum_0_split
I0131 23:30:01.499464  8699 net.cpp:157] Top shape: 10 256 56 56 (8028160)
I0131 23:30:01.499470  8699 net.cpp:157] Top shape: 10 256 56 56 (8028160)
I0131 23:30:01.499475  8699 net.cpp:165] Memory required for data: 684400800
I0131 23:30:01.499480  8699 layer_factory.hpp:77] Creating layer layer_64_3_bn1
I0131 23:30:01.499487  8699 net.cpp:100] Creating Layer layer_64_3_bn1
I0131 23:30:01.499492  8699 net.cpp:434] layer_64_3_bn1 <- layer_64_2_sum_layer_64_2_sum_0_split_0
I0131 23:30:01.499500  8699 net.cpp:408] layer_64_3_bn1 -> layer_64_3_bn1
I0131 23:30:01.499688  8699 net.cpp:150] Setting up layer_64_3_bn1
I0131 23:30:01.499701  8699 net.cpp:157] Top shape: 10 256 56 56 (8028160)
I0131 23:30:01.499706  8699 net.cpp:165] Memory required for data: 716513440
I0131 23:30:01.499716  8699 layer_factory.hpp:77] Creating layer layer_64_3_scale1
I0131 23:30:01.499724  8699 net.cpp:100] Creating Layer layer_64_3_scale1
I0131 23:30:01.499729  8699 net.cpp:434] layer_64_3_scale1 <- layer_64_3_bn1
I0131 23:30:01.499737  8699 net.cpp:395] layer_64_3_scale1 -> layer_64_3_bn1 (in-place)
I0131 23:30:01.499778  8699 layer_factory.hpp:77] Creating layer layer_64_3_scale1
I0131 23:30:01.499884  8699 net.cpp:150] Setting up layer_64_3_scale1
I0131 23:30:01.499897  8699 net.cpp:157] Top shape: 10 256 56 56 (8028160)
I0131 23:30:01.499902  8699 net.cpp:165] Memory required for data: 748626080
I0131 23:30:01.499909  8699 layer_factory.hpp:77] Creating layer layer_64_3_relu1
I0131 23:30:01.499917  8699 net.cpp:100] Creating Layer layer_64_3_relu1
I0131 23:30:01.499923  8699 net.cpp:434] layer_64_3_relu1 <- layer_64_3_bn1
I0131 23:30:01.499929  8699 net.cpp:395] layer_64_3_relu1 -> layer_64_3_bn1 (in-place)
I0131 23:30:01.500095  8699 net.cpp:150] Setting up layer_64_3_relu1
I0131 23:30:01.500108  8699 net.cpp:157] Top shape: 10 256 56 56 (8028160)
I0131 23:30:01.500114  8699 net.cpp:165] Memory required for data: 780738720
I0131 23:30:01.500119  8699 layer_factory.hpp:77] Creating layer layer_64_3_conv1
I0131 23:30:01.500129  8699 net.cpp:100] Creating Layer layer_64_3_conv1
I0131 23:30:01.500135  8699 net.cpp:434] layer_64_3_conv1 <- layer_64_3_bn1
I0131 23:30:01.500144  8699 net.cpp:408] layer_64_3_conv1 -> layer_64_3_conv1
I0131 23:30:01.501541  8699 net.cpp:150] Setting up layer_64_3_conv1
I0131 23:30:01.501554  8699 net.cpp:157] Top shape: 10 64 56 56 (2007040)
I0131 23:30:01.501559  8699 net.cpp:165] Memory required for data: 788766880
I0131 23:30:01.501566  8699 layer_factory.hpp:77] Creating layer layer_64_3_bn2
I0131 23:30:01.501574  8699 net.cpp:100] Creating Layer layer_64_3_bn2
I0131 23:30:01.501580  8699 net.cpp:434] layer_64_3_bn2 <- layer_64_3_conv1
I0131 23:30:01.501586  8699 net.cpp:395] layer_64_3_bn2 -> layer_64_3_conv1 (in-place)
I0131 23:30:01.501775  8699 net.cpp:150] Setting up layer_64_3_bn2
I0131 23:30:01.501787  8699 net.cpp:157] Top shape: 10 64 56 56 (2007040)
I0131 23:30:01.501792  8699 net.cpp:165] Memory required for data: 796795040
I0131 23:30:01.501802  8699 layer_factory.hpp:77] Creating layer layer_64_3_scale2
I0131 23:30:01.501813  8699 net.cpp:100] Creating Layer layer_64_3_scale2
I0131 23:30:01.501819  8699 net.cpp:434] layer_64_3_scale2 <- layer_64_3_conv1
I0131 23:30:01.501827  8699 net.cpp:395] layer_64_3_scale2 -> layer_64_3_conv1 (in-place)
I0131 23:30:01.501868  8699 layer_factory.hpp:77] Creating layer layer_64_3_scale2
I0131 23:30:01.501984  8699 net.cpp:150] Setting up layer_64_3_scale2
I0131 23:30:01.501996  8699 net.cpp:157] Top shape: 10 64 56 56 (2007040)
I0131 23:30:01.502002  8699 net.cpp:165] Memory required for data: 804823200
I0131 23:30:01.502009  8699 layer_factory.hpp:77] Creating layer layer_64_3_relu2
I0131 23:30:01.502018  8699 net.cpp:100] Creating Layer layer_64_3_relu2
I0131 23:30:01.502023  8699 net.cpp:434] layer_64_3_relu2 <- layer_64_3_conv1
I0131 23:30:01.502030  8699 net.cpp:395] layer_64_3_relu2 -> layer_64_3_conv1 (in-place)
I0131 23:30:01.502197  8699 net.cpp:150] Setting up layer_64_3_relu2
I0131 23:30:01.502209  8699 net.cpp:157] Top shape: 10 64 56 56 (2007040)
I0131 23:30:01.502214  8699 net.cpp:165] Memory required for data: 812851360
I0131 23:30:01.502219  8699 layer_factory.hpp:77] Creating layer layer_64_3_conv2
I0131 23:30:01.502230  8699 net.cpp:100] Creating Layer layer_64_3_conv2
I0131 23:30:01.502236  8699 net.cpp:434] layer_64_3_conv2 <- layer_64_3_conv1
I0131 23:30:01.502244  8699 net.cpp:408] layer_64_3_conv2 -> layer_64_3_conv2
I0131 23:30:01.504362  8699 net.cpp:150] Setting up layer_64_3_conv2
I0131 23:30:01.504375  8699 net.cpp:157] Top shape: 10 64 56 56 (2007040)
I0131 23:30:01.504380  8699 net.cpp:165] Memory required for data: 820879520
I0131 23:30:01.504387  8699 layer_factory.hpp:77] Creating layer layer_64_3_bn3
I0131 23:30:01.504393  8699 net.cpp:100] Creating Layer layer_64_3_bn3
I0131 23:30:01.504398  8699 net.cpp:434] layer_64_3_bn3 <- layer_64_3_conv2
I0131 23:30:01.504405  8699 net.cpp:395] layer_64_3_bn3 -> layer_64_3_conv2 (in-place)
I0131 23:30:01.504571  8699 net.cpp:150] Setting up layer_64_3_bn3
I0131 23:30:01.504583  8699 net.cpp:157] Top shape: 10 64 56 56 (2007040)
I0131 23:30:01.504588  8699 net.cpp:165] Memory required for data: 828907680
I0131 23:30:01.504598  8699 layer_factory.hpp:77] Creating layer layer_64_3_scale3
I0131 23:30:01.504606  8699 net.cpp:100] Creating Layer layer_64_3_scale3
I0131 23:30:01.504611  8699 net.cpp:434] layer_64_3_scale3 <- layer_64_3_conv2
I0131 23:30:01.504617  8699 net.cpp:395] layer_64_3_scale3 -> layer_64_3_conv2 (in-place)
I0131 23:30:01.504657  8699 layer_factory.hpp:77] Creating layer layer_64_3_scale3
I0131 23:30:01.504773  8699 net.cpp:150] Setting up layer_64_3_scale3
I0131 23:30:01.504783  8699 net.cpp:157] Top shape: 10 64 56 56 (2007040)
I0131 23:30:01.504792  8699 net.cpp:165] Memory required for data: 836935840
I0131 23:30:01.504802  8699 layer_factory.hpp:77] Creating layer layer_64_3_relu3
I0131 23:30:01.504806  8699 net.cpp:100] Creating Layer layer_64_3_relu3
I0131 23:30:01.504811  8699 net.cpp:434] layer_64_3_relu3 <- layer_64_3_conv2
I0131 23:30:01.504815  8699 net.cpp:395] layer_64_3_relu3 -> layer_64_3_conv2 (in-place)
I0131 23:30:01.505154  8699 net.cpp:150] Setting up layer_64_3_relu3
I0131 23:30:01.505168  8699 net.cpp:157] Top shape: 10 64 56 56 (2007040)
I0131 23:30:01.505174  8699 net.cpp:165] Memory required for data: 844964000
I0131 23:30:01.505179  8699 layer_factory.hpp:77] Creating layer layer_64_3_conv3
I0131 23:30:01.505190  8699 net.cpp:100] Creating Layer layer_64_3_conv3
I0131 23:30:01.505194  8699 net.cpp:434] layer_64_3_conv3 <- layer_64_3_conv2
I0131 23:30:01.505199  8699 net.cpp:408] layer_64_3_conv3 -> layer_64_3_conv3
I0131 23:30:01.506201  8699 net.cpp:150] Setting up layer_64_3_conv3
I0131 23:30:01.506212  8699 net.cpp:157] Top shape: 10 256 56 56 (8028160)
I0131 23:30:01.506216  8699 net.cpp:165] Memory required for data: 877076640
I0131 23:30:01.506219  8699 layer_factory.hpp:77] Creating layer layer_64_3_sum
I0131 23:30:01.506225  8699 net.cpp:100] Creating Layer layer_64_3_sum
I0131 23:30:01.506228  8699 net.cpp:434] layer_64_3_sum <- layer_64_3_conv3
I0131 23:30:01.506232  8699 net.cpp:434] layer_64_3_sum <- layer_64_2_sum_layer_64_2_sum_0_split_1
I0131 23:30:01.506237  8699 net.cpp:408] layer_64_3_sum -> layer_64_3_sum
I0131 23:30:01.506255  8699 net.cpp:150] Setting up layer_64_3_sum
I0131 23:30:01.506260  8699 net.cpp:157] Top shape: 10 256 56 56 (8028160)
I0131 23:30:01.506263  8699 net.cpp:165] Memory required for data: 909189280
I0131 23:30:01.506268  8699 layer_factory.hpp:77] Creating layer layer_128_1_bn1
I0131 23:30:01.506273  8699 net.cpp:100] Creating Layer layer_128_1_bn1
I0131 23:30:01.506276  8699 net.cpp:434] layer_128_1_bn1 <- layer_64_3_sum
I0131 23:30:01.506281  8699 net.cpp:408] layer_128_1_bn1 -> layer_128_1_bn1
I0131 23:30:01.506415  8699 net.cpp:150] Setting up layer_128_1_bn1
I0131 23:30:01.506423  8699 net.cpp:157] Top shape: 10 256 56 56 (8028160)
I0131 23:30:01.506428  8699 net.cpp:165] Memory required for data: 941301920
I0131 23:30:01.506443  8699 layer_factory.hpp:77] Creating layer layer_128_1_scale1
I0131 23:30:01.506451  8699 net.cpp:100] Creating Layer layer_128_1_scale1
I0131 23:30:01.506458  8699 net.cpp:434] layer_128_1_scale1 <- layer_128_1_bn1
I0131 23:30:01.506465  8699 net.cpp:395] layer_128_1_scale1 -> layer_128_1_bn1 (in-place)
I0131 23:30:01.506506  8699 layer_factory.hpp:77] Creating layer layer_128_1_scale1
I0131 23:30:01.506613  8699 net.cpp:150] Setting up layer_128_1_scale1
I0131 23:30:01.506623  8699 net.cpp:157] Top shape: 10 256 56 56 (8028160)
I0131 23:30:01.506628  8699 net.cpp:165] Memory required for data: 973414560
I0131 23:30:01.506636  8699 layer_factory.hpp:77] Creating layer layer_128_1_relu1
I0131 23:30:01.506642  8699 net.cpp:100] Creating Layer layer_128_1_relu1
I0131 23:30:01.506647  8699 net.cpp:434] layer_128_1_relu1 <- layer_128_1_bn1
I0131 23:30:01.506654  8699 net.cpp:395] layer_128_1_relu1 -> layer_128_1_bn1 (in-place)
I0131 23:30:01.507031  8699 net.cpp:150] Setting up layer_128_1_relu1
I0131 23:30:01.507045  8699 net.cpp:157] Top shape: 10 256 56 56 (8028160)
I0131 23:30:01.507047  8699 net.cpp:165] Memory required for data: 1005527200
I0131 23:30:01.507050  8699 layer_factory.hpp:77] Creating layer layer_128_1_bn1_layer_128_1_relu1_0_split
I0131 23:30:01.507055  8699 net.cpp:100] Creating Layer layer_128_1_bn1_layer_128_1_relu1_0_split
I0131 23:30:01.507058  8699 net.cpp:434] layer_128_1_bn1_layer_128_1_relu1_0_split <- layer_128_1_bn1
I0131 23:30:01.507062  8699 net.cpp:408] layer_128_1_bn1_layer_128_1_relu1_0_split -> layer_128_1_bn1_layer_128_1_relu1_0_split_0
I0131 23:30:01.507067  8699 net.cpp:408] layer_128_1_bn1_layer_128_1_relu1_0_split -> layer_128_1_bn1_layer_128_1_relu1_0_split_1
I0131 23:30:01.507099  8699 net.cpp:150] Setting up layer_128_1_bn1_layer_128_1_relu1_0_split
I0131 23:30:01.507113  8699 net.cpp:157] Top shape: 10 256 56 56 (8028160)
I0131 23:30:01.507119  8699 net.cpp:157] Top shape: 10 256 56 56 (8028160)
I0131 23:30:01.507123  8699 net.cpp:165] Memory required for data: 1069752480
I0131 23:30:01.507128  8699 layer_factory.hpp:77] Creating layer layer_128_1_conv1
I0131 23:30:01.507138  8699 net.cpp:100] Creating Layer layer_128_1_conv1
I0131 23:30:01.507143  8699 net.cpp:434] layer_128_1_conv1 <- layer_128_1_bn1_layer_128_1_relu1_0_split_0
I0131 23:30:01.507151  8699 net.cpp:408] layer_128_1_conv1 -> layer_128_1_conv1
I0131 23:30:01.508800  8699 net.cpp:150] Setting up layer_128_1_conv1
I0131 23:30:01.508812  8699 net.cpp:157] Top shape: 10 128 56 56 (4014080)
I0131 23:30:01.508816  8699 net.cpp:165] Memory required for data: 1085808800
I0131 23:30:01.508819  8699 layer_factory.hpp:77] Creating layer layer_128_1_bn2
I0131 23:30:01.508826  8699 net.cpp:100] Creating Layer layer_128_1_bn2
I0131 23:30:01.508829  8699 net.cpp:434] layer_128_1_bn2 <- layer_128_1_conv1
I0131 23:30:01.508832  8699 net.cpp:395] layer_128_1_bn2 -> layer_128_1_conv1 (in-place)
I0131 23:30:01.509003  8699 net.cpp:150] Setting up layer_128_1_bn2
I0131 23:30:01.509016  8699 net.cpp:157] Top shape: 10 128 56 56 (4014080)
I0131 23:30:01.509021  8699 net.cpp:165] Memory required for data: 1101865120
I0131 23:30:01.509030  8699 layer_factory.hpp:77] Creating layer layer_128_1_scale2
I0131 23:30:01.509038  8699 net.cpp:100] Creating Layer layer_128_1_scale2
I0131 23:30:01.509044  8699 net.cpp:434] layer_128_1_scale2 <- layer_128_1_conv1
I0131 23:30:01.509052  8699 net.cpp:395] layer_128_1_scale2 -> layer_128_1_conv1 (in-place)
I0131 23:30:01.509091  8699 layer_factory.hpp:77] Creating layer layer_128_1_scale2
I0131 23:30:01.509201  8699 net.cpp:150] Setting up layer_128_1_scale2
I0131 23:30:01.509209  8699 net.cpp:157] Top shape: 10 128 56 56 (4014080)
I0131 23:30:01.509214  8699 net.cpp:165] Memory required for data: 1117921440
I0131 23:30:01.509222  8699 layer_factory.hpp:77] Creating layer layer_128_1_relu2
I0131 23:30:01.509230  8699 net.cpp:100] Creating Layer layer_128_1_relu2
I0131 23:30:01.509235  8699 net.cpp:434] layer_128_1_relu2 <- layer_128_1_conv1
I0131 23:30:01.509240  8699 net.cpp:395] layer_128_1_relu2 -> layer_128_1_conv1 (in-place)
I0131 23:30:01.509404  8699 net.cpp:150] Setting up layer_128_1_relu2
I0131 23:30:01.509416  8699 net.cpp:157] Top shape: 10 128 56 56 (4014080)
I0131 23:30:01.509423  8699 net.cpp:165] Memory required for data: 1133977760
I0131 23:30:01.509428  8699 layer_factory.hpp:77] Creating layer layer_128_1_conv2
I0131 23:30:01.509438  8699 net.cpp:100] Creating Layer layer_128_1_conv2
I0131 23:30:01.509443  8699 net.cpp:434] layer_128_1_conv2 <- layer_128_1_conv1
I0131 23:30:01.509451  8699 net.cpp:408] layer_128_1_conv2 -> layer_128_1_conv2
I0131 23:30:01.514173  8699 net.cpp:150] Setting up layer_128_1_conv2
I0131 23:30:01.514189  8699 net.cpp:157] Top shape: 10 128 28 28 (1003520)
I0131 23:30:01.514194  8699 net.cpp:165] Memory required for data: 1137991840
I0131 23:30:01.514200  8699 layer_factory.hpp:77] Creating layer layer_128_1_bn3
I0131 23:30:01.514210  8699 net.cpp:100] Creating Layer layer_128_1_bn3
I0131 23:30:01.514217  8699 net.cpp:434] layer_128_1_bn3 <- layer_128_1_conv2
I0131 23:30:01.514223  8699 net.cpp:395] layer_128_1_bn3 -> layer_128_1_conv2 (in-place)
I0131 23:30:01.514942  8699 net.cpp:150] Setting up layer_128_1_bn3
I0131 23:30:01.514957  8699 net.cpp:157] Top shape: 10 128 28 28 (1003520)
I0131 23:30:01.514963  8699 net.cpp:165] Memory required for data: 1142005920
I0131 23:30:01.514972  8699 layer_factory.hpp:77] Creating layer layer_128_1_scale3
I0131 23:30:01.514981  8699 net.cpp:100] Creating Layer layer_128_1_scale3
I0131 23:30:01.514987  8699 net.cpp:434] layer_128_1_scale3 <- layer_128_1_conv2
I0131 23:30:01.514992  8699 net.cpp:395] layer_128_1_scale3 -> layer_128_1_conv2 (in-place)
I0131 23:30:01.515027  8699 layer_factory.hpp:77] Creating layer layer_128_1_scale3
I0131 23:30:01.515121  8699 net.cpp:150] Setting up layer_128_1_scale3
I0131 23:30:01.515138  8699 net.cpp:157] Top shape: 10 128 28 28 (1003520)
I0131 23:30:01.515142  8699 net.cpp:165] Memory required for data: 1146020000
I0131 23:30:01.515151  8699 layer_factory.hpp:77] Creating layer layer_128_1_relu3
I0131 23:30:01.515157  8699 net.cpp:100] Creating Layer layer_128_1_relu3
I0131 23:30:01.515162  8699 net.cpp:434] layer_128_1_relu3 <- layer_128_1_conv2
I0131 23:30:01.515168  8699 net.cpp:395] layer_128_1_relu3 -> layer_128_1_conv2 (in-place)
I0131 23:30:01.515331  8699 net.cpp:150] Setting up layer_128_1_relu3
I0131 23:30:01.515343  8699 net.cpp:157] Top shape: 10 128 28 28 (1003520)
I0131 23:30:01.515348  8699 net.cpp:165] Memory required for data: 1150034080
I0131 23:30:01.515354  8699 layer_factory.hpp:77] Creating layer layer_128_1_conv3
I0131 23:30:01.515365  8699 net.cpp:100] Creating Layer layer_128_1_conv3
I0131 23:30:01.515372  8699 net.cpp:434] layer_128_1_conv3 <- layer_128_1_conv2
I0131 23:30:01.515380  8699 net.cpp:408] layer_128_1_conv3 -> layer_128_1_conv3
I0131 23:30:01.517740  8699 net.cpp:150] Setting up layer_128_1_conv3
I0131 23:30:01.517752  8699 net.cpp:157] Top shape: 10 512 28 28 (4014080)
I0131 23:30:01.517756  8699 net.cpp:165] Memory required for data: 1166090400
I0131 23:30:01.517760  8699 layer_factory.hpp:77] Creating layer layer_128_1_conv_expand
I0131 23:30:01.517771  8699 net.cpp:100] Creating Layer layer_128_1_conv_expand
I0131 23:30:01.517776  8699 net.cpp:434] layer_128_1_conv_expand <- layer_128_1_bn1_layer_128_1_relu1_0_split_1
I0131 23:30:01.517781  8699 net.cpp:408] layer_128_1_conv_expand -> layer_128_1_conv_expand
I0131 23:30:01.521476  8699 net.cpp:150] Setting up layer_128_1_conv_expand
I0131 23:30:01.521492  8699 net.cpp:157] Top shape: 10 512 28 28 (4014080)
I0131 23:30:01.521497  8699 net.cpp:165] Memory required for data: 1182146720
I0131 23:30:01.521504  8699 layer_factory.hpp:77] Creating layer layer_128_1_sum
I0131 23:30:01.521512  8699 net.cpp:100] Creating Layer layer_128_1_sum
I0131 23:30:01.521517  8699 net.cpp:434] layer_128_1_sum <- layer_128_1_conv3
I0131 23:30:01.521520  8699 net.cpp:434] layer_128_1_sum <- layer_128_1_conv_expand
I0131 23:30:01.521525  8699 net.cpp:408] layer_128_1_sum -> layer_128_1_sum
I0131 23:30:01.521553  8699 net.cpp:150] Setting up layer_128_1_sum
I0131 23:30:01.521564  8699 net.cpp:157] Top shape: 10 512 28 28 (4014080)
I0131 23:30:01.521569  8699 net.cpp:165] Memory required for data: 1198203040
I0131 23:30:01.521574  8699 layer_factory.hpp:77] Creating layer layer_128_1_sum_layer_128_1_sum_0_split
I0131 23:30:01.521586  8699 net.cpp:100] Creating Layer layer_128_1_sum_layer_128_1_sum_0_split
I0131 23:30:01.521592  8699 net.cpp:434] layer_128_1_sum_layer_128_1_sum_0_split <- layer_128_1_sum
I0131 23:30:01.521600  8699 net.cpp:408] layer_128_1_sum_layer_128_1_sum_0_split -> layer_128_1_sum_layer_128_1_sum_0_split_0
I0131 23:30:01.521610  8699 net.cpp:408] layer_128_1_sum_layer_128_1_sum_0_split -> layer_128_1_sum_layer_128_1_sum_0_split_1
I0131 23:30:01.521647  8699 net.cpp:150] Setting up layer_128_1_sum_layer_128_1_sum_0_split
I0131 23:30:01.521656  8699 net.cpp:157] Top shape: 10 512 28 28 (4014080)
I0131 23:30:01.521662  8699 net.cpp:157] Top shape: 10 512 28 28 (4014080)
I0131 23:30:01.521667  8699 net.cpp:165] Memory required for data: 1230315680
I0131 23:30:01.521672  8699 layer_factory.hpp:77] Creating layer layer_128_2_bn1
I0131 23:30:01.521680  8699 net.cpp:100] Creating Layer layer_128_2_bn1
I0131 23:30:01.521685  8699 net.cpp:434] layer_128_2_bn1 <- layer_128_1_sum_layer_128_1_sum_0_split_0
I0131 23:30:01.521693  8699 net.cpp:408] layer_128_2_bn1 -> layer_128_2_bn1
I0131 23:30:01.521877  8699 net.cpp:150] Setting up layer_128_2_bn1
I0131 23:30:01.521888  8699 net.cpp:157] Top shape: 10 512 28 28 (4014080)
I0131 23:30:01.521893  8699 net.cpp:165] Memory required for data: 1246372000
I0131 23:30:01.521901  8699 layer_factory.hpp:77] Creating layer layer_128_2_scale1
I0131 23:30:01.521909  8699 net.cpp:100] Creating Layer layer_128_2_scale1
I0131 23:30:01.521919  8699 net.cpp:434] layer_128_2_scale1 <- layer_128_2_bn1
I0131 23:30:01.521934  8699 net.cpp:395] layer_128_2_scale1 -> layer_128_2_bn1 (in-place)
I0131 23:30:01.521977  8699 layer_factory.hpp:77] Creating layer layer_128_2_scale1
I0131 23:30:01.522083  8699 net.cpp:150] Setting up layer_128_2_scale1
I0131 23:30:01.522092  8699 net.cpp:157] Top shape: 10 512 28 28 (4014080)
I0131 23:30:01.522095  8699 net.cpp:165] Memory required for data: 1262428320
I0131 23:30:01.522101  8699 layer_factory.hpp:77] Creating layer layer_128_2_relu1
I0131 23:30:01.522106  8699 net.cpp:100] Creating Layer layer_128_2_relu1
I0131 23:30:01.522109  8699 net.cpp:434] layer_128_2_relu1 <- layer_128_2_bn1
I0131 23:30:01.522115  8699 net.cpp:395] layer_128_2_relu1 -> layer_128_2_bn1 (in-place)
I0131 23:30:01.522258  8699 net.cpp:150] Setting up layer_128_2_relu1
I0131 23:30:01.522266  8699 net.cpp:157] Top shape: 10 512 28 28 (4014080)
I0131 23:30:01.522269  8699 net.cpp:165] Memory required for data: 1278484640
I0131 23:30:01.522272  8699 layer_factory.hpp:77] Creating layer layer_128_2_conv1
I0131 23:30:01.522279  8699 net.cpp:100] Creating Layer layer_128_2_conv1
I0131 23:30:01.522282  8699 net.cpp:434] layer_128_2_conv1 <- layer_128_2_bn1
I0131 23:30:01.522287  8699 net.cpp:408] layer_128_2_conv1 -> layer_128_2_conv1
I0131 23:30:01.524739  8699 net.cpp:150] Setting up layer_128_2_conv1
I0131 23:30:01.524754  8699 net.cpp:157] Top shape: 10 128 28 28 (1003520)
I0131 23:30:01.524760  8699 net.cpp:165] Memory required for data: 1282498720
I0131 23:30:01.524765  8699 layer_factory.hpp:77] Creating layer layer_128_2_bn2
I0131 23:30:01.524772  8699 net.cpp:100] Creating Layer layer_128_2_bn2
I0131 23:30:01.524777  8699 net.cpp:434] layer_128_2_bn2 <- layer_128_2_conv1
I0131 23:30:01.524785  8699 net.cpp:395] layer_128_2_bn2 -> layer_128_2_conv1 (in-place)
I0131 23:30:01.524971  8699 net.cpp:150] Setting up layer_128_2_bn2
I0131 23:30:01.524983  8699 net.cpp:157] Top shape: 10 128 28 28 (1003520)
I0131 23:30:01.524988  8699 net.cpp:165] Memory required for data: 1286512800
I0131 23:30:01.524997  8699 layer_factory.hpp:77] Creating layer layer_128_2_scale2
I0131 23:30:01.525005  8699 net.cpp:100] Creating Layer layer_128_2_scale2
I0131 23:30:01.525012  8699 net.cpp:434] layer_128_2_scale2 <- layer_128_2_conv1
I0131 23:30:01.525017  8699 net.cpp:395] layer_128_2_scale2 -> layer_128_2_conv1 (in-place)
I0131 23:30:01.525048  8699 layer_factory.hpp:77] Creating layer layer_128_2_scale2
I0131 23:30:01.525120  8699 net.cpp:150] Setting up layer_128_2_scale2
I0131 23:30:01.525126  8699 net.cpp:157] Top shape: 10 128 28 28 (1003520)
I0131 23:30:01.525128  8699 net.cpp:165] Memory required for data: 1290526880
I0131 23:30:01.525133  8699 layer_factory.hpp:77] Creating layer layer_128_2_relu2
I0131 23:30:01.525138  8699 net.cpp:100] Creating Layer layer_128_2_relu2
I0131 23:30:01.525142  8699 net.cpp:434] layer_128_2_relu2 <- layer_128_2_conv1
I0131 23:30:01.525148  8699 net.cpp:395] layer_128_2_relu2 -> layer_128_2_conv1 (in-place)
I0131 23:30:01.525297  8699 net.cpp:150] Setting up layer_128_2_relu2
I0131 23:30:01.525308  8699 net.cpp:157] Top shape: 10 128 28 28 (1003520)
I0131 23:30:01.525315  8699 net.cpp:165] Memory required for data: 1294540960
I0131 23:30:01.525319  8699 layer_factory.hpp:77] Creating layer layer_128_2_conv2
I0131 23:30:01.525327  8699 net.cpp:100] Creating Layer layer_128_2_conv2
I0131 23:30:01.525331  8699 net.cpp:434] layer_128_2_conv2 <- layer_128_2_conv1
I0131 23:30:01.525336  8699 net.cpp:408] layer_128_2_conv2 -> layer_128_2_conv2
I0131 23:30:01.529265  8699 net.cpp:150] Setting up layer_128_2_conv2
I0131 23:30:01.529278  8699 net.cpp:157] Top shape: 10 128 28 28 (1003520)
I0131 23:30:01.529284  8699 net.cpp:165] Memory required for data: 1298555040
I0131 23:30:01.529291  8699 layer_factory.hpp:77] Creating layer layer_128_2_bn3
I0131 23:30:01.529300  8699 net.cpp:100] Creating Layer layer_128_2_bn3
I0131 23:30:01.529306  8699 net.cpp:434] layer_128_2_bn3 <- layer_128_2_conv2
I0131 23:30:01.529316  8699 net.cpp:395] layer_128_2_bn3 -> layer_128_2_conv2 (in-place)
I0131 23:30:01.529521  8699 net.cpp:150] Setting up layer_128_2_bn3
I0131 23:30:01.529533  8699 net.cpp:157] Top shape: 10 128 28 28 (1003520)
I0131 23:30:01.529538  8699 net.cpp:165] Memory required for data: 1302569120
I0131 23:30:01.529549  8699 layer_factory.hpp:77] Creating layer layer_128_2_scale3
I0131 23:30:01.529558  8699 net.cpp:100] Creating Layer layer_128_2_scale3
I0131 23:30:01.529563  8699 net.cpp:434] layer_128_2_scale3 <- layer_128_2_conv2
I0131 23:30:01.529570  8699 net.cpp:395] layer_128_2_scale3 -> layer_128_2_conv2 (in-place)
I0131 23:30:01.529613  8699 layer_factory.hpp:77] Creating layer layer_128_2_scale3
I0131 23:30:01.529723  8699 net.cpp:150] Setting up layer_128_2_scale3
I0131 23:30:01.529733  8699 net.cpp:157] Top shape: 10 128 28 28 (1003520)
I0131 23:30:01.529737  8699 net.cpp:165] Memory required for data: 1306583200
I0131 23:30:01.529743  8699 layer_factory.hpp:77] Creating layer layer_128_2_relu3
I0131 23:30:01.529752  8699 net.cpp:100] Creating Layer layer_128_2_relu3
I0131 23:30:01.529757  8699 net.cpp:434] layer_128_2_relu3 <- layer_128_2_conv2
I0131 23:30:01.529762  8699 net.cpp:395] layer_128_2_relu3 -> layer_128_2_conv2 (in-place)
I0131 23:30:01.529925  8699 net.cpp:150] Setting up layer_128_2_relu3
I0131 23:30:01.529937  8699 net.cpp:157] Top shape: 10 128 28 28 (1003520)
I0131 23:30:01.529943  8699 net.cpp:165] Memory required for data: 1310597280
I0131 23:30:01.529948  8699 layer_factory.hpp:77] Creating layer layer_128_2_conv3
I0131 23:30:01.529958  8699 net.cpp:100] Creating Layer layer_128_2_conv3
I0131 23:30:01.529964  8699 net.cpp:434] layer_128_2_conv3 <- layer_128_2_conv2
I0131 23:30:01.529973  8699 net.cpp:408] layer_128_2_conv3 -> layer_128_2_conv3
I0131 23:30:01.532366  8699 net.cpp:150] Setting up layer_128_2_conv3
I0131 23:30:01.532379  8699 net.cpp:157] Top shape: 10 512 28 28 (4014080)
I0131 23:30:01.532384  8699 net.cpp:165] Memory required for data: 1326653600
I0131 23:30:01.532392  8699 layer_factory.hpp:77] Creating layer layer_128_2_sum
I0131 23:30:01.532398  8699 net.cpp:100] Creating Layer layer_128_2_sum
I0131 23:30:01.532403  8699 net.cpp:434] layer_128_2_sum <- layer_128_2_conv3
I0131 23:30:01.532409  8699 net.cpp:434] layer_128_2_sum <- layer_128_1_sum_layer_128_1_sum_0_split_1
I0131 23:30:01.532418  8699 net.cpp:408] layer_128_2_sum -> layer_128_2_sum
I0131 23:30:01.532444  8699 net.cpp:150] Setting up layer_128_2_sum
I0131 23:30:01.532454  8699 net.cpp:157] Top shape: 10 512 28 28 (4014080)
I0131 23:30:01.532459  8699 net.cpp:165] Memory required for data: 1342709920
I0131 23:30:01.532464  8699 layer_factory.hpp:77] Creating layer layer_128_2_sum_layer_128_2_sum_0_split
I0131 23:30:01.532471  8699 net.cpp:100] Creating Layer layer_128_2_sum_layer_128_2_sum_0_split
I0131 23:30:01.532476  8699 net.cpp:434] layer_128_2_sum_layer_128_2_sum_0_split <- layer_128_2_sum
I0131 23:30:01.532482  8699 net.cpp:408] layer_128_2_sum_layer_128_2_sum_0_split -> layer_128_2_sum_layer_128_2_sum_0_split_0
I0131 23:30:01.532490  8699 net.cpp:408] layer_128_2_sum_layer_128_2_sum_0_split -> layer_128_2_sum_layer_128_2_sum_0_split_1
I0131 23:30:01.532529  8699 net.cpp:150] Setting up layer_128_2_sum_layer_128_2_sum_0_split
I0131 23:30:01.532538  8699 net.cpp:157] Top shape: 10 512 28 28 (4014080)
I0131 23:30:01.532543  8699 net.cpp:157] Top shape: 10 512 28 28 (4014080)
I0131 23:30:01.532548  8699 net.cpp:165] Memory required for data: 1374822560
I0131 23:30:01.532552  8699 layer_factory.hpp:77] Creating layer layer_128_3_bn1
I0131 23:30:01.532560  8699 net.cpp:100] Creating Layer layer_128_3_bn1
I0131 23:30:01.532565  8699 net.cpp:434] layer_128_3_bn1 <- layer_128_2_sum_layer_128_2_sum_0_split_0
I0131 23:30:01.532572  8699 net.cpp:408] layer_128_3_bn1 -> layer_128_3_bn1
I0131 23:30:01.532773  8699 net.cpp:150] Setting up layer_128_3_bn1
I0131 23:30:01.532785  8699 net.cpp:157] Top shape: 10 512 28 28 (4014080)
I0131 23:30:01.532790  8699 net.cpp:165] Memory required for data: 1390878880
I0131 23:30:01.532804  8699 layer_factory.hpp:77] Creating layer layer_128_3_scale1
I0131 23:30:01.532822  8699 net.cpp:100] Creating Layer layer_128_3_scale1
I0131 23:30:01.532829  8699 net.cpp:434] layer_128_3_scale1 <- layer_128_3_bn1
I0131 23:30:01.532835  8699 net.cpp:395] layer_128_3_scale1 -> layer_128_3_bn1 (in-place)
I0131 23:30:01.532873  8699 layer_factory.hpp:77] Creating layer layer_128_3_scale1
I0131 23:30:01.532984  8699 net.cpp:150] Setting up layer_128_3_scale1
I0131 23:30:01.532995  8699 net.cpp:157] Top shape: 10 512 28 28 (4014080)
I0131 23:30:01.533001  8699 net.cpp:165] Memory required for data: 1406935200
I0131 23:30:01.533010  8699 layer_factory.hpp:77] Creating layer layer_128_3_relu1
I0131 23:30:01.533017  8699 net.cpp:100] Creating Layer layer_128_3_relu1
I0131 23:30:01.533023  8699 net.cpp:434] layer_128_3_relu1 <- layer_128_3_bn1
I0131 23:30:01.533030  8699 net.cpp:395] layer_128_3_relu1 -> layer_128_3_bn1 (in-place)
I0131 23:30:01.533442  8699 net.cpp:150] Setting up layer_128_3_relu1
I0131 23:30:01.533455  8699 net.cpp:157] Top shape: 10 512 28 28 (4014080)
I0131 23:30:01.533460  8699 net.cpp:165] Memory required for data: 1422991520
I0131 23:30:01.533465  8699 layer_factory.hpp:77] Creating layer layer_128_3_conv1
I0131 23:30:01.533476  8699 net.cpp:100] Creating Layer layer_128_3_conv1
I0131 23:30:01.533483  8699 net.cpp:434] layer_128_3_conv1 <- layer_128_3_bn1
I0131 23:30:01.533490  8699 net.cpp:408] layer_128_3_conv1 -> layer_128_3_conv1
I0131 23:30:01.536146  8699 net.cpp:150] Setting up layer_128_3_conv1
I0131 23:30:01.536161  8699 net.cpp:157] Top shape: 10 128 28 28 (1003520)
I0131 23:30:01.536167  8699 net.cpp:165] Memory required for data: 1427005600
I0131 23:30:01.536175  8699 layer_factory.hpp:77] Creating layer layer_128_3_bn2
I0131 23:30:01.536182  8699 net.cpp:100] Creating Layer layer_128_3_bn2
I0131 23:30:01.536187  8699 net.cpp:434] layer_128_3_bn2 <- layer_128_3_conv1
I0131 23:30:01.536195  8699 net.cpp:395] layer_128_3_bn2 -> layer_128_3_conv1 (in-place)
I0131 23:30:01.536393  8699 net.cpp:150] Setting up layer_128_3_bn2
I0131 23:30:01.536406  8699 net.cpp:157] Top shape: 10 128 28 28 (1003520)
I0131 23:30:01.536411  8699 net.cpp:165] Memory required for data: 1431019680
I0131 23:30:01.536419  8699 layer_factory.hpp:77] Creating layer layer_128_3_scale2
I0131 23:30:01.536427  8699 net.cpp:100] Creating Layer layer_128_3_scale2
I0131 23:30:01.536433  8699 net.cpp:434] layer_128_3_scale2 <- layer_128_3_conv1
I0131 23:30:01.536439  8699 net.cpp:395] layer_128_3_scale2 -> layer_128_3_conv1 (in-place)
I0131 23:30:01.536483  8699 layer_factory.hpp:77] Creating layer layer_128_3_scale2
I0131 23:30:01.536612  8699 net.cpp:150] Setting up layer_128_3_scale2
I0131 23:30:01.536634  8699 net.cpp:157] Top shape: 10 128 28 28 (1003520)
I0131 23:30:01.536638  8699 net.cpp:165] Memory required for data: 1435033760
I0131 23:30:01.536645  8699 layer_factory.hpp:77] Creating layer layer_128_3_relu2
I0131 23:30:01.536653  8699 net.cpp:100] Creating Layer layer_128_3_relu2
I0131 23:30:01.536659  8699 net.cpp:434] layer_128_3_relu2 <- layer_128_3_conv1
I0131 23:30:01.536664  8699 net.cpp:395] layer_128_3_relu2 -> layer_128_3_conv1 (in-place)
I0131 23:30:01.536834  8699 net.cpp:150] Setting up layer_128_3_relu2
I0131 23:30:01.536849  8699 net.cpp:157] Top shape: 10 128 28 28 (1003520)
I0131 23:30:01.536855  8699 net.cpp:165] Memory required for data: 1439047840
I0131 23:30:01.536860  8699 layer_factory.hpp:77] Creating layer layer_128_3_conv2
I0131 23:30:01.536871  8699 net.cpp:100] Creating Layer layer_128_3_conv2
I0131 23:30:01.536877  8699 net.cpp:434] layer_128_3_conv2 <- layer_128_3_conv1
I0131 23:30:01.536885  8699 net.cpp:408] layer_128_3_conv2 -> layer_128_3_conv2
I0131 23:30:01.541301  8699 net.cpp:150] Setting up layer_128_3_conv2
I0131 23:30:01.541316  8699 net.cpp:157] Top shape: 10 128 28 28 (1003520)
I0131 23:30:01.541321  8699 net.cpp:165] Memory required for data: 1443061920
I0131 23:30:01.541328  8699 layer_factory.hpp:77] Creating layer layer_128_3_bn3
I0131 23:30:01.541337  8699 net.cpp:100] Creating Layer layer_128_3_bn3
I0131 23:30:01.541348  8699 net.cpp:434] layer_128_3_bn3 <- layer_128_3_conv2
I0131 23:30:01.541362  8699 net.cpp:395] layer_128_3_bn3 -> layer_128_3_conv2 (in-place)
I0131 23:30:01.541568  8699 net.cpp:150] Setting up layer_128_3_bn3
I0131 23:30:01.541579  8699 net.cpp:157] Top shape: 10 128 28 28 (1003520)
I0131 23:30:01.541584  8699 net.cpp:165] Memory required for data: 1447076000
I0131 23:30:01.541594  8699 layer_factory.hpp:77] Creating layer layer_128_3_scale3
I0131 23:30:01.541601  8699 net.cpp:100] Creating Layer layer_128_3_scale3
I0131 23:30:01.541607  8699 net.cpp:434] layer_128_3_scale3 <- layer_128_3_conv2
I0131 23:30:01.541615  8699 net.cpp:395] layer_128_3_scale3 -> layer_128_3_conv2 (in-place)
I0131 23:30:01.541658  8699 layer_factory.hpp:77] Creating layer layer_128_3_scale3
I0131 23:30:01.541774  8699 net.cpp:150] Setting up layer_128_3_scale3
I0131 23:30:01.541785  8699 net.cpp:157] Top shape: 10 128 28 28 (1003520)
I0131 23:30:01.541790  8699 net.cpp:165] Memory required for data: 1451090080
I0131 23:30:01.541796  8699 layer_factory.hpp:77] Creating layer layer_128_3_relu3
I0131 23:30:01.541802  8699 net.cpp:100] Creating Layer layer_128_3_relu3
I0131 23:30:01.541807  8699 net.cpp:434] layer_128_3_relu3 <- layer_128_3_conv2
I0131 23:30:01.541812  8699 net.cpp:395] layer_128_3_relu3 -> layer_128_3_conv2 (in-place)
I0131 23:30:01.541985  8699 net.cpp:150] Setting up layer_128_3_relu3
I0131 23:30:01.541998  8699 net.cpp:157] Top shape: 10 128 28 28 (1003520)
I0131 23:30:01.542004  8699 net.cpp:165] Memory required for data: 1455104160
I0131 23:30:01.542009  8699 layer_factory.hpp:77] Creating layer layer_128_3_conv3
I0131 23:30:01.542022  8699 net.cpp:100] Creating Layer layer_128_3_conv3
I0131 23:30:01.542028  8699 net.cpp:434] layer_128_3_conv3 <- layer_128_3_conv2
I0131 23:30:01.542037  8699 net.cpp:408] layer_128_3_conv3 -> layer_128_3_conv3
I0131 23:30:01.544450  8699 net.cpp:150] Setting up layer_128_3_conv3
I0131 23:30:01.544464  8699 net.cpp:157] Top shape: 10 512 28 28 (4014080)
I0131 23:30:01.544469  8699 net.cpp:165] Memory required for data: 1471160480
I0131 23:30:01.544476  8699 layer_factory.hpp:77] Creating layer layer_128_3_sum
I0131 23:30:01.544483  8699 net.cpp:100] Creating Layer layer_128_3_sum
I0131 23:30:01.544489  8699 net.cpp:434] layer_128_3_sum <- layer_128_3_conv3
I0131 23:30:01.544495  8699 net.cpp:434] layer_128_3_sum <- layer_128_2_sum_layer_128_2_sum_0_split_1
I0131 23:30:01.544504  8699 net.cpp:408] layer_128_3_sum -> layer_128_3_sum
I0131 23:30:01.544531  8699 net.cpp:150] Setting up layer_128_3_sum
I0131 23:30:01.544541  8699 net.cpp:157] Top shape: 10 512 28 28 (4014080)
I0131 23:30:01.544546  8699 net.cpp:165] Memory required for data: 1487216800
I0131 23:30:01.544551  8699 layer_factory.hpp:77] Creating layer layer_128_3_sum_layer_128_3_sum_0_split
I0131 23:30:01.544559  8699 net.cpp:100] Creating Layer layer_128_3_sum_layer_128_3_sum_0_split
I0131 23:30:01.544564  8699 net.cpp:434] layer_128_3_sum_layer_128_3_sum_0_split <- layer_128_3_sum
I0131 23:30:01.544571  8699 net.cpp:408] layer_128_3_sum_layer_128_3_sum_0_split -> layer_128_3_sum_layer_128_3_sum_0_split_0
I0131 23:30:01.544580  8699 net.cpp:408] layer_128_3_sum_layer_128_3_sum_0_split -> layer_128_3_sum_layer_128_3_sum_0_split_1
I0131 23:30:01.544618  8699 net.cpp:150] Setting up layer_128_3_sum_layer_128_3_sum_0_split
I0131 23:30:01.544628  8699 net.cpp:157] Top shape: 10 512 28 28 (4014080)
I0131 23:30:01.544633  8699 net.cpp:157] Top shape: 10 512 28 28 (4014080)
I0131 23:30:01.544638  8699 net.cpp:165] Memory required for data: 1519329440
I0131 23:30:01.544642  8699 layer_factory.hpp:77] Creating layer layer_128_4_bn1
I0131 23:30:01.544651  8699 net.cpp:100] Creating Layer layer_128_4_bn1
I0131 23:30:01.544656  8699 net.cpp:434] layer_128_4_bn1 <- layer_128_3_sum_layer_128_3_sum_0_split_0
I0131 23:30:01.544661  8699 net.cpp:408] layer_128_4_bn1 -> layer_128_4_bn1
I0131 23:30:01.544868  8699 net.cpp:150] Setting up layer_128_4_bn1
I0131 23:30:01.544881  8699 net.cpp:157] Top shape: 10 512 28 28 (4014080)
I0131 23:30:01.544890  8699 net.cpp:165] Memory required for data: 1535385760
I0131 23:30:01.544906  8699 layer_factory.hpp:77] Creating layer layer_128_4_scale1
I0131 23:30:01.544914  8699 net.cpp:100] Creating Layer layer_128_4_scale1
I0131 23:30:01.544919  8699 net.cpp:434] layer_128_4_scale1 <- layer_128_4_bn1
I0131 23:30:01.544926  8699 net.cpp:395] layer_128_4_scale1 -> layer_128_4_bn1 (in-place)
I0131 23:30:01.544968  8699 layer_factory.hpp:77] Creating layer layer_128_4_scale1
I0131 23:30:01.545083  8699 net.cpp:150] Setting up layer_128_4_scale1
I0131 23:30:01.545094  8699 net.cpp:157] Top shape: 10 512 28 28 (4014080)
I0131 23:30:01.545099  8699 net.cpp:165] Memory required for data: 1551442080
I0131 23:30:01.545107  8699 layer_factory.hpp:77] Creating layer layer_128_4_relu1
I0131 23:30:01.545114  8699 net.cpp:100] Creating Layer layer_128_4_relu1
I0131 23:30:01.545120  8699 net.cpp:434] layer_128_4_relu1 <- layer_128_4_bn1
I0131 23:30:01.545125  8699 net.cpp:395] layer_128_4_relu1 -> layer_128_4_bn1 (in-place)
I0131 23:30:01.545298  8699 net.cpp:150] Setting up layer_128_4_relu1
I0131 23:30:01.545310  8699 net.cpp:157] Top shape: 10 512 28 28 (4014080)
I0131 23:30:01.545316  8699 net.cpp:165] Memory required for data: 1567498400
I0131 23:30:01.545320  8699 layer_factory.hpp:77] Creating layer layer_128_4_conv1
I0131 23:30:01.545331  8699 net.cpp:100] Creating Layer layer_128_4_conv1
I0131 23:30:01.545336  8699 net.cpp:434] layer_128_4_conv1 <- layer_128_4_bn1
I0131 23:30:01.545346  8699 net.cpp:408] layer_128_4_conv1 -> layer_128_4_conv1
I0131 23:30:01.547683  8699 net.cpp:150] Setting up layer_128_4_conv1
I0131 23:30:01.547696  8699 net.cpp:157] Top shape: 10 128 28 28 (1003520)
I0131 23:30:01.547703  8699 net.cpp:165] Memory required for data: 1571512480
I0131 23:30:01.547708  8699 layer_factory.hpp:77] Creating layer layer_128_4_bn2
I0131 23:30:01.547716  8699 net.cpp:100] Creating Layer layer_128_4_bn2
I0131 23:30:01.547722  8699 net.cpp:434] layer_128_4_bn2 <- layer_128_4_conv1
I0131 23:30:01.547729  8699 net.cpp:395] layer_128_4_bn2 -> layer_128_4_conv1 (in-place)
I0131 23:30:01.547931  8699 net.cpp:150] Setting up layer_128_4_bn2
I0131 23:30:01.547943  8699 net.cpp:157] Top shape: 10 128 28 28 (1003520)
I0131 23:30:01.547948  8699 net.cpp:165] Memory required for data: 1575526560
I0131 23:30:01.547957  8699 layer_factory.hpp:77] Creating layer layer_128_4_scale2
I0131 23:30:01.547966  8699 net.cpp:100] Creating Layer layer_128_4_scale2
I0131 23:30:01.547971  8699 net.cpp:434] layer_128_4_scale2 <- layer_128_4_conv1
I0131 23:30:01.547978  8699 net.cpp:395] layer_128_4_scale2 -> layer_128_4_conv1 (in-place)
I0131 23:30:01.548020  8699 layer_factory.hpp:77] Creating layer layer_128_4_scale2
I0131 23:30:01.548136  8699 net.cpp:150] Setting up layer_128_4_scale2
I0131 23:30:01.548148  8699 net.cpp:157] Top shape: 10 128 28 28 (1003520)
I0131 23:30:01.548153  8699 net.cpp:165] Memory required for data: 1579540640
I0131 23:30:01.548161  8699 layer_factory.hpp:77] Creating layer layer_128_4_relu2
I0131 23:30:01.548167  8699 net.cpp:100] Creating Layer layer_128_4_relu2
I0131 23:30:01.548172  8699 net.cpp:434] layer_128_4_relu2 <- layer_128_4_conv1
I0131 23:30:01.548178  8699 net.cpp:395] layer_128_4_relu2 -> layer_128_4_conv1 (in-place)
I0131 23:30:01.548354  8699 net.cpp:150] Setting up layer_128_4_relu2
I0131 23:30:01.548367  8699 net.cpp:157] Top shape: 10 128 28 28 (1003520)
I0131 23:30:01.548373  8699 net.cpp:165] Memory required for data: 1583554720
I0131 23:30:01.548378  8699 layer_factory.hpp:77] Creating layer layer_128_4_conv2
I0131 23:30:01.548390  8699 net.cpp:100] Creating Layer layer_128_4_conv2
I0131 23:30:01.548396  8699 net.cpp:434] layer_128_4_conv2 <- layer_128_4_conv1
I0131 23:30:01.548405  8699 net.cpp:408] layer_128_4_conv2 -> layer_128_4_conv2
I0131 23:30:01.552422  8699 net.cpp:150] Setting up layer_128_4_conv2
I0131 23:30:01.552435  8699 net.cpp:157] Top shape: 10 128 28 28 (1003520)
I0131 23:30:01.552440  8699 net.cpp:165] Memory required for data: 1587568800
I0131 23:30:01.552469  8699 layer_factory.hpp:77] Creating layer layer_128_4_bn3
I0131 23:30:01.552487  8699 net.cpp:100] Creating Layer layer_128_4_bn3
I0131 23:30:01.552494  8699 net.cpp:434] layer_128_4_bn3 <- layer_128_4_conv2
I0131 23:30:01.552500  8699 net.cpp:395] layer_128_4_bn3 -> layer_128_4_conv2 (in-place)
I0131 23:30:01.552706  8699 net.cpp:150] Setting up layer_128_4_bn3
I0131 23:30:01.552719  8699 net.cpp:157] Top shape: 10 128 28 28 (1003520)
I0131 23:30:01.552724  8699 net.cpp:165] Memory required for data: 1591582880
I0131 23:30:01.552734  8699 layer_factory.hpp:77] Creating layer layer_128_4_scale3
I0131 23:30:01.552742  8699 net.cpp:100] Creating Layer layer_128_4_scale3
I0131 23:30:01.552747  8699 net.cpp:434] layer_128_4_scale3 <- layer_128_4_conv2
I0131 23:30:01.552754  8699 net.cpp:395] layer_128_4_scale3 -> layer_128_4_conv2 (in-place)
I0131 23:30:01.552798  8699 layer_factory.hpp:77] Creating layer layer_128_4_scale3
I0131 23:30:01.552911  8699 net.cpp:150] Setting up layer_128_4_scale3
I0131 23:30:01.552920  8699 net.cpp:157] Top shape: 10 128 28 28 (1003520)
I0131 23:30:01.552925  8699 net.cpp:165] Memory required for data: 1595596960
I0131 23:30:01.552932  8699 layer_factory.hpp:77] Creating layer layer_128_4_relu3
I0131 23:30:01.552939  8699 net.cpp:100] Creating Layer layer_128_4_relu3
I0131 23:30:01.552944  8699 net.cpp:434] layer_128_4_relu3 <- layer_128_4_conv2
I0131 23:30:01.552952  8699 net.cpp:395] layer_128_4_relu3 -> layer_128_4_conv2 (in-place)
I0131 23:30:01.553127  8699 net.cpp:150] Setting up layer_128_4_relu3
I0131 23:30:01.553139  8699 net.cpp:157] Top shape: 10 128 28 28 (1003520)
I0131 23:30:01.553145  8699 net.cpp:165] Memory required for data: 1599611040
I0131 23:30:01.553150  8699 layer_factory.hpp:77] Creating layer layer_128_4_conv3
I0131 23:30:01.553161  8699 net.cpp:100] Creating Layer layer_128_4_conv3
I0131 23:30:01.553167  8699 net.cpp:434] layer_128_4_conv3 <- layer_128_4_conv2
I0131 23:30:01.553176  8699 net.cpp:408] layer_128_4_conv3 -> layer_128_4_conv3
I0131 23:30:01.555560  8699 net.cpp:150] Setting up layer_128_4_conv3
I0131 23:30:01.555573  8699 net.cpp:157] Top shape: 10 512 28 28 (4014080)
I0131 23:30:01.555579  8699 net.cpp:165] Memory required for data: 1615667360
I0131 23:30:01.555585  8699 layer_factory.hpp:77] Creating layer layer_128_4_sum
I0131 23:30:01.555593  8699 net.cpp:100] Creating Layer layer_128_4_sum
I0131 23:30:01.555598  8699 net.cpp:434] layer_128_4_sum <- layer_128_4_conv3
I0131 23:30:01.555605  8699 net.cpp:434] layer_128_4_sum <- layer_128_3_sum_layer_128_3_sum_0_split_1
I0131 23:30:01.555613  8699 net.cpp:408] layer_128_4_sum -> layer_128_4_sum
I0131 23:30:01.555641  8699 net.cpp:150] Setting up layer_128_4_sum
I0131 23:30:01.555651  8699 net.cpp:157] Top shape: 10 512 28 28 (4014080)
I0131 23:30:01.555656  8699 net.cpp:165] Memory required for data: 1631723680
I0131 23:30:01.555660  8699 layer_factory.hpp:77] Creating layer layer_256_1_bn1
I0131 23:30:01.555667  8699 net.cpp:100] Creating Layer layer_256_1_bn1
I0131 23:30:01.555672  8699 net.cpp:434] layer_256_1_bn1 <- layer_128_4_sum
I0131 23:30:01.555680  8699 net.cpp:408] layer_256_1_bn1 -> layer_256_1_bn1
I0131 23:30:01.555894  8699 net.cpp:150] Setting up layer_256_1_bn1
I0131 23:30:01.555907  8699 net.cpp:157] Top shape: 10 512 28 28 (4014080)
I0131 23:30:01.555913  8699 net.cpp:165] Memory required for data: 1647780000
I0131 23:30:01.555922  8699 layer_factory.hpp:77] Creating layer layer_256_1_scale1
I0131 23:30:01.555932  8699 net.cpp:100] Creating Layer layer_256_1_scale1
I0131 23:30:01.555937  8699 net.cpp:434] layer_256_1_scale1 <- layer_256_1_bn1
I0131 23:30:01.555943  8699 net.cpp:395] layer_256_1_scale1 -> layer_256_1_bn1 (in-place)
I0131 23:30:01.555989  8699 layer_factory.hpp:77] Creating layer layer_256_1_scale1
I0131 23:30:01.556100  8699 net.cpp:150] Setting up layer_256_1_scale1
I0131 23:30:01.556112  8699 net.cpp:157] Top shape: 10 512 28 28 (4014080)
I0131 23:30:01.556118  8699 net.cpp:165] Memory required for data: 1663836320
I0131 23:30:01.556128  8699 layer_factory.hpp:77] Creating layer layer_256_1_relu1
I0131 23:30:01.556140  8699 net.cpp:100] Creating Layer layer_256_1_relu1
I0131 23:30:01.556146  8699 net.cpp:434] layer_256_1_relu1 <- layer_256_1_bn1
I0131 23:30:01.556154  8699 net.cpp:395] layer_256_1_relu1 -> layer_256_1_bn1 (in-place)
I0131 23:30:01.556581  8699 net.cpp:150] Setting up layer_256_1_relu1
I0131 23:30:01.556594  8699 net.cpp:157] Top shape: 10 512 28 28 (4014080)
I0131 23:30:01.556599  8699 net.cpp:165] Memory required for data: 1679892640
I0131 23:30:01.556604  8699 layer_factory.hpp:77] Creating layer layer_256_1_bn1_layer_256_1_relu1_0_split
I0131 23:30:01.556612  8699 net.cpp:100] Creating Layer layer_256_1_bn1_layer_256_1_relu1_0_split
I0131 23:30:01.556617  8699 net.cpp:434] layer_256_1_bn1_layer_256_1_relu1_0_split <- layer_256_1_bn1
I0131 23:30:01.556622  8699 net.cpp:408] layer_256_1_bn1_layer_256_1_relu1_0_split -> layer_256_1_bn1_layer_256_1_relu1_0_split_0
I0131 23:30:01.556630  8699 net.cpp:408] layer_256_1_bn1_layer_256_1_relu1_0_split -> layer_256_1_bn1_layer_256_1_relu1_0_split_1
I0131 23:30:01.556675  8699 net.cpp:150] Setting up layer_256_1_bn1_layer_256_1_relu1_0_split
I0131 23:30:01.556686  8699 net.cpp:157] Top shape: 10 512 28 28 (4014080)
I0131 23:30:01.556692  8699 net.cpp:157] Top shape: 10 512 28 28 (4014080)
I0131 23:30:01.556696  8699 net.cpp:165] Memory required for data: 1712005280
I0131 23:30:01.556701  8699 layer_factory.hpp:77] Creating layer layer_256_1_conv1
I0131 23:30:01.556712  8699 net.cpp:100] Creating Layer layer_256_1_conv1
I0131 23:30:01.556718  8699 net.cpp:434] layer_256_1_conv1 <- layer_256_1_bn1_layer_256_1_relu1_0_split_0
I0131 23:30:01.556726  8699 net.cpp:408] layer_256_1_conv1 -> layer_256_1_conv1
I0131 23:30:01.560140  8699 net.cpp:150] Setting up layer_256_1_conv1
I0131 23:30:01.560153  8699 net.cpp:157] Top shape: 10 256 28 28 (2007040)
I0131 23:30:01.560158  8699 net.cpp:165] Memory required for data: 1720033440
I0131 23:30:01.560165  8699 layer_factory.hpp:77] Creating layer layer_256_1_bn2
I0131 23:30:01.560174  8699 net.cpp:100] Creating Layer layer_256_1_bn2
I0131 23:30:01.560180  8699 net.cpp:434] layer_256_1_bn2 <- layer_256_1_conv1
I0131 23:30:01.560186  8699 net.cpp:395] layer_256_1_bn2 -> layer_256_1_conv1 (in-place)
I0131 23:30:01.560391  8699 net.cpp:150] Setting up layer_256_1_bn2
I0131 23:30:01.560405  8699 net.cpp:157] Top shape: 10 256 28 28 (2007040)
I0131 23:30:01.560410  8699 net.cpp:165] Memory required for data: 1728061600
I0131 23:30:01.560420  8699 layer_factory.hpp:77] Creating layer layer_256_1_scale2
I0131 23:30:01.560427  8699 net.cpp:100] Creating Layer layer_256_1_scale2
I0131 23:30:01.560432  8699 net.cpp:434] layer_256_1_scale2 <- layer_256_1_conv1
I0131 23:30:01.560441  8699 net.cpp:395] layer_256_1_scale2 -> layer_256_1_conv1 (in-place)
I0131 23:30:01.560483  8699 layer_factory.hpp:77] Creating layer layer_256_1_scale2
I0131 23:30:01.560601  8699 net.cpp:150] Setting up layer_256_1_scale2
I0131 23:30:01.560612  8699 net.cpp:157] Top shape: 10 256 28 28 (2007040)
I0131 23:30:01.560616  8699 net.cpp:165] Memory required for data: 1736089760
I0131 23:30:01.560623  8699 layer_factory.hpp:77] Creating layer layer_256_1_relu2
I0131 23:30:01.560629  8699 net.cpp:100] Creating Layer layer_256_1_relu2
I0131 23:30:01.560633  8699 net.cpp:434] layer_256_1_relu2 <- layer_256_1_conv1
I0131 23:30:01.560639  8699 net.cpp:395] layer_256_1_relu2 -> layer_256_1_conv1 (in-place)
I0131 23:30:01.560817  8699 net.cpp:150] Setting up layer_256_1_relu2
I0131 23:30:01.560830  8699 net.cpp:157] Top shape: 10 256 28 28 (2007040)
I0131 23:30:01.560835  8699 net.cpp:165] Memory required for data: 1744117920
I0131 23:30:01.560842  8699 layer_factory.hpp:77] Creating layer layer_256_1_conv2
I0131 23:30:01.560852  8699 net.cpp:100] Creating Layer layer_256_1_conv2
I0131 23:30:01.560858  8699 net.cpp:434] layer_256_1_conv2 <- layer_256_1_conv1
I0131 23:30:01.560866  8699 net.cpp:408] layer_256_1_conv2 -> layer_256_1_conv2
I0131 23:30:01.572952  8699 net.cpp:150] Setting up layer_256_1_conv2
I0131 23:30:01.572986  8699 net.cpp:157] Top shape: 10 256 14 14 (501760)
I0131 23:30:01.572999  8699 net.cpp:165] Memory required for data: 1746124960
I0131 23:30:01.573006  8699 layer_factory.hpp:77] Creating layer layer_256_1_bn3
I0131 23:30:01.573029  8699 net.cpp:100] Creating Layer layer_256_1_bn3
I0131 23:30:01.573036  8699 net.cpp:434] layer_256_1_bn3 <- layer_256_1_conv2
I0131 23:30:01.573043  8699 net.cpp:395] layer_256_1_bn3 -> layer_256_1_conv2 (in-place)
I0131 23:30:01.573261  8699 net.cpp:150] Setting up layer_256_1_bn3
I0131 23:30:01.573287  8699 net.cpp:157] Top shape: 10 256 14 14 (501760)
I0131 23:30:01.573292  8699 net.cpp:165] Memory required for data: 1748132000
I0131 23:30:01.573302  8699 layer_factory.hpp:77] Creating layer layer_256_1_scale3
I0131 23:30:01.573309  8699 net.cpp:100] Creating Layer layer_256_1_scale3
I0131 23:30:01.573315  8699 net.cpp:434] layer_256_1_scale3 <- layer_256_1_conv2
I0131 23:30:01.573323  8699 net.cpp:395] layer_256_1_scale3 -> layer_256_1_conv2 (in-place)
I0131 23:30:01.573380  8699 layer_factory.hpp:77] Creating layer layer_256_1_scale3
I0131 23:30:01.573535  8699 net.cpp:150] Setting up layer_256_1_scale3
I0131 23:30:01.573545  8699 net.cpp:157] Top shape: 10 256 14 14 (501760)
I0131 23:30:01.573550  8699 net.cpp:165] Memory required for data: 1750139040
I0131 23:30:01.573556  8699 layer_factory.hpp:77] Creating layer layer_256_1_relu3
I0131 23:30:01.573562  8699 net.cpp:100] Creating Layer layer_256_1_relu3
I0131 23:30:01.573567  8699 net.cpp:434] layer_256_1_relu3 <- layer_256_1_conv2
I0131 23:30:01.573572  8699 net.cpp:395] layer_256_1_relu3 -> layer_256_1_conv2 (in-place)
I0131 23:30:01.573737  8699 net.cpp:150] Setting up layer_256_1_relu3
I0131 23:30:01.573750  8699 net.cpp:157] Top shape: 10 256 14 14 (501760)
I0131 23:30:01.573756  8699 net.cpp:165] Memory required for data: 1752146080
I0131 23:30:01.573761  8699 layer_factory.hpp:77] Creating layer layer_256_1_conv3
I0131 23:30:01.573772  8699 net.cpp:100] Creating Layer layer_256_1_conv3
I0131 23:30:01.573778  8699 net.cpp:434] layer_256_1_conv3 <- layer_256_1_conv2
I0131 23:30:01.573787  8699 net.cpp:408] layer_256_1_conv3 -> layer_256_1_conv3
I0131 23:30:01.580112  8699 net.cpp:150] Setting up layer_256_1_conv3
I0131 23:30:01.580142  8699 net.cpp:157] Top shape: 10 1024 14 14 (2007040)
I0131 23:30:01.580147  8699 net.cpp:165] Memory required for data: 1760174240
I0131 23:30:01.580168  8699 layer_factory.hpp:77] Creating layer layer_256_1_conv_expand
I0131 23:30:01.580179  8699 net.cpp:100] Creating Layer layer_256_1_conv_expand
I0131 23:30:01.580188  8699 net.cpp:434] layer_256_1_conv_expand <- layer_256_1_bn1_layer_256_1_relu1_0_split_1
I0131 23:30:01.580198  8699 net.cpp:408] layer_256_1_conv_expand -> layer_256_1_conv_expand
I0131 23:30:01.591601  8699 net.cpp:150] Setting up layer_256_1_conv_expand
I0131 23:30:01.591635  8699 net.cpp:157] Top shape: 10 1024 14 14 (2007040)
I0131 23:30:01.591640  8699 net.cpp:165] Memory required for data: 1768202400
I0131 23:30:01.591650  8699 layer_factory.hpp:77] Creating layer layer_256_1_sum
I0131 23:30:01.591658  8699 net.cpp:100] Creating Layer layer_256_1_sum
I0131 23:30:01.591665  8699 net.cpp:434] layer_256_1_sum <- layer_256_1_conv3
I0131 23:30:01.591683  8699 net.cpp:434] layer_256_1_sum <- layer_256_1_conv_expand
I0131 23:30:01.591692  8699 net.cpp:408] layer_256_1_sum -> layer_256_1_sum
I0131 23:30:01.591722  8699 net.cpp:150] Setting up layer_256_1_sum
I0131 23:30:01.591744  8699 net.cpp:157] Top shape: 10 1024 14 14 (2007040)
I0131 23:30:01.591749  8699 net.cpp:165] Memory required for data: 1776230560
I0131 23:30:01.591768  8699 layer_factory.hpp:77] Creating layer layer_256_1_sum_layer_256_1_sum_0_split
I0131 23:30:01.591790  8699 net.cpp:100] Creating Layer layer_256_1_sum_layer_256_1_sum_0_split
I0131 23:30:01.591795  8699 net.cpp:434] layer_256_1_sum_layer_256_1_sum_0_split <- layer_256_1_sum
I0131 23:30:01.591802  8699 net.cpp:408] layer_256_1_sum_layer_256_1_sum_0_split -> layer_256_1_sum_layer_256_1_sum_0_split_0
I0131 23:30:01.591816  8699 net.cpp:408] layer_256_1_sum_layer_256_1_sum_0_split -> layer_256_1_sum_layer_256_1_sum_0_split_1
I0131 23:30:01.591905  8699 net.cpp:150] Setting up layer_256_1_sum_layer_256_1_sum_0_split
I0131 23:30:01.591913  8699 net.cpp:157] Top shape: 10 1024 14 14 (2007040)
I0131 23:30:01.591919  8699 net.cpp:157] Top shape: 10 1024 14 14 (2007040)
I0131 23:30:01.591923  8699 net.cpp:165] Memory required for data: 1792286880
I0131 23:30:01.591928  8699 layer_factory.hpp:77] Creating layer layer_256_2_bn1
I0131 23:30:01.591936  8699 net.cpp:100] Creating Layer layer_256_2_bn1
I0131 23:30:01.591943  8699 net.cpp:434] layer_256_2_bn1 <- layer_256_1_sum_layer_256_1_sum_0_split_0
I0131 23:30:01.591948  8699 net.cpp:408] layer_256_2_bn1 -> layer_256_2_bn1
I0131 23:30:01.592208  8699 net.cpp:150] Setting up layer_256_2_bn1
I0131 23:30:01.592221  8699 net.cpp:157] Top shape: 10 1024 14 14 (2007040)
I0131 23:30:01.592223  8699 net.cpp:165] Memory required for data: 1800315040
I0131 23:30:01.592231  8699 layer_factory.hpp:77] Creating layer layer_256_2_scale1
I0131 23:30:01.592237  8699 net.cpp:100] Creating Layer layer_256_2_scale1
I0131 23:30:01.592242  8699 net.cpp:434] layer_256_2_scale1 <- layer_256_2_bn1
I0131 23:30:01.592247  8699 net.cpp:395] layer_256_2_scale1 -> layer_256_2_bn1 (in-place)
I0131 23:30:01.592285  8699 layer_factory.hpp:77] Creating layer layer_256_2_scale1
I0131 23:30:01.592438  8699 net.cpp:150] Setting up layer_256_2_scale1
I0131 23:30:01.592464  8699 net.cpp:157] Top shape: 10 1024 14 14 (2007040)
I0131 23:30:01.592469  8699 net.cpp:165] Memory required for data: 1808343200
I0131 23:30:01.592478  8699 layer_factory.hpp:77] Creating layer layer_256_2_relu1
I0131 23:30:01.592484  8699 net.cpp:100] Creating Layer layer_256_2_relu1
I0131 23:30:01.592502  8699 net.cpp:434] layer_256_2_relu1 <- layer_256_2_bn1
I0131 23:30:01.592510  8699 net.cpp:395] layer_256_2_relu1 -> layer_256_2_bn1 (in-place)
I0131 23:30:01.592932  8699 net.cpp:150] Setting up layer_256_2_relu1
I0131 23:30:01.592959  8699 net.cpp:157] Top shape: 10 1024 14 14 (2007040)
I0131 23:30:01.592964  8699 net.cpp:165] Memory required for data: 1816371360
I0131 23:30:01.592969  8699 layer_factory.hpp:77] Creating layer layer_256_2_conv1
I0131 23:30:01.592979  8699 net.cpp:100] Creating Layer layer_256_2_conv1
I0131 23:30:01.592985  8699 net.cpp:434] layer_256_2_conv1 <- layer_256_2_bn1
I0131 23:30:01.592994  8699 net.cpp:408] layer_256_2_conv1 -> layer_256_2_conv1
I0131 23:30:01.598886  8699 net.cpp:150] Setting up layer_256_2_conv1
I0131 23:30:01.598913  8699 net.cpp:157] Top shape: 10 256 14 14 (501760)
I0131 23:30:01.598919  8699 net.cpp:165] Memory required for data: 1818378400
I0131 23:30:01.598927  8699 layer_factory.hpp:77] Creating layer layer_256_2_bn2
I0131 23:30:01.598947  8699 net.cpp:100] Creating Layer layer_256_2_bn2
I0131 23:30:01.598953  8699 net.cpp:434] layer_256_2_bn2 <- layer_256_2_conv1
I0131 23:30:01.598959  8699 net.cpp:395] layer_256_2_bn2 -> layer_256_2_conv1 (in-place)
I0131 23:30:01.599176  8699 net.cpp:150] Setting up layer_256_2_bn2
I0131 23:30:01.599202  8699 net.cpp:157] Top shape: 10 256 14 14 (501760)
I0131 23:30:01.599208  8699 net.cpp:165] Memory required for data: 1820385440
I0131 23:30:01.599217  8699 layer_factory.hpp:77] Creating layer layer_256_2_scale2
I0131 23:30:01.599226  8699 net.cpp:100] Creating Layer layer_256_2_scale2
I0131 23:30:01.599231  8699 net.cpp:434] layer_256_2_scale2 <- layer_256_2_conv1
I0131 23:30:01.599238  8699 net.cpp:395] layer_256_2_scale2 -> layer_256_2_conv1 (in-place)
I0131 23:30:01.599295  8699 layer_factory.hpp:77] Creating layer layer_256_2_scale2
I0131 23:30:01.599449  8699 net.cpp:150] Setting up layer_256_2_scale2
I0131 23:30:01.599460  8699 net.cpp:157] Top shape: 10 256 14 14 (501760)
I0131 23:30:01.599463  8699 net.cpp:165] Memory required for data: 1822392480
I0131 23:30:01.599472  8699 layer_factory.hpp:77] Creating layer layer_256_2_relu2
I0131 23:30:01.599488  8699 net.cpp:100] Creating Layer layer_256_2_relu2
I0131 23:30:01.599493  8699 net.cpp:434] layer_256_2_relu2 <- layer_256_2_conv1
I0131 23:30:01.599503  8699 net.cpp:395] layer_256_2_relu2 -> layer_256_2_conv1 (in-place)
I0131 23:30:01.599686  8699 net.cpp:150] Setting up layer_256_2_relu2
I0131 23:30:01.599714  8699 net.cpp:157] Top shape: 10 256 14 14 (501760)
I0131 23:30:01.599720  8699 net.cpp:165] Memory required for data: 1824399520
I0131 23:30:01.599725  8699 layer_factory.hpp:77] Creating layer layer_256_2_conv2
I0131 23:30:01.599736  8699 net.cpp:100] Creating Layer layer_256_2_conv2
I0131 23:30:01.599745  8699 net.cpp:434] layer_256_2_conv2 <- layer_256_2_conv1
I0131 23:30:01.599766  8699 net.cpp:408] layer_256_2_conv2 -> layer_256_2_conv2
I0131 23:30:01.612156  8699 net.cpp:150] Setting up layer_256_2_conv2
I0131 23:30:01.612186  8699 net.cpp:157] Top shape: 10 256 14 14 (501760)
I0131 23:30:01.612192  8699 net.cpp:165] Memory required for data: 1826406560
I0131 23:30:01.612200  8699 layer_factory.hpp:77] Creating layer layer_256_2_bn3
I0131 23:30:01.612208  8699 net.cpp:100] Creating Layer layer_256_2_bn3
I0131 23:30:01.612215  8699 net.cpp:434] layer_256_2_bn3 <- layer_256_2_conv2
I0131 23:30:01.612234  8699 net.cpp:395] layer_256_2_bn3 -> layer_256_2_conv2 (in-place)
I0131 23:30:01.612453  8699 net.cpp:150] Setting up layer_256_2_bn3
I0131 23:30:01.612479  8699 net.cpp:157] Top shape: 10 256 14 14 (501760)
I0131 23:30:01.612485  8699 net.cpp:165] Memory required for data: 1828413600
I0131 23:30:01.612507  8699 layer_factory.hpp:77] Creating layer layer_256_2_scale3
I0131 23:30:01.612516  8699 net.cpp:100] Creating Layer layer_256_2_scale3
I0131 23:30:01.612522  8699 net.cpp:434] layer_256_2_scale3 <- layer_256_2_conv2
I0131 23:30:01.612529  8699 net.cpp:395] layer_256_2_scale3 -> layer_256_2_conv2 (in-place)
I0131 23:30:01.612576  8699 layer_factory.hpp:77] Creating layer layer_256_2_scale3
I0131 23:30:01.612738  8699 net.cpp:150] Setting up layer_256_2_scale3
I0131 23:30:01.612749  8699 net.cpp:157] Top shape: 10 256 14 14 (501760)
I0131 23:30:01.612754  8699 net.cpp:165] Memory required for data: 1830420640
I0131 23:30:01.612761  8699 layer_factory.hpp:77] Creating layer layer_256_2_relu3
I0131 23:30:01.612767  8699 net.cpp:100] Creating Layer layer_256_2_relu3
I0131 23:30:01.612772  8699 net.cpp:434] layer_256_2_relu3 <- layer_256_2_conv2
I0131 23:30:01.612781  8699 net.cpp:395] layer_256_2_relu3 -> layer_256_2_conv2 (in-place)
I0131 23:30:01.613010  8699 net.cpp:150] Setting up layer_256_2_relu3
I0131 23:30:01.613023  8699 net.cpp:157] Top shape: 10 256 14 14 (501760)
I0131 23:30:01.613029  8699 net.cpp:165] Memory required for data: 1832427680
I0131 23:30:01.613034  8699 layer_factory.hpp:77] Creating layer layer_256_2_conv3
I0131 23:30:01.613044  8699 net.cpp:100] Creating Layer layer_256_2_conv3
I0131 23:30:01.613050  8699 net.cpp:434] layer_256_2_conv3 <- layer_256_2_conv2
I0131 23:30:01.613059  8699 net.cpp:408] layer_256_2_conv3 -> layer_256_2_conv3
I0131 23:30:01.619390  8699 net.cpp:150] Setting up layer_256_2_conv3
I0131 23:30:01.619406  8699 net.cpp:157] Top shape: 10 1024 14 14 (2007040)
I0131 23:30:01.619412  8699 net.cpp:165] Memory required for data: 1840455840
I0131 23:30:01.619420  8699 layer_factory.hpp:77] Creating layer layer_256_2_sum
I0131 23:30:01.619429  8699 net.cpp:100] Creating Layer layer_256_2_sum
I0131 23:30:01.619436  8699 net.cpp:434] layer_256_2_sum <- layer_256_2_conv3
I0131 23:30:01.619442  8699 net.cpp:434] layer_256_2_sum <- layer_256_1_sum_layer_256_1_sum_0_split_1
I0131 23:30:01.619449  8699 net.cpp:408] layer_256_2_sum -> layer_256_2_sum
I0131 23:30:01.619478  8699 net.cpp:150] Setting up layer_256_2_sum
I0131 23:30:01.619488  8699 net.cpp:157] Top shape: 10 1024 14 14 (2007040)
I0131 23:30:01.619494  8699 net.cpp:165] Memory required for data: 1848484000
I0131 23:30:01.619499  8699 layer_factory.hpp:77] Creating layer layer_256_2_sum_layer_256_2_sum_0_split
I0131 23:30:01.619505  8699 net.cpp:100] Creating Layer layer_256_2_sum_layer_256_2_sum_0_split
I0131 23:30:01.619510  8699 net.cpp:434] layer_256_2_sum_layer_256_2_sum_0_split <- layer_256_2_sum
I0131 23:30:01.619524  8699 net.cpp:408] layer_256_2_sum_layer_256_2_sum_0_split -> layer_256_2_sum_layer_256_2_sum_0_split_0
I0131 23:30:01.619541  8699 net.cpp:408] layer_256_2_sum_layer_256_2_sum_0_split -> layer_256_2_sum_layer_256_2_sum_0_split_1
I0131 23:30:01.619582  8699 net.cpp:150] Setting up layer_256_2_sum_layer_256_2_sum_0_split
I0131 23:30:01.619591  8699 net.cpp:157] Top shape: 10 1024 14 14 (2007040)
I0131 23:30:01.619598  8699 net.cpp:157] Top shape: 10 1024 14 14 (2007040)
I0131 23:30:01.619602  8699 net.cpp:165] Memory required for data: 1864540320
I0131 23:30:01.619607  8699 layer_factory.hpp:77] Creating layer layer_256_3_bn1
I0131 23:30:01.619614  8699 net.cpp:100] Creating Layer layer_256_3_bn1
I0131 23:30:01.619619  8699 net.cpp:434] layer_256_3_bn1 <- layer_256_2_sum_layer_256_2_sum_0_split_0
I0131 23:30:01.619626  8699 net.cpp:408] layer_256_3_bn1 -> layer_256_3_bn1
I0131 23:30:01.619859  8699 net.cpp:150] Setting up layer_256_3_bn1
I0131 23:30:01.619870  8699 net.cpp:157] Top shape: 10 1024 14 14 (2007040)
I0131 23:30:01.619874  8699 net.cpp:165] Memory required for data: 1872568480
I0131 23:30:01.619882  8699 layer_factory.hpp:77] Creating layer layer_256_3_scale1
I0131 23:30:01.619889  8699 net.cpp:100] Creating Layer layer_256_3_scale1
I0131 23:30:01.619915  8699 net.cpp:434] layer_256_3_scale1 <- layer_256_3_bn1
I0131 23:30:01.619922  8699 net.cpp:395] layer_256_3_scale1 -> layer_256_3_bn1 (in-place)
I0131 23:30:01.619956  8699 layer_factory.hpp:77] Creating layer layer_256_3_scale1
I0131 23:30:01.620090  8699 net.cpp:150] Setting up layer_256_3_scale1
I0131 23:30:01.620116  8699 net.cpp:157] Top shape: 10 1024 14 14 (2007040)
I0131 23:30:01.620121  8699 net.cpp:165] Memory required for data: 1880596640
I0131 23:30:01.620129  8699 layer_factory.hpp:77] Creating layer layer_256_3_relu1
I0131 23:30:01.620137  8699 net.cpp:100] Creating Layer layer_256_3_relu1
I0131 23:30:01.620142  8699 net.cpp:434] layer_256_3_relu1 <- layer_256_3_bn1
I0131 23:30:01.620162  8699 net.cpp:395] layer_256_3_relu1 -> layer_256_3_bn1 (in-place)
I0131 23:30:01.620600  8699 net.cpp:150] Setting up layer_256_3_relu1
I0131 23:30:01.620628  8699 net.cpp:157] Top shape: 10 1024 14 14 (2007040)
I0131 23:30:01.620635  8699 net.cpp:165] Memory required for data: 1888624800
I0131 23:30:01.620640  8699 layer_factory.hpp:77] Creating layer layer_256_3_conv1
I0131 23:30:01.620651  8699 net.cpp:100] Creating Layer layer_256_3_conv1
I0131 23:30:01.620658  8699 net.cpp:434] layer_256_3_conv1 <- layer_256_3_bn1
I0131 23:30:01.620682  8699 net.cpp:408] layer_256_3_conv1 -> layer_256_3_conv1
I0131 23:30:01.626140  8699 net.cpp:150] Setting up layer_256_3_conv1
I0131 23:30:01.626168  8699 net.cpp:157] Top shape: 10 256 14 14 (501760)
I0131 23:30:01.626173  8699 net.cpp:165] Memory required for data: 1890631840
I0131 23:30:01.626181  8699 layer_factory.hpp:77] Creating layer layer_256_3_bn2
I0131 23:30:01.626189  8699 net.cpp:100] Creating Layer layer_256_3_bn2
I0131 23:30:01.626210  8699 net.cpp:434] layer_256_3_bn2 <- layer_256_3_conv1
I0131 23:30:01.626217  8699 net.cpp:395] layer_256_3_bn2 -> layer_256_3_conv1 (in-place)
I0131 23:30:01.626435  8699 net.cpp:150] Setting up layer_256_3_bn2
I0131 23:30:01.626461  8699 net.cpp:157] Top shape: 10 256 14 14 (501760)
I0131 23:30:01.626466  8699 net.cpp:165] Memory required for data: 1892638880
I0131 23:30:01.626477  8699 layer_factory.hpp:77] Creating layer layer_256_3_scale2
I0131 23:30:01.626485  8699 net.cpp:100] Creating Layer layer_256_3_scale2
I0131 23:30:01.626492  8699 net.cpp:434] layer_256_3_scale2 <- layer_256_3_conv1
I0131 23:30:01.626498  8699 net.cpp:395] layer_256_3_scale2 -> layer_256_3_conv1 (in-place)
I0131 23:30:01.626556  8699 layer_factory.hpp:77] Creating layer layer_256_3_scale2
I0131 23:30:01.626705  8699 net.cpp:150] Setting up layer_256_3_scale2
I0131 23:30:01.626716  8699 net.cpp:157] Top shape: 10 256 14 14 (501760)
I0131 23:30:01.626721  8699 net.cpp:165] Memory required for data: 1894645920
I0131 23:30:01.626734  8699 layer_factory.hpp:77] Creating layer layer_256_3_relu2
I0131 23:30:01.626744  8699 net.cpp:100] Creating Layer layer_256_3_relu2
I0131 23:30:01.626755  8699 net.cpp:434] layer_256_3_relu2 <- layer_256_3_conv1
I0131 23:30:01.626765  8699 net.cpp:395] layer_256_3_relu2 -> layer_256_3_conv1 (in-place)
I0131 23:30:01.627172  8699 net.cpp:150] Setting up layer_256_3_relu2
I0131 23:30:01.627187  8699 net.cpp:157] Top shape: 10 256 14 14 (501760)
I0131 23:30:01.627193  8699 net.cpp:165] Memory required for data: 1896652960
I0131 23:30:01.627198  8699 layer_factory.hpp:77] Creating layer layer_256_3_conv2
I0131 23:30:01.627208  8699 net.cpp:100] Creating Layer layer_256_3_conv2
I0131 23:30:01.627214  8699 net.cpp:434] layer_256_3_conv2 <- layer_256_3_conv1
I0131 23:30:01.627225  8699 net.cpp:408] layer_256_3_conv2 -> layer_256_3_conv2
I0131 23:30:01.639137  8699 net.cpp:150] Setting up layer_256_3_conv2
I0131 23:30:01.639168  8699 net.cpp:157] Top shape: 10 256 14 14 (501760)
I0131 23:30:01.639173  8699 net.cpp:165] Memory required for data: 1898660000
I0131 23:30:01.639194  8699 layer_factory.hpp:77] Creating layer layer_256_3_bn3
I0131 23:30:01.639204  8699 net.cpp:100] Creating Layer layer_256_3_bn3
I0131 23:30:01.639210  8699 net.cpp:434] layer_256_3_bn3 <- layer_256_3_conv2
I0131 23:30:01.639219  8699 net.cpp:395] layer_256_3_bn3 -> layer_256_3_conv2 (in-place)
I0131 23:30:01.639444  8699 net.cpp:150] Setting up layer_256_3_bn3
I0131 23:30:01.639470  8699 net.cpp:157] Top shape: 10 256 14 14 (501760)
I0131 23:30:01.639477  8699 net.cpp:165] Memory required for data: 1900667040
I0131 23:30:01.639498  8699 layer_factory.hpp:77] Creating layer layer_256_3_scale3
I0131 23:30:01.639508  8699 net.cpp:100] Creating Layer layer_256_3_scale3
I0131 23:30:01.639513  8699 net.cpp:434] layer_256_3_scale3 <- layer_256_3_conv2
I0131 23:30:01.639519  8699 net.cpp:395] layer_256_3_scale3 -> layer_256_3_conv2 (in-place)
I0131 23:30:01.639569  8699 layer_factory.hpp:77] Creating layer layer_256_3_scale3
I0131 23:30:01.639780  8699 net.cpp:150] Setting up layer_256_3_scale3
I0131 23:30:01.639789  8699 net.cpp:157] Top shape: 10 256 14 14 (501760)
I0131 23:30:01.639793  8699 net.cpp:165] Memory required for data: 1902674080
I0131 23:30:01.639799  8699 layer_factory.hpp:77] Creating layer layer_256_3_relu3
I0131 23:30:01.639806  8699 net.cpp:100] Creating Layer layer_256_3_relu3
I0131 23:30:01.639811  8699 net.cpp:434] layer_256_3_relu3 <- layer_256_3_conv2
I0131 23:30:01.639816  8699 net.cpp:395] layer_256_3_relu3 -> layer_256_3_conv2 (in-place)
I0131 23:30:01.639986  8699 net.cpp:150] Setting up layer_256_3_relu3
I0131 23:30:01.640014  8699 net.cpp:157] Top shape: 10 256 14 14 (501760)
I0131 23:30:01.640019  8699 net.cpp:165] Memory required for data: 1904681120
I0131 23:30:01.640025  8699 layer_factory.hpp:77] Creating layer layer_256_3_conv3
I0131 23:30:01.640036  8699 net.cpp:100] Creating Layer layer_256_3_conv3
I0131 23:30:01.640056  8699 net.cpp:434] layer_256_3_conv3 <- layer_256_3_conv2
I0131 23:30:01.640064  8699 net.cpp:408] layer_256_3_conv3 -> layer_256_3_conv3
I0131 23:30:01.646692  8699 net.cpp:150] Setting up layer_256_3_conv3
I0131 23:30:01.646733  8699 net.cpp:157] Top shape: 10 1024 14 14 (2007040)
I0131 23:30:01.646739  8699 net.cpp:165] Memory required for data: 1912709280
I0131 23:30:01.646746  8699 layer_factory.hpp:77] Creating layer layer_256_3_sum
I0131 23:30:01.646776  8699 net.cpp:100] Creating Layer layer_256_3_sum
I0131 23:30:01.646782  8699 net.cpp:434] layer_256_3_sum <- layer_256_3_conv3
I0131 23:30:01.646790  8699 net.cpp:434] layer_256_3_sum <- layer_256_2_sum_layer_256_2_sum_0_split_1
I0131 23:30:01.646796  8699 net.cpp:408] layer_256_3_sum -> layer_256_3_sum
I0131 23:30:01.646828  8699 net.cpp:150] Setting up layer_256_3_sum
I0131 23:30:01.646838  8699 net.cpp:157] Top shape: 10 1024 14 14 (2007040)
I0131 23:30:01.646842  8699 net.cpp:165] Memory required for data: 1920737440
I0131 23:30:01.646847  8699 layer_factory.hpp:77] Creating layer layer_256_3_sum_layer_256_3_sum_0_split
I0131 23:30:01.646855  8699 net.cpp:100] Creating Layer layer_256_3_sum_layer_256_3_sum_0_split
I0131 23:30:01.646865  8699 net.cpp:434] layer_256_3_sum_layer_256_3_sum_0_split <- layer_256_3_sum
I0131 23:30:01.646891  8699 net.cpp:408] layer_256_3_sum_layer_256_3_sum_0_split -> layer_256_3_sum_layer_256_3_sum_0_split_0
I0131 23:30:01.646914  8699 net.cpp:408] layer_256_3_sum_layer_256_3_sum_0_split -> layer_256_3_sum_layer_256_3_sum_0_split_1
I0131 23:30:01.646955  8699 net.cpp:150] Setting up layer_256_3_sum_layer_256_3_sum_0_split
I0131 23:30:01.646965  8699 net.cpp:157] Top shape: 10 1024 14 14 (2007040)
I0131 23:30:01.646970  8699 net.cpp:157] Top shape: 10 1024 14 14 (2007040)
I0131 23:30:01.646973  8699 net.cpp:165] Memory required for data: 1936793760
I0131 23:30:01.646978  8699 layer_factory.hpp:77] Creating layer layer_256_4_bn1
I0131 23:30:01.646986  8699 net.cpp:100] Creating Layer layer_256_4_bn1
I0131 23:30:01.646991  8699 net.cpp:434] layer_256_4_bn1 <- layer_256_3_sum_layer_256_3_sum_0_split_0
I0131 23:30:01.647012  8699 net.cpp:408] layer_256_4_bn1 -> layer_256_4_bn1
I0131 23:30:01.647258  8699 net.cpp:150] Setting up layer_256_4_bn1
I0131 23:30:01.647284  8699 net.cpp:157] Top shape: 10 1024 14 14 (2007040)
I0131 23:30:01.647289  8699 net.cpp:165] Memory required for data: 1944821920
I0131 23:30:01.647300  8699 layer_factory.hpp:77] Creating layer layer_256_4_scale1
I0131 23:30:01.647308  8699 net.cpp:100] Creating Layer layer_256_4_scale1
I0131 23:30:01.647336  8699 net.cpp:434] layer_256_4_scale1 <- layer_256_4_bn1
I0131 23:30:01.647341  8699 net.cpp:395] layer_256_4_scale1 -> layer_256_4_bn1 (in-place)
I0131 23:30:01.647387  8699 layer_factory.hpp:77] Creating layer layer_256_4_scale1
I0131 23:30:01.647585  8699 net.cpp:150] Setting up layer_256_4_scale1
I0131 23:30:01.647598  8699 net.cpp:157] Top shape: 10 1024 14 14 (2007040)
I0131 23:30:01.647603  8699 net.cpp:165] Memory required for data: 1952850080
I0131 23:30:01.647610  8699 layer_factory.hpp:77] Creating layer layer_256_4_relu1
I0131 23:30:01.647619  8699 net.cpp:100] Creating Layer layer_256_4_relu1
I0131 23:30:01.647624  8699 net.cpp:434] layer_256_4_relu1 <- layer_256_4_bn1
I0131 23:30:01.647630  8699 net.cpp:395] layer_256_4_relu1 -> layer_256_4_bn1 (in-place)
I0131 23:30:01.647925  8699 net.cpp:150] Setting up layer_256_4_relu1
I0131 23:30:01.647950  8699 net.cpp:157] Top shape: 10 1024 14 14 (2007040)
I0131 23:30:01.647955  8699 net.cpp:165] Memory required for data: 1960878240
I0131 23:30:01.647974  8699 layer_factory.hpp:77] Creating layer layer_256_4_conv1
I0131 23:30:01.647985  8699 net.cpp:100] Creating Layer layer_256_4_conv1
I0131 23:30:01.647991  8699 net.cpp:434] layer_256_4_conv1 <- layer_256_4_bn1
I0131 23:30:01.648000  8699 net.cpp:408] layer_256_4_conv1 -> layer_256_4_conv1
I0131 23:30:01.654023  8699 net.cpp:150] Setting up layer_256_4_conv1
I0131 23:30:01.654037  8699 net.cpp:157] Top shape: 10 256 14 14 (501760)
I0131 23:30:01.654042  8699 net.cpp:165] Memory required for data: 1962885280
I0131 23:30:01.654050  8699 layer_factory.hpp:77] Creating layer layer_256_4_bn2
I0131 23:30:01.654059  8699 net.cpp:100] Creating Layer layer_256_4_bn2
I0131 23:30:01.654065  8699 net.cpp:434] layer_256_4_bn2 <- layer_256_4_conv1
I0131 23:30:01.654072  8699 net.cpp:395] layer_256_4_bn2 -> layer_256_4_conv1 (in-place)
I0131 23:30:01.654294  8699 net.cpp:150] Setting up layer_256_4_bn2
I0131 23:30:01.654306  8699 net.cpp:157] Top shape: 10 256 14 14 (501760)
I0131 23:30:01.654312  8699 net.cpp:165] Memory required for data: 1964892320
I0131 23:30:01.654321  8699 layer_factory.hpp:77] Creating layer layer_256_4_scale2
I0131 23:30:01.654330  8699 net.cpp:100] Creating Layer layer_256_4_scale2
I0131 23:30:01.654335  8699 net.cpp:434] layer_256_4_scale2 <- layer_256_4_conv1
I0131 23:30:01.654342  8699 net.cpp:395] layer_256_4_scale2 -> layer_256_4_conv1 (in-place)
I0131 23:30:01.654392  8699 layer_factory.hpp:77] Creating layer layer_256_4_scale2
I0131 23:30:01.654539  8699 net.cpp:150] Setting up layer_256_4_scale2
I0131 23:30:01.654549  8699 net.cpp:157] Top shape: 10 256 14 14 (501760)
I0131 23:30:01.654553  8699 net.cpp:165] Memory required for data: 1966899360
I0131 23:30:01.654564  8699 layer_factory.hpp:77] Creating layer layer_256_4_relu2
I0131 23:30:01.654577  8699 net.cpp:100] Creating Layer layer_256_4_relu2
I0131 23:30:01.654582  8699 net.cpp:434] layer_256_4_relu2 <- layer_256_4_conv1
I0131 23:30:01.654587  8699 net.cpp:395] layer_256_4_relu2 -> layer_256_4_conv1 (in-place)
I0131 23:30:01.654759  8699 net.cpp:150] Setting up layer_256_4_relu2
I0131 23:30:01.654773  8699 net.cpp:157] Top shape: 10 256 14 14 (501760)
I0131 23:30:01.654778  8699 net.cpp:165] Memory required for data: 1968906400
I0131 23:30:01.654783  8699 layer_factory.hpp:77] Creating layer layer_256_4_conv2
I0131 23:30:01.654795  8699 net.cpp:100] Creating Layer layer_256_4_conv2
I0131 23:30:01.654801  8699 net.cpp:434] layer_256_4_conv2 <- layer_256_4_conv1
I0131 23:30:01.654810  8699 net.cpp:408] layer_256_4_conv2 -> layer_256_4_conv2
I0131 23:30:01.667320  8699 net.cpp:150] Setting up layer_256_4_conv2
I0131 23:30:01.667351  8699 net.cpp:157] Top shape: 10 256 14 14 (501760)
I0131 23:30:01.667357  8699 net.cpp:165] Memory required for data: 1970913440
I0131 23:30:01.667364  8699 layer_factory.hpp:77] Creating layer layer_256_4_bn3
I0131 23:30:01.667374  8699 net.cpp:100] Creating Layer layer_256_4_bn3
I0131 23:30:01.667395  8699 net.cpp:434] layer_256_4_bn3 <- layer_256_4_conv2
I0131 23:30:01.667403  8699 net.cpp:395] layer_256_4_bn3 -> layer_256_4_conv2 (in-place)
I0131 23:30:01.667630  8699 net.cpp:150] Setting up layer_256_4_bn3
I0131 23:30:01.667644  8699 net.cpp:157] Top shape: 10 256 14 14 (501760)
I0131 23:30:01.667649  8699 net.cpp:165] Memory required for data: 1972920480
I0131 23:30:01.667657  8699 layer_factory.hpp:77] Creating layer layer_256_4_scale3
I0131 23:30:01.667665  8699 net.cpp:100] Creating Layer layer_256_4_scale3
I0131 23:30:01.667670  8699 net.cpp:434] layer_256_4_scale3 <- layer_256_4_conv2
I0131 23:30:01.667677  8699 net.cpp:395] layer_256_4_scale3 -> layer_256_4_conv2 (in-place)
I0131 23:30:01.667727  8699 layer_factory.hpp:77] Creating layer layer_256_4_scale3
I0131 23:30:01.667883  8699 net.cpp:150] Setting up layer_256_4_scale3
I0131 23:30:01.667893  8699 net.cpp:157] Top shape: 10 256 14 14 (501760)
I0131 23:30:01.667897  8699 net.cpp:165] Memory required for data: 1974927520
I0131 23:30:01.667902  8699 layer_factory.hpp:77] Creating layer layer_256_4_relu3
I0131 23:30:01.667908  8699 net.cpp:100] Creating Layer layer_256_4_relu3
I0131 23:30:01.667913  8699 net.cpp:434] layer_256_4_relu3 <- layer_256_4_conv2
I0131 23:30:01.667920  8699 net.cpp:395] layer_256_4_relu3 -> layer_256_4_conv2 (in-place)
I0131 23:30:01.668082  8699 net.cpp:150] Setting up layer_256_4_relu3
I0131 23:30:01.668093  8699 net.cpp:157] Top shape: 10 256 14 14 (501760)
I0131 23:30:01.668098  8699 net.cpp:165] Memory required for data: 1976934560
I0131 23:30:01.668103  8699 layer_factory.hpp:77] Creating layer layer_256_4_conv3
I0131 23:30:01.668115  8699 net.cpp:100] Creating Layer layer_256_4_conv3
I0131 23:30:01.668120  8699 net.cpp:434] layer_256_4_conv3 <- layer_256_4_conv2
I0131 23:30:01.668129  8699 net.cpp:408] layer_256_4_conv3 -> layer_256_4_conv3
I0131 23:30:01.674592  8699 net.cpp:150] Setting up layer_256_4_conv3
I0131 23:30:01.674608  8699 net.cpp:157] Top shape: 10 1024 14 14 (2007040)
I0131 23:30:01.674614  8699 net.cpp:165] Memory required for data: 1984962720
I0131 23:30:01.674621  8699 layer_factory.hpp:77] Creating layer layer_256_4_sum
I0131 23:30:01.674631  8699 net.cpp:100] Creating Layer layer_256_4_sum
I0131 23:30:01.674638  8699 net.cpp:434] layer_256_4_sum <- layer_256_4_conv3
I0131 23:30:01.674645  8699 net.cpp:434] layer_256_4_sum <- layer_256_3_sum_layer_256_3_sum_0_split_1
I0131 23:30:01.674652  8699 net.cpp:408] layer_256_4_sum -> layer_256_4_sum
I0131 23:30:01.674682  8699 net.cpp:150] Setting up layer_256_4_sum
I0131 23:30:01.674693  8699 net.cpp:157] Top shape: 10 1024 14 14 (2007040)
I0131 23:30:01.674700  8699 net.cpp:165] Memory required for data: 1992990880
I0131 23:30:01.674705  8699 layer_factory.hpp:77] Creating layer layer_256_4_sum_layer_256_4_sum_0_split
I0131 23:30:01.674716  8699 net.cpp:100] Creating Layer layer_256_4_sum_layer_256_4_sum_0_split
I0131 23:30:01.674736  8699 net.cpp:434] layer_256_4_sum_layer_256_4_sum_0_split <- layer_256_4_sum
I0131 23:30:01.674744  8699 net.cpp:408] layer_256_4_sum_layer_256_4_sum_0_split -> layer_256_4_sum_layer_256_4_sum_0_split_0
I0131 23:30:01.674756  8699 net.cpp:408] layer_256_4_sum_layer_256_4_sum_0_split -> layer_256_4_sum_layer_256_4_sum_0_split_1
I0131 23:30:01.674798  8699 net.cpp:150] Setting up layer_256_4_sum_layer_256_4_sum_0_split
I0131 23:30:01.674808  8699 net.cpp:157] Top shape: 10 1024 14 14 (2007040)
I0131 23:30:01.674814  8699 net.cpp:157] Top shape: 10 1024 14 14 (2007040)
I0131 23:30:01.674819  8699 net.cpp:165] Memory required for data: 2009047200
I0131 23:30:01.674823  8699 layer_factory.hpp:77] Creating layer layer_256_5_bn1
I0131 23:30:01.674830  8699 net.cpp:100] Creating Layer layer_256_5_bn1
I0131 23:30:01.674835  8699 net.cpp:434] layer_256_5_bn1 <- layer_256_4_sum_layer_256_4_sum_0_split_0
I0131 23:30:01.674842  8699 net.cpp:408] layer_256_5_bn1 -> layer_256_5_bn1
I0131 23:30:01.675079  8699 net.cpp:150] Setting up layer_256_5_bn1
I0131 23:30:01.675091  8699 net.cpp:157] Top shape: 10 1024 14 14 (2007040)
I0131 23:30:01.675096  8699 net.cpp:165] Memory required for data: 2017075360
I0131 23:30:01.675103  8699 layer_factory.hpp:77] Creating layer layer_256_5_scale1
I0131 23:30:01.675112  8699 net.cpp:100] Creating Layer layer_256_5_scale1
I0131 23:30:01.675117  8699 net.cpp:434] layer_256_5_scale1 <- layer_256_5_bn1
I0131 23:30:01.675123  8699 net.cpp:395] layer_256_5_scale1 -> layer_256_5_bn1 (in-place)
I0131 23:30:01.675165  8699 layer_factory.hpp:77] Creating layer layer_256_5_scale1
I0131 23:30:01.675300  8699 net.cpp:150] Setting up layer_256_5_scale1
I0131 23:30:01.675312  8699 net.cpp:157] Top shape: 10 1024 14 14 (2007040)
I0131 23:30:01.675318  8699 net.cpp:165] Memory required for data: 2025103520
I0131 23:30:01.675325  8699 layer_factory.hpp:77] Creating layer layer_256_5_relu1
I0131 23:30:01.675333  8699 net.cpp:100] Creating Layer layer_256_5_relu1
I0131 23:30:01.675338  8699 net.cpp:434] layer_256_5_relu1 <- layer_256_5_bn1
I0131 23:30:01.675345  8699 net.cpp:395] layer_256_5_relu1 -> layer_256_5_bn1 (in-place)
I0131 23:30:01.675801  8699 net.cpp:150] Setting up layer_256_5_relu1
I0131 23:30:01.675815  8699 net.cpp:157] Top shape: 10 1024 14 14 (2007040)
I0131 23:30:01.675820  8699 net.cpp:165] Memory required for data: 2033131680
I0131 23:30:01.675827  8699 layer_factory.hpp:77] Creating layer layer_256_5_conv1
I0131 23:30:01.675837  8699 net.cpp:100] Creating Layer layer_256_5_conv1
I0131 23:30:01.675844  8699 net.cpp:434] layer_256_5_conv1 <- layer_256_5_bn1
I0131 23:30:01.675853  8699 net.cpp:408] layer_256_5_conv1 -> layer_256_5_conv1
I0131 23:30:01.681481  8699 net.cpp:150] Setting up layer_256_5_conv1
I0131 23:30:01.681499  8699 net.cpp:157] Top shape: 10 256 14 14 (501760)
I0131 23:30:01.681505  8699 net.cpp:165] Memory required for data: 2035138720
I0131 23:30:01.681512  8699 layer_factory.hpp:77] Creating layer layer_256_5_bn2
I0131 23:30:01.681522  8699 net.cpp:100] Creating Layer layer_256_5_bn2
I0131 23:30:01.681529  8699 net.cpp:434] layer_256_5_bn2 <- layer_256_5_conv1
I0131 23:30:01.681537  8699 net.cpp:395] layer_256_5_bn2 -> layer_256_5_conv1 (in-place)
I0131 23:30:01.681738  8699 net.cpp:150] Setting up layer_256_5_bn2
I0131 23:30:01.681751  8699 net.cpp:157] Top shape: 10 256 14 14 (501760)
I0131 23:30:01.681756  8699 net.cpp:165] Memory required for data: 2037145760
I0131 23:30:01.681764  8699 layer_factory.hpp:77] Creating layer layer_256_5_scale2
I0131 23:30:01.681773  8699 net.cpp:100] Creating Layer layer_256_5_scale2
I0131 23:30:01.681779  8699 net.cpp:434] layer_256_5_scale2 <- layer_256_5_conv1
I0131 23:30:01.681787  8699 net.cpp:395] layer_256_5_scale2 -> layer_256_5_conv1 (in-place)
I0131 23:30:01.681833  8699 layer_factory.hpp:77] Creating layer layer_256_5_scale2
I0131 23:30:01.681962  8699 net.cpp:150] Setting up layer_256_5_scale2
I0131 23:30:01.681977  8699 net.cpp:157] Top shape: 10 256 14 14 (501760)
I0131 23:30:01.681989  8699 net.cpp:165] Memory required for data: 2039152800
I0131 23:30:01.681998  8699 layer_factory.hpp:77] Creating layer layer_256_5_relu2
I0131 23:30:01.682005  8699 net.cpp:100] Creating Layer layer_256_5_relu2
I0131 23:30:01.682010  8699 net.cpp:434] layer_256_5_relu2 <- layer_256_5_conv1
I0131 23:30:01.682018  8699 net.cpp:395] layer_256_5_relu2 -> layer_256_5_conv1 (in-place)
I0131 23:30:01.682487  8699 net.cpp:150] Setting up layer_256_5_relu2
I0131 23:30:01.682500  8699 net.cpp:157] Top shape: 10 256 14 14 (501760)
I0131 23:30:01.682505  8699 net.cpp:165] Memory required for data: 2041159840
I0131 23:30:01.682510  8699 layer_factory.hpp:77] Creating layer layer_256_5_conv2
I0131 23:30:01.682521  8699 net.cpp:100] Creating Layer layer_256_5_conv2
I0131 23:30:01.682528  8699 net.cpp:434] layer_256_5_conv2 <- layer_256_5_conv1
I0131 23:30:01.682536  8699 net.cpp:408] layer_256_5_conv2 -> layer_256_5_conv2
I0131 23:30:01.695010  8699 net.cpp:150] Setting up layer_256_5_conv2
I0131 23:30:01.695029  8699 net.cpp:157] Top shape: 10 256 14 14 (501760)
I0131 23:30:01.695034  8699 net.cpp:165] Memory required for data: 2043166880
I0131 23:30:01.695039  8699 layer_factory.hpp:77] Creating layer layer_256_5_bn3
I0131 23:30:01.695045  8699 net.cpp:100] Creating Layer layer_256_5_bn3
I0131 23:30:01.695050  8699 net.cpp:434] layer_256_5_bn3 <- layer_256_5_conv2
I0131 23:30:01.695055  8699 net.cpp:395] layer_256_5_bn3 -> layer_256_5_conv2 (in-place)
I0131 23:30:01.695209  8699 net.cpp:150] Setting up layer_256_5_bn3
I0131 23:30:01.695215  8699 net.cpp:157] Top shape: 10 256 14 14 (501760)
I0131 23:30:01.695219  8699 net.cpp:165] Memory required for data: 2045173920
I0131 23:30:01.695224  8699 layer_factory.hpp:77] Creating layer layer_256_5_scale3
I0131 23:30:01.695228  8699 net.cpp:100] Creating Layer layer_256_5_scale3
I0131 23:30:01.695231  8699 net.cpp:434] layer_256_5_scale3 <- layer_256_5_conv2
I0131 23:30:01.695235  8699 net.cpp:395] layer_256_5_scale3 -> layer_256_5_conv2 (in-place)
I0131 23:30:01.695267  8699 layer_factory.hpp:77] Creating layer layer_256_5_scale3
I0131 23:30:01.695348  8699 net.cpp:150] Setting up layer_256_5_scale3
I0131 23:30:01.695353  8699 net.cpp:157] Top shape: 10 256 14 14 (501760)
I0131 23:30:01.695355  8699 net.cpp:165] Memory required for data: 2047180960
I0131 23:30:01.695359  8699 layer_factory.hpp:77] Creating layer layer_256_5_relu3
I0131 23:30:01.695363  8699 net.cpp:100] Creating Layer layer_256_5_relu3
I0131 23:30:01.695368  8699 net.cpp:434] layer_256_5_relu3 <- layer_256_5_conv2
I0131 23:30:01.695370  8699 net.cpp:395] layer_256_5_relu3 -> layer_256_5_conv2 (in-place)
I0131 23:30:01.695494  8699 net.cpp:150] Setting up layer_256_5_relu3
I0131 23:30:01.695502  8699 net.cpp:157] Top shape: 10 256 14 14 (501760)
I0131 23:30:01.695504  8699 net.cpp:165] Memory required for data: 2049188000
I0131 23:30:01.695508  8699 layer_factory.hpp:77] Creating layer layer_256_5_conv3
I0131 23:30:01.695513  8699 net.cpp:100] Creating Layer layer_256_5_conv3
I0131 23:30:01.695516  8699 net.cpp:434] layer_256_5_conv3 <- layer_256_5_conv2
I0131 23:30:01.695521  8699 net.cpp:408] layer_256_5_conv3 -> layer_256_5_conv3
I0131 23:30:01.701365  8699 net.cpp:150] Setting up layer_256_5_conv3
I0131 23:30:01.701380  8699 net.cpp:157] Top shape: 10 1024 14 14 (2007040)
I0131 23:30:01.701383  8699 net.cpp:165] Memory required for data: 2057216160
I0131 23:30:01.701388  8699 layer_factory.hpp:77] Creating layer layer_256_5_sum
I0131 23:30:01.701395  8699 net.cpp:100] Creating Layer layer_256_5_sum
I0131 23:30:01.701397  8699 net.cpp:434] layer_256_5_sum <- layer_256_5_conv3
I0131 23:30:01.701401  8699 net.cpp:434] layer_256_5_sum <- layer_256_4_sum_layer_256_4_sum_0_split_1
I0131 23:30:01.701406  8699 net.cpp:408] layer_256_5_sum -> layer_256_5_sum
I0131 23:30:01.701426  8699 net.cpp:150] Setting up layer_256_5_sum
I0131 23:30:01.701432  8699 net.cpp:157] Top shape: 10 1024 14 14 (2007040)
I0131 23:30:01.701439  8699 net.cpp:165] Memory required for data: 2065244320
I0131 23:30:01.701447  8699 layer_factory.hpp:77] Creating layer layer_256_5_sum_layer_256_5_sum_0_split
I0131 23:30:01.701452  8699 net.cpp:100] Creating Layer layer_256_5_sum_layer_256_5_sum_0_split
I0131 23:30:01.701455  8699 net.cpp:434] layer_256_5_sum_layer_256_5_sum_0_split <- layer_256_5_sum
I0131 23:30:01.701459  8699 net.cpp:408] layer_256_5_sum_layer_256_5_sum_0_split -> layer_256_5_sum_layer_256_5_sum_0_split_0
I0131 23:30:01.701463  8699 net.cpp:408] layer_256_5_sum_layer_256_5_sum_0_split -> layer_256_5_sum_layer_256_5_sum_0_split_1
I0131 23:30:01.701490  8699 net.cpp:150] Setting up layer_256_5_sum_layer_256_5_sum_0_split
I0131 23:30:01.701495  8699 net.cpp:157] Top shape: 10 1024 14 14 (2007040)
I0131 23:30:01.701498  8699 net.cpp:157] Top shape: 10 1024 14 14 (2007040)
I0131 23:30:01.701501  8699 net.cpp:165] Memory required for data: 2081300640
I0131 23:30:01.701504  8699 layer_factory.hpp:77] Creating layer layer_256_6_bn1
I0131 23:30:01.701508  8699 net.cpp:100] Creating Layer layer_256_6_bn1
I0131 23:30:01.701510  8699 net.cpp:434] layer_256_6_bn1 <- layer_256_5_sum_layer_256_5_sum_0_split_0
I0131 23:30:01.701514  8699 net.cpp:408] layer_256_6_bn1 -> layer_256_6_bn1
I0131 23:30:01.701663  8699 net.cpp:150] Setting up layer_256_6_bn1
I0131 23:30:01.701669  8699 net.cpp:157] Top shape: 10 1024 14 14 (2007040)
I0131 23:30:01.701673  8699 net.cpp:165] Memory required for data: 2089328800
I0131 23:30:01.701678  8699 layer_factory.hpp:77] Creating layer layer_256_6_scale1
I0131 23:30:01.701683  8699 net.cpp:100] Creating Layer layer_256_6_scale1
I0131 23:30:01.701686  8699 net.cpp:434] layer_256_6_scale1 <- layer_256_6_bn1
I0131 23:30:01.701689  8699 net.cpp:395] layer_256_6_scale1 -> layer_256_6_bn1 (in-place)
I0131 23:30:01.701719  8699 layer_factory.hpp:77] Creating layer layer_256_6_scale1
I0131 23:30:01.701804  8699 net.cpp:150] Setting up layer_256_6_scale1
I0131 23:30:01.701809  8699 net.cpp:157] Top shape: 10 1024 14 14 (2007040)
I0131 23:30:01.701812  8699 net.cpp:165] Memory required for data: 2097356960
I0131 23:30:01.701817  8699 layer_factory.hpp:77] Creating layer layer_256_6_relu1
I0131 23:30:01.701820  8699 net.cpp:100] Creating Layer layer_256_6_relu1
I0131 23:30:01.701823  8699 net.cpp:434] layer_256_6_relu1 <- layer_256_6_bn1
I0131 23:30:01.701828  8699 net.cpp:395] layer_256_6_relu1 -> layer_256_6_bn1 (in-place)
I0131 23:30:01.701946  8699 net.cpp:150] Setting up layer_256_6_relu1
I0131 23:30:01.701952  8699 net.cpp:157] Top shape: 10 1024 14 14 (2007040)
I0131 23:30:01.701956  8699 net.cpp:165] Memory required for data: 2105385120
I0131 23:30:01.701958  8699 layer_factory.hpp:77] Creating layer layer_256_6_conv1
I0131 23:30:01.701966  8699 net.cpp:100] Creating Layer layer_256_6_conv1
I0131 23:30:01.701969  8699 net.cpp:434] layer_256_6_conv1 <- layer_256_6_bn1
I0131 23:30:01.701973  8699 net.cpp:408] layer_256_6_conv1 -> layer_256_6_conv1
I0131 23:30:01.707335  8699 net.cpp:150] Setting up layer_256_6_conv1
I0131 23:30:01.707347  8699 net.cpp:157] Top shape: 10 256 14 14 (501760)
I0131 23:30:01.707350  8699 net.cpp:165] Memory required for data: 2107392160
I0131 23:30:01.707355  8699 layer_factory.hpp:77] Creating layer layer_256_6_bn2
I0131 23:30:01.707360  8699 net.cpp:100] Creating Layer layer_256_6_bn2
I0131 23:30:01.707363  8699 net.cpp:434] layer_256_6_bn2 <- layer_256_6_conv1
I0131 23:30:01.707367  8699 net.cpp:395] layer_256_6_bn2 -> layer_256_6_conv1 (in-place)
I0131 23:30:01.707509  8699 net.cpp:150] Setting up layer_256_6_bn2
I0131 23:30:01.707515  8699 net.cpp:157] Top shape: 10 256 14 14 (501760)
I0131 23:30:01.707517  8699 net.cpp:165] Memory required for data: 2109399200
I0131 23:30:01.707522  8699 layer_factory.hpp:77] Creating layer layer_256_6_scale2
I0131 23:30:01.707527  8699 net.cpp:100] Creating Layer layer_256_6_scale2
I0131 23:30:01.707530  8699 net.cpp:434] layer_256_6_scale2 <- layer_256_6_conv1
I0131 23:30:01.707535  8699 net.cpp:395] layer_256_6_scale2 -> layer_256_6_conv1 (in-place)
I0131 23:30:01.707568  8699 layer_factory.hpp:77] Creating layer layer_256_6_scale2
I0131 23:30:01.707653  8699 net.cpp:150] Setting up layer_256_6_scale2
I0131 23:30:01.707659  8699 net.cpp:157] Top shape: 10 256 14 14 (501760)
I0131 23:30:01.707661  8699 net.cpp:165] Memory required for data: 2111406240
I0131 23:30:01.707665  8699 layer_factory.hpp:77] Creating layer layer_256_6_relu2
I0131 23:30:01.707669  8699 net.cpp:100] Creating Layer layer_256_6_relu2
I0131 23:30:01.707672  8699 net.cpp:434] layer_256_6_relu2 <- layer_256_6_conv1
I0131 23:30:01.707675  8699 net.cpp:395] layer_256_6_relu2 -> layer_256_6_conv1 (in-place)
I0131 23:30:01.707795  8699 net.cpp:150] Setting up layer_256_6_relu2
I0131 23:30:01.707801  8699 net.cpp:157] Top shape: 10 256 14 14 (501760)
I0131 23:30:01.707804  8699 net.cpp:165] Memory required for data: 2113413280
I0131 23:30:01.707808  8699 layer_factory.hpp:77] Creating layer layer_256_6_conv2
I0131 23:30:01.707815  8699 net.cpp:100] Creating Layer layer_256_6_conv2
I0131 23:30:01.707818  8699 net.cpp:434] layer_256_6_conv2 <- layer_256_6_conv1
I0131 23:30:01.707823  8699 net.cpp:408] layer_256_6_conv2 -> layer_256_6_conv2
I0131 23:30:01.719630  8699 net.cpp:150] Setting up layer_256_6_conv2
I0131 23:30:01.719645  8699 net.cpp:157] Top shape: 10 256 14 14 (501760)
I0131 23:30:01.719647  8699 net.cpp:165] Memory required for data: 2115420320
I0131 23:30:01.719652  8699 layer_factory.hpp:77] Creating layer layer_256_6_bn3
I0131 23:30:01.719676  8699 net.cpp:100] Creating Layer layer_256_6_bn3
I0131 23:30:01.719679  8699 net.cpp:434] layer_256_6_bn3 <- layer_256_6_conv2
I0131 23:30:01.719683  8699 net.cpp:395] layer_256_6_bn3 -> layer_256_6_conv2 (in-place)
I0131 23:30:01.719849  8699 net.cpp:150] Setting up layer_256_6_bn3
I0131 23:30:01.719856  8699 net.cpp:157] Top shape: 10 256 14 14 (501760)
I0131 23:30:01.719858  8699 net.cpp:165] Memory required for data: 2117427360
I0131 23:30:01.719863  8699 layer_factory.hpp:77] Creating layer layer_256_6_scale3
I0131 23:30:01.719868  8699 net.cpp:100] Creating Layer layer_256_6_scale3
I0131 23:30:01.719871  8699 net.cpp:434] layer_256_6_scale3 <- layer_256_6_conv2
I0131 23:30:01.719874  8699 net.cpp:395] layer_256_6_scale3 -> layer_256_6_conv2 (in-place)
I0131 23:30:01.719907  8699 layer_factory.hpp:77] Creating layer layer_256_6_scale3
I0131 23:30:01.719988  8699 net.cpp:150] Setting up layer_256_6_scale3
I0131 23:30:01.719995  8699 net.cpp:157] Top shape: 10 256 14 14 (501760)
I0131 23:30:01.719996  8699 net.cpp:165] Memory required for data: 2119434400
I0131 23:30:01.720001  8699 layer_factory.hpp:77] Creating layer layer_256_6_relu3
I0131 23:30:01.720005  8699 net.cpp:100] Creating Layer layer_256_6_relu3
I0131 23:30:01.720008  8699 net.cpp:434] layer_256_6_relu3 <- layer_256_6_conv2
I0131 23:30:01.720012  8699 net.cpp:395] layer_256_6_relu3 -> layer_256_6_conv2 (in-place)
I0131 23:30:01.720132  8699 net.cpp:150] Setting up layer_256_6_relu3
I0131 23:30:01.720139  8699 net.cpp:157] Top shape: 10 256 14 14 (501760)
I0131 23:30:01.720141  8699 net.cpp:165] Memory required for data: 2121441440
I0131 23:30:01.720144  8699 layer_factory.hpp:77] Creating layer layer_256_6_conv3
I0131 23:30:01.720150  8699 net.cpp:100] Creating Layer layer_256_6_conv3
I0131 23:30:01.720154  8699 net.cpp:434] layer_256_6_conv3 <- layer_256_6_conv2
I0131 23:30:01.720158  8699 net.cpp:408] layer_256_6_conv3 -> layer_256_6_conv3
I0131 23:30:01.725968  8699 net.cpp:150] Setting up layer_256_6_conv3
I0131 23:30:01.725983  8699 net.cpp:157] Top shape: 10 1024 14 14 (2007040)
I0131 23:30:01.725986  8699 net.cpp:165] Memory required for data: 2129469600
I0131 23:30:01.725991  8699 layer_factory.hpp:77] Creating layer layer_256_6_sum
I0131 23:30:01.725998  8699 net.cpp:100] Creating Layer layer_256_6_sum
I0131 23:30:01.726002  8699 net.cpp:434] layer_256_6_sum <- layer_256_6_conv3
I0131 23:30:01.726006  8699 net.cpp:434] layer_256_6_sum <- layer_256_5_sum_layer_256_5_sum_0_split_1
I0131 23:30:01.726009  8699 net.cpp:408] layer_256_6_sum -> layer_256_6_sum
I0131 23:30:01.726029  8699 net.cpp:150] Setting up layer_256_6_sum
I0131 23:30:01.726038  8699 net.cpp:157] Top shape: 10 1024 14 14 (2007040)
I0131 23:30:01.726045  8699 net.cpp:165] Memory required for data: 2137497760
I0131 23:30:01.726048  8699 layer_factory.hpp:77] Creating layer layer_512_1_bn1
I0131 23:30:01.726053  8699 net.cpp:100] Creating Layer layer_512_1_bn1
I0131 23:30:01.726056  8699 net.cpp:434] layer_512_1_bn1 <- layer_256_6_sum
I0131 23:30:01.726060  8699 net.cpp:408] layer_512_1_bn1 -> layer_512_1_bn1
I0131 23:30:01.726213  8699 net.cpp:150] Setting up layer_512_1_bn1
I0131 23:30:01.726219  8699 net.cpp:157] Top shape: 10 1024 14 14 (2007040)
I0131 23:30:01.726222  8699 net.cpp:165] Memory required for data: 2145525920
I0131 23:30:01.726227  8699 layer_factory.hpp:77] Creating layer layer_512_1_scale1
I0131 23:30:01.726232  8699 net.cpp:100] Creating Layer layer_512_1_scale1
I0131 23:30:01.726234  8699 net.cpp:434] layer_512_1_scale1 <- layer_512_1_bn1
I0131 23:30:01.726238  8699 net.cpp:395] layer_512_1_scale1 -> layer_512_1_bn1 (in-place)
I0131 23:30:01.726270  8699 layer_factory.hpp:77] Creating layer layer_512_1_scale1
I0131 23:30:01.726356  8699 net.cpp:150] Setting up layer_512_1_scale1
I0131 23:30:01.726361  8699 net.cpp:157] Top shape: 10 1024 14 14 (2007040)
I0131 23:30:01.726363  8699 net.cpp:165] Memory required for data: 2153554080
I0131 23:30:01.726367  8699 layer_factory.hpp:77] Creating layer layer_512_1_relu1
I0131 23:30:01.726372  8699 net.cpp:100] Creating Layer layer_512_1_relu1
I0131 23:30:01.726375  8699 net.cpp:434] layer_512_1_relu1 <- layer_512_1_bn1
I0131 23:30:01.726378  8699 net.cpp:395] layer_512_1_relu1 -> layer_512_1_bn1 (in-place)
I0131 23:30:01.726687  8699 net.cpp:150] Setting up layer_512_1_relu1
I0131 23:30:01.726696  8699 net.cpp:157] Top shape: 10 1024 14 14 (2007040)
I0131 23:30:01.726699  8699 net.cpp:165] Memory required for data: 2161582240
I0131 23:30:01.726702  8699 layer_factory.hpp:77] Creating layer layer_512_1_bn1_layer_512_1_relu1_0_split
I0131 23:30:01.726707  8699 net.cpp:100] Creating Layer layer_512_1_bn1_layer_512_1_relu1_0_split
I0131 23:30:01.726711  8699 net.cpp:434] layer_512_1_bn1_layer_512_1_relu1_0_split <- layer_512_1_bn1
I0131 23:30:01.726714  8699 net.cpp:408] layer_512_1_bn1_layer_512_1_relu1_0_split -> layer_512_1_bn1_layer_512_1_relu1_0_split_0
I0131 23:30:01.726718  8699 net.cpp:408] layer_512_1_bn1_layer_512_1_relu1_0_split -> layer_512_1_bn1_layer_512_1_relu1_0_split_1
I0131 23:30:01.726757  8699 net.cpp:150] Setting up layer_512_1_bn1_layer_512_1_relu1_0_split
I0131 23:30:01.726763  8699 net.cpp:157] Top shape: 10 1024 14 14 (2007040)
I0131 23:30:01.726765  8699 net.cpp:157] Top shape: 10 1024 14 14 (2007040)
I0131 23:30:01.726768  8699 net.cpp:165] Memory required for data: 2177638560
I0131 23:30:01.726770  8699 layer_factory.hpp:77] Creating layer layer_512_1_conv1
I0131 23:30:01.726778  8699 net.cpp:100] Creating Layer layer_512_1_conv1
I0131 23:30:01.726780  8699 net.cpp:434] layer_512_1_conv1 <- layer_512_1_bn1_layer_512_1_relu1_0_split_0
I0131 23:30:01.726785  8699 net.cpp:408] layer_512_1_conv1 -> layer_512_1_conv1
I0131 23:30:01.736986  8699 net.cpp:150] Setting up layer_512_1_conv1
I0131 23:30:01.736999  8699 net.cpp:157] Top shape: 10 512 14 14 (1003520)
I0131 23:30:01.737004  8699 net.cpp:165] Memory required for data: 2181652640
I0131 23:30:01.737007  8699 layer_factory.hpp:77] Creating layer layer_512_1_bn2
I0131 23:30:01.737013  8699 net.cpp:100] Creating Layer layer_512_1_bn2
I0131 23:30:01.737017  8699 net.cpp:434] layer_512_1_bn2 <- layer_512_1_conv1
I0131 23:30:01.737021  8699 net.cpp:395] layer_512_1_bn2 -> layer_512_1_conv1 (in-place)
I0131 23:30:01.737174  8699 net.cpp:150] Setting up layer_512_1_bn2
I0131 23:30:01.737179  8699 net.cpp:157] Top shape: 10 512 14 14 (1003520)
I0131 23:30:01.737181  8699 net.cpp:165] Memory required for data: 2185666720
I0131 23:30:01.737187  8699 layer_factory.hpp:77] Creating layer layer_512_1_scale2
I0131 23:30:01.737191  8699 net.cpp:100] Creating Layer layer_512_1_scale2
I0131 23:30:01.737195  8699 net.cpp:434] layer_512_1_scale2 <- layer_512_1_conv1
I0131 23:30:01.737201  8699 net.cpp:395] layer_512_1_scale2 -> layer_512_1_conv1 (in-place)
I0131 23:30:01.737238  8699 layer_factory.hpp:77] Creating layer layer_512_1_scale2
I0131 23:30:01.737323  8699 net.cpp:150] Setting up layer_512_1_scale2
I0131 23:30:01.737327  8699 net.cpp:157] Top shape: 10 512 14 14 (1003520)
I0131 23:30:01.737330  8699 net.cpp:165] Memory required for data: 2189680800
I0131 23:30:01.737334  8699 layer_factory.hpp:77] Creating layer layer_512_1_relu2
I0131 23:30:01.737339  8699 net.cpp:100] Creating Layer layer_512_1_relu2
I0131 23:30:01.737341  8699 net.cpp:434] layer_512_1_relu2 <- layer_512_1_conv1
I0131 23:30:01.737345  8699 net.cpp:395] layer_512_1_relu2 -> layer_512_1_conv1 (in-place)
I0131 23:30:01.737834  8699 net.cpp:150] Setting up layer_512_1_relu2
I0131 23:30:01.737843  8699 net.cpp:157] Top shape: 10 512 14 14 (1003520)
I0131 23:30:01.737846  8699 net.cpp:165] Memory required for data: 2193694880
I0131 23:30:01.737849  8699 layer_factory.hpp:77] Creating layer layer_512_1_conv2
I0131 23:30:01.737856  8699 net.cpp:100] Creating Layer layer_512_1_conv2
I0131 23:30:01.737860  8699 net.cpp:434] layer_512_1_conv2 <- layer_512_1_conv1
I0131 23:30:01.737865  8699 net.cpp:408] layer_512_1_conv2 -> layer_512_1_conv2
I0131 23:30:01.781023  8699 net.cpp:150] Setting up layer_512_1_conv2
I0131 23:30:01.781046  8699 net.cpp:157] Top shape: 10 512 7 7 (250880)
I0131 23:30:01.781050  8699 net.cpp:165] Memory required for data: 2194698400
I0131 23:30:01.781056  8699 layer_factory.hpp:77] Creating layer layer_512_1_bn3
I0131 23:30:01.781064  8699 net.cpp:100] Creating Layer layer_512_1_bn3
I0131 23:30:01.781069  8699 net.cpp:434] layer_512_1_bn3 <- layer_512_1_conv2
I0131 23:30:01.781074  8699 net.cpp:395] layer_512_1_bn3 -> layer_512_1_conv2 (in-place)
I0131 23:30:01.781234  8699 net.cpp:150] Setting up layer_512_1_bn3
I0131 23:30:01.781239  8699 net.cpp:157] Top shape: 10 512 7 7 (250880)
I0131 23:30:01.781241  8699 net.cpp:165] Memory required for data: 2195701920
I0131 23:30:01.781271  8699 layer_factory.hpp:77] Creating layer layer_512_1_scale3
I0131 23:30:01.781278  8699 net.cpp:100] Creating Layer layer_512_1_scale3
I0131 23:30:01.781281  8699 net.cpp:434] layer_512_1_scale3 <- layer_512_1_conv2
I0131 23:30:01.781286  8699 net.cpp:395] layer_512_1_scale3 -> layer_512_1_conv2 (in-place)
I0131 23:30:01.781318  8699 layer_factory.hpp:77] Creating layer layer_512_1_scale3
I0131 23:30:01.781405  8699 net.cpp:150] Setting up layer_512_1_scale3
I0131 23:30:01.781410  8699 net.cpp:157] Top shape: 10 512 7 7 (250880)
I0131 23:30:01.781414  8699 net.cpp:165] Memory required for data: 2196705440
I0131 23:30:01.781417  8699 layer_factory.hpp:77] Creating layer layer_512_1_relu3
I0131 23:30:01.781421  8699 net.cpp:100] Creating Layer layer_512_1_relu3
I0131 23:30:01.781424  8699 net.cpp:434] layer_512_1_relu3 <- layer_512_1_conv2
I0131 23:30:01.781427  8699 net.cpp:395] layer_512_1_relu3 -> layer_512_1_conv2 (in-place)
I0131 23:30:01.781548  8699 net.cpp:150] Setting up layer_512_1_relu3
I0131 23:30:01.781554  8699 net.cpp:157] Top shape: 10 512 7 7 (250880)
I0131 23:30:01.781558  8699 net.cpp:165] Memory required for data: 2197708960
I0131 23:30:01.781560  8699 layer_factory.hpp:77] Creating layer layer_512_1_conv3
I0131 23:30:01.781568  8699 net.cpp:100] Creating Layer layer_512_1_conv3
I0131 23:30:01.781570  8699 net.cpp:434] layer_512_1_conv3 <- layer_512_1_conv2
I0131 23:30:01.781575  8699 net.cpp:408] layer_512_1_conv3 -> layer_512_1_conv3
I0131 23:30:01.801690  8699 net.cpp:150] Setting up layer_512_1_conv3
I0131 23:30:01.801723  8699 net.cpp:157] Top shape: 10 2048 7 7 (1003520)
I0131 23:30:01.801726  8699 net.cpp:165] Memory required for data: 2201723040
I0131 23:30:01.801733  8699 layer_factory.hpp:77] Creating layer layer_512_1_conv_expand
I0131 23:30:01.801755  8699 net.cpp:100] Creating Layer layer_512_1_conv_expand
I0131 23:30:01.801761  8699 net.cpp:434] layer_512_1_conv_expand <- layer_512_1_bn1_layer_512_1_relu1_0_split_1
I0131 23:30:01.801767  8699 net.cpp:408] layer_512_1_conv_expand -> layer_512_1_conv_expand
I0131 23:30:01.841214  8699 net.cpp:150] Setting up layer_512_1_conv_expand
I0131 23:30:01.841233  8699 net.cpp:157] Top shape: 10 2048 7 7 (1003520)
I0131 23:30:01.841238  8699 net.cpp:165] Memory required for data: 2205737120
I0131 23:30:01.841243  8699 layer_factory.hpp:77] Creating layer layer_512_1_sum
I0131 23:30:01.841249  8699 net.cpp:100] Creating Layer layer_512_1_sum
I0131 23:30:01.841254  8699 net.cpp:434] layer_512_1_sum <- layer_512_1_conv3
I0131 23:30:01.841259  8699 net.cpp:434] layer_512_1_sum <- layer_512_1_conv_expand
I0131 23:30:01.841262  8699 net.cpp:408] layer_512_1_sum -> layer_512_1_sum
I0131 23:30:01.841285  8699 net.cpp:150] Setting up layer_512_1_sum
I0131 23:30:01.841290  8699 net.cpp:157] Top shape: 10 2048 7 7 (1003520)
I0131 23:30:01.841294  8699 net.cpp:165] Memory required for data: 2209751200
I0131 23:30:01.841296  8699 layer_factory.hpp:77] Creating layer layer_512_1_sum_layer_512_1_sum_0_split
I0131 23:30:01.841300  8699 net.cpp:100] Creating Layer layer_512_1_sum_layer_512_1_sum_0_split
I0131 23:30:01.841303  8699 net.cpp:434] layer_512_1_sum_layer_512_1_sum_0_split <- layer_512_1_sum
I0131 23:30:01.841307  8699 net.cpp:408] layer_512_1_sum_layer_512_1_sum_0_split -> layer_512_1_sum_layer_512_1_sum_0_split_0
I0131 23:30:01.841311  8699 net.cpp:408] layer_512_1_sum_layer_512_1_sum_0_split -> layer_512_1_sum_layer_512_1_sum_0_split_1
I0131 23:30:01.841341  8699 net.cpp:150] Setting up layer_512_1_sum_layer_512_1_sum_0_split
I0131 23:30:01.841346  8699 net.cpp:157] Top shape: 10 2048 7 7 (1003520)
I0131 23:30:01.841351  8699 net.cpp:157] Top shape: 10 2048 7 7 (1003520)
I0131 23:30:01.841352  8699 net.cpp:165] Memory required for data: 2217779360
I0131 23:30:01.841356  8699 layer_factory.hpp:77] Creating layer layer_512_2_bn1
I0131 23:30:01.841359  8699 net.cpp:100] Creating Layer layer_512_2_bn1
I0131 23:30:01.841362  8699 net.cpp:434] layer_512_2_bn1 <- layer_512_1_sum_layer_512_1_sum_0_split_0
I0131 23:30:01.841367  8699 net.cpp:408] layer_512_2_bn1 -> layer_512_2_bn1
I0131 23:30:01.841534  8699 net.cpp:150] Setting up layer_512_2_bn1
I0131 23:30:01.841539  8699 net.cpp:157] Top shape: 10 2048 7 7 (1003520)
I0131 23:30:01.841542  8699 net.cpp:165] Memory required for data: 2221793440
I0131 23:30:01.841548  8699 layer_factory.hpp:77] Creating layer layer_512_2_scale1
I0131 23:30:01.841553  8699 net.cpp:100] Creating Layer layer_512_2_scale1
I0131 23:30:01.841557  8699 net.cpp:434] layer_512_2_scale1 <- layer_512_2_bn1
I0131 23:30:01.841560  8699 net.cpp:395] layer_512_2_scale1 -> layer_512_2_bn1 (in-place)
I0131 23:30:01.841593  8699 layer_factory.hpp:77] Creating layer layer_512_2_scale1
I0131 23:30:01.841681  8699 net.cpp:150] Setting up layer_512_2_scale1
I0131 23:30:01.841686  8699 net.cpp:157] Top shape: 10 2048 7 7 (1003520)
I0131 23:30:01.841689  8699 net.cpp:165] Memory required for data: 2225807520
I0131 23:30:01.841693  8699 layer_factory.hpp:77] Creating layer layer_512_2_relu1
I0131 23:30:01.841698  8699 net.cpp:100] Creating Layer layer_512_2_relu1
I0131 23:30:01.841701  8699 net.cpp:434] layer_512_2_relu1 <- layer_512_2_bn1
I0131 23:30:01.841704  8699 net.cpp:395] layer_512_2_relu1 -> layer_512_2_bn1 (in-place)
I0131 23:30:01.841820  8699 net.cpp:150] Setting up layer_512_2_relu1
I0131 23:30:01.841826  8699 net.cpp:157] Top shape: 10 2048 7 7 (1003520)
I0131 23:30:01.841830  8699 net.cpp:165] Memory required for data: 2229821600
I0131 23:30:01.841832  8699 layer_factory.hpp:77] Creating layer layer_512_2_conv1
I0131 23:30:01.841838  8699 net.cpp:100] Creating Layer layer_512_2_conv1
I0131 23:30:01.841842  8699 net.cpp:434] layer_512_2_conv1 <- layer_512_2_bn1
I0131 23:30:01.841846  8699 net.cpp:408] layer_512_2_conv1 -> layer_512_2_conv1
I0131 23:30:01.861867  8699 net.cpp:150] Setting up layer_512_2_conv1
I0131 23:30:01.861898  8699 net.cpp:157] Top shape: 10 512 7 7 (250880)
I0131 23:30:01.861902  8699 net.cpp:165] Memory required for data: 2230825120
I0131 23:30:01.861928  8699 layer_factory.hpp:77] Creating layer layer_512_2_bn2
I0131 23:30:01.861940  8699 net.cpp:100] Creating Layer layer_512_2_bn2
I0131 23:30:01.861954  8699 net.cpp:434] layer_512_2_bn2 <- layer_512_2_conv1
I0131 23:30:01.861958  8699 net.cpp:395] layer_512_2_bn2 -> layer_512_2_conv1 (in-place)
I0131 23:30:01.862116  8699 net.cpp:150] Setting up layer_512_2_bn2
I0131 23:30:01.862121  8699 net.cpp:157] Top shape: 10 512 7 7 (250880)
I0131 23:30:01.862124  8699 net.cpp:165] Memory required for data: 2231828640
I0131 23:30:01.862129  8699 layer_factory.hpp:77] Creating layer layer_512_2_scale2
I0131 23:30:01.862136  8699 net.cpp:100] Creating Layer layer_512_2_scale2
I0131 23:30:01.862139  8699 net.cpp:434] layer_512_2_scale2 <- layer_512_2_conv1
I0131 23:30:01.862143  8699 net.cpp:395] layer_512_2_scale2 -> layer_512_2_conv1 (in-place)
I0131 23:30:01.862176  8699 layer_factory.hpp:77] Creating layer layer_512_2_scale2
I0131 23:30:01.862263  8699 net.cpp:150] Setting up layer_512_2_scale2
I0131 23:30:01.862269  8699 net.cpp:157] Top shape: 10 512 7 7 (250880)
I0131 23:30:01.862272  8699 net.cpp:165] Memory required for data: 2232832160
I0131 23:30:01.862277  8699 layer_factory.hpp:77] Creating layer layer_512_2_relu2
I0131 23:30:01.862280  8699 net.cpp:100] Creating Layer layer_512_2_relu2
I0131 23:30:01.862283  8699 net.cpp:434] layer_512_2_relu2 <- layer_512_2_conv1
I0131 23:30:01.862287  8699 net.cpp:395] layer_512_2_relu2 -> layer_512_2_conv1 (in-place)
I0131 23:30:01.862401  8699 net.cpp:150] Setting up layer_512_2_relu2
I0131 23:30:01.862407  8699 net.cpp:157] Top shape: 10 512 7 7 (250880)
I0131 23:30:01.862411  8699 net.cpp:165] Memory required for data: 2233835680
I0131 23:30:01.862413  8699 layer_factory.hpp:77] Creating layer layer_512_2_conv2
I0131 23:30:01.862421  8699 net.cpp:100] Creating Layer layer_512_2_conv2
I0131 23:30:01.862423  8699 net.cpp:434] layer_512_2_conv2 <- layer_512_2_conv1
I0131 23:30:01.862428  8699 net.cpp:408] layer_512_2_conv2 -> layer_512_2_conv2
I0131 23:30:01.905628  8699 net.cpp:150] Setting up layer_512_2_conv2
I0131 23:30:01.905663  8699 net.cpp:157] Top shape: 10 512 7 7 (250880)
I0131 23:30:01.905666  8699 net.cpp:165] Memory required for data: 2234839200
I0131 23:30:01.905673  8699 layer_factory.hpp:77] Creating layer layer_512_2_bn3
I0131 23:30:01.905680  8699 net.cpp:100] Creating Layer layer_512_2_bn3
I0131 23:30:01.905685  8699 net.cpp:434] layer_512_2_bn3 <- layer_512_2_conv2
I0131 23:30:01.905690  8699 net.cpp:395] layer_512_2_bn3 -> layer_512_2_conv2 (in-place)
I0131 23:30:01.905865  8699 net.cpp:150] Setting up layer_512_2_bn3
I0131 23:30:01.905871  8699 net.cpp:157] Top shape: 10 512 7 7 (250880)
I0131 23:30:01.905874  8699 net.cpp:165] Memory required for data: 2235842720
I0131 23:30:01.905879  8699 layer_factory.hpp:77] Creating layer layer_512_2_scale3
I0131 23:30:01.905884  8699 net.cpp:100] Creating Layer layer_512_2_scale3
I0131 23:30:01.905887  8699 net.cpp:434] layer_512_2_scale3 <- layer_512_2_conv2
I0131 23:30:01.905892  8699 net.cpp:395] layer_512_2_scale3 -> layer_512_2_conv2 (in-place)
I0131 23:30:01.905923  8699 layer_factory.hpp:77] Creating layer layer_512_2_scale3
I0131 23:30:01.906011  8699 net.cpp:150] Setting up layer_512_2_scale3
I0131 23:30:01.906018  8699 net.cpp:157] Top shape: 10 512 7 7 (250880)
I0131 23:30:01.906020  8699 net.cpp:165] Memory required for data: 2236846240
I0131 23:30:01.906025  8699 layer_factory.hpp:77] Creating layer layer_512_2_relu3
I0131 23:30:01.906029  8699 net.cpp:100] Creating Layer layer_512_2_relu3
I0131 23:30:01.906033  8699 net.cpp:434] layer_512_2_relu3 <- layer_512_2_conv2
I0131 23:30:01.906036  8699 net.cpp:395] layer_512_2_relu3 -> layer_512_2_conv2 (in-place)
I0131 23:30:01.906152  8699 net.cpp:150] Setting up layer_512_2_relu3
I0131 23:30:01.906159  8699 net.cpp:157] Top shape: 10 512 7 7 (250880)
I0131 23:30:01.906162  8699 net.cpp:165] Memory required for data: 2237849760
I0131 23:30:01.906165  8699 layer_factory.hpp:77] Creating layer layer_512_2_conv3
I0131 23:30:01.906173  8699 net.cpp:100] Creating Layer layer_512_2_conv3
I0131 23:30:01.906178  8699 net.cpp:434] layer_512_2_conv3 <- layer_512_2_conv2
I0131 23:30:01.906188  8699 net.cpp:408] layer_512_2_conv3 -> layer_512_2_conv3
I0131 23:30:01.926128  8699 net.cpp:150] Setting up layer_512_2_conv3
I0131 23:30:01.926158  8699 net.cpp:157] Top shape: 10 2048 7 7 (1003520)
I0131 23:30:01.926162  8699 net.cpp:165] Memory required for data: 2241863840
I0131 23:30:01.926168  8699 layer_factory.hpp:77] Creating layer layer_512_2_sum
I0131 23:30:01.926174  8699 net.cpp:100] Creating Layer layer_512_2_sum
I0131 23:30:01.926194  8699 net.cpp:434] layer_512_2_sum <- layer_512_2_conv3
I0131 23:30:01.926198  8699 net.cpp:434] layer_512_2_sum <- layer_512_1_sum_layer_512_1_sum_0_split_1
I0131 23:30:01.926203  8699 net.cpp:408] layer_512_2_sum -> layer_512_2_sum
I0131 23:30:01.926224  8699 net.cpp:150] Setting up layer_512_2_sum
I0131 23:30:01.926230  8699 net.cpp:157] Top shape: 10 2048 7 7 (1003520)
I0131 23:30:01.926234  8699 net.cpp:165] Memory required for data: 2245877920
I0131 23:30:01.926236  8699 layer_factory.hpp:77] Creating layer layer_512_2_sum_layer_512_2_sum_0_split
I0131 23:30:01.926240  8699 net.cpp:100] Creating Layer layer_512_2_sum_layer_512_2_sum_0_split
I0131 23:30:01.926244  8699 net.cpp:434] layer_512_2_sum_layer_512_2_sum_0_split <- layer_512_2_sum
I0131 23:30:01.926247  8699 net.cpp:408] layer_512_2_sum_layer_512_2_sum_0_split -> layer_512_2_sum_layer_512_2_sum_0_split_0
I0131 23:30:01.926251  8699 net.cpp:408] layer_512_2_sum_layer_512_2_sum_0_split -> layer_512_2_sum_layer_512_2_sum_0_split_1
I0131 23:30:01.926282  8699 net.cpp:150] Setting up layer_512_2_sum_layer_512_2_sum_0_split
I0131 23:30:01.926287  8699 net.cpp:157] Top shape: 10 2048 7 7 (1003520)
I0131 23:30:01.926290  8699 net.cpp:157] Top shape: 10 2048 7 7 (1003520)
I0131 23:30:01.926293  8699 net.cpp:165] Memory required for data: 2253906080
I0131 23:30:01.926295  8699 layer_factory.hpp:77] Creating layer layer_512_3_bn1
I0131 23:30:01.926301  8699 net.cpp:100] Creating Layer layer_512_3_bn1
I0131 23:30:01.926303  8699 net.cpp:434] layer_512_3_bn1 <- layer_512_2_sum_layer_512_2_sum_0_split_0
I0131 23:30:01.926307  8699 net.cpp:408] layer_512_3_bn1 -> layer_512_3_bn1
I0131 23:30:01.926470  8699 net.cpp:150] Setting up layer_512_3_bn1
I0131 23:30:01.926476  8699 net.cpp:157] Top shape: 10 2048 7 7 (1003520)
I0131 23:30:01.926477  8699 net.cpp:165] Memory required for data: 2257920160
I0131 23:30:01.926483  8699 layer_factory.hpp:77] Creating layer layer_512_3_scale1
I0131 23:30:01.926488  8699 net.cpp:100] Creating Layer layer_512_3_scale1
I0131 23:30:01.926491  8699 net.cpp:434] layer_512_3_scale1 <- layer_512_3_bn1
I0131 23:30:01.926496  8699 net.cpp:395] layer_512_3_scale1 -> layer_512_3_bn1 (in-place)
I0131 23:30:01.926527  8699 layer_factory.hpp:77] Creating layer layer_512_3_scale1
I0131 23:30:01.926615  8699 net.cpp:150] Setting up layer_512_3_scale1
I0131 23:30:01.926621  8699 net.cpp:157] Top shape: 10 2048 7 7 (1003520)
I0131 23:30:01.926623  8699 net.cpp:165] Memory required for data: 2261934240
I0131 23:30:01.926628  8699 layer_factory.hpp:77] Creating layer layer_512_3_relu1
I0131 23:30:01.926632  8699 net.cpp:100] Creating Layer layer_512_3_relu1
I0131 23:30:01.926635  8699 net.cpp:434] layer_512_3_relu1 <- layer_512_3_bn1
I0131 23:30:01.926640  8699 net.cpp:395] layer_512_3_relu1 -> layer_512_3_bn1 (in-place)
I0131 23:30:01.926759  8699 net.cpp:150] Setting up layer_512_3_relu1
I0131 23:30:01.926766  8699 net.cpp:157] Top shape: 10 2048 7 7 (1003520)
I0131 23:30:01.926769  8699 net.cpp:165] Memory required for data: 2265948320
I0131 23:30:01.926772  8699 layer_factory.hpp:77] Creating layer layer_512_3_conv1
I0131 23:30:01.926779  8699 net.cpp:100] Creating Layer layer_512_3_conv1
I0131 23:30:01.926782  8699 net.cpp:434] layer_512_3_conv1 <- layer_512_3_bn1
I0131 23:30:01.926787  8699 net.cpp:408] layer_512_3_conv1 -> layer_512_3_conv1
I0131 23:30:01.946477  8699 net.cpp:150] Setting up layer_512_3_conv1
I0131 23:30:01.946508  8699 net.cpp:157] Top shape: 10 512 7 7 (250880)
I0131 23:30:01.946512  8699 net.cpp:165] Memory required for data: 2266951840
I0131 23:30:01.946527  8699 layer_factory.hpp:77] Creating layer layer_512_3_bn2
I0131 23:30:01.946534  8699 net.cpp:100] Creating Layer layer_512_3_bn2
I0131 23:30:01.946538  8699 net.cpp:434] layer_512_3_bn2 <- layer_512_3_conv1
I0131 23:30:01.946544  8699 net.cpp:395] layer_512_3_bn2 -> layer_512_3_conv1 (in-place)
I0131 23:30:01.946722  8699 net.cpp:150] Setting up layer_512_3_bn2
I0131 23:30:01.946730  8699 net.cpp:157] Top shape: 10 512 7 7 (250880)
I0131 23:30:01.946734  8699 net.cpp:165] Memory required for data: 2267955360
I0131 23:30:01.946739  8699 layer_factory.hpp:77] Creating layer layer_512_3_scale2
I0131 23:30:01.946745  8699 net.cpp:100] Creating Layer layer_512_3_scale2
I0131 23:30:01.946748  8699 net.cpp:434] layer_512_3_scale2 <- layer_512_3_conv1
I0131 23:30:01.946751  8699 net.cpp:395] layer_512_3_scale2 -> layer_512_3_conv1 (in-place)
I0131 23:30:01.946784  8699 layer_factory.hpp:77] Creating layer layer_512_3_scale2
I0131 23:30:01.946873  8699 net.cpp:150] Setting up layer_512_3_scale2
I0131 23:30:01.946879  8699 net.cpp:157] Top shape: 10 512 7 7 (250880)
I0131 23:30:01.946882  8699 net.cpp:165] Memory required for data: 2268958880
I0131 23:30:01.946887  8699 layer_factory.hpp:77] Creating layer layer_512_3_relu2
I0131 23:30:01.946890  8699 net.cpp:100] Creating Layer layer_512_3_relu2
I0131 23:30:01.946893  8699 net.cpp:434] layer_512_3_relu2 <- layer_512_3_conv1
I0131 23:30:01.946897  8699 net.cpp:395] layer_512_3_relu2 -> layer_512_3_conv1 (in-place)
I0131 23:30:01.947213  8699 net.cpp:150] Setting up layer_512_3_relu2
I0131 23:30:01.947222  8699 net.cpp:157] Top shape: 10 512 7 7 (250880)
I0131 23:30:01.947226  8699 net.cpp:165] Memory required for data: 2269962400
I0131 23:30:01.947228  8699 layer_factory.hpp:77] Creating layer layer_512_3_conv2
I0131 23:30:01.947235  8699 net.cpp:100] Creating Layer layer_512_3_conv2
I0131 23:30:01.947238  8699 net.cpp:434] layer_512_3_conv2 <- layer_512_3_conv1
I0131 23:30:01.947243  8699 net.cpp:408] layer_512_3_conv2 -> layer_512_3_conv2
I0131 23:30:01.990262  8699 net.cpp:150] Setting up layer_512_3_conv2
I0131 23:30:01.990295  8699 net.cpp:157] Top shape: 10 512 7 7 (250880)
I0131 23:30:01.990299  8699 net.cpp:165] Memory required for data: 2270965920
I0131 23:30:01.990305  8699 layer_factory.hpp:77] Creating layer layer_512_3_bn3
I0131 23:30:01.990314  8699 net.cpp:100] Creating Layer layer_512_3_bn3
I0131 23:30:01.990319  8699 net.cpp:434] layer_512_3_bn3 <- layer_512_3_conv2
I0131 23:30:01.990324  8699 net.cpp:395] layer_512_3_bn3 -> layer_512_3_conv2 (in-place)
I0131 23:30:01.990504  8699 net.cpp:150] Setting up layer_512_3_bn3
I0131 23:30:01.990509  8699 net.cpp:157] Top shape: 10 512 7 7 (250880)
I0131 23:30:01.990512  8699 net.cpp:165] Memory required for data: 2271969440
I0131 23:30:01.990517  8699 layer_factory.hpp:77] Creating layer layer_512_3_scale3
I0131 23:30:01.990523  8699 net.cpp:100] Creating Layer layer_512_3_scale3
I0131 23:30:01.990526  8699 net.cpp:434] layer_512_3_scale3 <- layer_512_3_conv2
I0131 23:30:01.990530  8699 net.cpp:395] layer_512_3_scale3 -> layer_512_3_conv2 (in-place)
I0131 23:30:01.990561  8699 layer_factory.hpp:77] Creating layer layer_512_3_scale3
I0131 23:30:01.990653  8699 net.cpp:150] Setting up layer_512_3_scale3
I0131 23:30:01.990658  8699 net.cpp:157] Top shape: 10 512 7 7 (250880)
I0131 23:30:01.990660  8699 net.cpp:165] Memory required for data: 2272972960
I0131 23:30:01.990664  8699 layer_factory.hpp:77] Creating layer layer_512_3_relu3
I0131 23:30:01.990669  8699 net.cpp:100] Creating Layer layer_512_3_relu3
I0131 23:30:01.990671  8699 net.cpp:434] layer_512_3_relu3 <- layer_512_3_conv2
I0131 23:30:01.990675  8699 net.cpp:395] layer_512_3_relu3 -> layer_512_3_conv2 (in-place)
I0131 23:30:01.990799  8699 net.cpp:150] Setting up layer_512_3_relu3
I0131 23:30:01.990808  8699 net.cpp:157] Top shape: 10 512 7 7 (250880)
I0131 23:30:01.990809  8699 net.cpp:165] Memory required for data: 2273976480
I0131 23:30:01.990813  8699 layer_factory.hpp:77] Creating layer layer_512_3_conv3
I0131 23:30:01.990824  8699 net.cpp:100] Creating Layer layer_512_3_conv3
I0131 23:30:01.990833  8699 net.cpp:434] layer_512_3_conv3 <- layer_512_3_conv2
I0131 23:30:01.990838  8699 net.cpp:408] layer_512_3_conv3 -> layer_512_3_conv3
I0131 23:30:02.010692  8699 net.cpp:150] Setting up layer_512_3_conv3
I0131 23:30:02.010727  8699 net.cpp:157] Top shape: 10 2048 7 7 (1003520)
I0131 23:30:02.010731  8699 net.cpp:165] Memory required for data: 2277990560
I0131 23:30:02.010737  8699 layer_factory.hpp:77] Creating layer layer_512_3_sum
I0131 23:30:02.010746  8699 net.cpp:100] Creating Layer layer_512_3_sum
I0131 23:30:02.010751  8699 net.cpp:434] layer_512_3_sum <- layer_512_3_conv3
I0131 23:30:02.010771  8699 net.cpp:434] layer_512_3_sum <- layer_512_2_sum_layer_512_2_sum_0_split_1
I0131 23:30:02.010776  8699 net.cpp:408] layer_512_3_sum -> layer_512_3_sum
I0131 23:30:02.010799  8699 net.cpp:150] Setting up layer_512_3_sum
I0131 23:30:02.010803  8699 net.cpp:157] Top shape: 10 2048 7 7 (1003520)
I0131 23:30:02.010807  8699 net.cpp:165] Memory required for data: 2282004640
I0131 23:30:02.010809  8699 layer_factory.hpp:77] Creating layer last_bn
I0131 23:30:02.010814  8699 net.cpp:100] Creating Layer last_bn
I0131 23:30:02.010818  8699 net.cpp:434] last_bn <- layer_512_3_sum
I0131 23:30:02.010821  8699 net.cpp:395] last_bn -> layer_512_3_sum (in-place)
I0131 23:30:02.010982  8699 net.cpp:150] Setting up last_bn
I0131 23:30:02.010987  8699 net.cpp:157] Top shape: 10 2048 7 7 (1003520)
I0131 23:30:02.010990  8699 net.cpp:165] Memory required for data: 2286018720
I0131 23:30:02.010995  8699 layer_factory.hpp:77] Creating layer last_scale
I0131 23:30:02.011000  8699 net.cpp:100] Creating Layer last_scale
I0131 23:30:02.011003  8699 net.cpp:434] last_scale <- layer_512_3_sum
I0131 23:30:02.011008  8699 net.cpp:395] last_scale -> layer_512_3_sum (in-place)
I0131 23:30:02.011039  8699 layer_factory.hpp:77] Creating layer last_scale
I0131 23:30:02.011133  8699 net.cpp:150] Setting up last_scale
I0131 23:30:02.011139  8699 net.cpp:157] Top shape: 10 2048 7 7 (1003520)
I0131 23:30:02.011142  8699 net.cpp:165] Memory required for data: 2290032800
I0131 23:30:02.011147  8699 layer_factory.hpp:77] Creating layer last_relu
I0131 23:30:02.011150  8699 net.cpp:100] Creating Layer last_relu
I0131 23:30:02.011153  8699 net.cpp:434] last_relu <- layer_512_3_sum
I0131 23:30:02.011157  8699 net.cpp:395] last_relu -> layer_512_3_sum (in-place)
I0131 23:30:02.011276  8699 net.cpp:150] Setting up last_relu
I0131 23:30:02.011281  8699 net.cpp:157] Top shape: 10 2048 7 7 (1003520)
I0131 23:30:02.011284  8699 net.cpp:165] Memory required for data: 2294046880
I0131 23:30:02.011287  8699 layer_factory.hpp:77] Creating layer global_pool
I0131 23:30:02.011292  8699 net.cpp:100] Creating Layer global_pool
I0131 23:30:02.011296  8699 net.cpp:434] global_pool <- layer_512_3_sum
I0131 23:30:02.011301  8699 net.cpp:408] global_pool -> global_pool
I0131 23:30:02.011432  8699 net.cpp:150] Setting up global_pool
I0131 23:30:02.011438  8699 net.cpp:157] Top shape: 10 2048 1 1 (20480)
I0131 23:30:02.011441  8699 net.cpp:165] Memory required for data: 2294128800
I0131 23:30:02.011445  8699 layer_factory.hpp:77] Creating layer score
I0131 23:30:02.011453  8699 net.cpp:100] Creating Layer score
I0131 23:30:02.011456  8699 net.cpp:434] score <- global_pool
I0131 23:30:02.011461  8699 net.cpp:408] score -> score
I0131 23:30:02.013911  8699 net.cpp:150] Setting up score
I0131 23:30:02.013934  8699 net.cpp:157] Top shape: 10 1000 (10000)
I0131 23:30:02.013937  8699 net.cpp:165] Memory required for data: 2294168800
I0131 23:30:02.013944  8699 layer_factory.hpp:77] Creating layer score_score_0_split
I0131 23:30:02.013952  8699 net.cpp:100] Creating Layer score_score_0_split
I0131 23:30:02.013957  8699 net.cpp:434] score_score_0_split <- score
I0131 23:30:02.013962  8699 net.cpp:408] score_score_0_split -> score_score_0_split_0
I0131 23:30:02.013983  8699 net.cpp:408] score_score_0_split -> score_score_0_split_1
I0131 23:30:02.013986  8699 net.cpp:408] score_score_0_split -> score_score_0_split_2
I0131 23:30:02.014041  8699 net.cpp:150] Setting up score_score_0_split
I0131 23:30:02.014053  8699 net.cpp:157] Top shape: 10 1000 (10000)
I0131 23:30:02.014056  8699 net.cpp:157] Top shape: 10 1000 (10000)
I0131 23:30:02.014060  8699 net.cpp:157] Top shape: 10 1000 (10000)
I0131 23:30:02.014062  8699 net.cpp:165] Memory required for data: 2294288800
I0131 23:30:02.014065  8699 layer_factory.hpp:77] Creating layer loss
I0131 23:30:02.014068  8699 net.cpp:100] Creating Layer loss
I0131 23:30:02.014071  8699 net.cpp:434] loss <- score_score_0_split_0
I0131 23:30:02.014075  8699 net.cpp:434] loss <- label_data_1_split_0
I0131 23:30:02.014080  8699 net.cpp:408] loss -> loss
…
