…
I0205 20:23:32.695291 14127 net.cpp:322] The NetState phase (1) differed from the phase (0) specified by a rule in layer data
I0205 20:23:32.695961 14127 net.cpp:58] Initializing net from parameters: 
state {
  phase: TEST
  level: 0
  stage: ""
}
layer {
  name: "data"
  type: "ImageData"
  top: "data"
  top: "label"
  include {
    phase: TEST
  }
  transform_param {
    mirror: false
    crop_size: 224
  }
  image_data_param {
    source: "/media/yves/sandisk3/caffe-master/data/ilsvrc12/val.txt"
    batch_size: 10
    shuffle: true
    root_folder: "/media/yves/sandisk3/caffe-master/data/ilsvrc12/resized/val/"
  }
}
layer {
  name: "data_bn"
  type: "BatchNorm"
  bottom: "data"
  top: "data_bn"
}
layer {
  name: "data_scale"
  type: "Scale"
  bottom: "data_bn"
  top: "data_bn"
  param {
    lr_mult: 1
    decay_mult: 1
  }
  param {
    lr_mult: 2
    decay_mult: 1
  }
  scale_param {
    bias_term: true
  }
}
layer {
  name: "conv1"
  type: "Convolution"
  bottom: "data_bn"
  top: "conv1"
  param {
    lr_mult: 1
    decay_mult: 1
  }
  param {
    lr_mult: 2
    decay_mult: 1
  }
  convolution_param {
    num_output: 64
    pad: 3
    kernel_size: 7
    stride: 2
    weight_filler {
      type: "msra"
      variance_norm: FAN_OUT
    }
    bias_filler {
      type: "constant"
      value: 0
    }
  }
}
layer {
  name: "conv1_bn"
  type: "BatchNorm"
  bottom: "conv1"
  top: "conv1"
}
layer {
  name: "conv1_scale"
  type: "Scale"
  bottom: "conv1"
  top: "conv1"
  param {
    lr_mult: 1
    decay_mult: 1
  }
  param {
    lr_mult: 2
    decay_mult: 1
  }
  scale_param {
    bias_term: true
  }
}
layer {
  name: "conv1_relu"
  type: "ReLU"
  bottom: "conv1"
  top: "conv1"
}
layer {
  name: "conv1_pool"
  type: "Pooling"
  bottom: "conv1"
  top: "conv1_pool"
  pooling_param {
    kernel_size: 3
    stride: 2
  }
}
layer {
  name: "layer_64_1_conv1"
  type: "Convolution"
  bottom: "conv1_pool"
  top: "layer_64_1_conv1"
  param {
    lr_mult: 1
    decay_mult: 1
  }
  convolution_param {
    num_output: 64
    bias_term: false
    pad: 0
    kernel_size: 1
    stride: 1
    weight_filler {
      type: "msra"
    }
    bias_filler {
      type: "constant"
      value: 0
    }
  }
}
layer {
  name: "layer_64_1_bn2"
  type: "BatchNorm"
  bottom: "layer_64_1_conv1"
  top: "layer_64_1_conv1"
}
layer {
  name: "layer_64_1_scale2"
  type: "Scale"
  bottom: "layer_64_1_conv1"
  top: "layer_64_1_conv1"
  param {
    lr_mult: 1
    decay_mult: 1
  }
  param {
    lr_mult: 2
    decay_mult: 1
  }
  scale_param {
    bias_term: true
  }
}
layer {
  name: "layer_64_1_relu2"
  type: "ReLU"
  bottom: "layer_64_1_conv1"
  top: "layer_64_1_conv1"
}
layer {
  name: "layer_64_1_conv2"
  type: "Convolution"
  bottom: "layer_64_1_conv1"
  top: "layer_64_1_conv2"
  param {
    lr_mult: 1
    decay_mult: 1
  }
  convolution_param {
    num_output: 64
    bias_term: false
    pad: 1
    kernel_size: 3
    stride: 1
    weight_filler {
      type: "msra"
    }
    bias_filler {
      type: "constant"
      value: 0
    }
  }
}
layer {
  name: "layer_64_1_bn3"
  type: "BatchNorm"
  bottom: "layer_64_1_conv2"
  top: "layer_64_1_conv2"
}
layer {
  name: "layer_64_1_scale3"
  type: "Scale"
  bottom: "layer_64_1_conv2"
  top: "layer_64_1_conv2"
  param {
    lr_mult: 1
    decay_mult: 1
  }
  param {
    lr_mult: 2
    decay_mult: 1
  }
  scale_param {
    bias_term: true
  }
}
layer {
  name: "layer_64_1_relu3"
  type: "ReLU"
  bottom: "layer_64_1_conv2"
  top: "layer_64_1_conv2"
}
layer {
  name: "layer_64_1_conv3"
  type: "Convolution"
  bottom: "layer_64_1_conv2"
  top: "layer_64_1_conv3"
  param {
    lr_mult: 1
    decay_mult: 1
  }
  convolution_param {
    num_output: 256
    bias_term: false
    pad: 0
    kernel_size: 1
    stride: 1
    weight_filler {
      type: "msra"
    }
    bias_filler {
      type: "constant"
      value: 0
    }
  }
}
layer {
  name: "layer_64_1_conv_expand"
  type: "Convolution"
  bottom: "layer_64_1_conv1"
  top: "layer_64_1_conv_expand"
  param {
    lr_mult: 1
    decay_mult: 1
  }
  convolution_param {
    num_output: 256
    bias_term: false
    pad: 0
    kernel_size: 1
    stride: 1
    weight_filler {
      type: "msra"
    }
    bias_filler {
      type: "constant"
      value: 0
    }
  }
}
layer {
  name: "layer_64_1_sum"
  type: "Eltwise"
  bottom: "layer_64_1_conv3"
  bottom: "layer_64_1_conv_expand"
  top: "layer_64_1_sum"
}
layer {
  name: "layer_64_2_bn1"
  type: "BatchNorm"
  bottom: "layer_64_1_sum"
  top: "layer_64_2_bn1"
}
layer {
  name: "layer_64_2_scale1"
  type: "Scale"
  bottom: "layer_64_2_bn1"
  top: "layer_64_2_bn1"
  param {
    lr_mult: 1
    decay_mult: 1
  }
  param {
    lr_mult: 2
    decay_mult: 1
  }
  scale_param {
    bias_term: true
  }
}
layer {
  name: "layer_64_2_relu1"
  type: "ReLU"
  bottom: "layer_64_2_bn1"
  top: "layer_64_2_bn1"
}
layer {
  name: "layer_64_2_conv1"
  type: "Convolution"
  bottom: "layer_64_2_bn1"
  top: "layer_64_2_conv1"
  param {
    lr_mult: 1
    decay_mult: 1
  }
  convolution_param {
    num_output: 64
    bias_term: false
    pad: 0
    kernel_size: 1
    stride: 1
    weight_filler {
      type: "msra"
    }
    bias_filler {
      type: "constant"
      value: 0
    }
  }
}
layer {
  name: "layer_64_2_bn2"
  type: "BatchNorm"
  bottom: "layer_64_2_conv1"
  top: "layer_64_2_conv1"
}
layer {
  name: "layer_64_2_scale2"
  type: "Scale"
  bottom: "layer_64_2_conv1"
  top: "layer_64_2_conv1"
  param {
    lr_mult: 1
    decay_mult: 1
  }
  param {
    lr_mult: 2
    decay_mult: 1
  }
  scale_param {
    bias_term: true
  }
}
layer {
  name: "layer_64_2_relu2"
  type: "ReLU"
  bottom: "layer_64_2_conv1"
  top: "layer_64_2_conv1"
}
layer {
  name: "layer_64_2_conv2"
  type: "Convolution"
  bottom: "layer_64_2_conv1"
  top: "layer_64_2_conv2"
  param {
    lr_mult: 1
    decay_mult: 1
  }
  convolution_param {
    num_output: 64
    bias_term: false
    pad: 1
    kernel_size: 3
    stride: 1
    weight_filler {
      type: "msra"
    }
    bias_filler {
      type: "constant"
      value: 0
    }
  }
}
layer {
  name: "layer_64_2_bn3"
  type: "BatchNorm"
  bottom: "layer_64_2_conv2"
  top: "layer_64_2_conv2"
}
layer {
  name: "layer_64_2_scale3"
  type: "Scale"
  bottom: "layer_64_2_conv2"
  top: "layer_64_2_conv2"
  param {
    lr_mult: 1
    decay_mult: 1
  }
  param {
    lr_mult: 2
    decay_mult: 1
  }
  scale_param {
    bias_term: true
  }
}
layer {
  name: "layer_64_2_relu3"
  type: "ReLU"
  bottom: "layer_64_2_conv2"
  top: "layer_64_2_conv2"
}
layer {
  name: "layer_64_2_conv3"
  type: "Convolution"
  bottom: "layer_64_2_conv2"
  top: "layer_64_2_conv3"
  param {
    lr_mult: 1
    decay_mult: 1
  }
  convolution_param {
    num_output: 256
    bias_term: false
    pad: 0
    kernel_size: 1
    stride: 1
    weight_filler {
      type: "msra"
    }
    bias_filler {
      type: "constant"
      value: 0
    }
  }
}
layer {
  name: "layer_64_2_sum"
  type: "Eltwise"
  bottom: "layer_64_2_conv3"
  bottom: "layer_64_1_sum"
  top: "layer_64_2_sum"
}
layer {
  name: "layer_64_3_bn1"
  type: "BatchNorm"
  bottom: "layer_64_2_sum"
  top: "layer_64_3_bn1"
}
layer {
  name: "layer_64_3_scale1"
  type: "Scale"
  bottom: "layer_64_3_bn1"
  top: "layer_64_3_bn1"
  param {
    lr_mult: 1
    decay_mult: 1
  }
  param {
    lr_mult: 2
    decay_mult: 1
  }
  scale_param {
    bias_term: true
  }
}
layer {
  name: "layer_64_3_relu1"
  type: "ReLU"
  bottom: "layer_64_3_bn1"
  top: "layer_64_3_bn1"
}
layer {
  name: "layer_64_3_conv1"
  type: "Convolution"
  bottom: "layer_64_3_bn1"
  top: "layer_64_3_conv1"
  param {
    lr_mult: 1
    decay_mult: 1
  }
  convolution_param {
    num_output: 64
    bias_term: false
    pad: 0
    kernel_size: 1
    stride: 1
    weight_filler {
      type: "msra"
    }
    bias_filler {
      type: "constant"
      value: 0
    }
  }
}
layer {
  name: "layer_64_3_bn2"
  type: "BatchNorm"
  bottom: "layer_64_3_conv1"
  top: "layer_64_3_conv1"
}
layer {
  name: "layer_64_3_scale2"
  type: "Scale"
  bottom: "layer_64_3_conv1"
  top: "layer_64_3_conv1"
  param {
    lr_mult: 1
    decay_mult: 1
  }
  param {
    lr_mult: 2
    decay_mult: 1
  }
  scale_param {
    bias_term: true
  }
}
layer {
  name: "layer_64_3_relu2"
  type: "ReLU"
  bottom: "layer_64_3_conv1"
  top: "layer_64_3_conv1"
}
layer {
  name: "layer_64_3_conv2"
  type: "Convolution"
  bottom: "layer_64_3_conv1"
  top: "layer_64_3_conv2"
  param {
    lr_mult: 1
    decay_mult: 1
  }
  convolution_param {
    num_output: 64
    bias_term: false
    pad: 1
    kernel_size: 3
    stride: 1
    weight_filler {
      type: "msra"
    }
    bias_filler {
      type: "constant"
      value: 0
    }
  }
}
layer {
  name: "layer_64_3_bn3"
  type: "BatchNorm"
  bottom: "layer_64_3_conv2"
  top: "layer_64_3_conv2"
}
layer {
  name: "layer_64_3_scale3"
  type: "Scale"
  bottom: "layer_64_3_conv2"
  top: "layer_64_3_conv2"
  param {
    lr_mult: 1
    decay_mult: 1
  }
  param {
    lr_mult: 2
    decay_mult: 1
  }
  scale_param {
    bias_term: true
  }
}
layer {
  name: "layer_64_3_relu3"
  type: "ReLU"
  bottom: "layer_64_3_conv2"
  top: "layer_64_3_conv2"
}
layer {
  name: "layer_64_3_conv3"
  type: "Convolution"
  bottom: "layer_64_3_conv2"
  top: "layer_64_3_conv3"
  param {
    lr_mult: 1
    decay_mult: 1
  }
  convolution_param {
    num_output: 256
    bias_term: false
    pad: 0
    kernel_size: 1
    stride: 1
    weight_filler {
      type: "msra"
    }
    bias_filler {
      type: "constant"
      value: 0
    }
  }
}
layer {
  name: "layer_64_3_sum"
  type: "Eltwise"
  bottom: "layer_64_3_conv3"
  bottom: "layer_64_2_sum"
  top: "layer_64_3_sum"
}
layer {
  name: "layer_128_1_bn1"
  type: "BatchNorm"
  bottom: "layer_64_3_sum"
  top: "layer_128_1_bn1"
}
layer {
  name: "layer_128_1_scale1"
  type: "Scale"
  bottom: "layer_128_1_bn1"
  top: "layer_128_1_bn1"
  param {
    lr_mult: 1
    decay_mult: 1
  }
  param {
    lr_mult: 2
    decay_mult: 1
  }
  scale_param {
    bias_term: true
  }
}
layer {
  name: "layer_128_1_relu1"
  type: "ReLU"
  bottom: "layer_128_1_bn1"
  top: "layer_128_1_bn1"
}
layer {
  name: "layer_128_1_conv1"
  type: "Convolution"
  bottom: "layer_128_1_bn1"
  top: "layer_128_1_conv1"
  param {
    lr_mult: 1
    decay_mult: 1
  }
  convolution_param {
    num_output: 128
    bias_term: false
    pad: 0
    kernel_size: 1
    stride: 1
    weight_filler {
      type: "msra"
    }
    bias_filler {
      type: "constant"
      value: 0
    }
  }
}
layer {
  name: "layer_128_1_bn2"
  type: "BatchNorm"
  bottom: "layer_128_1_conv1"
  top: "layer_128_1_conv1"
}
layer {
  name: "layer_128_1_scale2"
  type: "Scale"
  bottom: "layer_128_1_conv1"
  top: "layer_128_1_conv1"
  param {
    lr_mult: 1
    decay_mult: 1
  }
  param {
    lr_mult: 2
    decay_mult: 1
  }
  scale_param {
    bias_term: true
  }
}
layer {
  name: "layer_128_1_relu2"
  type: "ReLU"
  bottom: "layer_128_1_conv1"
  top: "layer_128_1_conv1"
}
layer {
  name: "layer_128_1_conv2"
  type: "Convolution"
  bottom: "layer_128_1_conv1"
  top: "layer_128_1_conv2"
  param {
    lr_mult: 1
    decay_mult: 1
  }
  convolution_param {
    num_output: 128
    bias_term: false
    pad: 1
    kernel_size: 3
    stride: 2
    weight_filler {
      type: "msra"
    }
    bias_filler {
      type: "constant"
      value: 0
    }
  }
}
layer {
  name: "layer_128_1_bn3"
  type: "BatchNorm"
  bottom: "layer_128_1_conv2"
  top: "layer_128_1_conv2"
}
layer {
  name: "layer_128_1_scale3"
  type: "Scale"
  bottom: "layer_128_1_conv2"
  top: "layer_128_1_conv2"
  param {
    lr_mult: 1
    decay_mult: 1
  }
  param {
    lr_mult: 2
    decay_mult: 1
  }
  scale_param {
    bias_term: true
  }
}
layer {
  name: "layer_128_1_relu3"
  type: "ReLU"
  bottom: "layer_128_1_conv2"
  top: "layer_128_1_conv2"
}
layer {
  name: "layer_128_1_conv3"
  type: "Convolution"
  bottom: "layer_128_1_conv2"
  top: "layer_128_1_conv3"
  param {
    lr_mult: 1
    decay_mult: 1
  }
  convolution_param {
    num_output: 512
    bias_term: false
    pad: 0
    kernel_size: 1
    stride: 1
    weight_filler {
      type: "msra"
    }
    bias_filler {
      type: "constant"
      value: 0
    }
  }
}
layer {
  name: "layer_128_1_conv_expand"
  type: "Convolution"
  bottom: "layer_128_1_bn1"
  top: "layer_128_1_conv_expand"
  param {
    lr_mult: 1
    decay_mult: 1
  }
  convolution_param {
    num_output: 512
    bias_term: false
    pad: 0
    kernel_size: 1
    stride: 2
    weight_filler {
      type: "msra"
    }
    bias_filler {
      type: "constant"
      value: 0
    }
  }
}
layer {
  name: "layer_128_1_sum"
  type: "Eltwise"
  bottom: "layer_128_1_conv3"
  bottom: "layer_128_1_conv_expand"
  top: "layer_128_1_sum"
}
layer {
  name: "layer_128_2_bn1"
  type: "BatchNorm"
  bottom: "layer_128_1_sum"
  top: "layer_128_2_bn1"
}
layer {
  name: "layer_128_2_scale1"
  type: "Scale"
  bottom: "layer_128_2_bn1"
  top: "layer_128_2_bn1"
  param {
    lr_mult: 1
    decay_mult: 1
  }
  param {
    lr_mult: 2
    decay_mult: 1
  }
  scale_param {
    bias_term: true
  }
}
layer {
  name: "layer_128_2_relu1"
  type: "ReLU"
  bottom: "layer_128_2_bn1"
  top: "layer_128_2_bn1"
}
layer {
  name: "layer_128_2_conv1"
  type: "Convolution"
  bottom: "layer_128_2_bn1"
  top: "layer_128_2_conv1"
  param {
    lr_mult: 1
    decay_mult: 1
  }
  convolution_param {
    num_output: 128
    bias_term: false
    pad: 0
    kernel_size: 1
    stride: 1
    weight_filler {
      type: "msra"
    }
    bias_filler {
      type: "constant"
      value: 0
    }
  }
}
layer {
  name: "layer_128_2_bn2"
  type: "BatchNorm"
  bottom: "layer_128_2_conv1"
  top: "layer_128_2_conv1"
}
layer {
  name: "layer_128_2_scale2"
  type: "Scale"
  bottom: "layer_128_2_conv1"
  top: "layer_128_2_conv1"
  param {
    lr_mult: 1
    decay_mult: 1
  }
  param {
    lr_mult: 2
    decay_mult: 1
  }
  scale_param {
    bias_term: true
  }
}
layer {
  name: "layer_128_2_relu2"
  type: "ReLU"
  bottom: "layer_128_2_conv1"
  top: "layer_128_2_conv1"
}
layer {
  name: "layer_128_2_conv2"
  type: "Convolution"
  bottom: "layer_128_2_conv1"
  top: "layer_128_2_conv2"
  param {
    lr_mult: 1
    decay_mult: 1
  }
  convolution_param {
    num_output: 128
    bias_term: false
    pad: 1
    kernel_size: 3
    stride: 1
    weight_filler {
      type: "msra"
    }
    bias_filler {
      type: "constant"
      value: 0
    }
  }
}
layer {
  name: "layer_128_2_bn3"
  type: "BatchNorm"
  bottom: "layer_128_2_conv2"
  top: "layer_128_2_conv2"
}
layer {
  name: "layer_128_2_scale3"
  type: "Scale"
  bottom: "layer_128_2_conv2"
  top: "layer_128_2_conv2"
  param {
    lr_mult: 1
    decay_mult: 1
  }
  param {
    lr_mult: 2
    decay_mult: 1
  }
  scale_param {
    bias_term: true
  }
}
layer {
  name: "layer_128_2_relu3"
  type: "ReLU"
  bottom: "layer_128_2_conv2"
  top: "layer_128_2_conv2"
}
layer {
  name: "layer_128_2_conv3"
  type: "Convolution"
  bottom: "layer_128_2_conv2"
  top: "layer_128_2_conv3"
  param {
    lr_mult: 1
    decay_mult: 1
  }
  convolution_param {
    num_output: 512
    bias_term: false
    pad: 0
    kernel_size: 1
    stride: 1
    weight_filler {
      type: "msra"
    }
    bias_filler {
      type: "constant"
      value: 0
    }
  }
}
layer {
  name: "layer_128_2_sum"
  type: "Eltwise"
  bottom: "layer_128_2_conv3"
  bottom: "layer_128_1_sum"
  top: "layer_128_2_sum"
}
layer {
  name: "layer_128_3_bn1"
  type: "BatchNorm"
  bottom: "layer_128_2_sum"
  top: "layer_128_3_bn1"
}
layer {
  name: "layer_128_3_scale1"
  type: "Scale"
  bottom: "layer_128_3_bn1"
  top: "layer_128_3_bn1"
  param {
    lr_mult: 1
    decay_mult: 1
  }
  param {
    lr_mult: 2
    decay_mult: 1
  }
  scale_param {
    bias_term: true
  }
}
layer {
  name: "layer_128_3_relu1"
  type: "ReLU"
  bottom: "layer_128_3_bn1"
  top: "layer_128_3_bn1"
}
layer {
  name: "layer_128_3_conv1"
  type: "Convolution"
  bottom: "layer_128_3_bn1"
  top: "layer_128_3_conv1"
  param {
    lr_mult: 1
    decay_mult: 1
  }
  convolution_param {
    num_output: 128
    bias_term: false
    pad: 0
    kernel_size: 1
    stride: 1
    weight_filler {
      type: "msra"
    }
    bias_filler {
      type: "constant"
      value: 0
    }
  }
}
layer {
  name: "layer_128_3_bn2"
  type: "BatchNorm"
  bottom: "layer_128_3_conv1"
  top: "layer_128_3_conv1"
}
layer {
  name: "layer_128_3_scale2"
  type: "Scale"
  bottom: "layer_128_3_conv1"
  top: "layer_128_3_conv1"
  param {
    lr_mult: 1
    decay_mult: 1
  }
  param {
    lr_mult: 2
    decay_mult: 1
  }
  scale_param {
    bias_term: true
  }
}
layer {
  name: "layer_128_3_relu2"
  type: "ReLU"
  bottom: "layer_128_3_conv1"
  top: "layer_128_3_conv1"
}
layer {
  name: "layer_128_3_conv2"
  type: "Convolution"
  bottom: "layer_128_3_conv1"
  top: "layer_128_3_conv2"
  param {
    lr_mult: 1
    decay_mult: 1
  }
  convolution_param {
    num_output: 128
    bias_term: false
    pad: 1
    kernel_size: 3
    stride: 1
    weight_filler {
      type: "msra"
    }
    bias_filler {
      type: "constant"
      value: 0
    }
  }
}
layer {
  name: "layer_128_3_bn3"
  type: "BatchNorm"
  bottom: "layer_128_3_conv2"
  top: "layer_128_3_conv2"
}
layer {
  name: "layer_128_3_scale3"
  type: "Scale"
  bottom: "layer_128_3_conv2"
  top: "layer_128_3_conv2"
  param {
    lr_mult: 1
    decay_mult: 1
  }
  param {
    lr_mult: 2
    decay_mult: 1
  }
  scale_param {
    bias_term: true
  }
}
layer {
  name: "layer_128_3_relu3"
  type: "ReLU"
  bottom: "layer_128_3_conv2"
  top: "layer_128_3_conv2"
}
layer {
  name: "layer_128_3_conv3"
  type: "Convolution"
  bottom: "layer_128_3_conv2"
  top: "layer_128_3_conv3"
  param {
    lr_mult: 1
    decay_mult: 1
  }
  convolution_param {
    num_output: 512
    bias_term: false
    pad: 0
    kernel_size: 1
    stride: 1
    weight_filler {
      type: "msra"
    }
    bias_filler {
      type: "constant"
      value: 0
    }
  }
}
layer {
  name: "layer_128_3_sum"
  type: "Eltwise"
  bottom: "layer_128_3_conv3"
  bottom: "layer_128_2_sum"
  top: "layer_128_3_sum"
}
layer {
  name: "layer_128_4_bn1"
  type: "BatchNorm"
  bottom: "layer_128_3_sum"
  top: "layer_128_4_bn1"
}
layer {
  name: "layer_128_4_scale1"
  type: "Scale"
  bottom: "layer_128_4_bn1"
  top: "layer_128_4_bn1"
  param {
    lr_mult: 1
    decay_mult: 1
  }
  param {
    lr_mult: 2
    decay_mult: 1
  }
  scale_param {
    bias_term: true
  }
}
layer {
  name: "layer_128_4_relu1"
  type: "ReLU"
  bottom: "layer_128_4_bn1"
  top: "layer_128_4_bn1"
}
layer {
  name: "layer_128_4_conv1"
  type: "Convolution"
  bottom: "layer_128_4_bn1"
  top: "layer_128_4_conv1"
  param {
    lr_mult: 1
    decay_mult: 1
  }
  convolution_param {
    num_output: 128
    bias_term: false
    pad: 0
    kernel_size: 1
    stride: 1
    weight_filler {
      type: "msra"
    }
    bias_filler {
      type: "constant"
      value: 0
    }
  }
}
layer {
  name: "layer_128_4_bn2"
  type: "BatchNorm"
  bottom: "layer_128_4_conv1"
  top: "layer_128_4_conv1"
}
layer {
  name: "layer_128_4_scale2"
  type: "Scale"
  bottom: "layer_128_4_conv1"
  top: "layer_128_4_conv1"
  param {
    lr_mult: 1
    decay_mult: 1
  }
  param {
    lr_mult: 2
    decay_mult: 1
  }
  scale_param {
    bias_term: true
  }
}
layer {
  name: "layer_128_4_relu2"
  type: "ReLU"
  bottom: "layer_128_4_conv1"
  top: "layer_128_4_conv1"
}
layer {
  name: "layer_128_4_conv2"
  type: "Convolution"
  bottom: "layer_128_4_conv1"
  top: "layer_128_4_conv2"
  param {
    lr_mult: 1
    decay_mult: 1
  }
  convolution_param {
    num_output: 128
    bias_term: false
    pad: 1
    kernel_size: 3
    stride: 1
    weight_filler {
      type: "msra"
    }
    bias_filler {
      type: "constant"
      value: 0
    }
  }
}
layer {
  name: "layer_128_4_bn3"
  type: "BatchNorm"
  bottom: "layer_128_4_conv2"
  top: "layer_128_4_conv2"
}
layer {
  name: "layer_128_4_scale3"
  type: "Scale"
  bottom: "layer_128_4_conv2"
  top: "layer_128_4_conv2"
  param {
    lr_mult: 1
    decay_mult: 1
  }
  param {
    lr_mult: 2
    decay_mult: 1
  }
  scale_param {
    bias_term: true
  }
}
layer {
  name: "layer_128_4_relu3"
  type: "ReLU"
  bottom: "layer_128_4_conv2"
  top: "layer_128_4_conv2"
}
layer {
  name: "layer_128_4_conv3"
  type: "Convolution"
  bottom: "layer_128_4_conv2"
  top: "layer_128_4_conv3"
  param {
    lr_mult: 1
    decay_mult: 1
  }
  convolution_param {
    num_output: 512
    bias_term: false
    pad: 0
    kernel_size: 1
    stride: 1
    weight_filler {
      type: "msra"
    }
    bias_filler {
      type: "constant"
      value: 0
    }
  }
}
layer {
  name: "layer_128_4_sum"
  type: "Eltwise"
  bottom: "layer_128_4_conv3"
  bottom: "layer_128_3_sum"
  top: "layer_128_4_sum"
}
layer {
  name: "layer_256_1_bn1"
  type: "BatchNorm"
  bottom: "layer_128_4_sum"
  top: "layer_256_1_bn1"
}
layer {
  name: "layer_256_1_scale1"
  type: "Scale"
  bottom: "layer_256_1_bn1"
  top: "layer_256_1_bn1"
  param {
    lr_mult: 1
    decay_mult: 1
  }
  param {
    lr_mult: 2
    decay_mult: 1
  }
  scale_param {
    bias_term: true
  }
}
layer {
  name: "layer_256_1_relu1"
  type: "ReLU"
  bottom: "layer_256_1_bn1"
  top: "layer_256_1_bn1"
}
layer {
  name: "layer_256_1_conv1"
  type: "Convolution"
  bottom: "layer_256_1_bn1"
  top: "layer_256_1_conv1"
  param {
    lr_mult: 1
    decay_mult: 1
  }
  convolution_param {
    num_output: 256
    bias_term: false
    pad: 0
    kernel_size: 1
    stride: 1
    weight_filler {
      type: "msra"
    }
    bias_filler {
      type: "constant"
      value: 0
    }
  }
}
layer {
  name: "layer_256_1_bn2"
  type: "BatchNorm"
  bottom: "layer_256_1_conv1"
  top: "layer_256_1_conv1"
}
layer {
  name: "layer_256_1_scale2"
  type: "Scale"
  bottom: "layer_256_1_conv1"
  top: "layer_256_1_conv1"
  param {
    lr_mult: 1
    decay_mult: 1
  }
  param {
    lr_mult: 2
    decay_mult: 1
  }
  scale_param {
    bias_term: true
  }
}
layer {
  name: "layer_256_1_relu2"
  type: "ReLU"
  bottom: "layer_256_1_conv1"
  top: "layer_256_1_conv1"
}
layer {
  name: "layer_256_1_conv2"
  type: "Convolution"
  bottom: "layer_256_1_conv1"
  top: "layer_256_1_conv2"
  param {
    lr_mult: 1
    decay_mult: 1
  }
  convolution_param {
    num_output: 256
    bias_term: false
    pad: 1
    kernel_size: 3
    stride: 2
    weight_filler {
      type: "msra"
    }
    bias_filler {
      type: "constant"
      value: 0
    }
  }
}
layer {
  name: "layer_256_1_bn3"
  type: "BatchNorm"
  bottom: "layer_256_1_conv2"
  top: "layer_256_1_conv2"
}
layer {
  name: "layer_256_1_scale3"
  type: "Scale"
  bottom: "layer_256_1_conv2"
  top: "layer_256_1_conv2"
  param {
    lr_mult: 1
    decay_mult: 1
  }
  param {
    lr_mult: 2
    decay_mult: 1
  }
  scale_param {
    bias_term: true
  }
}
layer {
  name: "layer_256_1_relu3"
  type: "ReLU"
  bottom: "layer_256_1_conv2"
  top: "layer_256_1_conv2"
}
layer {
  name: "layer_256_1_conv3"
  type: "Convolution"
  bottom: "layer_256_1_conv2"
  top: "layer_256_1_conv3"
  param {
    lr_mult: 1
    decay_mult: 1
  }
  convolution_param {
    num_output: 1024
    bias_term: false
    pad: 0
    kernel_size: 1
    stride: 1
    weight_filler {
      type: "msra"
    }
    bias_filler {
      type: "constant"
      value: 0
    }
  }
}
layer {
  name: "layer_256_1_conv_expand"
  type: "Convolution"
  bottom: "layer_256_1_bn1"
  top: "layer_256_1_conv_expand"
  param {
    lr_mult: 1
    decay_mult: 1
  }
  convolution_param {
    num_output: 1024
    bias_term: false
    pad: 0
    kernel_size: 1
    stride: 2
    weight_filler {
      type: "msra"
    }
    bias_filler {
      type: "constant"
      value: 0
    }
  }
}
layer {
  name: "layer_256_1_sum"
  type: "Eltwise"
  bottom: "layer_256_1_conv3"
  bottom: "layer_256_1_conv_expand"
  top: "layer_256_1_sum"
}
layer {
  name: "layer_256_2_bn1"
  type: "BatchNorm"
  bottom: "layer_256_1_sum"
  top: "layer_256_2_bn1"
}
layer {
  name: "layer_256_2_scale1"
  type: "Scale"
  bottom: "layer_256_2_bn1"
  top: "layer_256_2_bn1"
  param {
    lr_mult: 1
    decay_mult: 1
  }
  param {
    lr_mult: 2
    decay_mult: 1
  }
  scale_param {
    bias_term: true
  }
}
layer {
  name: "layer_256_2_relu1"
  type: "ReLU"
  bottom: "layer_256_2_bn1"
  top: "layer_256_2_bn1"
}
layer {
  name: "layer_256_2_conv1"
  type: "Convolution"
  bottom: "layer_256_2_bn1"
  top: "layer_256_2_conv1"
  param {
    lr_mult: 1
    decay_mult: 1
  }
  convolution_param {
    num_output: 256
    bias_term: false
    pad: 0
    kernel_size: 1
    stride: 1
    weight_filler {
      type: "msra"
    }
    bias_filler {
      type: "constant"
      value: 0
    }
  }
}
layer {
  name: "layer_256_2_bn2"
  type: "BatchNorm"
  bottom: "layer_256_2_conv1"
  top: "layer_256_2_conv1"
}
layer {
  name: "layer_256_2_scale2"
  type: "Scale"
  bottom: "layer_256_2_conv1"
  top: "layer_256_2_conv1"
  param {
    lr_mult: 1
    decay_mult: 1
  }
  param {
    lr_mult: 2
    decay_mult: 1
  }
  scale_param {
    bias_term: true
  }
}
layer {
  name: "layer_256_2_relu2"
  type: "ReLU"
  bottom: "layer_256_2_conv1"
  top: "layer_256_2_conv1"
}
layer {
  name: "layer_256_2_conv2"
  type: "Convolution"
  bottom: "layer_256_2_conv1"
  top: "layer_256_2_conv2"
  param {
    lr_mult: 1
    decay_mult: 1
  }
  convolution_param {
    num_output: 256
    bias_term: false
    pad: 1
    kernel_size: 3
    stride: 1
    weight_filler {
      type: "msra"
    }
    bias_filler {
      type: "constant"
      value: 0
    }
  }
}
layer {
  name: "layer_256_2_bn3"
  type: "BatchNorm"
  bottom: "layer_256_2_conv2"
  top: "layer_256_2_conv2"
}
layer {
  name: "layer_256_2_scale3"
  type: "Scale"
  bottom: "layer_256_2_conv2"
  top: "layer_256_2_conv2"
  param {
    lr_mult: 1
    decay_mult: 1
  }
  param {
    lr_mult: 2
    decay_mult: 1
  }
  scale_param {
    bias_term: true
  }
}
layer {
  name: "layer_256_2_relu3"
  type: "ReLU"
  bottom: "layer_256_2_conv2"
  top: "layer_256_2_conv2"
}
layer {
  name: "layer_256_2_conv3"
  type: "Convolution"
  bottom: "layer_256_2_conv2"
  top: "layer_256_2_conv3"
  param {
    lr_mult: 1
    decay_mult: 1
  }
  convolution_param {
    num_output: 1024
    bias_term: false
    pad: 0
    kernel_size: 1
    stride: 1
    weight_filler {
      type: "msra"
    }
    bias_filler {
      type: "constant"
      value: 0
    }
  }
}
layer {
  name: "layer_256_2_sum"
  type: "Eltwise"
  bottom: "layer_256_2_conv3"
  bottom: "layer_256_1_sum"
  top: "layer_256_2_sum"
}
layer {
  name: "layer_256_3_bn1"
  type: "BatchNorm"
  bottom: "layer_256_2_sum"
  top: "layer_256_3_bn1"
}
layer {
  name: "layer_256_3_scale1"
  type: "Scale"
  bottom: "layer_256_3_bn1"
  top: "layer_256_3_bn1"
  param {
    lr_mult: 1
    decay_mult: 1
  }
  param {
    lr_mult: 2
    decay_mult: 1
  }
  scale_param {
    bias_term: true
  }
}
layer {
  name: "layer_256_3_relu1"
  type: "ReLU"
  bottom: "layer_256_3_bn1"
  top: "layer_256_3_bn1"
}
layer {
  name: "layer_256_3_conv1"
  type: "Convolution"
  bottom: "layer_256_3_bn1"
  top: "layer_256_3_conv1"
  param {
    lr_mult: 1
    decay_mult: 1
  }
  convolution_param {
    num_output: 256
    bias_term: false
    pad: 0
    kernel_size: 1
    stride: 1
    weight_filler {
      type: "msra"
    }
    bias_filler {
      type: "constant"
      value: 0
    }
  }
}
layer {
  name: "layer_256_3_bn2"
  type: "BatchNorm"
  bottom: "layer_256_3_conv1"
  top: "layer_256_3_conv1"
}
layer {
  name: "layer_256_3_scale2"
  type: "Scale"
  bottom: "layer_256_3_conv1"
  top: "layer_256_3_conv1"
  param {
    lr_mult: 1
    decay_mult: 1
  }
  param {
    lr_mult: 2
    decay_mult: 1
  }
  scale_param {
    bias_term: true
  }
}
layer {
  name: "layer_256_3_relu2"
  type: "ReLU"
  bottom: "layer_256_3_conv1"
  top: "layer_256_3_conv1"
}
layer {
  name: "layer_256_3_conv2"
  type: "Convolution"
  bottom: "layer_256_3_conv1"
  top: "layer_256_3_conv2"
  param {
    lr_mult: 1
    decay_mult: 1
  }
  convolution_param {
    num_output: 256
    bias_term: false
    pad: 1
    kernel_size: 3
    stride: 1
    weight_filler {
      type: "msra"
    }
    bias_filler {
      type: "constant"
      value: 0
    }
  }
}
layer {
  name: "layer_256_3_bn3"
  type: "BatchNorm"
  bottom: "layer_256_3_conv2"
  top: "layer_256_3_conv2"
}
layer {
  name: "layer_256_3_scale3"
  type: "Scale"
  bottom: "layer_256_3_conv2"
  top: "layer_256_3_conv2"
  param {
    lr_mult: 1
    decay_mult: 1
  }
  param {
    lr_mult: 2
    decay_mult: 1
  }
  scale_param {
    bias_term: true
  }
}
layer {
  name: "layer_256_3_relu3"
  type: "ReLU"
  bottom: "layer_256_3_conv2"
  top: "layer_256_3_conv2"
}
layer {
  name: "layer_256_3_conv3"
  type: "Convolution"
  bottom: "layer_256_3_conv2"
  top: "layer_256_3_conv3"
  param {
    lr_mult: 1
    decay_mult: 1
  }
  convolution_param {
    num_output: 1024
    bias_term: false
    pad: 0
    kernel_size: 1
    stride: 1
    weight_filler {
      type: "msra"
    }
    bias_filler {
      type: "constant"
      value: 0
    }
  }
}
layer {
  name: "layer_256_3_sum"
  type: "Eltwise"
  bottom: "layer_256_3_conv3"
  bottom: "layer_256_2_sum"
  top: "layer_256_3_sum"
}
layer {
  name: "layer_256_4_bn1"
  type: "BatchNorm"
  bottom: "layer_256_3_sum"
  top: "layer_256_4_bn1"
}
layer {
  name: "layer_256_4_scale1"
  type: "Scale"
  bottom: "layer_256_4_bn1"
  top: "layer_256_4_bn1"
  param {
    lr_mult: 1
    decay_mult: 1
  }
  param {
    lr_mult: 2
    decay_mult: 1
  }
  scale_param {
    bias_term: true
  }
}
layer {
  name: "layer_256_4_relu1"
  type: "ReLU"
  bottom: "layer_256_4_bn1"
  top: "layer_256_4_bn1"
}
layer {
  name: "layer_256_4_conv1"
  type: "Convolution"
  bottom: "layer_256_4_bn1"
  top: "layer_256_4_conv1"
  param {
    lr_mult: 1
    decay_mult: 1
  }
  convolution_param {
    num_output: 256
    bias_term: false
    pad: 0
    kernel_size: 1
    stride: 1
    weight_filler {
      type: "msra"
    }
    bias_filler {
      type: "constant"
      value: 0
    }
  }
}
layer {
  name: "layer_256_4_bn2"
  type: "BatchNorm"
  
I0205 20:23:32.696498 14127 layer_factory.hpp:77] Creating layer data
I0205 20:23:32.696524 14127 net.cpp:100] Creating Layer data
I0205 20:23:32.696532 14127 net.cpp:408] data -> data
I0205 20:23:32.696544 14127 net.cpp:408] data -> label
I0205 20:23:32.696555 14127 image_data_layer.cpp:38] Opening file /media/yves/sandisk3/caffe-master/data/ilsvrc12/val.txt
I0205 20:23:32.705963 14127 image_data_layer.cpp:53] Shuffling data
I0205 20:23:32.709249 14127 image_data_layer.cpp:58] A total of 50000 images.
I0205 20:23:32.722712 14127 image_data_layer.cpp:85] output data size: 10,3,224,224
I0205 20:23:32.730247 14127 net.cpp:150] Setting up data
I0205 20:23:32.730271 14127 net.cpp:157] Top shape: 10 3 224 224 (1505280)
I0205 20:23:32.730276 14127 net.cpp:157] Top shape: 10 (10)
I0205 20:23:32.730279 14127 net.cpp:165] Memory required for data: 6021160
I0205 20:23:32.730286 14127 layer_factory.hpp:77] Creating layer label_data_1_split
I0205 20:23:32.730298 14127 net.cpp:100] Creating Layer label_data_1_split
I0205 20:23:32.730304 14127 net.cpp:434] label_data_1_split <- label
I0205 20:23:32.730312 14127 net.cpp:408] label_data_1_split -> label_data_1_split_0
I0205 20:23:32.730319 14127 net.cpp:408] label_data_1_split -> label_data_1_split_1
I0205 20:23:32.730324 14127 net.cpp:408] label_data_1_split -> label_data_1_split_2
I0205 20:23:32.730360 14127 net.cpp:150] Setting up label_data_1_split
I0205 20:23:32.730365 14127 net.cpp:157] Top shape: 10 (10)
I0205 20:23:32.730368 14127 net.cpp:157] Top shape: 10 (10)
I0205 20:23:32.730372 14127 net.cpp:157] Top shape: 10 (10)
I0205 20:23:32.730375 14127 net.cpp:165] Memory required for data: 6021280
I0205 20:23:32.730378 14127 layer_factory.hpp:77] Creating layer data_bn
I0205 20:23:32.730383 14127 net.cpp:100] Creating Layer data_bn
I0205 20:23:32.730387 14127 net.cpp:434] data_bn <- data
I0205 20:23:32.730391 14127 net.cpp:408] data_bn -> data_bn
I0205 20:23:32.730998 14127 net.cpp:150] Setting up data_bn
I0205 20:23:32.731010 14127 net.cpp:157] Top shape: 10 3 224 224 (1505280)
I0205 20:23:32.731014 14127 net.cpp:165] Memory required for data: 12042400
I0205 20:23:32.731029 14127 layer_factory.hpp:77] Creating layer data_scale
I0205 20:23:32.731039 14127 net.cpp:100] Creating Layer data_scale
I0205 20:23:32.731046 14127 net.cpp:434] data_scale <- data_bn
I0205 20:23:32.731057 14127 net.cpp:395] data_scale -> data_bn (in-place)
I0205 20:23:32.731088 14127 layer_factory.hpp:77] Creating layer data_scale
I0205 20:23:32.731171 14127 net.cpp:150] Setting up data_scale
I0205 20:23:32.731178 14127 net.cpp:157] Top shape: 10 3 224 224 (1505280)
I0205 20:23:32.731180 14127 net.cpp:165] Memory required for data: 18063520
I0205 20:23:32.731186 14127 layer_factory.hpp:77] Creating layer conv1
I0205 20:23:32.731196 14127 net.cpp:100] Creating Layer conv1
I0205 20:23:32.731199 14127 net.cpp:434] conv1 <- data_bn
I0205 20:23:32.731204 14127 net.cpp:408] conv1 -> conv1
I0205 20:23:32.879288 14127 net.cpp:150] Setting up conv1
I0205 20:23:32.879330 14127 net.cpp:157] Top shape: 10 64 112 112 (8028160)
I0205 20:23:32.879334 14127 net.cpp:165] Memory required for data: 50176160
I0205 20:23:32.879343 14127 layer_factory.hpp:77] Creating layer conv1_bn
I0205 20:23:32.879354 14127 net.cpp:100] Creating Layer conv1_bn
I0205 20:23:32.879357 14127 net.cpp:434] conv1_bn <- conv1
I0205 20:23:32.879362 14127 net.cpp:395] conv1_bn -> conv1 (in-place)
I0205 20:23:32.879492 14127 net.cpp:150] Setting up conv1_bn
I0205 20:23:32.879498 14127 net.cpp:157] Top shape: 10 64 112 112 (8028160)
I0205 20:23:32.879501 14127 net.cpp:165] Memory required for data: 82288800
I0205 20:23:32.879508 14127 layer_factory.hpp:77] Creating layer conv1_scale
I0205 20:23:32.879514 14127 net.cpp:100] Creating Layer conv1_scale
I0205 20:23:32.879518 14127 net.cpp:434] conv1_scale <- conv1
I0205 20:23:32.879521 14127 net.cpp:395] conv1_scale -> conv1 (in-place)
I0205 20:23:32.879546 14127 layer_factory.hpp:77] Creating layer conv1_scale
I0205 20:23:32.879616 14127 net.cpp:150] Setting up conv1_scale
I0205 20:23:32.879622 14127 net.cpp:157] Top shape: 10 64 112 112 (8028160)
I0205 20:23:32.879626 14127 net.cpp:165] Memory required for data: 114401440
I0205 20:23:32.879629 14127 layer_factory.hpp:77] Creating layer conv1_relu
I0205 20:23:32.879634 14127 net.cpp:100] Creating Layer conv1_relu
I0205 20:23:32.879637 14127 net.cpp:434] conv1_relu <- conv1
I0205 20:23:32.879642 14127 net.cpp:395] conv1_relu -> conv1 (in-place)
I0205 20:23:32.879746 14127 net.cpp:150] Setting up conv1_relu
I0205 20:23:32.879753 14127 net.cpp:157] Top shape: 10 64 112 112 (8028160)
I0205 20:23:32.879756 14127 net.cpp:165] Memory required for data: 146514080
I0205 20:23:32.879760 14127 layer_factory.hpp:77] Creating layer conv1_pool
I0205 20:23:32.879766 14127 net.cpp:100] Creating Layer conv1_pool
I0205 20:23:32.879776 14127 net.cpp:434] conv1_pool <- conv1
I0205 20:23:32.879779 14127 net.cpp:408] conv1_pool -> conv1_pool
I0205 20:23:32.879812 14127 net.cpp:150] Setting up conv1_pool
I0205 20:23:32.879818 14127 net.cpp:157] Top shape: 10 64 56 56 (2007040)
I0205 20:23:32.879822 14127 net.cpp:165] Memory required for data: 154542240
I0205 20:23:32.879824 14127 layer_factory.hpp:77] Creating layer layer_64_1_conv1
I0205 20:23:32.879832 14127 net.cpp:100] Creating Layer layer_64_1_conv1
I0205 20:23:32.879834 14127 net.cpp:434] layer_64_1_conv1 <- conv1_pool
I0205 20:23:32.879838 14127 net.cpp:408] layer_64_1_conv1 -> layer_64_1_conv1
I0205 20:23:32.880947 14127 net.cpp:150] Setting up layer_64_1_conv1
I0205 20:23:32.880959 14127 net.cpp:157] Top shape: 10 64 56 56 (2007040)
I0205 20:23:32.880962 14127 net.cpp:165] Memory required for data: 162570400
I0205 20:23:32.880967 14127 layer_factory.hpp:77] Creating layer layer_64_1_bn2
I0205 20:23:32.880972 14127 net.cpp:100] Creating Layer layer_64_1_bn2
I0205 20:23:32.880975 14127 net.cpp:434] layer_64_1_bn2 <- layer_64_1_conv1
I0205 20:23:32.880980 14127 net.cpp:395] layer_64_1_bn2 -> layer_64_1_conv1 (in-place)
I0205 20:23:32.881083 14127 net.cpp:150] Setting up layer_64_1_bn2
I0205 20:23:32.881088 14127 net.cpp:157] Top shape: 10 64 56 56 (2007040)
I0205 20:23:32.881091 14127 net.cpp:165] Memory required for data: 170598560
I0205 20:23:32.881096 14127 layer_factory.hpp:77] Creating layer layer_64_1_scale2
I0205 20:23:32.881101 14127 net.cpp:100] Creating Layer layer_64_1_scale2
I0205 20:23:32.881108 14127 net.cpp:434] layer_64_1_scale2 <- layer_64_1_conv1
I0205 20:23:32.881119 14127 net.cpp:395] layer_64_1_scale2 -> layer_64_1_conv1 (in-place)
I0205 20:23:32.881144 14127 layer_factory.hpp:77] Creating layer layer_64_1_scale2
I0205 20:23:32.881208 14127 net.cpp:150] Setting up layer_64_1_scale2
I0205 20:23:32.881214 14127 net.cpp:157] Top shape: 10 64 56 56 (2007040)
I0205 20:23:32.881217 14127 net.cpp:165] Memory required for data: 178626720
I0205 20:23:32.881223 14127 layer_factory.hpp:77] Creating layer layer_64_1_relu2
I0205 20:23:32.881227 14127 net.cpp:100] Creating Layer layer_64_1_relu2
I0205 20:23:32.881230 14127 net.cpp:434] layer_64_1_relu2 <- layer_64_1_conv1
I0205 20:23:32.881234 14127 net.cpp:395] layer_64_1_relu2 -> layer_64_1_conv1 (in-place)
I0205 20:23:32.881496 14127 net.cpp:150] Setting up layer_64_1_relu2
I0205 20:23:32.881506 14127 net.cpp:157] Top shape: 10 64 56 56 (2007040)
I0205 20:23:32.881510 14127 net.cpp:165] Memory required for data: 186654880
I0205 20:23:32.881512 14127 layer_factory.hpp:77] Creating layer layer_64_1_conv1_layer_64_1_relu2_0_split
I0205 20:23:32.881517 14127 net.cpp:100] Creating Layer layer_64_1_conv1_layer_64_1_relu2_0_split
I0205 20:23:32.881520 14127 net.cpp:434] layer_64_1_conv1_layer_64_1_relu2_0_split <- layer_64_1_conv1
I0205 20:23:32.881525 14127 net.cpp:408] layer_64_1_conv1_layer_64_1_relu2_0_split -> layer_64_1_conv1_layer_64_1_relu2_0_split_0
I0205 20:23:32.881530 14127 net.cpp:408] layer_64_1_conv1_layer_64_1_relu2_0_split -> layer_64_1_conv1_layer_64_1_relu2_0_split_1
I0205 20:23:32.881552 14127 net.cpp:150] Setting up layer_64_1_conv1_layer_64_1_relu2_0_split
I0205 20:23:32.881557 14127 net.cpp:157] Top shape: 10 64 56 56 (2007040)
I0205 20:23:32.881561 14127 net.cpp:157] Top shape: 10 64 56 56 (2007040)
I0205 20:23:32.881563 14127 net.cpp:165] Memory required for data: 202711200
I0205 20:23:32.881567 14127 layer_factory.hpp:77] Creating layer layer_64_1_conv2
I0205 20:23:32.881572 14127 net.cpp:100] Creating Layer layer_64_1_conv2
I0205 20:23:32.881575 14127 net.cpp:434] layer_64_1_conv2 <- layer_64_1_conv1_layer_64_1_relu2_0_split_0
I0205 20:23:32.881579 14127 net.cpp:408] layer_64_1_conv2 -> layer_64_1_conv2
I0205 20:23:32.882792 14127 net.cpp:150] Setting up layer_64_1_conv2
I0205 20:23:32.882802 14127 net.cpp:157] Top shape: 10 64 56 56 (2007040)
I0205 20:23:32.882805 14127 net.cpp:165] Memory required for data: 210739360
I0205 20:23:32.882809 14127 layer_factory.hpp:77] Creating layer layer_64_1_bn3
I0205 20:23:32.882814 14127 net.cpp:100] Creating Layer layer_64_1_bn3
I0205 20:23:32.882817 14127 net.cpp:434] layer_64_1_bn3 <- layer_64_1_conv2
I0205 20:23:32.882822 14127 net.cpp:395] layer_64_1_bn3 -> layer_64_1_conv2 (in-place)
I0205 20:23:32.882939 14127 net.cpp:150] Setting up layer_64_1_bn3
I0205 20:23:32.882946 14127 net.cpp:157] Top shape: 10 64 56 56 (2007040)
I0205 20:23:32.882948 14127 net.cpp:165] Memory required for data: 218767520
I0205 20:23:32.882953 14127 layer_factory.hpp:77] Creating layer layer_64_1_scale3
I0205 20:23:32.882961 14127 net.cpp:100] Creating Layer layer_64_1_scale3
I0205 20:23:32.882963 14127 net.cpp:434] layer_64_1_scale3 <- layer_64_1_conv2
I0205 20:23:32.882967 14127 net.cpp:395] layer_64_1_scale3 -> layer_64_1_conv2 (in-place)
I0205 20:23:32.882992 14127 layer_factory.hpp:77] Creating layer layer_64_1_scale3
I0205 20:23:32.883059 14127 net.cpp:150] Setting up layer_64_1_scale3
I0205 20:23:32.883064 14127 net.cpp:157] Top shape: 10 64 56 56 (2007040)
I0205 20:23:32.883067 14127 net.cpp:165] Memory required for data: 226795680
I0205 20:23:32.883071 14127 layer_factory.hpp:77] Creating layer layer_64_1_relu3
I0205 20:23:32.883076 14127 net.cpp:100] Creating Layer layer_64_1_relu3
I0205 20:23:32.883080 14127 net.cpp:434] layer_64_1_relu3 <- layer_64_1_conv2
I0205 20:23:32.883082 14127 net.cpp:395] layer_64_1_relu3 -> layer_64_1_conv2 (in-place)
I0205 20:23:32.883349 14127 net.cpp:150] Setting up layer_64_1_relu3
I0205 20:23:32.883358 14127 net.cpp:157] Top shape: 10 64 56 56 (2007040)
I0205 20:23:32.883364 14127 net.cpp:165] Memory required for data: 234823840
I0205 20:23:32.883371 14127 layer_factory.hpp:77] Creating layer layer_64_1_conv3
I0205 20:23:32.883378 14127 net.cpp:100] Creating Layer layer_64_1_conv3
I0205 20:23:32.883383 14127 net.cpp:434] layer_64_1_conv3 <- layer_64_1_conv2
I0205 20:23:32.883391 14127 net.cpp:408] layer_64_1_conv3 -> layer_64_1_conv3
I0205 20:23:32.884289 14127 net.cpp:150] Setting up layer_64_1_conv3
I0205 20:23:32.884299 14127 net.cpp:157] Top shape: 10 256 56 56 (8028160)
I0205 20:23:32.884304 14127 net.cpp:165] Memory required for data: 266936480
I0205 20:23:32.884307 14127 layer_factory.hpp:77] Creating layer layer_64_1_conv_expand
I0205 20:23:32.884315 14127 net.cpp:100] Creating Layer layer_64_1_conv_expand
I0205 20:23:32.884318 14127 net.cpp:434] layer_64_1_conv_expand <- layer_64_1_conv1_layer_64_1_relu2_0_split_1
I0205 20:23:32.884323 14127 net.cpp:408] layer_64_1_conv_expand -> layer_64_1_conv_expand
I0205 20:23:32.885040 14127 net.cpp:150] Setting up layer_64_1_conv_expand
I0205 20:23:32.885048 14127 net.cpp:157] Top shape: 10 256 56 56 (8028160)
I0205 20:23:32.885052 14127 net.cpp:165] Memory required for data: 299049120
I0205 20:23:32.885056 14127 layer_factory.hpp:77] Creating layer layer_64_1_sum
I0205 20:23:32.885061 14127 net.cpp:100] Creating Layer layer_64_1_sum
I0205 20:23:32.885064 14127 net.cpp:434] layer_64_1_sum <- layer_64_1_conv3
I0205 20:23:32.885068 14127 net.cpp:434] layer_64_1_sum <- layer_64_1_conv_expand
I0205 20:23:32.885072 14127 net.cpp:408] layer_64_1_sum -> layer_64_1_sum
I0205 20:23:32.885089 14127 net.cpp:150] Setting up layer_64_1_sum
I0205 20:23:32.885093 14127 net.cpp:157] Top shape: 10 256 56 56 (8028160)
I0205 20:23:32.885097 14127 net.cpp:165] Memory required for data: 331161760
I0205 20:23:32.885098 14127 layer_factory.hpp:77] Creating layer layer_64_1_sum_layer_64_1_sum_0_split
I0205 20:23:32.885102 14127 net.cpp:100] Creating Layer layer_64_1_sum_layer_64_1_sum_0_split
I0205 20:23:32.885105 14127 net.cpp:434] layer_64_1_sum_layer_64_1_sum_0_split <- layer_64_1_sum
I0205 20:23:32.885109 14127 net.cpp:408] layer_64_1_sum_layer_64_1_sum_0_split -> layer_64_1_sum_layer_64_1_sum_0_split_0
I0205 20:23:32.885114 14127 net.cpp:408] layer_64_1_sum_layer_64_1_sum_0_split -> layer_64_1_sum_layer_64_1_sum_0_split_1
I0205 20:23:32.885135 14127 net.cpp:150] Setting up layer_64_1_sum_layer_64_1_sum_0_split
I0205 20:23:32.885140 14127 net.cpp:157] Top shape: 10 256 56 56 (8028160)
I0205 20:23:32.885145 14127 net.cpp:157] Top shape: 10 256 56 56 (8028160)
I0205 20:23:32.885149 14127 net.cpp:165] Memory required for data: 395387040
I0205 20:23:32.885151 14127 layer_factory.hpp:77] Creating layer layer_64_2_bn1
I0205 20:23:32.885155 14127 net.cpp:100] Creating Layer layer_64_2_bn1
I0205 20:23:32.885157 14127 net.cpp:434] layer_64_2_bn1 <- layer_64_1_sum_layer_64_1_sum_0_split_0
I0205 20:23:32.885162 14127 net.cpp:408] layer_64_2_bn1 -> layer_64_2_bn1
I0205 20:23:32.885277 14127 net.cpp:150] Setting up layer_64_2_bn1
I0205 20:23:32.885282 14127 net.cpp:157] Top shape: 10 256 56 56 (8028160)
I0205 20:23:32.885284 14127 net.cpp:165] Memory required for data: 427499680
I0205 20:23:32.885289 14127 layer_factory.hpp:77] Creating layer layer_64_2_scale1
I0205 20:23:32.885294 14127 net.cpp:100] Creating Layer layer_64_2_scale1
I0205 20:23:32.885298 14127 net.cpp:434] layer_64_2_scale1 <- layer_64_2_bn1
I0205 20:23:32.885300 14127 net.cpp:395] layer_64_2_scale1 -> layer_64_2_bn1 (in-place)
I0205 20:23:32.885325 14127 layer_factory.hpp:77] Creating layer layer_64_2_scale1
I0205 20:23:32.885396 14127 net.cpp:150] Setting up layer_64_2_scale1
I0205 20:23:32.885402 14127 net.cpp:157] Top shape: 10 256 56 56 (8028160)
I0205 20:23:32.885404 14127 net.cpp:165] Memory required for data: 459612320
I0205 20:23:32.885409 14127 layer_factory.hpp:77] Creating layer layer_64_2_relu1
I0205 20:23:32.885414 14127 net.cpp:100] Creating Layer layer_64_2_relu1
I0205 20:23:32.885416 14127 net.cpp:434] layer_64_2_relu1 <- layer_64_2_bn1
I0205 20:23:32.885422 14127 net.cpp:395] layer_64_2_relu1 -> layer_64_2_bn1 (in-place)
I0205 20:23:32.885697 14127 net.cpp:150] Setting up layer_64_2_relu1
I0205 20:23:32.885706 14127 net.cpp:157] Top shape: 10 256 56 56 (8028160)
I0205 20:23:32.885710 14127 net.cpp:165] Memory required for data: 491724960
I0205 20:23:32.885712 14127 layer_factory.hpp:77] Creating layer layer_64_2_conv1
I0205 20:23:32.885720 14127 net.cpp:100] Creating Layer layer_64_2_conv1
I0205 20:23:32.885723 14127 net.cpp:434] layer_64_2_conv1 <- layer_64_2_bn1
I0205 20:23:32.885728 14127 net.cpp:408] layer_64_2_conv1 -> layer_64_2_conv1
I0205 20:23:32.886621 14127 net.cpp:150] Setting up layer_64_2_conv1
I0205 20:23:32.886631 14127 net.cpp:157] Top shape: 10 64 56 56 (2007040)
I0205 20:23:32.886634 14127 net.cpp:165] Memory required for data: 499753120
I0205 20:23:32.886638 14127 layer_factory.hpp:77] Creating layer layer_64_2_bn2
I0205 20:23:32.886644 14127 net.cpp:100] Creating Layer layer_64_2_bn2
I0205 20:23:32.886647 14127 net.cpp:434] layer_64_2_bn2 <- layer_64_2_conv1
I0205 20:23:32.886651 14127 net.cpp:395] layer_64_2_bn2 -> layer_64_2_conv1 (in-place)
I0205 20:23:32.886768 14127 net.cpp:150] Setting up layer_64_2_bn2
I0205 20:23:32.886773 14127 net.cpp:157] Top shape: 10 64 56 56 (2007040)
I0205 20:23:32.886776 14127 net.cpp:165] Memory required for data: 507781280
I0205 20:23:32.886785 14127 layer_factory.hpp:77] Creating layer layer_64_2_scale2
I0205 20:23:32.886790 14127 net.cpp:100] Creating Layer layer_64_2_scale2
I0205 20:23:32.886792 14127 net.cpp:434] layer_64_2_scale2 <- layer_64_2_conv1
I0205 20:23:32.886796 14127 net.cpp:395] layer_64_2_scale2 -> layer_64_2_conv1 (in-place)
I0205 20:23:32.886823 14127 layer_factory.hpp:77] Creating layer layer_64_2_scale2
I0205 20:23:32.886899 14127 net.cpp:150] Setting up layer_64_2_scale2
I0205 20:23:32.886905 14127 net.cpp:157] Top shape: 10 64 56 56 (2007040)
I0205 20:23:32.886909 14127 net.cpp:165] Memory required for data: 515809440
I0205 20:23:32.886914 14127 layer_factory.hpp:77] Creating layer layer_64_2_relu2
I0205 20:23:32.886919 14127 net.cpp:100] Creating Layer layer_64_2_relu2
I0205 20:23:32.886921 14127 net.cpp:434] layer_64_2_relu2 <- layer_64_2_conv1
I0205 20:23:32.886924 14127 net.cpp:395] layer_64_2_relu2 -> layer_64_2_conv1 (in-place)
I0205 20:23:32.887032 14127 net.cpp:150] Setting up layer_64_2_relu2
I0205 20:23:32.887038 14127 net.cpp:157] Top shape: 10 64 56 56 (2007040)
I0205 20:23:32.887042 14127 net.cpp:165] Memory required for data: 523837600
I0205 20:23:32.887044 14127 layer_factory.hpp:77] Creating layer layer_64_2_conv2
I0205 20:23:32.887051 14127 net.cpp:100] Creating Layer layer_64_2_conv2
I0205 20:23:32.887054 14127 net.cpp:434] layer_64_2_conv2 <- layer_64_2_conv1
I0205 20:23:32.887058 14127 net.cpp:408] layer_64_2_conv2 -> layer_64_2_conv2
I0205 20:23:32.888319 14127 net.cpp:150] Setting up layer_64_2_conv2
I0205 20:23:32.888330 14127 net.cpp:157] Top shape: 10 64 56 56 (2007040)
I0205 20:23:32.888334 14127 net.cpp:165] Memory required for data: 531865760
I0205 20:23:32.888337 14127 layer_factory.hpp:77] Creating layer layer_64_2_bn3
I0205 20:23:32.888342 14127 net.cpp:100] Creating Layer layer_64_2_bn3
I0205 20:23:32.888345 14127 net.cpp:434] layer_64_2_bn3 <- layer_64_2_conv2
I0205 20:23:32.888350 14127 net.cpp:395] layer_64_2_bn3 -> layer_64_2_conv2 (in-place)
I0205 20:23:32.888468 14127 net.cpp:150] Setting up layer_64_2_bn3
I0205 20:23:32.888473 14127 net.cpp:157] Top shape: 10 64 56 56 (2007040)
I0205 20:23:32.888476 14127 net.cpp:165] Memory required for data: 539893920
I0205 20:23:32.888481 14127 layer_factory.hpp:77] Creating layer layer_64_2_scale3
I0205 20:23:32.888486 14127 net.cpp:100] Creating Layer layer_64_2_scale3
I0205 20:23:32.888489 14127 net.cpp:434] layer_64_2_scale3 <- layer_64_2_conv2
I0205 20:23:32.888494 14127 net.cpp:395] layer_64_2_scale3 -> layer_64_2_conv2 (in-place)
I0205 20:23:32.888519 14127 layer_factory.hpp:77] Creating layer layer_64_2_scale3
I0205 20:23:32.888591 14127 net.cpp:150] Setting up layer_64_2_scale3
I0205 20:23:32.888597 14127 net.cpp:157] Top shape: 10 64 56 56 (2007040)
I0205 20:23:32.888605 14127 net.cpp:165] Memory required for data: 547922080
I0205 20:23:32.888609 14127 layer_factory.hpp:77] Creating layer layer_64_2_relu3
I0205 20:23:32.888617 14127 net.cpp:100] Creating Layer layer_64_2_relu3
I0205 20:23:32.888619 14127 net.cpp:434] layer_64_2_relu3 <- layer_64_2_conv2
I0205 20:23:32.888623 14127 net.cpp:395] layer_64_2_relu3 -> layer_64_2_conv2 (in-place)
I0205 20:23:32.888732 14127 net.cpp:150] Setting up layer_64_2_relu3
I0205 20:23:32.888739 14127 net.cpp:157] Top shape: 10 64 56 56 (2007040)
I0205 20:23:32.888742 14127 net.cpp:165] Memory required for data: 555950240
I0205 20:23:32.888744 14127 layer_factory.hpp:77] Creating layer layer_64_2_conv3
I0205 20:23:32.888752 14127 net.cpp:100] Creating Layer layer_64_2_conv3
I0205 20:23:32.888756 14127 net.cpp:434] layer_64_2_conv3 <- layer_64_2_conv2
I0205 20:23:32.888759 14127 net.cpp:408] layer_64_2_conv3 -> layer_64_2_conv3
I0205 20:23:32.889660 14127 net.cpp:150] Setting up layer_64_2_conv3
I0205 20:23:32.889670 14127 net.cpp:157] Top shape: 10 256 56 56 (8028160)
I0205 20:23:32.889674 14127 net.cpp:165] Memory required for data: 588062880
I0205 20:23:32.889678 14127 layer_factory.hpp:77] Creating layer layer_64_2_sum
I0205 20:23:32.889683 14127 net.cpp:100] Creating Layer layer_64_2_sum
I0205 20:23:32.889686 14127 net.cpp:434] layer_64_2_sum <- layer_64_2_conv3
I0205 20:23:32.889690 14127 net.cpp:434] layer_64_2_sum <- layer_64_1_sum_layer_64_1_sum_0_split_1
I0205 20:23:32.889694 14127 net.cpp:408] layer_64_2_sum -> layer_64_2_sum
I0205 20:23:32.889711 14127 net.cpp:150] Setting up layer_64_2_sum
I0205 20:23:32.889716 14127 net.cpp:157] Top shape: 10 256 56 56 (8028160)
I0205 20:23:32.889719 14127 net.cpp:165] Memory required for data: 620175520
I0205 20:23:32.889722 14127 layer_factory.hpp:77] Creating layer layer_64_2_sum_layer_64_2_sum_0_split
I0205 20:23:32.889726 14127 net.cpp:100] Creating Layer layer_64_2_sum_layer_64_2_sum_0_split
I0205 20:23:32.889729 14127 net.cpp:434] layer_64_2_sum_layer_64_2_sum_0_split <- layer_64_2_sum
I0205 20:23:32.889734 14127 net.cpp:408] layer_64_2_sum_layer_64_2_sum_0_split -> layer_64_2_sum_layer_64_2_sum_0_split_0
I0205 20:23:32.889739 14127 net.cpp:408] layer_64_2_sum_layer_64_2_sum_0_split -> layer_64_2_sum_layer_64_2_sum_0_split_1
I0205 20:23:32.889760 14127 net.cpp:150] Setting up layer_64_2_sum_layer_64_2_sum_0_split
I0205 20:23:32.889765 14127 net.cpp:157] Top shape: 10 256 56 56 (8028160)
I0205 20:23:32.889770 14127 net.cpp:157] Top shape: 10 256 56 56 (8028160)
I0205 20:23:32.889771 14127 net.cpp:165] Memory required for data: 684400800
I0205 20:23:32.889775 14127 layer_factory.hpp:77] Creating layer layer_64_3_bn1
I0205 20:23:32.889778 14127 net.cpp:100] Creating Layer layer_64_3_bn1
I0205 20:23:32.889780 14127 net.cpp:434] layer_64_3_bn1 <- layer_64_2_sum_layer_64_2_sum_0_split_0
I0205 20:23:32.889785 14127 net.cpp:408] layer_64_3_bn1 -> layer_64_3_bn1
I0205 20:23:32.889901 14127 net.cpp:150] Setting up layer_64_3_bn1
I0205 20:23:32.889906 14127 net.cpp:157] Top shape: 10 256 56 56 (8028160)
I0205 20:23:32.889909 14127 net.cpp:165] Memory required for data: 716513440
I0205 20:23:32.889914 14127 layer_factory.hpp:77] Creating layer layer_64_3_scale1
I0205 20:23:32.889920 14127 net.cpp:100] Creating Layer layer_64_3_scale1
I0205 20:23:32.889924 14127 net.cpp:434] layer_64_3_scale1 <- layer_64_3_bn1
I0205 20:23:32.889927 14127 net.cpp:395] layer_64_3_scale1 -> layer_64_3_bn1 (in-place)
I0205 20:23:32.889953 14127 layer_factory.hpp:77] Creating layer layer_64_3_scale1
I0205 20:23:32.890022 14127 net.cpp:150] Setting up layer_64_3_scale1
I0205 20:23:32.890027 14127 net.cpp:157] Top shape: 10 256 56 56 (8028160)
I0205 20:23:32.890030 14127 net.cpp:165] Memory required for data: 748626080
I0205 20:23:32.890034 14127 layer_factory.hpp:77] Creating layer layer_64_3_relu1
I0205 20:23:32.890038 14127 net.cpp:100] Creating Layer layer_64_3_relu1
I0205 20:23:32.890041 14127 net.cpp:434] layer_64_3_relu1 <- layer_64_3_bn1
I0205 20:23:32.890045 14127 net.cpp:395] layer_64_3_relu1 -> layer_64_3_bn1 (in-place)
I0205 20:23:32.890162 14127 net.cpp:150] Setting up layer_64_3_relu1
I0205 20:23:32.890171 14127 net.cpp:157] Top shape: 10 256 56 56 (8028160)
I0205 20:23:32.890173 14127 net.cpp:165] Memory required for data: 780738720
I0205 20:23:32.890177 14127 layer_factory.hpp:77] Creating layer layer_64_3_conv1
I0205 20:23:32.890184 14127 net.cpp:100] Creating Layer layer_64_3_conv1
I0205 20:23:32.890187 14127 net.cpp:434] layer_64_3_conv1 <- layer_64_3_bn1
I0205 20:23:32.890192 14127 net.cpp:408] layer_64_3_conv1 -> layer_64_3_conv1
I0205 20:23:32.891114 14127 net.cpp:150] Setting up layer_64_3_conv1
I0205 20:23:32.891126 14127 net.cpp:157] Top shape: 10 64 56 56 (2007040)
I0205 20:23:32.891130 14127 net.cpp:165] Memory required for data: 788766880
I0205 20:23:32.891135 14127 layer_factory.hpp:77] Creating layer layer_64_3_bn2
I0205 20:23:32.891141 14127 net.cpp:100] Creating Layer layer_64_3_bn2
I0205 20:23:32.891146 14127 net.cpp:434] layer_64_3_bn2 <- layer_64_3_conv1
I0205 20:23:32.891149 14127 net.cpp:395] layer_64_3_bn2 -> layer_64_3_conv1 (in-place)
I0205 20:23:32.891273 14127 net.cpp:150] Setting up layer_64_3_bn2
I0205 20:23:32.891280 14127 net.cpp:157] Top shape: 10 64 56 56 (2007040)
I0205 20:23:32.891283 14127 net.cpp:165] Memory required for data: 796795040
I0205 20:23:32.891288 14127 layer_factory.hpp:77] Creating layer layer_64_3_scale2
I0205 20:23:32.891294 14127 net.cpp:100] Creating Layer layer_64_3_scale2
I0205 20:23:32.891296 14127 net.cpp:434] layer_64_3_scale2 <- layer_64_3_conv1
I0205 20:23:32.891300 14127 net.cpp:395] layer_64_3_scale2 -> layer_64_3_conv1 (in-place)
I0205 20:23:32.891327 14127 layer_factory.hpp:77] Creating layer layer_64_3_scale2
I0205 20:23:32.891400 14127 net.cpp:150] Setting up layer_64_3_scale2
I0205 20:23:32.891405 14127 net.cpp:157] Top shape: 10 64 56 56 (2007040)
I0205 20:23:32.891408 14127 net.cpp:165] Memory required for data: 804823200
I0205 20:23:32.891413 14127 layer_factory.hpp:77] Creating layer layer_64_3_relu2
I0205 20:23:32.891418 14127 net.cpp:100] Creating Layer layer_64_3_relu2
I0205 20:23:32.891422 14127 net.cpp:434] layer_64_3_relu2 <- layer_64_3_conv1
I0205 20:23:32.891425 14127 net.cpp:395] layer_64_3_relu2 -> layer_64_3_conv1 (in-place)
I0205 20:23:32.891541 14127 net.cpp:150] Setting up layer_64_3_relu2
I0205 20:23:32.891547 14127 net.cpp:157] Top shape: 10 64 56 56 (2007040)
I0205 20:23:32.891551 14127 net.cpp:165] Memory required for data: 812851360
I0205 20:23:32.891553 14127 layer_factory.hpp:77] Creating layer layer_64_3_conv2
I0205 20:23:32.891559 14127 net.cpp:100] Creating Layer layer_64_3_conv2
I0205 20:23:32.891563 14127 net.cpp:434] layer_64_3_conv2 <- layer_64_3_conv1
I0205 20:23:32.891567 14127 net.cpp:408] layer_64_3_conv2 -> layer_64_3_conv2
I0205 20:23:32.893169 14127 net.cpp:150] Setting up layer_64_3_conv2
I0205 20:23:32.893185 14127 net.cpp:157] Top shape: 10 64 56 56 (2007040)
I0205 20:23:32.893189 14127 net.cpp:165] Memory required for data: 820879520
I0205 20:23:32.893194 14127 layer_factory.hpp:77] Creating layer layer_64_3_bn3
I0205 20:23:32.893200 14127 net.cpp:100] Creating Layer layer_64_3_bn3
I0205 20:23:32.893203 14127 net.cpp:434] layer_64_3_bn3 <- layer_64_3_conv2
I0205 20:23:32.893208 14127 net.cpp:395] layer_64_3_bn3 -> layer_64_3_conv2 (in-place)
I0205 20:23:32.893337 14127 net.cpp:150] Setting up layer_64_3_bn3
I0205 20:23:32.893343 14127 net.cpp:157] Top shape: 10 64 56 56 (2007040)
I0205 20:23:32.893345 14127 net.cpp:165] Memory required for data: 828907680
I0205 20:23:32.893352 14127 layer_factory.hpp:77] Creating layer layer_64_3_scale3
I0205 20:23:32.893357 14127 net.cpp:100] Creating Layer layer_64_3_scale3
I0205 20:23:32.893359 14127 net.cpp:434] layer_64_3_scale3 <- layer_64_3_conv2
I0205 20:23:32.893363 14127 net.cpp:395] layer_64_3_scale3 -> layer_64_3_conv2 (in-place)
I0205 20:23:32.893389 14127 layer_factory.hpp:77] Creating layer layer_64_3_scale3
I0205 20:23:32.893465 14127 net.cpp:150] Setting up layer_64_3_scale3
I0205 20:23:32.893471 14127 net.cpp:157] Top shape: 10 64 56 56 (2007040)
I0205 20:23:32.893477 14127 net.cpp:165] Memory required for data: 836935840
I0205 20:23:32.893486 14127 layer_factory.hpp:77] Creating layer layer_64_3_relu3
I0205 20:23:32.893491 14127 net.cpp:100] Creating Layer layer_64_3_relu3
I0205 20:23:32.893494 14127 net.cpp:434] layer_64_3_relu3 <- layer_64_3_conv2
I0205 20:23:32.893498 14127 net.cpp:395] layer_64_3_relu3 -> layer_64_3_conv2 (in-place)
I0205 20:23:32.893776 14127 net.cpp:150] Setting up layer_64_3_relu3
I0205 20:23:32.893786 14127 net.cpp:157] Top shape: 10 64 56 56 (2007040)
I0205 20:23:32.893790 14127 net.cpp:165] Memory required for data: 844964000
I0205 20:23:32.893792 14127 layer_factory.hpp:77] Creating layer layer_64_3_conv3
I0205 20:23:32.893800 14127 net.cpp:100] Creating Layer layer_64_3_conv3
I0205 20:23:32.893803 14127 net.cpp:434] layer_64_3_conv3 <- layer_64_3_conv2
I0205 20:23:32.893810 14127 net.cpp:408] layer_64_3_conv3 -> layer_64_3_conv3
I0205 20:23:32.894551 14127 net.cpp:150] Setting up layer_64_3_conv3
I0205 20:23:32.894559 14127 net.cpp:157] Top shape: 10 256 56 56 (8028160)
I0205 20:23:32.894563 14127 net.cpp:165] Memory required for data: 877076640
I0205 20:23:32.894567 14127 layer_factory.hpp:77] Creating layer layer_64_3_sum
I0205 20:23:32.894573 14127 net.cpp:100] Creating Layer layer_64_3_sum
I0205 20:23:32.894577 14127 net.cpp:434] layer_64_3_sum <- layer_64_3_conv3
I0205 20:23:32.894580 14127 net.cpp:434] layer_64_3_sum <- layer_64_2_sum_layer_64_2_sum_0_split_1
I0205 20:23:32.894584 14127 net.cpp:408] layer_64_3_sum -> layer_64_3_sum
I0205 20:23:32.894600 14127 net.cpp:150] Setting up layer_64_3_sum
I0205 20:23:32.894605 14127 net.cpp:157] Top shape: 10 256 56 56 (8028160)
I0205 20:23:32.894608 14127 net.cpp:165] Memory required for data: 909189280
I0205 20:23:32.894610 14127 layer_factory.hpp:77] Creating layer layer_128_1_bn1
I0205 20:23:32.894615 14127 net.cpp:100] Creating Layer layer_128_1_bn1
I0205 20:23:32.894618 14127 net.cpp:434] layer_128_1_bn1 <- layer_64_3_sum
I0205 20:23:32.894623 14127 net.cpp:408] layer_128_1_bn1 -> layer_128_1_bn1
I0205 20:23:32.894747 14127 net.cpp:150] Setting up layer_128_1_bn1
I0205 20:23:32.894752 14127 net.cpp:157] Top shape: 10 256 56 56 (8028160)
I0205 20:23:32.894754 14127 net.cpp:165] Memory required for data: 941301920
I0205 20:23:32.894767 14127 layer_factory.hpp:77] Creating layer layer_128_1_scale1
I0205 20:23:32.894773 14127 net.cpp:100] Creating Layer layer_128_1_scale1
I0205 20:23:32.894776 14127 net.cpp:434] layer_128_1_scale1 <- layer_128_1_bn1
I0205 20:23:32.894780 14127 net.cpp:395] layer_128_1_scale1 -> layer_128_1_bn1 (in-place)
I0205 20:23:32.894809 14127 layer_factory.hpp:77] Creating layer layer_128_1_scale1
I0205 20:23:32.894878 14127 net.cpp:150] Setting up layer_128_1_scale1
I0205 20:23:32.894884 14127 net.cpp:157] Top shape: 10 256 56 56 (8028160)
I0205 20:23:32.894887 14127 net.cpp:165] Memory required for data: 973414560
I0205 20:23:32.894891 14127 layer_factory.hpp:77] Creating layer layer_128_1_relu1
I0205 20:23:32.894896 14127 net.cpp:100] Creating Layer layer_128_1_relu1
I0205 20:23:32.894898 14127 net.cpp:434] layer_128_1_relu1 <- layer_128_1_bn1
I0205 20:23:32.894902 14127 net.cpp:395] layer_128_1_relu1 -> layer_128_1_bn1 (in-place)
I0205 20:23:32.895177 14127 net.cpp:150] Setting up layer_128_1_relu1
I0205 20:23:32.895187 14127 net.cpp:157] Top shape: 10 256 56 56 (8028160)
I0205 20:23:32.895190 14127 net.cpp:165] Memory required for data: 1005527200
I0205 20:23:32.895193 14127 layer_factory.hpp:77] Creating layer layer_128_1_bn1_layer_128_1_relu1_0_split
I0205 20:23:32.895198 14127 net.cpp:100] Creating Layer layer_128_1_bn1_layer_128_1_relu1_0_split
I0205 20:23:32.895201 14127 net.cpp:434] layer_128_1_bn1_layer_128_1_relu1_0_split <- layer_128_1_bn1
I0205 20:23:32.895205 14127 net.cpp:408] layer_128_1_bn1_layer_128_1_relu1_0_split -> layer_128_1_bn1_layer_128_1_relu1_0_split_0
I0205 20:23:32.895210 14127 net.cpp:408] layer_128_1_bn1_layer_128_1_relu1_0_split -> layer_128_1_bn1_layer_128_1_relu1_0_split_1
I0205 20:23:32.895239 14127 net.cpp:150] Setting up layer_128_1_bn1_layer_128_1_relu1_0_split
I0205 20:23:32.895251 14127 net.cpp:157] Top shape: 10 256 56 56 (8028160)
I0205 20:23:32.895256 14127 net.cpp:157] Top shape: 10 256 56 56 (8028160)
I0205 20:23:32.895257 14127 net.cpp:165] Memory required for data: 1069752480
I0205 20:23:32.895261 14127 layer_factory.hpp:77] Creating layer layer_128_1_conv1
I0205 20:23:32.895267 14127 net.cpp:100] Creating Layer layer_128_1_conv1
I0205 20:23:32.895270 14127 net.cpp:434] layer_128_1_conv1 <- layer_128_1_bn1_layer_128_1_relu1_0_split_0
I0205 20:23:32.895275 14127 net.cpp:408] layer_128_1_conv1 -> layer_128_1_conv1
I0205 20:23:32.896484 14127 net.cpp:150] Setting up layer_128_1_conv1
I0205 20:23:32.896495 14127 net.cpp:157] Top shape: 10 128 56 56 (4014080)
I0205 20:23:32.896499 14127 net.cpp:165] Memory required for data: 1085808800
I0205 20:23:32.896503 14127 layer_factory.hpp:77] Creating layer layer_128_1_bn2
I0205 20:23:32.896508 14127 net.cpp:100] Creating Layer layer_128_1_bn2
I0205 20:23:32.896512 14127 net.cpp:434] layer_128_1_bn2 <- layer_128_1_conv1
I0205 20:23:32.896515 14127 net.cpp:395] layer_128_1_bn2 -> layer_128_1_conv1 (in-place)
I0205 20:23:32.896636 14127 net.cpp:150] Setting up layer_128_1_bn2
I0205 20:23:32.896641 14127 net.cpp:157] Top shape: 10 128 56 56 (4014080)
I0205 20:23:32.896643 14127 net.cpp:165] Memory required for data: 1101865120
I0205 20:23:32.896648 14127 layer_factory.hpp:77] Creating layer layer_128_1_scale2
I0205 20:23:32.896653 14127 net.cpp:100] Creating Layer layer_128_1_scale2
I0205 20:23:32.896656 14127 net.cpp:434] layer_128_1_scale2 <- layer_128_1_conv1
I0205 20:23:32.896661 14127 net.cpp:395] layer_128_1_scale2 -> layer_128_1_conv1 (in-place)
I0205 20:23:32.896685 14127 layer_factory.hpp:77] Creating layer layer_128_1_scale2
I0205 20:23:32.896754 14127 net.cpp:150] Setting up layer_128_1_scale2
I0205 20:23:32.896759 14127 net.cpp:157] Top shape: 10 128 56 56 (4014080)
I0205 20:23:32.896762 14127 net.cpp:165] Memory required for data: 1117921440
I0205 20:23:32.896766 14127 layer_factory.hpp:77] Creating layer layer_128_1_relu2
I0205 20:23:32.896770 14127 net.cpp:100] Creating Layer layer_128_1_relu2
I0205 20:23:32.896775 14127 net.cpp:434] layer_128_1_relu2 <- layer_128_1_conv1
I0205 20:23:32.896777 14127 net.cpp:395] layer_128_1_relu2 -> layer_128_1_conv1 (in-place)
I0205 20:23:32.896891 14127 net.cpp:150] Setting up layer_128_1_relu2
I0205 20:23:32.896898 14127 net.cpp:157] Top shape: 10 128 56 56 (4014080)
I0205 20:23:32.896901 14127 net.cpp:165] Memory required for data: 1133977760
I0205 20:23:32.896904 14127 layer_factory.hpp:77] Creating layer layer_128_1_conv2
I0205 20:23:32.896911 14127 net.cpp:100] Creating Layer layer_128_1_conv2
I0205 20:23:32.896914 14127 net.cpp:434] layer_128_1_conv2 <- layer_128_1_conv1
I0205 20:23:32.896919 14127 net.cpp:408] layer_128_1_conv2 -> layer_128_1_conv2
I0205 20:23:32.900929 14127 net.cpp:150] Setting up layer_128_1_conv2
I0205 20:23:32.900943 14127 net.cpp:157] Top shape: 10 128 28 28 (1003520)
I0205 20:23:32.900948 14127 net.cpp:165] Memory required for data: 1137991840
I0205 20:23:32.900951 14127 layer_factory.hpp:77] Creating layer layer_128_1_bn3
I0205 20:23:32.900956 14127 net.cpp:100] Creating Layer layer_128_1_bn3
I0205 20:23:32.900960 14127 net.cpp:434] layer_128_1_bn3 <- layer_128_1_conv2
I0205 20:23:32.900964 14127 net.cpp:395] layer_128_1_bn3 -> layer_128_1_conv2 (in-place)
I0205 20:23:32.901523 14127 net.cpp:150] Setting up layer_128_1_bn3
I0205 20:23:32.901535 14127 net.cpp:157] Top shape: 10 128 28 28 (1003520)
I0205 20:23:32.901537 14127 net.cpp:165] Memory required for data: 1142005920
I0205 20:23:32.901543 14127 layer_factory.hpp:77] Creating layer layer_128_1_scale3
I0205 20:23:32.901551 14127 net.cpp:100] Creating Layer layer_128_1_scale3
I0205 20:23:32.901553 14127 net.cpp:434] layer_128_1_scale3 <- layer_128_1_conv2
I0205 20:23:32.901557 14127 net.cpp:395] layer_128_1_scale3 -> layer_128_1_conv2 (in-place)
I0205 20:23:32.901587 14127 layer_factory.hpp:77] Creating layer layer_128_1_scale3
I0205 20:23:32.901664 14127 net.cpp:150] Setting up layer_128_1_scale3
I0205 20:23:32.901674 14127 net.cpp:157] Top shape: 10 128 28 28 (1003520)
I0205 20:23:32.901677 14127 net.cpp:165] Memory required for data: 1146020000
I0205 20:23:32.901682 14127 layer_factory.hpp:77] Creating layer layer_128_1_relu3
I0205 20:23:32.901687 14127 net.cpp:100] Creating Layer layer_128_1_relu3
I0205 20:23:32.901690 14127 net.cpp:434] layer_128_1_relu3 <- layer_128_1_conv2
I0205 20:23:32.901693 14127 net.cpp:395] layer_128_1_relu3 -> layer_128_1_conv2 (in-place)
I0205 20:23:32.901813 14127 net.cpp:150] Setting up layer_128_1_relu3
I0205 20:23:32.901819 14127 net.cpp:157] Top shape: 10 128 28 28 (1003520)
I0205 20:23:32.901823 14127 net.cpp:165] Memory required for data: 1150034080
I0205 20:23:32.901825 14127 layer_factory.hpp:77] Creating layer layer_128_1_conv3
I0205 20:23:32.901832 14127 net.cpp:100] Creating Layer layer_128_1_conv3
I0205 20:23:32.901836 14127 net.cpp:434] layer_128_1_conv3 <- layer_128_1_conv2
I0205 20:23:32.901840 14127 net.cpp:408] layer_128_1_conv3 -> layer_128_1_conv3
I0205 20:23:32.903648 14127 net.cpp:150] Setting up layer_128_1_conv3
I0205 20:23:32.903659 14127 net.cpp:157] Top shape: 10 512 28 28 (4014080)
I0205 20:23:32.903663 14127 net.cpp:165] Memory required for data: 1166090400
I0205 20:23:32.903667 14127 layer_factory.hpp:77] Creating layer layer_128_1_conv_expand
I0205 20:23:32.903674 14127 net.cpp:100] Creating Layer layer_128_1_conv_expand
I0205 20:23:32.903678 14127 net.cpp:434] layer_128_1_conv_expand <- layer_128_1_bn1_layer_128_1_relu1_0_split_1
I0205 20:23:32.903686 14127 net.cpp:408] layer_128_1_conv_expand -> layer_128_1_conv_expand
I0205 20:23:32.906646 14127 net.cpp:150] Setting up layer_128_1_conv_expand
I0205 20:23:32.906656 14127 net.cpp:157] Top shape: 10 512 28 28 (4014080)
I0205 20:23:32.906661 14127 net.cpp:165] Memory required for data: 1182146720
I0205 20:23:32.906664 14127 layer_factory.hpp:77] Creating layer layer_128_1_sum
I0205 20:23:32.906669 14127 net.cpp:100] Creating Layer layer_128_1_sum
I0205 20:23:32.906672 14127 net.cpp:434] layer_128_1_sum <- layer_128_1_conv3
I0205 20:23:32.906677 14127 net.cpp:434] layer_128_1_sum <- layer_128_1_conv_expand
I0205 20:23:32.906680 14127 net.cpp:408] layer_128_1_sum -> layer_128_1_sum
I0205 20:23:32.906698 14127 net.cpp:150] Setting up layer_128_1_sum
I0205 20:23:32.906704 14127 net.cpp:157] Top shape: 10 512 28 28 (4014080)
I0205 20:23:32.906708 14127 net.cpp:165] Memory required for data: 1198203040
I0205 20:23:32.906709 14127 layer_factory.hpp:77] Creating layer layer_128_1_sum_layer_128_1_sum_0_split
I0205 20:23:32.906719 14127 net.cpp:100] Creating Layer layer_128_1_sum_layer_128_1_sum_0_split
I0205 20:23:32.906723 14127 net.cpp:434] layer_128_1_sum_layer_128_1_sum_0_split <- layer_128_1_sum
I0205 20:23:32.906728 14127 net.cpp:408] layer_128_1_sum_layer_128_1_sum_0_split -> layer_128_1_sum_layer_128_1_sum_0_split_0
I0205 20:23:32.906733 14127 net.cpp:408] layer_128_1_sum_layer_128_1_sum_0_split -> layer_128_1_sum_layer_128_1_sum_0_split_1
I0205 20:23:32.906755 14127 net.cpp:150] Setting up layer_128_1_sum_layer_128_1_sum_0_split
I0205 20:23:32.906760 14127 net.cpp:157] Top shape: 10 512 28 28 (4014080)
I0205 20:23:32.906764 14127 net.cpp:157] Top shape: 10 512 28 28 (4014080)
I0205 20:23:32.906766 14127 net.cpp:165] Memory required for data: 1230315680
I0205 20:23:32.906769 14127 layer_factory.hpp:77] Creating layer layer_128_2_bn1
I0205 20:23:32.906774 14127 net.cpp:100] Creating Layer layer_128_2_bn1
I0205 20:23:32.906776 14127 net.cpp:434] layer_128_2_bn1 <- layer_128_1_sum_layer_128_1_sum_0_split_0
I0205 20:23:32.906780 14127 net.cpp:408] layer_128_2_bn1 -> layer_128_2_bn1
I0205 20:23:32.906904 14127 net.cpp:150] Setting up layer_128_2_bn1
I0205 20:23:32.906910 14127 net.cpp:157] Top shape: 10 512 28 28 (4014080)
I0205 20:23:32.906913 14127 net.cpp:165] Memory required for data: 1246372000
I0205 20:23:32.906919 14127 layer_factory.hpp:77] Creating layer layer_128_2_scale1
I0205 20:23:32.906922 14127 net.cpp:100] Creating Layer layer_128_2_scale1
I0205 20:23:32.906929 14127 net.cpp:434] layer_128_2_scale1 <- layer_128_2_bn1
I0205 20:23:32.906937 14127 net.cpp:395] layer_128_2_scale1 -> layer_128_2_bn1 (in-place)
I0205 20:23:32.906965 14127 layer_factory.hpp:77] Creating layer layer_128_2_scale1
I0205 20:23:32.907033 14127 net.cpp:150] Setting up layer_128_2_scale1
I0205 20:23:32.907038 14127 net.cpp:157] Top shape: 10 512 28 28 (4014080)
I0205 20:23:32.907042 14127 net.cpp:165] Memory required for data: 1262428320
I0205 20:23:32.907045 14127 layer_factory.hpp:77] Creating layer layer_128_2_relu1
I0205 20:23:32.907049 14127 net.cpp:100] Creating Layer layer_128_2_relu1
I0205 20:23:32.907052 14127 net.cpp:434] layer_128_2_relu1 <- layer_128_2_bn1
I0205 20:23:32.907055 14127 net.cpp:395] layer_128_2_relu1 -> layer_128_2_bn1 (in-place)
I0205 20:23:32.907174 14127 net.cpp:150] Setting up layer_128_2_relu1
I0205 20:23:32.907181 14127 net.cpp:157] Top shape: 10 512 28 28 (4014080)
I0205 20:23:32.907184 14127 net.cpp:165] Memory required for data: 1278484640
I0205 20:23:32.907187 14127 layer_factory.hpp:77] Creating layer layer_128_2_conv1
I0205 20:23:32.907193 14127 net.cpp:100] Creating Layer layer_128_2_conv1
I0205 20:23:32.907196 14127 net.cpp:434] layer_128_2_conv1 <- layer_128_2_bn1
I0205 20:23:32.907202 14127 net.cpp:408] layer_128_2_conv1 -> layer_128_2_conv1
I0205 20:23:32.908998 14127 net.cpp:150] Setting up layer_128_2_conv1
I0205 20:23:32.909009 14127 net.cpp:157] Top shape: 10 128 28 28 (1003520)
I0205 20:23:32.909013 14127 net.cpp:165] Memory required for data: 1282498720
I0205 20:23:32.909016 14127 layer_factory.hpp:77] Creating layer layer_128_2_bn2
I0205 20:23:32.909023 14127 net.cpp:100] Creating Layer layer_128_2_bn2
I0205 20:23:32.909025 14127 net.cpp:434] layer_128_2_bn2 <- layer_128_2_conv1
I0205 20:23:32.909030 14127 net.cpp:395] layer_128_2_bn2 -> layer_128_2_conv1 (in-place)
I0205 20:23:32.909150 14127 net.cpp:150] Setting up layer_128_2_bn2
I0205 20:23:32.909157 14127 net.cpp:157] Top shape: 10 128 28 28 (1003520)
I0205 20:23:32.909158 14127 net.cpp:165] Memory required for data: 1286512800
I0205 20:23:32.909163 14127 layer_factory.hpp:77] Creating layer layer_128_2_scale2
I0205 20:23:32.909169 14127 net.cpp:100] Creating Layer layer_128_2_scale2
I0205 20:23:32.909173 14127 net.cpp:434] layer_128_2_scale2 <- layer_128_2_conv1
I0205 20:23:32.909176 14127 net.cpp:395] layer_128_2_scale2 -> layer_128_2_conv1 (in-place)
I0205 20:23:32.909204 14127 layer_factory.hpp:77] Creating layer layer_128_2_scale2
I0205 20:23:32.909274 14127 net.cpp:150] Setting up layer_128_2_scale2
I0205 20:23:32.909281 14127 net.cpp:157] Top shape: 10 128 28 28 (1003520)
I0205 20:23:32.909282 14127 net.cpp:165] Memory required for data: 1290526880
I0205 20:23:32.909287 14127 layer_factory.hpp:77] Creating layer layer_128_2_relu2
I0205 20:23:32.909291 14127 net.cpp:100] Creating Layer layer_128_2_relu2
I0205 20:23:32.909293 14127 net.cpp:434] layer_128_2_relu2 <- layer_128_2_conv1
I0205 20:23:32.909299 14127 net.cpp:395] layer_128_2_relu2 -> layer_128_2_conv1 (in-place)
I0205 20:23:32.909436 14127 net.cpp:150] Setting up layer_128_2_relu2
I0205 20:23:32.909446 14127 net.cpp:157] Top shape: 10 128 28 28 (1003520)
I0205 20:23:32.909451 14127 net.cpp:165] Memory required for data: 1294540960
I0205 20:23:32.909454 14127 layer_factory.hpp:77] Creating layer layer_128_2_conv2
I0205 20:23:32.909464 14127 net.cpp:100] Creating Layer layer_128_2_conv2
I0205 20:23:32.909468 14127 net.cpp:434] layer_128_2_conv2 <- layer_128_2_conv1
I0205 20:23:32.909472 14127 net.cpp:408] layer_128_2_conv2 -> layer_128_2_conv2
I0205 20:23:32.912897 14127 net.cpp:150] Setting up layer_128_2_conv2
I0205 20:23:32.912909 14127 net.cpp:157] Top shape: 10 128 28 28 (1003520)
I0205 20:23:32.912914 14127 net.cpp:165] Memory required for data: 1298555040
I0205 20:23:32.912917 14127 layer_factory.hpp:77] Creating layer layer_128_2_bn3
I0205 20:23:32.912922 14127 net.cpp:100] Creating Layer layer_128_2_bn3
I0205 20:23:32.912925 14127 net.cpp:434] layer_128_2_bn3 <- layer_128_2_conv2
I0205 20:23:32.912935 14127 net.cpp:395] layer_128_2_bn3 -> layer_128_2_conv2 (in-place)
I0205 20:23:32.913064 14127 net.cpp:150] Setting up layer_128_2_bn3
I0205 20:23:32.913070 14127 net.cpp:157] Top shape: 10 128 28 28 (1003520)
I0205 20:23:32.913074 14127 net.cpp:165] Memory required for data: 1302569120
I0205 20:23:32.913079 14127 layer_factory.hpp:77] Creating layer layer_128_2_scale3
I0205 20:23:32.913084 14127 net.cpp:100] Creating Layer layer_128_2_scale3
I0205 20:23:32.913086 14127 net.cpp:434] layer_128_2_scale3 <- layer_128_2_conv2
I0205 20:23:32.913090 14127 net.cpp:395] layer_128_2_scale3 -> layer_128_2_conv2 (in-place)
I0205 20:23:32.913117 14127 layer_factory.hpp:77] Creating layer layer_128_2_scale3
I0205 20:23:32.913188 14127 net.cpp:150] Setting up layer_128_2_scale3
I0205 20:23:32.913193 14127 net.cpp:157] Top shape: 10 128 28 28 (1003520)
I0205 20:23:32.913197 14127 net.cpp:165] Memory required for data: 1306583200
I0205 20:23:32.913200 14127 layer_factory.hpp:77] Creating layer layer_128_2_relu3
I0205 20:23:32.913205 14127 net.cpp:100] Creating Layer layer_128_2_relu3
I0205 20:23:32.913208 14127 net.cpp:434] layer_128_2_relu3 <- layer_128_2_conv2
I0205 20:23:32.913211 14127 net.cpp:395] layer_128_2_relu3 -> layer_128_2_conv2 (in-place)
I0205 20:23:32.913324 14127 net.cpp:150] Setting up layer_128_2_relu3
I0205 20:23:32.913331 14127 net.cpp:157] Top shape: 10 128 28 28 (1003520)
I0205 20:23:32.913334 14127 net.cpp:165] Memory required for data: 1310597280
I0205 20:23:32.913337 14127 layer_factory.hpp:77] Creating layer layer_128_2_conv3
I0205 20:23:32.913343 14127 net.cpp:100] Creating Layer layer_128_2_conv3
I0205 20:23:32.913347 14127 net.cpp:434] layer_128_2_conv3 <- layer_128_2_conv2
I0205 20:23:32.913352 14127 net.cpp:408] layer_128_2_conv3 -> layer_128_2_conv3
I0205 20:23:32.915143 14127 net.cpp:150] Setting up layer_128_2_conv3
I0205 20:23:32.915153 14127 net.cpp:157] Top shape: 10 512 28 28 (4014080)
I0205 20:23:32.915156 14127 net.cpp:165] Memory required for data: 1326653600
I0205 20:23:32.915160 14127 layer_factory.hpp:77] Creating layer layer_128_2_sum
I0205 20:23:32.915166 14127 net.cpp:100] Creating Layer layer_128_2_sum
I0205 20:23:32.915169 14127 net.cpp:434] layer_128_2_sum <- layer_128_2_conv3
I0205 20:23:32.915174 14127 net.cpp:434] layer_128_2_sum <- layer_128_1_sum_layer_128_1_sum_0_split_1
I0205 20:23:32.915177 14127 net.cpp:408] layer_128_2_sum -> layer_128_2_sum
I0205 20:23:32.915197 14127 net.cpp:150] Setting up layer_128_2_sum
I0205 20:23:32.915201 14127 net.cpp:157] Top shape: 10 512 28 28 (4014080)
I0205 20:23:32.915205 14127 net.cpp:165] Memory required for data: 1342709920
I0205 20:23:32.915207 14127 layer_factory.hpp:77] Creating layer layer_128_2_sum_layer_128_2_sum_0_split
I0205 20:23:32.915211 14127 net.cpp:100] Creating Layer layer_128_2_sum_layer_128_2_sum_0_split
I0205 20:23:32.915215 14127 net.cpp:434] layer_128_2_sum_layer_128_2_sum_0_split <- layer_128_2_sum
I0205 20:23:32.915220 14127 net.cpp:408] layer_128_2_sum_layer_128_2_sum_0_split -> layer_128_2_sum_layer_128_2_sum_0_split_0
I0205 20:23:32.915225 14127 net.cpp:408] layer_128_2_sum_layer_128_2_sum_0_split -> layer_128_2_sum_layer_128_2_sum_0_split_1
I0205 20:23:32.915246 14127 net.cpp:150] Setting up layer_128_2_sum_layer_128_2_sum_0_split
I0205 20:23:32.915251 14127 net.cpp:157] Top shape: 10 512 28 28 (4014080)
I0205 20:23:32.915256 14127 net.cpp:157] Top shape: 10 512 28 28 (4014080)
I0205 20:23:32.915257 14127 net.cpp:165] Memory required for data: 1374822560
I0205 20:23:32.915261 14127 layer_factory.hpp:77] Creating layer layer_128_3_bn1
I0205 20:23:32.915264 14127 net.cpp:100] Creating Layer layer_128_3_bn1
I0205 20:23:32.915267 14127 net.cpp:434] layer_128_3_bn1 <- layer_128_2_sum_layer_128_2_sum_0_split_0
I0205 20:23:32.915272 14127 net.cpp:408] layer_128_3_bn1 -> layer_128_3_bn1
I0205 20:23:32.915396 14127 net.cpp:150] Setting up layer_128_3_bn1
I0205 20:23:32.915401 14127 net.cpp:157] Top shape: 10 512 28 28 (4014080)
I0205 20:23:32.915405 14127 net.cpp:165] Memory required for data: 1390878880
I0205 20:23:32.915412 14127 layer_factory.hpp:77] Creating layer layer_128_3_scale1
I0205 20:23:32.915421 14127 net.cpp:100] Creating Layer layer_128_3_scale1
I0205 20:23:32.915424 14127 net.cpp:434] layer_128_3_scale1 <- layer_128_3_bn1
I0205 20:23:32.915427 14127 net.cpp:395] layer_128_3_scale1 -> layer_128_3_bn1 (in-place)
I0205 20:23:32.915457 14127 layer_factory.hpp:77] Creating layer layer_128_3_scale1
I0205 20:23:32.915527 14127 net.cpp:150] Setting up layer_128_3_scale1
I0205 20:23:32.915534 14127 net.cpp:157] Top shape: 10 512 28 28 (4014080)
I0205 20:23:32.915535 14127 net.cpp:165] Memory required for data: 1406935200
I0205 20:23:32.915540 14127 layer_factory.hpp:77] Creating layer layer_128_3_relu1
I0205 20:23:32.915544 14127 net.cpp:100] Creating Layer layer_128_3_relu1
I0205 20:23:32.915549 14127 net.cpp:434] layer_128_3_relu1 <- layer_128_3_bn1
I0205 20:23:32.915551 14127 net.cpp:395] layer_128_3_relu1 -> layer_128_3_bn1 (in-place)
I0205 20:23:32.915830 14127 net.cpp:150] Setting up layer_128_3_relu1
I0205 20:23:32.915840 14127 net.cpp:157] Top shape: 10 512 28 28 (4014080)
I0205 20:23:32.915843 14127 net.cpp:165] Memory required for data: 1422991520
I0205 20:23:32.915846 14127 layer_factory.hpp:77] Creating layer layer_128_3_conv1
I0205 20:23:32.915853 14127 net.cpp:100] Creating Layer layer_128_3_conv1
I0205 20:23:32.915858 14127 net.cpp:434] layer_128_3_conv1 <- layer_128_3_bn1
I0205 20:23:32.915863 14127 net.cpp:408] layer_128_3_conv1 -> layer_128_3_conv1
I0205 20:23:32.918103 14127 net.cpp:150] Setting up layer_128_3_conv1
I0205 20:23:32.918114 14127 net.cpp:157] Top shape: 10 128 28 28 (1003520)
I0205 20:23:32.918118 14127 net.cpp:165] Memory required for data: 1427005600
I0205 20:23:32.918123 14127 layer_factory.hpp:77] Creating layer layer_128_3_bn2
I0205 20:23:32.918128 14127 net.cpp:100] Creating Layer layer_128_3_bn2
I0205 20:23:32.918133 14127 net.cpp:434] layer_128_3_bn2 <- layer_128_3_conv1
I0205 20:23:32.918136 14127 net.cpp:395] layer_128_3_bn2 -> layer_128_3_conv1 (in-place)
I0205 20:23:32.918264 14127 net.cpp:150] Setting up layer_128_3_bn2
I0205 20:23:32.918270 14127 net.cpp:157] Top shape: 10 128 28 28 (1003520)
I0205 20:23:32.918273 14127 net.cpp:165] Memory required for data: 1431019680
I0205 20:23:32.918278 14127 layer_factory.hpp:77] Creating layer layer_128_3_scale2
I0205 20:23:32.918283 14127 net.cpp:100] Creating Layer layer_128_3_scale2
I0205 20:23:32.918287 14127 net.cpp:434] layer_128_3_scale2 <- layer_128_3_conv1
I0205 20:23:32.918292 14127 net.cpp:395] layer_128_3_scale2 -> layer_128_3_conv1 (in-place)
I0205 20:23:32.918318 14127 layer_factory.hpp:77] Creating layer layer_128_3_scale2
I0205 20:23:32.918390 14127 net.cpp:150] Setting up layer_128_3_scale2
I0205 20:23:32.918396 14127 net.cpp:157] Top shape: 10 128 28 28 (1003520)
I0205 20:23:32.918400 14127 net.cpp:165] Memory required for data: 1435033760
I0205 20:23:32.918403 14127 layer_factory.hpp:77] Creating layer layer_128_3_relu2
I0205 20:23:32.918408 14127 net.cpp:100] Creating Layer layer_128_3_relu2
I0205 20:23:32.918411 14127 net.cpp:434] layer_128_3_relu2 <- layer_128_3_conv1
I0205 20:23:32.918414 14127 net.cpp:395] layer_128_3_relu2 -> layer_128_3_conv1 (in-place)
I0205 20:23:32.918529 14127 net.cpp:150] Setting up layer_128_3_relu2
I0205 20:23:32.918535 14127 net.cpp:157] Top shape: 10 128 28 28 (1003520)
I0205 20:23:32.918539 14127 net.cpp:165] Memory required for data: 1439047840
I0205 20:23:32.918541 14127 layer_factory.hpp:77] Creating layer layer_128_3_conv2
I0205 20:23:32.918547 14127 net.cpp:100] Creating Layer layer_128_3_conv2
I0205 20:23:32.918551 14127 net.cpp:434] layer_128_3_conv2 <- layer_128_3_conv1
I0205 20:23:32.918556 14127 net.cpp:408] layer_128_3_conv2 -> layer_128_3_conv2
I0205 20:23:32.922416 14127 net.cpp:150] Setting up layer_128_3_conv2
I0205 20:23:32.922430 14127 net.cpp:157] Top shape: 10 128 28 28 (1003520)
I0205 20:23:32.922432 14127 net.cpp:165] Memory required for data: 1443061920
I0205 20:23:32.922437 14127 layer_factory.hpp:77] Creating layer layer_128_3_bn3
I0205 20:23:32.922442 14127 net.cpp:100] Creating Layer layer_128_3_bn3
I0205 20:23:32.922449 14127 net.cpp:434] layer_128_3_bn3 <- layer_128_3_conv2
I0205 20:23:32.922458 14127 net.cpp:395] layer_128_3_bn3 -> layer_128_3_conv2 (in-place)
I0205 20:23:32.922588 14127 net.cpp:150] Setting up layer_128_3_bn3
I0205 20:23:32.922595 14127 net.cpp:157] Top shape: 10 128 28 28 (1003520)
I0205 20:23:32.922597 14127 net.cpp:165] Memory required for data: 1447076000
I0205 20:23:32.922602 14127 layer_factory.hpp:77] Creating layer layer_128_3_scale3
I0205 20:23:32.922608 14127 net.cpp:100] Creating Layer layer_128_3_scale3
I0205 20:23:32.922611 14127 net.cpp:434] layer_128_3_scale3 <- layer_128_3_conv2
I0205 20:23:32.922615 14127 net.cpp:395] layer_128_3_scale3 -> layer_128_3_conv2 (in-place)
I0205 20:23:32.922642 14127 layer_factory.hpp:77] Creating layer layer_128_3_scale3
I0205 20:23:32.922716 14127 net.cpp:150] Setting up layer_128_3_scale3
I0205 20:23:32.922722 14127 net.cpp:157] Top shape: 10 128 28 28 (1003520)
I0205 20:23:32.922724 14127 net.cpp:165] Memory required for data: 1451090080
I0205 20:23:32.922729 14127 layer_factory.hpp:77] Creating layer layer_128_3_relu3
I0205 20:23:32.922734 14127 net.cpp:100] Creating Layer layer_128_3_relu3
I0205 20:23:32.922736 14127 net.cpp:434] layer_128_3_relu3 <- layer_128_3_conv2
I0205 20:23:32.922740 14127 net.cpp:395] layer_128_3_relu3 -> layer_128_3_conv2 (in-place)
I0205 20:23:32.922855 14127 net.cpp:150] Setting up layer_128_3_relu3
I0205 20:23:32.922863 14127 net.cpp:157] Top shape: 10 128 28 28 (1003520)
I0205 20:23:32.922865 14127 net.cpp:165] Memory required for data: 1455104160
I0205 20:23:32.922868 14127 layer_factory.hpp:77] Creating layer layer_128_3_conv3
I0205 20:23:32.922875 14127 net.cpp:100] Creating Layer layer_128_3_conv3
I0205 20:23:32.922878 14127 net.cpp:434] layer_128_3_conv3 <- layer_128_3_conv2
I0205 20:23:32.922883 14127 net.cpp:408] layer_128_3_conv3 -> layer_128_3_conv3
I0205 20:23:32.924710 14127 net.cpp:150] Setting up layer_128_3_conv3
I0205 20:23:32.924722 14127 net.cpp:157] Top shape: 10 512 28 28 (4014080)
I0205 20:23:32.924726 14127 net.cpp:165] Memory required for data: 1471160480
I0205 20:23:32.924731 14127 layer_factory.hpp:77] Creating layer layer_128_3_sum
I0205 20:23:32.924736 14127 net.cpp:100] Creating Layer layer_128_3_sum
I0205 20:23:32.924738 14127 net.cpp:434] layer_128_3_sum <- layer_128_3_conv3
I0205 20:23:32.924741 14127 net.cpp:434] layer_128_3_sum <- layer_128_2_sum_layer_128_2_sum_0_split_1
I0205 20:23:32.924746 14127 net.cpp:408] layer_128_3_sum -> layer_128_3_sum
I0205 20:23:32.924764 14127 net.cpp:150] Setting up layer_128_3_sum
I0205 20:23:32.924769 14127 net.cpp:157] Top shape: 10 512 28 28 (4014080)
I0205 20:23:32.924772 14127 net.cpp:165] Memory required for data: 1487216800
I0205 20:23:32.924775 14127 layer_factory.hpp:77] Creating layer layer_128_3_sum_layer_128_3_sum_0_split
I0205 20:23:32.924779 14127 net.cpp:100] Creating Layer layer_128_3_sum_layer_128_3_sum_0_split
I0205 20:23:32.924782 14127 net.cpp:434] layer_128_3_sum_layer_128_3_sum_0_split <- layer_128_3_sum
I0205 20:23:32.924787 14127 net.cpp:408] layer_128_3_sum_layer_128_3_sum_0_split -> layer_128_3_sum_layer_128_3_sum_0_split_0
I0205 20:23:32.924792 14127 net.cpp:408] layer_128_3_sum_layer_128_3_sum_0_split -> layer_128_3_sum_layer_128_3_sum_0_split_1
I0205 20:23:32.924815 14127 net.cpp:150] Setting up layer_128_3_sum_layer_128_3_sum_0_split
I0205 20:23:32.924819 14127 net.cpp:157] Top shape: 10 512 28 28 (4014080)
I0205 20:23:32.924823 14127 net.cpp:157] Top shape: 10 512 28 28 (4014080)
I0205 20:23:32.924825 14127 net.cpp:165] Memory required for data: 1519329440
I0205 20:23:32.924829 14127 layer_factory.hpp:77] Creating layer layer_128_4_bn1
I0205 20:23:32.924832 14127 net.cpp:100] Creating Layer layer_128_4_bn1
I0205 20:23:32.924834 14127 net.cpp:434] layer_128_4_bn1 <- layer_128_3_sum_layer_128_3_sum_0_split_0
I0205 20:23:32.924839 14127 net.cpp:408] layer_128_4_bn1 -> layer_128_4_bn1
I0205 20:23:32.924969 14127 net.cpp:150] Setting up layer_128_4_bn1
I0205 20:23:32.924974 14127 net.cpp:157] Top shape: 10 512 28 28 (4014080)
I0205 20:23:32.924980 14127 net.cpp:165] Memory required for data: 1535385760
I0205 20:23:32.924990 14127 layer_factory.hpp:77] Creating layer layer_128_4_scale1
I0205 20:23:32.924995 14127 net.cpp:100] Creating Layer layer_128_4_scale1
I0205 20:23:32.924998 14127 net.cpp:434] layer_128_4_scale1 <- layer_128_4_bn1
I0205 20:23:32.925003 14127 net.cpp:395] layer_128_4_scale1 -> layer_128_4_bn1 (in-place)
I0205 20:23:32.925031 14127 layer_factory.hpp:77] Creating layer layer_128_4_scale1
I0205 20:23:32.925103 14127 net.cpp:150] Setting up layer_128_4_scale1
I0205 20:23:32.925109 14127 net.cpp:157] Top shape: 10 512 28 28 (4014080)
I0205 20:23:32.925112 14127 net.cpp:165] Memory required for data: 1551442080
I0205 20:23:32.925117 14127 layer_factory.hpp:77] Creating layer layer_128_4_relu1
I0205 20:23:32.925120 14127 net.cpp:100] Creating Layer layer_128_4_relu1
I0205 20:23:32.925123 14127 net.cpp:434] layer_128_4_relu1 <- layer_128_4_bn1
I0205 20:23:32.925127 14127 net.cpp:395] layer_128_4_relu1 -> layer_128_4_bn1 (in-place)
I0205 20:23:32.925240 14127 net.cpp:150] Setting up layer_128_4_relu1
I0205 20:23:32.925246 14127 net.cpp:157] Top shape: 10 512 28 28 (4014080)
I0205 20:23:32.925249 14127 net.cpp:165] Memory required for data: 1567498400
I0205 20:23:32.925252 14127 layer_factory.hpp:77] Creating layer layer_128_4_conv1
I0205 20:23:32.925259 14127 net.cpp:100] Creating Layer layer_128_4_conv1
I0205 20:23:32.925262 14127 net.cpp:434] layer_128_4_conv1 <- layer_128_4_bn1
I0205 20:23:32.925267 14127 net.cpp:408] layer_128_4_conv1 -> layer_128_4_conv1
I0205 20:23:32.927079 14127 net.cpp:150] Setting up layer_128_4_conv1
I0205 20:23:32.927090 14127 net.cpp:157] Top shape: 10 128 28 28 (1003520)
I0205 20:23:32.927093 14127 net.cpp:165] Memory required for data: 1571512480
I0205 20:23:32.927098 14127 layer_factory.hpp:77] Creating layer layer_128_4_bn2
I0205 20:23:32.927103 14127 net.cpp:100] Creating Layer layer_128_4_bn2
I0205 20:23:32.927106 14127 net.cpp:434] layer_128_4_bn2 <- layer_128_4_conv1
I0205 20:23:32.927110 14127 net.cpp:395] layer_128_4_bn2 -> layer_128_4_conv1 (in-place)
I0205 20:23:32.927238 14127 net.cpp:150] Setting up layer_128_4_bn2
I0205 20:23:32.927244 14127 net.cpp:157] Top shape: 10 128 28 28 (1003520)
I0205 20:23:32.927248 14127 net.cpp:165] Memory required for data: 1575526560
I0205 20:23:32.927253 14127 layer_factory.hpp:77] Creating layer layer_128_4_scale2
I0205 20:23:32.927258 14127 net.cpp:100] Creating Layer layer_128_4_scale2
I0205 20:23:32.927261 14127 net.cpp:434] layer_128_4_scale2 <- layer_128_4_conv1
I0205 20:23:32.927265 14127 net.cpp:395] layer_128_4_scale2 -> layer_128_4_conv1 (in-place)
I0205 20:23:32.927291 14127 layer_factory.hpp:77] Creating layer layer_128_4_scale2
I0205 20:23:32.927364 14127 net.cpp:150] Setting up layer_128_4_scale2
I0205 20:23:32.927371 14127 net.cpp:157] Top shape: 10 128 28 28 (1003520)
I0205 20:23:32.927373 14127 net.cpp:165] Memory required for data: 1579540640
I0205 20:23:32.927377 14127 layer_factory.hpp:77] Creating layer layer_128_4_relu2
I0205 20:23:32.927381 14127 net.cpp:100] Creating Layer layer_128_4_relu2
I0205 20:23:32.927384 14127 net.cpp:434] layer_128_4_relu2 <- layer_128_4_conv1
I0205 20:23:32.927388 14127 net.cpp:395] layer_128_4_relu2 -> layer_128_4_conv1 (in-place)
I0205 20:23:32.927502 14127 net.cpp:150] Setting up layer_128_4_relu2
I0205 20:23:32.927508 14127 net.cpp:157] Top shape: 10 128 28 28 (1003520)
I0205 20:23:32.927511 14127 net.cpp:165] Memory required for data: 1583554720
I0205 20:23:32.927515 14127 layer_factory.hpp:77] Creating layer layer_128_4_conv2
I0205 20:23:32.927521 14127 net.cpp:100] Creating Layer layer_128_4_conv2
I0205 20:23:32.927525 14127 net.cpp:434] layer_128_4_conv2 <- layer_128_4_conv1
I0205 20:23:32.927530 14127 net.cpp:408] layer_128_4_conv2 -> layer_128_4_conv2
I0205 20:23:32.930959 14127 net.cpp:150] Setting up layer_128_4_conv2
I0205 20:23:32.930971 14127 net.cpp:157] Top shape: 10 128 28 28 (1003520)
I0205 20:23:32.930974 14127 net.cpp:165] Memory required for data: 1587568800
I0205 20:23:32.930992 14127 layer_factory.hpp:77] Creating layer layer_128_4_bn3
I0205 20:23:32.931005 14127 net.cpp:100] Creating Layer layer_128_4_bn3
I0205 20:23:32.931010 14127 net.cpp:434] layer_128_4_bn3 <- layer_128_4_conv2
I0205 20:23:32.931013 14127 net.cpp:395] layer_128_4_bn3 -> layer_128_4_conv2 (in-place)
I0205 20:23:32.931143 14127 net.cpp:150] Setting up layer_128_4_bn3
I0205 20:23:32.931149 14127 net.cpp:157] Top shape: 10 128 28 28 (1003520)
I0205 20:23:32.931152 14127 net.cpp:165] Memory required for data: 1591582880
I0205 20:23:32.931159 14127 layer_factory.hpp:77] Creating layer layer_128_4_scale3
I0205 20:23:32.931164 14127 net.cpp:100] Creating Layer layer_128_4_scale3
I0205 20:23:32.931166 14127 net.cpp:434] layer_128_4_scale3 <- layer_128_4_conv2
I0205 20:23:32.931171 14127 net.cpp:395] layer_128_4_scale3 -> layer_128_4_conv2 (in-place)
I0205 20:23:32.931197 14127 layer_factory.hpp:77] Creating layer layer_128_4_scale3
I0205 20:23:32.931269 14127 net.cpp:150] Setting up layer_128_4_scale3
I0205 20:23:32.931277 14127 net.cpp:157] Top shape: 10 128 28 28 (1003520)
I0205 20:23:32.931279 14127 net.cpp:165] Memory required for data: 1595596960
I0205 20:23:32.931283 14127 layer_factory.hpp:77] Creating layer layer_128_4_relu3
I0205 20:23:32.931288 14127 net.cpp:100] Creating Layer layer_128_4_relu3
I0205 20:23:32.931290 14127 net.cpp:434] layer_128_4_relu3 <- layer_128_4_conv2
I0205 20:23:32.931294 14127 net.cpp:395] layer_128_4_relu3 -> layer_128_4_conv2 (in-place)
I0205 20:23:32.931414 14127 net.cpp:150] Setting up layer_128_4_relu3
I0205 20:23:32.931421 14127 net.cpp:157] Top shape: 10 128 28 28 (1003520)
I0205 20:23:32.931424 14127 net.cpp:165] Memory required for data: 1599611040
I0205 20:23:32.931427 14127 layer_factory.hpp:77] Creating layer layer_128_4_conv3
I0205 20:23:32.931433 14127 net.cpp:100] Creating Layer layer_128_4_conv3
I0205 20:23:32.931437 14127 net.cpp:434] layer_128_4_conv3 <- layer_128_4_conv2
I0205 20:23:32.931442 14127 net.cpp:408] layer_128_4_conv3 -> layer_128_4_conv3
I0205 20:23:32.933255 14127 net.cpp:150] Setting up layer_128_4_conv3
I0205 20:23:32.933266 14127 net.cpp:157] Top shape: 10 512 28 28 (4014080)
I0205 20:23:32.933269 14127 net.cpp:165] Memory required for data: 1615667360
I0205 20:23:32.933274 14127 layer_factory.hpp:77] Creating layer layer_128_4_sum
I0205 20:23:32.933279 14127 net.cpp:100] Creating Layer layer_128_4_sum
I0205 20:23:32.933284 14127 net.cpp:434] layer_128_4_sum <- layer_128_4_conv3
I0205 20:23:32.933287 14127 net.cpp:434] layer_128_4_sum <- layer_128_3_sum_layer_128_3_sum_0_split_1
I0205 20:23:32.933292 14127 net.cpp:408] layer_128_4_sum -> layer_128_4_sum
I0205 20:23:32.933310 14127 net.cpp:150] Setting up layer_128_4_sum
I0205 20:23:32.933315 14127 net.cpp:157] Top shape: 10 512 28 28 (4014080)
I0205 20:23:32.933318 14127 net.cpp:165] Memory required for data: 1631723680
I0205 20:23:32.933320 14127 layer_factory.hpp:77] Creating layer layer_256_1_bn1
I0205 20:23:32.933326 14127 net.cpp:100] Creating Layer layer_256_1_bn1
I0205 20:23:32.933328 14127 net.cpp:434] layer_256_1_bn1 <- layer_128_4_sum
I0205 20:23:32.933331 14127 net.cpp:408] layer_256_1_bn1 -> layer_256_1_bn1
I0205 20:23:32.933466 14127 net.cpp:150] Setting up layer_256_1_bn1
I0205 20:23:32.933471 14127 net.cpp:157] Top shape: 10 512 28 28 (4014080)
I0205 20:23:32.933475 14127 net.cpp:165] Memory required for data: 1647780000
I0205 20:23:32.933480 14127 layer_factory.hpp:77] Creating layer layer_256_1_scale1
I0205 20:23:32.933485 14127 net.cpp:100] Creating Layer layer_256_1_scale1
I0205 20:23:32.933487 14127 net.cpp:434] layer_256_1_scale1 <- layer_256_1_bn1
I0205 20:23:32.933491 14127 net.cpp:395] layer_256_1_scale1 -> layer_256_1_bn1 (in-place)
I0205 20:23:32.933521 14127 layer_factory.hpp:77] Creating layer layer_256_1_scale1
I0205 20:23:32.933593 14127 net.cpp:150] Setting up layer_256_1_scale1
I0205 20:23:32.933598 14127 net.cpp:157] Top shape: 10 512 28 28 (4014080)
I0205 20:23:32.933601 14127 net.cpp:165] Memory required for data: 1663836320
I0205 20:23:32.933609 14127 layer_factory.hpp:77] Creating layer layer_256_1_relu1
I0205 20:23:32.933617 14127 net.cpp:100] Creating Layer layer_256_1_relu1
I0205 20:23:32.933620 14127 net.cpp:434] layer_256_1_relu1 <- layer_256_1_bn1
I0205 20:23:32.933624 14127 net.cpp:395] layer_256_1_relu1 -> layer_256_1_bn1 (in-place)
I0205 20:23:32.933912 14127 net.cpp:150] Setting up layer_256_1_relu1
I0205 20:23:32.933921 14127 net.cpp:157] Top shape: 10 512 28 28 (4014080)
I0205 20:23:32.933924 14127 net.cpp:165] Memory required for data: 1679892640
I0205 20:23:32.933928 14127 layer_factory.hpp:77] Creating layer layer_256_1_bn1_layer_256_1_relu1_0_split
I0205 20:23:32.933931 14127 net.cpp:100] Creating Layer layer_256_1_bn1_layer_256_1_relu1_0_split
I0205 20:23:32.933934 14127 net.cpp:434] layer_256_1_bn1_layer_256_1_relu1_0_split <- layer_256_1_bn1
I0205 20:23:32.933938 14127 net.cpp:408] layer_256_1_bn1_layer_256_1_relu1_0_split -> layer_256_1_bn1_layer_256_1_relu1_0_split_0
I0205 20:23:32.933945 14127 net.cpp:408] layer_256_1_bn1_layer_256_1_relu1_0_split -> layer_256_1_bn1_layer_256_1_relu1_0_split_1
I0205 20:23:32.933974 14127 net.cpp:150] Setting up layer_256_1_bn1_layer_256_1_relu1_0_split
I0205 20:23:32.933979 14127 net.cpp:157] Top shape: 10 512 28 28 (4014080)
I0205 20:23:32.933984 14127 net.cpp:157] Top shape: 10 512 28 28 (4014080)
I0205 20:23:32.933985 14127 net.cpp:165] Memory required for data: 1712005280
I0205 20:23:32.933989 14127 layer_factory.hpp:77] Creating layer layer_256_1_conv1
I0205 20:23:32.933995 14127 net.cpp:100] Creating Layer layer_256_1_conv1
I0205 20:23:32.934000 14127 net.cpp:434] layer_256_1_conv1 <- layer_256_1_bn1_layer_256_1_relu1_0_split_0
I0205 20:23:32.934003 14127 net.cpp:408] layer_256_1_conv1 -> layer_256_1_conv1
I0205 20:23:32.936980 14127 net.cpp:150] Setting up layer_256_1_conv1
I0205 20:23:32.936991 14127 net.cpp:157] Top shape: 10 256 28 28 (2007040)
I0205 20:23:32.936995 14127 net.cpp:165] Memory required for data: 1720033440
I0205 20:23:32.937000 14127 layer_factory.hpp:77] Creating layer layer_256_1_bn2
I0205 20:23:32.937005 14127 net.cpp:100] Creating Layer layer_256_1_bn2
I0205 20:23:32.937008 14127 net.cpp:434] layer_256_1_bn2 <- layer_256_1_conv1
I0205 20:23:32.937012 14127 net.cpp:395] layer_256_1_bn2 -> layer_256_1_conv1 (in-place)
I0205 20:23:32.937142 14127 net.cpp:150] Setting up layer_256_1_bn2
I0205 20:23:32.937149 14127 net.cpp:157] Top shape: 10 256 28 28 (2007040)
I0205 20:23:32.937151 14127 net.cpp:165] Memory required for data: 1728061600
I0205 20:23:32.937156 14127 layer_factory.hpp:77] Creating layer layer_256_1_scale2
I0205 20:23:32.937162 14127 net.cpp:100] Creating Layer layer_256_1_scale2
I0205 20:23:32.937165 14127 net.cpp:434] layer_256_1_scale2 <- layer_256_1_conv1
I0205 20:23:32.937168 14127 net.cpp:395] layer_256_1_scale2 -> layer_256_1_conv1 (in-place)
I0205 20:23:32.937196 14127 layer_factory.hpp:77] Creating layer layer_256_1_scale2
I0205 20:23:32.937269 14127 net.cpp:150] Setting up layer_256_1_scale2
I0205 20:23:32.937274 14127 net.cpp:157] Top shape: 10 256 28 28 (2007040)
I0205 20:23:32.937278 14127 net.cpp:165] Memory required for data: 1736089760
I0205 20:23:32.937283 14127 layer_factory.hpp:77] Creating layer layer_256_1_relu2
I0205 20:23:32.937286 14127 net.cpp:100] Creating Layer layer_256_1_relu2
I0205 20:23:32.937289 14127 net.cpp:434] layer_256_1_relu2 <- layer_256_1_conv1
I0205 20:23:32.937294 14127 net.cpp:395] layer_256_1_relu2 -> layer_256_1_conv1 (in-place)
I0205 20:23:32.937408 14127 net.cpp:150] Setting up layer_256_1_relu2
I0205 20:23:32.937414 14127 net.cpp:157] Top shape: 10 256 28 28 (2007040)
I0205 20:23:32.937417 14127 net.cpp:165] Memory required for data: 1744117920
I0205 20:23:32.937420 14127 layer_factory.hpp:77] Creating layer layer_256_1_conv2
I0205 20:23:32.937428 14127 net.cpp:100] Creating Layer layer_256_1_conv2
I0205 20:23:32.937433 14127 net.cpp:434] layer_256_1_conv2 <- layer_256_1_conv1
I0205 20:23:32.937438 14127 net.cpp:408] layer_256_1_conv2 -> layer_256_1_conv2
I0205 20:23:32.949034 14127 net.cpp:150] Setting up layer_256_1_conv2
I0205 20:23:32.949051 14127 net.cpp:157] Top shape: 10 256 14 14 (501760)
I0205 20:23:32.949060 14127 net.cpp:165] Memory required for data: 1746124960
I0205 20:23:32.949065 14127 layer_factory.hpp:77] Creating layer layer_256_1_bn3
I0205 20:23:32.949071 14127 net.cpp:100] Creating Layer layer_256_1_bn3
I0205 20:23:32.949075 14127 net.cpp:434] layer_256_1_bn3 <- layer_256_1_conv2
I0205 20:23:32.949079 14127 net.cpp:395] layer_256_1_bn3 -> layer_256_1_conv2 (in-place)
I0205 20:23:32.949211 14127 net.cpp:150] Setting up layer_256_1_bn3
I0205 20:23:32.949216 14127 net.cpp:157] Top shape: 10 256 14 14 (501760)
I0205 20:23:32.949219 14127 net.cpp:165] Memory required for data: 1748132000
I0205 20:23:32.949224 14127 layer_factory.hpp:77] Creating layer layer_256_1_scale3
I0205 20:23:32.949230 14127 net.cpp:100] Creating Layer layer_256_1_scale3
I0205 20:23:32.949234 14127 net.cpp:434] layer_256_1_scale3 <- layer_256_1_conv2
I0205 20:23:32.949237 14127 net.cpp:395] layer_256_1_scale3 -> layer_256_1_conv2 (in-place)
I0205 20:23:32.949268 14127 layer_factory.hpp:77] Creating layer layer_256_1_scale3
I0205 20:23:32.949342 14127 net.cpp:150] Setting up layer_256_1_scale3
I0205 20:23:32.949347 14127 net.cpp:157] Top shape: 10 256 14 14 (501760)
I0205 20:23:32.949350 14127 net.cpp:165] Memory required for data: 1750139040
I0205 20:23:32.949354 14127 layer_factory.hpp:77] Creating layer layer_256_1_relu3
I0205 20:23:32.949358 14127 net.cpp:100] Creating Layer layer_256_1_relu3
I0205 20:23:32.949362 14127 net.cpp:434] layer_256_1_relu3 <- layer_256_1_conv2
I0205 20:23:32.949365 14127 net.cpp:395] layer_256_1_relu3 -> layer_256_1_conv2 (in-place)
I0205 20:23:32.949477 14127 net.cpp:150] Setting up layer_256_1_relu3
I0205 20:23:32.949484 14127 net.cpp:157] Top shape: 10 256 14 14 (501760)
I0205 20:23:32.949487 14127 net.cpp:165] Memory required for data: 1752146080
I0205 20:23:32.949491 14127 layer_factory.hpp:77] Creating layer layer_256_1_conv3
I0205 20:23:32.949499 14127 net.cpp:100] Creating Layer layer_256_1_conv3
I0205 20:23:32.949502 14127 net.cpp:434] layer_256_1_conv3 <- layer_256_1_conv2
I0205 20:23:32.949507 14127 net.cpp:408] layer_256_1_conv3 -> layer_256_1_conv3
I0205 20:23:32.955252 14127 net.cpp:150] Setting up layer_256_1_conv3
I0205 20:23:32.955266 14127 net.cpp:157] Top shape: 10 1024 14 14 (2007040)
I0205 20:23:32.955269 14127 net.cpp:165] Memory required for data: 1760174240
I0205 20:23:32.955274 14127 layer_factory.hpp:77] Creating layer layer_256_1_conv_expand
I0205 20:23:32.955283 14127 net.cpp:100] Creating Layer layer_256_1_conv_expand
I0205 20:23:32.955287 14127 net.cpp:434] layer_256_1_conv_expand <- layer_256_1_bn1_layer_256_1_relu1_0_split_1
I0205 20:23:32.955292 14127 net.cpp:408] layer_256_1_conv_expand -> layer_256_1_conv_expand
I0205 20:23:32.965656 14127 net.cpp:150] Setting up layer_256_1_conv_expand
I0205 20:23:32.965672 14127 net.cpp:157] Top shape: 10 1024 14 14 (2007040)
I0205 20:23:32.965674 14127 net.cpp:165] Memory required for data: 1768202400
I0205 20:23:32.965679 14127 layer_factory.hpp:77] Creating layer layer_256_1_sum
I0205 20:23:32.965685 14127 net.cpp:100] Creating Layer layer_256_1_sum
I0205 20:23:32.965689 14127 net.cpp:434] layer_256_1_sum <- layer_256_1_conv3
I0205 20:23:32.965693 14127 net.cpp:434] layer_256_1_sum <- layer_256_1_conv_expand
I0205 20:23:32.965698 14127 net.cpp:408] layer_256_1_sum -> layer_256_1_sum
I0205 20:23:32.965718 14127 net.cpp:150] Setting up layer_256_1_sum
I0205 20:23:32.965723 14127 net.cpp:157] Top shape: 10 1024 14 14 (2007040)
I0205 20:23:32.965726 14127 net.cpp:165] Memory required for data: 1776230560
I0205 20:23:32.965729 14127 layer_factory.hpp:77] Creating layer layer_256_1_sum_layer_256_1_sum_0_split
I0205 20:23:32.965734 14127 net.cpp:100] Creating Layer layer_256_1_sum_layer_256_1_sum_0_split
I0205 20:23:32.965737 14127 net.cpp:434] layer_256_1_sum_layer_256_1_sum_0_split <- layer_256_1_sum
I0205 20:23:32.965741 14127 net.cpp:408] layer_256_1_sum_layer_256_1_sum_0_split -> layer_256_1_sum_layer_256_1_sum_0_split_0
I0205 20:23:32.965750 14127 net.cpp:408] layer_256_1_sum_layer_256_1_sum_0_split -> layer_256_1_sum_layer_256_1_sum_0_split_1
I0205 20:23:32.965780 14127 net.cpp:150] Setting up layer_256_1_sum_layer_256_1_sum_0_split
I0205 20:23:32.965785 14127 net.cpp:157] Top shape: 10 1024 14 14 (2007040)
I0205 20:23:32.965790 14127 net.cpp:157] Top shape: 10 1024 14 14 (2007040)
I0205 20:23:32.965791 14127 net.cpp:165] Memory required for data: 1792286880
I0205 20:23:32.965795 14127 layer_factory.hpp:77] Creating layer layer_256_2_bn1
I0205 20:23:32.965798 14127 net.cpp:100] Creating Layer layer_256_2_bn1
I0205 20:23:32.965801 14127 net.cpp:434] layer_256_2_bn1 <- layer_256_1_sum_layer_256_1_sum_0_split_0
I0205 20:23:32.965806 14127 net.cpp:408] layer_256_2_bn1 -> layer_256_2_bn1
I0205 20:23:32.965948 14127 net.cpp:150] Setting up layer_256_2_bn1
I0205 20:23:32.965955 14127 net.cpp:157] Top shape: 10 1024 14 14 (2007040)
I0205 20:23:32.965956 14127 net.cpp:165] Memory required for data: 1800315040
I0205 20:23:32.965961 14127 layer_factory.hpp:77] Creating layer layer_256_2_scale1
I0205 20:23:32.965967 14127 net.cpp:100] Creating Layer layer_256_2_scale1
I0205 20:23:32.965970 14127 net.cpp:434] layer_256_2_scale1 <- layer_256_2_bn1
I0205 20:23:32.965975 14127 net.cpp:395] layer_256_2_scale1 -> layer_256_2_bn1 (in-place)
I0205 20:23:32.966001 14127 layer_factory.hpp:77] Creating layer layer_256_2_scale1
I0205 20:23:32.966080 14127 net.cpp:150] Setting up layer_256_2_scale1
I0205 20:23:32.966086 14127 net.cpp:157] Top shape: 10 1024 14 14 (2007040)
I0205 20:23:32.966089 14127 net.cpp:165] Memory required for data: 1808343200
I0205 20:23:32.966094 14127 layer_factory.hpp:77] Creating layer layer_256_2_relu1
I0205 20:23:32.966100 14127 net.cpp:100] Creating Layer layer_256_2_relu1
I0205 20:23:32.966104 14127 net.cpp:434] layer_256_2_relu1 <- layer_256_2_bn1
I0205 20:23:32.966106 14127 net.cpp:395] layer_256_2_relu1 -> layer_256_2_bn1 (in-place)
I0205 20:23:32.966393 14127 net.cpp:150] Setting up layer_256_2_relu1
I0205 20:23:32.966403 14127 net.cpp:157] Top shape: 10 1024 14 14 (2007040)
I0205 20:23:32.966405 14127 net.cpp:165] Memory required for data: 1816371360
I0205 20:23:32.966408 14127 layer_factory.hpp:77] Creating layer layer_256_2_conv1
I0205 20:23:32.966415 14127 net.cpp:100] Creating Layer layer_256_2_conv1
I0205 20:23:32.966418 14127 net.cpp:434] layer_256_2_conv1 <- layer_256_2_bn1
I0205 20:23:32.966424 14127 net.cpp:408] layer_256_2_conv1 -> layer_256_2_conv1
I0205 20:23:32.971755 14127 net.cpp:150] Setting up layer_256_2_conv1
I0205 20:23:32.971766 14127 net.cpp:157] Top shape: 10 256 14 14 (501760)
I0205 20:23:32.971774 14127 net.cpp:165] Memory required for data: 1818378400
I0205 20:23:32.971778 14127 layer_factory.hpp:77] Creating layer layer_256_2_bn2
I0205 20:23:32.971784 14127 net.cpp:100] Creating Layer layer_256_2_bn2
I0205 20:23:32.971788 14127 net.cpp:434] layer_256_2_bn2 <- layer_256_2_conv1
I0205 20:23:32.971792 14127 net.cpp:395] layer_256_2_bn2 -> layer_256_2_conv1 (in-place)
I0205 20:23:32.971923 14127 net.cpp:150] Setting up layer_256_2_bn2
I0205 20:23:32.971928 14127 net.cpp:157] Top shape: 10 256 14 14 (501760)
I0205 20:23:32.971931 14127 net.cpp:165] Memory required for data: 1820385440
I0205 20:23:32.971936 14127 layer_factory.hpp:77] Creating layer layer_256_2_scale2
I0205 20:23:32.971942 14127 net.cpp:100] Creating Layer layer_256_2_scale2
I0205 20:23:32.971946 14127 net.cpp:434] layer_256_2_scale2 <- layer_256_2_conv1
I0205 20:23:32.971949 14127 net.cpp:395] layer_256_2_scale2 -> layer_256_2_conv1 (in-place)
I0205 20:23:32.971979 14127 layer_factory.hpp:77] Creating layer layer_256_2_scale2
I0205 20:23:32.972053 14127 net.cpp:150] Setting up layer_256_2_scale2
I0205 20:23:32.972057 14127 net.cpp:157] Top shape: 10 256 14 14 (501760)
I0205 20:23:32.972060 14127 net.cpp:165] Memory required for data: 1822392480
I0205 20:23:32.972065 14127 layer_factory.hpp:77] Creating layer layer_256_2_relu2
I0205 20:23:32.972079 14127 net.cpp:100] Creating Layer layer_256_2_relu2
I0205 20:23:32.972082 14127 net.cpp:434] layer_256_2_relu2 <- layer_256_2_conv1
I0205 20:23:32.972088 14127 net.cpp:395] layer_256_2_relu2 -> layer_256_2_conv1 (in-place)
I0205 20:23:32.972210 14127 net.cpp:150] Setting up layer_256_2_relu2
I0205 20:23:32.972219 14127 net.cpp:157] Top shape: 10 256 14 14 (501760)
I0205 20:23:32.972223 14127 net.cpp:165] Memory required for data: 1824399520
I0205 20:23:32.972225 14127 layer_factory.hpp:77] Creating layer layer_256_2_conv2
I0205 20:23:32.972232 14127 net.cpp:100] Creating Layer layer_256_2_conv2
I0205 20:23:32.972235 14127 net.cpp:434] layer_256_2_conv2 <- layer_256_2_conv1
I0205 20:23:32.972239 14127 net.cpp:408] layer_256_2_conv2 -> layer_256_2_conv2
I0205 20:23:32.984236 14127 net.cpp:150] Setting up layer_256_2_conv2
I0205 20:23:32.984254 14127 net.cpp:157] Top shape: 10 256 14 14 (501760)
I0205 20:23:32.984259 14127 net.cpp:165] Memory required for data: 1826406560
I0205 20:23:32.984266 14127 layer_factory.hpp:77] Creating layer layer_256_2_bn3
I0205 20:23:32.984273 14127 net.cpp:100] Creating Layer layer_256_2_bn3
I0205 20:23:32.984277 14127 net.cpp:434] layer_256_2_bn3 <- layer_256_2_conv2
I0205 20:23:32.984282 14127 net.cpp:395] layer_256_2_bn3 -> layer_256_2_conv2 (in-place)
I0205 20:23:32.984436 14127 net.cpp:150] Setting up layer_256_2_bn3
I0205 20:23:32.984443 14127 net.cpp:157] Top shape: 10 256 14 14 (501760)
I0205 20:23:32.984447 14127 net.cpp:165] Memory required for data: 1828413600
I0205 20:23:32.984452 14127 layer_factory.hpp:77] Creating layer layer_256_2_scale3
I0205 20:23:32.984457 14127 net.cpp:100] Creating Layer layer_256_2_scale3
I0205 20:23:32.984460 14127 net.cpp:434] layer_256_2_scale3 <- layer_256_2_conv2
I0205 20:23:32.984464 14127 net.cpp:395] layer_256_2_scale3 -> layer_256_2_conv2 (in-place)
I0205 20:23:32.984496 14127 layer_factory.hpp:77] Creating layer layer_256_2_scale3
I0205 20:23:32.984570 14127 net.cpp:150] Setting up layer_256_2_scale3
I0205 20:23:32.984575 14127 net.cpp:157] Top shape: 10 256 14 14 (501760)
I0205 20:23:32.984577 14127 net.cpp:165] Memory required for data: 1830420640
I0205 20:23:32.984582 14127 layer_factory.hpp:77] Creating layer layer_256_2_relu3
I0205 20:23:32.984586 14127 net.cpp:100] Creating Layer layer_256_2_relu3
I0205 20:23:32.984589 14127 net.cpp:434] layer_256_2_relu3 <- layer_256_2_conv2
I0205 20:23:32.984592 14127 net.cpp:395] layer_256_2_relu3 -> layer_256_2_conv2 (in-place)
I0205 20:23:32.984712 14127 net.cpp:150] Setting up layer_256_2_relu3
I0205 20:23:32.984719 14127 net.cpp:157] Top shape: 10 256 14 14 (501760)
I0205 20:23:32.984722 14127 net.cpp:165] Memory required for data: 1832427680
I0205 20:23:32.984725 14127 layer_factory.hpp:77] Creating layer layer_256_2_conv3
I0205 20:23:32.984732 14127 net.cpp:100] Creating Layer layer_256_2_conv3
I0205 20:23:32.984735 14127 net.cpp:434] layer_256_2_conv3 <- layer_256_2_conv2
I0205 20:23:32.984740 14127 net.cpp:408] layer_256_2_conv3 -> layer_256_2_conv3
I0205 20:23:32.990523 14127 net.cpp:150] Setting up layer_256_2_conv3
I0205 20:23:32.990537 14127 net.cpp:157] Top shape: 10 1024 14 14 (2007040)
I0205 20:23:32.990540 14127 net.cpp:165] Memory required for data: 1840455840
I0205 20:23:32.990545 14127 layer_factory.hpp:77] Creating layer layer_256_2_sum
I0205 20:23:32.990551 14127 net.cpp:100] Creating Layer layer_256_2_sum
I0205 20:23:32.990555 14127 net.cpp:434] layer_256_2_sum <- layer_256_2_conv3
I0205 20:23:32.990558 14127 net.cpp:434] layer_256_2_sum <- layer_256_1_sum_layer_256_1_sum_0_split_1
I0205 20:23:32.990563 14127 net.cpp:408] layer_256_2_sum -> layer_256_2_sum
I0205 20:23:32.990583 14127 net.cpp:150] Setting up layer_256_2_sum
I0205 20:23:32.990588 14127 net.cpp:157] Top shape: 10 1024 14 14 (2007040)
I0205 20:23:32.990592 14127 net.cpp:165] Memory required for data: 1848484000
I0205 20:23:32.990594 14127 layer_factory.hpp:77] Creating layer layer_256_2_sum_layer_256_2_sum_0_split
I0205 20:23:32.990599 14127 net.cpp:100] Creating Layer layer_256_2_sum_layer_256_2_sum_0_split
I0205 20:23:32.990602 14127 net.cpp:434] layer_256_2_sum_layer_256_2_sum_0_split <- layer_256_2_sum
I0205 20:23:32.990610 14127 net.cpp:408] layer_256_2_sum_layer_256_2_sum_0_split -> layer_256_2_sum_layer_256_2_sum_0_split_0
I0205 20:23:32.990619 14127 net.cpp:408] layer_256_2_sum_layer_256_2_sum_0_split -> layer_256_2_sum_layer_256_2_sum_0_split_1
I0205 20:23:32.990646 14127 net.cpp:150] Setting up layer_256_2_sum_layer_256_2_sum_0_split
I0205 20:23:32.990651 14127 net.cpp:157] Top shape: 10 1024 14 14 (2007040)
I0205 20:23:32.990654 14127 net.cpp:157] Top shape: 10 1024 14 14 (2007040)
I0205 20:23:32.990658 14127 net.cpp:165] Memory required for data: 1864540320
I0205 20:23:32.990660 14127 layer_factory.hpp:77] Creating layer layer_256_3_bn1
I0205 20:23:32.990664 14127 net.cpp:100] Creating Layer layer_256_3_bn1
I0205 20:23:32.990667 14127 net.cpp:434] layer_256_3_bn1 <- layer_256_2_sum_layer_256_2_sum_0_split_0
I0205 20:23:32.990671 14127 net.cpp:408] layer_256_3_bn1 -> layer_256_3_bn1
I0205 20:23:32.990811 14127 net.cpp:150] Setting up layer_256_3_bn1
I0205 20:23:32.990818 14127 net.cpp:157] Top shape: 10 1024 14 14 (2007040)
I0205 20:23:32.990820 14127 net.cpp:165] Memory required for data: 1872568480
I0205 20:23:32.990825 14127 layer_factory.hpp:77] Creating layer layer_256_3_scale1
I0205 20:23:32.990831 14127 net.cpp:100] Creating Layer layer_256_3_scale1
I0205 20:23:32.990834 14127 net.cpp:434] layer_256_3_scale1 <- layer_256_3_bn1
I0205 20:23:32.990839 14127 net.cpp:395] layer_256_3_scale1 -> layer_256_3_bn1 (in-place)
I0205 20:23:32.990867 14127 layer_factory.hpp:77] Creating layer layer_256_3_scale1
I0205 20:23:32.990947 14127 net.cpp:150] Setting up layer_256_3_scale1
I0205 20:23:32.990952 14127 net.cpp:157] Top shape: 10 1024 14 14 (2007040)
I0205 20:23:32.990954 14127 net.cpp:165] Memory required for data: 1880596640
I0205 20:23:32.990959 14127 layer_factory.hpp:77] Creating layer layer_256_3_relu1
I0205 20:23:32.990964 14127 net.cpp:100] Creating Layer layer_256_3_relu1
I0205 20:23:32.990967 14127 net.cpp:434] layer_256_3_relu1 <- layer_256_3_bn1
I0205 20:23:32.990970 14127 net.cpp:395] layer_256_3_relu1 -> layer_256_3_bn1 (in-place)
I0205 20:23:32.991269 14127 net.cpp:150] Setting up layer_256_3_relu1
I0205 20:23:32.991279 14127 net.cpp:157] Top shape: 10 1024 14 14 (2007040)
I0205 20:23:32.991282 14127 net.cpp:165] Memory required for data: 1888624800
I0205 20:23:32.991286 14127 layer_factory.hpp:77] Creating layer layer_256_3_conv1
I0205 20:23:32.991292 14127 net.cpp:100] Creating Layer layer_256_3_conv1
I0205 20:23:32.991297 14127 net.cpp:434] layer_256_3_conv1 <- layer_256_3_bn1
I0205 20:23:32.991302 14127 net.cpp:408] layer_256_3_conv1 -> layer_256_3_conv1
I0205 20:23:32.996423 14127 net.cpp:150] Setting up layer_256_3_conv1
I0205 20:23:32.996434 14127 net.cpp:157] Top shape: 10 256 14 14 (501760)
I0205 20:23:32.996438 14127 net.cpp:165] Memory required for data: 1890631840
I0205 20:23:32.996441 14127 layer_factory.hpp:77] Creating layer layer_256_3_bn2
I0205 20:23:32.996446 14127 net.cpp:100] Creating Layer layer_256_3_bn2
I0205 20:23:32.996449 14127 net.cpp:434] layer_256_3_bn2 <- layer_256_3_conv1
I0205 20:23:32.996454 14127 net.cpp:395] layer_256_3_bn2 -> layer_256_3_conv1 (in-place)
I0205 20:23:32.996585 14127 net.cpp:150] Setting up layer_256_3_bn2
I0205 20:23:32.996590 14127 net.cpp:157] Top shape: 10 256 14 14 (501760)
I0205 20:23:32.996593 14127 net.cpp:165] Memory required for data: 1892638880
I0205 20:23:32.996599 14127 layer_factory.hpp:77] Creating layer layer_256_3_scale2
I0205 20:23:32.996603 14127 net.cpp:100] Creating Layer layer_256_3_scale2
I0205 20:23:32.996606 14127 net.cpp:434] layer_256_3_scale2 <- layer_256_3_conv1
I0205 20:23:32.996610 14127 net.cpp:395] layer_256_3_scale2 -> layer_256_3_conv1 (in-place)
I0205 20:23:32.996639 14127 layer_factory.hpp:77] Creating layer layer_256_3_scale2
I0205 20:23:32.996713 14127 net.cpp:150] Setting up layer_256_3_scale2
I0205 20:23:32.996718 14127 net.cpp:157] Top shape: 10 256 14 14 (501760)
I0205 20:23:32.996721 14127 net.cpp:165] Memory required for data: 1894645920
I0205 20:23:32.996726 14127 layer_factory.hpp:77] Creating layer layer_256_3_relu2
I0205 20:23:32.996732 14127 net.cpp:100] Creating Layer layer_256_3_relu2
I0205 20:23:32.996739 14127 net.cpp:434] layer_256_3_relu2 <- layer_256_3_conv1
I0205 20:23:32.996743 14127 net.cpp:395] layer_256_3_relu2 -> layer_256_3_conv1 (in-place)
I0205 20:23:32.997041 14127 net.cpp:150] Setting up layer_256_3_relu2
I0205 20:23:32.997051 14127 net.cpp:157] Top shape: 10 256 14 14 (501760)
I0205 20:23:32.997053 14127 net.cpp:165] Memory required for data: 1896652960
I0205 20:23:32.997056 14127 layer_factory.hpp:77] Creating layer layer_256_3_conv2
I0205 20:23:32.997063 14127 net.cpp:100] Creating Layer layer_256_3_conv2
I0205 20:23:32.997066 14127 net.cpp:434] layer_256_3_conv2 <- layer_256_3_conv1
I0205 20:23:32.997072 14127 net.cpp:408] layer_256_3_conv2 -> layer_256_3_conv2
I0205 20:23:33.008815 14127 net.cpp:150] Setting up layer_256_3_conv2
I0205 20:23:33.008828 14127 net.cpp:157] Top shape: 10 256 14 14 (501760)
I0205 20:23:33.008832 14127 net.cpp:165] Memory required for data: 1898660000
I0205 20:23:33.008836 14127 layer_factory.hpp:77] Creating layer layer_256_3_bn3
I0205 20:23:33.008842 14127 net.cpp:100] Creating Layer layer_256_3_bn3
I0205 20:23:33.008846 14127 net.cpp:434] layer_256_3_bn3 <- layer_256_3_conv2
I0205 20:23:33.008852 14127 net.cpp:395] layer_256_3_bn3 -> layer_256_3_conv2 (in-place)
I0205 20:23:33.008991 14127 net.cpp:150] Setting up layer_256_3_bn3
I0205 20:23:33.008996 14127 net.cpp:157] Top shape: 10 256 14 14 (501760)
I0205 20:23:33.008998 14127 net.cpp:165] Memory required for data: 1900667040
I0205 20:23:33.009004 14127 layer_factory.hpp:77] Creating layer layer_256_3_scale3
I0205 20:23:33.009011 14127 net.cpp:100] Creating Layer layer_256_3_scale3
I0205 20:23:33.009013 14127 net.cpp:434] layer_256_3_scale3 <- layer_256_3_conv2
I0205 20:23:33.009017 14127 net.cpp:395] layer_256_3_scale3 -> layer_256_3_conv2 (in-place)
I0205 20:23:33.009048 14127 layer_factory.hpp:77] Creating layer layer_256_3_scale3
I0205 20:23:33.009126 14127 net.cpp:150] Setting up layer_256_3_scale3
I0205 20:23:33.009132 14127 net.cpp:157] Top shape: 10 256 14 14 (501760)
I0205 20:23:33.009135 14127 net.cpp:165] Memory required for data: 1902674080
I0205 20:23:33.009140 14127 layer_factory.hpp:77] Creating layer layer_256_3_relu3
I0205 20:23:33.009143 14127 net.cpp:100] Creating Layer layer_256_3_relu3
I0205 20:23:33.009145 14127 net.cpp:434] layer_256_3_relu3 <- layer_256_3_conv2
I0205 20:23:33.009150 14127 net.cpp:395] layer_256_3_relu3 -> layer_256_3_conv2 (in-place)
I0205 20:23:33.009268 14127 net.cpp:150] Setting up layer_256_3_relu3
I0205 20:23:33.009274 14127 net.cpp:157] Top shape: 10 256 14 14 (501760)
I0205 20:23:33.009277 14127 net.cpp:165] Memory required for data: 1904681120
I0205 20:23:33.009280 14127 layer_factory.hpp:77] Creating layer layer_256_3_conv3
I0205 20:23:33.009286 14127 net.cpp:100] Creating Layer layer_256_3_conv3
I0205 20:23:33.009290 14127 net.cpp:434] layer_256_3_conv3 <- layer_256_3_conv2
I0205 20:23:33.009295 14127 net.cpp:408] layer_256_3_conv3 -> layer_256_3_conv3
I0205 20:23:33.015064 14127 net.cpp:150] Setting up layer_256_3_conv3
I0205 20:23:33.015077 14127 net.cpp:157] Top shape: 10 1024 14 14 (2007040)
I0205 20:23:33.015081 14127 net.cpp:165] Memory required for data: 1912709280
I0205 20:23:33.015085 14127 layer_factory.hpp:77] Creating layer layer_256_3_sum
I0205 20:23:33.015091 14127 net.cpp:100] Creating Layer layer_256_3_sum
I0205 20:23:33.015095 14127 net.cpp:434] layer_256_3_sum <- layer_256_3_conv3
I0205 20:23:33.015100 14127 net.cpp:434] layer_256_3_sum <- layer_256_2_sum_layer_256_2_sum_0_split_1
I0205 20:23:33.015103 14127 net.cpp:408] layer_256_3_sum -> layer_256_3_sum
I0205 20:23:33.015125 14127 net.cpp:150] Setting up layer_256_3_sum
I0205 20:23:33.015130 14127 net.cpp:157] Top shape: 10 1024 14 14 (2007040)
I0205 20:23:33.015133 14127 net.cpp:165] Memory required for data: 1920737440
I0205 20:23:33.015136 14127 layer_factory.hpp:77] Creating layer layer_256_3_sum_layer_256_3_sum_0_split
I0205 20:23:33.015141 14127 net.cpp:100] Creating Layer layer_256_3_sum_layer_256_3_sum_0_split
I0205 20:23:33.015147 14127 net.cpp:434] layer_256_3_sum_layer_256_3_sum_0_split <- layer_256_3_sum
I0205 20:23:33.015156 14127 net.cpp:408] layer_256_3_sum_layer_256_3_sum_0_split -> layer_256_3_sum_layer_256_3_sum_0_split_0
I0205 20:23:33.015161 14127 net.cpp:408] layer_256_3_sum_layer_256_3_sum_0_split -> layer_256_3_sum_layer_256_3_sum_0_split_1
I0205 20:23:33.015187 14127 net.cpp:150] Setting up layer_256_3_sum_layer_256_3_sum_0_split
I0205 20:23:33.015192 14127 net.cpp:157] Top shape: 10 1024 14 14 (2007040)
I0205 20:23:33.015195 14127 net.cpp:157] Top shape: 10 1024 14 14 (2007040)
I0205 20:23:33.015197 14127 net.cpp:165] Memory required for data: 1936793760
I0205 20:23:33.015200 14127 layer_factory.hpp:77] Creating layer layer_256_4_bn1
I0205 20:23:33.015205 14127 net.cpp:100] Creating Layer layer_256_4_bn1
I0205 20:23:33.015208 14127 net.cpp:434] layer_256_4_bn1 <- layer_256_3_sum_layer_256_3_sum_0_split_0
I0205 20:23:33.015213 14127 net.cpp:408] layer_256_4_bn1 -> layer_256_4_bn1
I0205 20:23:33.015357 14127 net.cpp:150] Setting up layer_256_4_bn1
I0205 20:23:33.015362 14127 net.cpp:157] Top shape: 10 1024 14 14 (2007040)
I0205 20:23:33.015365 14127 net.cpp:165] Memory required for data: 1944821920
I0205 20:23:33.015370 14127 layer_factory.hpp:77] Creating layer layer_256_4_scale1
I0205 20:23:33.015375 14127 net.cpp:100] Creating Layer layer_256_4_scale1
I0205 20:23:33.015378 14127 net.cpp:434] layer_256_4_scale1 <- layer_256_4_bn1
I0205 20:23:33.015383 14127 net.cpp:395] layer_256_4_scale1 -> layer_256_4_bn1 (in-place)
I0205 20:23:33.015410 14127 layer_factory.hpp:77] Creating layer layer_256_4_scale1
I0205 20:23:33.015493 14127 net.cpp:150] Setting up layer_256_4_scale1
I0205 20:23:33.015498 14127 net.cpp:157] Top shape: 10 1024 14 14 (2007040)
I0205 20:23:33.015501 14127 net.cpp:165] Memory required for data: 1952850080
I0205 20:23:33.015506 14127 layer_factory.hpp:77] Creating layer layer_256_4_relu1
I0205 20:23:33.015509 14127 net.cpp:100] Creating Layer layer_256_4_relu1
I0205 20:23:33.015512 14127 net.cpp:434] layer_256_4_relu1 <- layer_256_4_bn1
I0205 20:23:33.015516 14127 net.cpp:395] layer_256_4_relu1 -> layer_256_4_bn1 (in-place)
I0205 20:23:33.015632 14127 net.cpp:150] Setting up layer_256_4_relu1
I0205 20:23:33.015638 14127 net.cpp:157] Top shape: 10 1024 14 14 (2007040)
I0205 20:23:33.015641 14127 net.cpp:165] Memory required for data: 1960878240
I0205 20:23:33.015645 14127 layer_factory.hpp:77] Creating layer layer_256_4_conv1
I0205 20:23:33.015651 14127 net.cpp:100] Creating Layer layer_256_4_conv1
I0205 20:23:33.015655 14127 net.cpp:434] layer_256_4_conv1 <- layer_256_4_bn1
I0205 20:23:33.015660 14127 net.cpp:408] layer_256_4_conv1 -> layer_256_4_conv1
I0205 20:23:33.020972 14127 net.cpp:150] Setting up layer_256_4_conv1
I0205 20:23:33.020982 14127 net.cpp:157] Top shape: 10 256 14 14 (501760)
I0205 20:23:33.020987 14127 net.cpp:165] Memory required for data: 1962885280
I0205 20:23:33.020990 14127 layer_factory.hpp:77] Creating layer layer_256_4_bn2
I0205 20:23:33.020995 14127 net.cpp:100] Creating Layer layer_256_4_bn2
I0205 20:23:33.020999 14127 net.cpp:434] layer_256_4_bn2 <- layer_256_4_conv1
I0205 20:23:33.021003 14127 net.cpp:395] layer_256_4_bn2 -> layer_256_4_conv1 (in-place)
I0205 20:23:33.021142 14127 net.cpp:150] Setting up layer_256_4_bn2
I0205 20:23:33.021147 14127 net.cpp:157] Top shape: 10 256 14 14 (501760)
I0205 20:23:33.021149 14127 net.cpp:165] Memory required for data: 1964892320
I0205 20:23:33.021154 14127 layer_factory.hpp:77] Creating layer layer_256_4_scale2
I0205 20:23:33.021159 14127 net.cpp:100] Creating Layer layer_256_4_scale2
I0205 20:23:33.021162 14127 net.cpp:434] layer_256_4_scale2 <- layer_256_4_conv1
I0205 20:23:33.021167 14127 net.cpp:395] layer_256_4_scale2 -> layer_256_4_conv1 (in-place)
I0205 20:23:33.021196 14127 layer_factory.hpp:77] Creating layer layer_256_4_scale2
I0205 20:23:33.021273 14127 net.cpp:150] Setting up layer_256_4_scale2
I0205 20:23:33.021281 14127 net.cpp:157] Top shape: 10 256 14 14 (501760)
I0205 20:23:33.021283 14127 net.cpp:165] Memory required for data: 1966899360
I0205 20:23:33.021291 14127 layer_factory.hpp:77] Creating layer layer_256_4_relu2
I0205 20:23:33.021298 14127 net.cpp:100] Creating Layer layer_256_4_relu2
I0205 20:23:33.021301 14127 net.cpp:434] layer_256_4_relu2 <- layer_256_4_conv1
I0205 20:23:33.021306 14127 net.cpp:395] layer_256_4_relu2 -> layer_256_4_conv1 (in-place)
I0205 20:23:33.021422 14127 net.cpp:150] Setting up layer_256_4_relu2
I0205 20:23:33.021430 14127 net.cpp:157] Top shape: 10 256 14 14 (501760)
I0205 20:23:33.021432 14127 net.cpp:165] Memory required for data: 1968906400
I0205 20:23:33.021435 14127 layer_factory.hpp:77] Creating layer layer_256_4_conv2
I0205 20:23:33.021442 14127 net.cpp:100] Creating Layer layer_256_4_conv2
I0205 20:23:33.021445 14127 net.cpp:434] layer_256_4_conv2 <- layer_256_4_conv1
I0205 20:23:33.021450 14127 net.cpp:408] layer_256_4_conv2 -> layer_256_4_conv2
I0205 20:23:33.033341 14127 net.cpp:150] Setting up layer_256_4_conv2
I0205 20:23:33.033360 14127 net.cpp:157] Top shape: 10 256 14 14 (501760)
I0205 20:23:33.033365 14127 net.cpp:165] Memory required for data: 1970913440
I0205 20:23:33.033370 14127 layer_factory.hpp:77] Creating layer layer_256_4_bn3
I0205 20:23:33.033376 14127 net.cpp:100] Creating Layer layer_256_4_bn3
I0205 20:23:33.033380 14127 net.cpp:434] layer_256_4_bn3 <- layer_256_4_conv2
I0205 20:23:33.033385 14127 net.cpp:395] layer_256_4_bn3 -> layer_256_4_conv2 (in-place)
I0205 20:23:33.033556 14127 net.cpp:150] Setting up layer_256_4_bn3
I0205 20:23:33.033561 14127 net.cpp:157] Top shape: 10 256 14 14 (501760)
I0205 20:23:33.033565 14127 net.cpp:165] Memory required for data: 1972920480
I0205 20:23:33.033571 14127 layer_factory.hpp:77] Creating layer layer_256_4_scale3
I0205 20:23:33.033576 14127 net.cpp:100] Creating Layer layer_256_4_scale3
I0205 20:23:33.033578 14127 net.cpp:434] layer_256_4_scale3 <- layer_256_4_conv2
I0205 20:23:33.033582 14127 net.cpp:395] layer_256_4_scale3 -> layer_256_4_conv2 (in-place)
I0205 20:23:33.033613 14127 layer_factory.hpp:77] Creating layer layer_256_4_scale3
I0205 20:23:33.033691 14127 net.cpp:150] Setting up layer_256_4_scale3
I0205 20:23:33.033697 14127 net.cpp:157] Top shape: 10 256 14 14 (501760)
I0205 20:23:33.033700 14127 net.cpp:165] Memory required for data: 1974927520
I0205 20:23:33.033704 14127 layer_factory.hpp:77] Creating layer layer_256_4_relu3
I0205 20:23:33.033709 14127 net.cpp:100] Creating Layer layer_256_4_relu3
I0205 20:23:33.033711 14127 net.cpp:434] layer_256_4_relu3 <- layer_256_4_conv2
I0205 20:23:33.033715 14127 net.cpp:395] layer_256_4_relu3 -> layer_256_4_conv2 (in-place)
I0205 20:23:33.033834 14127 net.cpp:150] Setting up layer_256_4_relu3
I0205 20:23:33.033843 14127 net.cpp:157] Top shape: 10 256 14 14 (501760)
I0205 20:23:33.033845 14127 net.cpp:165] Memory required for data: 1976934560
I0205 20:23:33.033848 14127 layer_factory.hpp:77] Creating layer layer_256_4_conv3
I0205 20:23:33.033855 14127 net.cpp:100] Creating Layer layer_256_4_conv3
I0205 20:23:33.033859 14127 net.cpp:434] layer_256_4_conv3 <- layer_256_4_conv2
I0205 20:23:33.033864 14127 net.cpp:408] layer_256_4_conv3 -> layer_256_4_conv3
I0205 20:23:33.039726 14127 net.cpp:150] Setting up layer_256_4_conv3
I0205 20:23:33.039743 14127 net.cpp:157] Top shape: 10 1024 14 14 (2007040)
I0205 20:23:33.039747 14127 net.cpp:165] Memory required for data: 1984962720
I0205 20:23:33.039753 14127 layer_factory.hpp:77] Creating layer layer_256_4_sum
I0205 20:23:33.039759 14127 net.cpp:100] Creating Layer layer_256_4_sum
I0205 20:23:33.039763 14127 net.cpp:434] layer_256_4_sum <- layer_256_4_conv3
I0205 20:23:33.039767 14127 net.cpp:434] layer_256_4_sum <- layer_256_3_sum_layer_256_3_sum_0_split_1
I0205 20:23:33.039777 14127 net.cpp:408] layer_256_4_sum -> layer_256_4_sum
I0205 20:23:33.039799 14127 net.cpp:150] Setting up layer_256_4_sum
I0205 20:23:33.039804 14127 net.cpp:157] Top shape: 10 1024 14 14 (2007040)
I0205 20:23:33.039808 14127 net.cpp:165] Memory required for data: 1992990880
I0205 20:23:33.039811 14127 layer_factory.hpp:77] Creating layer layer_256_4_sum_layer_256_4_sum_0_split
I0205 20:23:33.039819 14127 net.cpp:100] Creating Layer layer_256_4_sum_layer_256_4_sum_0_split
I0205 20:23:33.039826 14127 net.cpp:434] layer_256_4_sum_layer_256_4_sum_0_split <- layer_256_4_sum
I0205 20:23:33.039830 14127 net.cpp:408] layer_256_4_sum_layer_256_4_sum_0_split -> layer_256_4_sum_layer_256_4_sum_0_split_0
I0205 20:23:33.039835 14127 net.cpp:408] layer_256_4_sum_layer_256_4_sum_0_split -> layer_256_4_sum_layer_256_4_sum_0_split_1
I0205 20:23:33.039862 14127 net.cpp:150] Setting up layer_256_4_sum_layer_256_4_sum_0_split
I0205 20:23:33.039868 14127 net.cpp:157] Top shape: 10 1024 14 14 (2007040)
I0205 20:23:33.039871 14127 net.cpp:157] Top shape: 10 1024 14 14 (2007040)
I0205 20:23:33.039875 14127 net.cpp:165] Memory required for data: 2009047200
I0205 20:23:33.039877 14127 layer_factory.hpp:77] Creating layer layer_256_5_bn1
I0205 20:23:33.039881 14127 net.cpp:100] Creating Layer layer_256_5_bn1
I0205 20:23:33.039885 14127 net.cpp:434] layer_256_5_bn1 <- layer_256_4_sum_layer_256_4_sum_0_split_0
I0205 20:23:33.039890 14127 net.cpp:408] layer_256_5_bn1 -> layer_256_5_bn1
I0205 20:23:33.040040 14127 net.cpp:150] Setting up layer_256_5_bn1
I0205 20:23:33.040046 14127 net.cpp:157] Top shape: 10 1024 14 14 (2007040)
I0205 20:23:33.040050 14127 net.cpp:165] Memory required for data: 2017075360
I0205 20:23:33.040055 14127 layer_factory.hpp:77] Creating layer layer_256_5_scale1
I0205 20:23:33.040060 14127 net.cpp:100] Creating Layer layer_256_5_scale1
I0205 20:23:33.040065 14127 net.cpp:434] layer_256_5_scale1 <- layer_256_5_bn1
I0205 20:23:33.040067 14127 net.cpp:395] layer_256_5_scale1 -> layer_256_5_bn1 (in-place)
I0205 20:23:33.040098 14127 layer_factory.hpp:77] Creating layer layer_256_5_scale1
I0205 20:23:33.040182 14127 net.cpp:150] Setting up layer_256_5_scale1
I0205 20:23:33.040189 14127 net.cpp:157] Top shape: 10 1024 14 14 (2007040)
I0205 20:23:33.040191 14127 net.cpp:165] Memory required for data: 2025103520
I0205 20:23:33.040195 14127 layer_factory.hpp:77] Creating layer layer_256_5_relu1
I0205 20:23:33.040201 14127 net.cpp:100] Creating Layer layer_256_5_relu1
I0205 20:23:33.040205 14127 net.cpp:434] layer_256_5_relu1 <- layer_256_5_bn1
I0205 20:23:33.040207 14127 net.cpp:395] layer_256_5_relu1 -> layer_256_5_bn1 (in-place)
I0205 20:23:33.040531 14127 net.cpp:150] Setting up layer_256_5_relu1
I0205 20:23:33.040542 14127 net.cpp:157] Top shape: 10 1024 14 14 (2007040)
I0205 20:23:33.040545 14127 net.cpp:165] Memory required for data: 2033131680
I0205 20:23:33.040549 14127 layer_factory.hpp:77] Creating layer layer_256_5_conv1
I0205 20:23:33.040555 14127 net.cpp:100] Creating Layer layer_256_5_conv1
I0205 20:23:33.040558 14127 net.cpp:434] layer_256_5_conv1 <- layer_256_5_bn1
I0205 20:23:33.040563 14127 net.cpp:408] layer_256_5_conv1 -> layer_256_5_conv1
I0205 20:23:33.045727 14127 net.cpp:150] Setting up layer_256_5_conv1
I0205 20:23:33.045737 14127 net.cpp:157] Top shape: 10 256 14 14 (501760)
I0205 20:23:33.045740 14127 net.cpp:165] Memory required for data: 2035138720
I0205 20:23:33.045745 14127 layer_factory.hpp:77] Creating layer layer_256_5_bn2
I0205 20:23:33.045750 14127 net.cpp:100] Creating Layer layer_256_5_bn2
I0205 20:23:33.045754 14127 net.cpp:434] layer_256_5_bn2 <- layer_256_5_conv1
I0205 20:23:33.045758 14127 net.cpp:395] layer_256_5_bn2 -> layer_256_5_conv1 (in-place)
I0205 20:23:33.045897 14127 net.cpp:150] Setting up layer_256_5_bn2
I0205 20:23:33.045902 14127 net.cpp:157] Top shape: 10 256 14 14 (501760)
I0205 20:23:33.045904 14127 net.cpp:165] Memory required for data: 2037145760
I0205 20:23:33.045910 14127 layer_factory.hpp:77] Creating layer layer_256_5_scale2
I0205 20:23:33.045915 14127 net.cpp:100] Creating Layer layer_256_5_scale2
I0205 20:23:33.045918 14127 net.cpp:434] layer_256_5_scale2 <- layer_256_5_conv1
I0205 20:23:33.045922 14127 net.cpp:395] layer_256_5_scale2 -> layer_256_5_conv1 (in-place)
I0205 20:23:33.045953 14127 layer_factory.hpp:77] Creating layer layer_256_5_scale2
I0205 20:23:33.046030 14127 net.cpp:150] Setting up layer_256_5_scale2
I0205 20:23:33.046038 14127 net.cpp:157] Top shape: 10 256 14 14 (501760)
I0205 20:23:33.046046 14127 net.cpp:165] Memory required for data: 2039152800
I0205 20:23:33.046051 14127 layer_factory.hpp:77] Creating layer layer_256_5_relu2
I0205 20:23:33.046056 14127 net.cpp:100] Creating Layer layer_256_5_relu2
I0205 20:23:33.046058 14127 net.cpp:434] layer_256_5_relu2 <- layer_256_5_conv1
I0205 20:23:33.046062 14127 net.cpp:395] layer_256_5_relu2 -> layer_256_5_conv1 (in-place)
I0205 20:23:33.046386 14127 net.cpp:150] Setting up layer_256_5_relu2
I0205 20:23:33.046394 14127 net.cpp:157] Top shape: 10 256 14 14 (501760)
I0205 20:23:33.046398 14127 net.cpp:165] Memory required for data: 2041159840
I0205 20:23:33.046401 14127 layer_factory.hpp:77] Creating layer layer_256_5_conv2
I0205 20:23:33.046408 14127 net.cpp:100] Creating Layer layer_256_5_conv2
I0205 20:23:33.046411 14127 net.cpp:434] layer_256_5_conv2 <- layer_256_5_conv1
I0205 20:23:33.046417 14127 net.cpp:408] layer_256_5_conv2 -> layer_256_5_conv2
I0205 20:23:33.058148 14127 net.cpp:150] Setting up layer_256_5_conv2
I0205 20:23:33.058177 14127 net.cpp:157] Top shape: 10 256 14 14 (501760)
I0205 20:23:33.058182 14127 net.cpp:165] Memory required for data: 2043166880
I0205 20:23:33.058187 14127 layer_factory.hpp:77] Creating layer layer_256_5_bn3
I0205 20:23:33.058192 14127 net.cpp:100] Creating Layer layer_256_5_bn3
I0205 20:23:33.058197 14127 net.cpp:434] layer_256_5_bn3 <- layer_256_5_conv2
I0205 20:23:33.058202 14127 net.cpp:395] layer_256_5_bn3 -> layer_256_5_conv2 (in-place)
I0205 20:23:33.058360 14127 net.cpp:150] Setting up layer_256_5_bn3
I0205 20:23:33.058367 14127 net.cpp:157] Top shape: 10 256 14 14 (501760)
I0205 20:23:33.058369 14127 net.cpp:165] Memory required for data: 2045173920
I0205 20:23:33.058374 14127 layer_factory.hpp:77] Creating layer layer_256_5_scale3
I0205 20:23:33.058380 14127 net.cpp:100] Creating Layer layer_256_5_scale3
I0205 20:23:33.058383 14127 net.cpp:434] layer_256_5_scale3 <- layer_256_5_conv2
I0205 20:23:33.058387 14127 net.cpp:395] layer_256_5_scale3 -> layer_256_5_conv2 (in-place)
I0205 20:23:33.058419 14127 layer_factory.hpp:77] Creating layer layer_256_5_scale3
I0205 20:23:33.058500 14127 net.cpp:150] Setting up layer_256_5_scale3
I0205 20:23:33.058506 14127 net.cpp:157] Top shape: 10 256 14 14 (501760)
I0205 20:23:33.058508 14127 net.cpp:165] Memory required for data: 2047180960
I0205 20:23:33.058512 14127 layer_factory.hpp:77] Creating layer layer_256_5_relu3
I0205 20:23:33.058516 14127 net.cpp:100] Creating Layer layer_256_5_relu3
I0205 20:23:33.058519 14127 net.cpp:434] layer_256_5_relu3 <- layer_256_5_conv2
I0205 20:23:33.058523 14127 net.cpp:395] layer_256_5_relu3 -> layer_256_5_conv2 (in-place)
I0205 20:23:33.058642 14127 net.cpp:150] Setting up layer_256_5_relu3
I0205 20:23:33.058650 14127 net.cpp:157] Top shape: 10 256 14 14 (501760)
I0205 20:23:33.058652 14127 net.cpp:165] Memory required for data: 2049188000
I0205 20:23:33.058655 14127 layer_factory.hpp:77] Creating layer layer_256_5_conv3
I0205 20:23:33.058661 14127 net.cpp:100] Creating Layer layer_256_5_conv3
I0205 20:23:33.058665 14127 net.cpp:434] layer_256_5_conv3 <- layer_256_5_conv2
I0205 20:23:33.058670 14127 net.cpp:408] layer_256_5_conv3 -> layer_256_5_conv3
I0205 20:23:33.064498 14127 net.cpp:150] Setting up layer_256_5_conv3
I0205 20:23:33.064512 14127 net.cpp:157] Top shape: 10 1024 14 14 (2007040)
I0205 20:23:33.064515 14127 net.cpp:165] Memory required for data: 2057216160
I0205 20:23:33.064520 14127 layer_factory.hpp:77] Creating layer layer_256_5_sum
I0205 20:23:33.064527 14127 net.cpp:100] Creating Layer layer_256_5_sum
I0205 20:23:33.064530 14127 net.cpp:434] layer_256_5_sum <- layer_256_5_conv3
I0205 20:23:33.064534 14127 net.cpp:434] layer_256_5_sum <- layer_256_4_sum_layer_256_4_sum_0_split_1
I0205 20:23:33.064538 14127 net.cpp:408] layer_256_5_sum -> layer_256_5_sum
I0205 20:23:33.064560 14127 net.cpp:150] Setting up layer_256_5_sum
I0205 20:23:33.064565 14127 net.cpp:157] Top shape: 10 1024 14 14 (2007040)
I0205 20:23:33.064573 14127 net.cpp:165] Memory required for data: 2065244320
I0205 20:23:33.064580 14127 layer_factory.hpp:77] Creating layer layer_256_5_sum_layer_256_5_sum_0_split
I0205 20:23:33.064584 14127 net.cpp:100] Creating Layer layer_256_5_sum_layer_256_5_sum_0_split
I0205 20:23:33.064587 14127 net.cpp:434] layer_256_5_sum_layer_256_5_sum_0_split <- layer_256_5_sum
I0205 20:23:33.064592 14127 net.cpp:408] layer_256_5_sum_layer_256_5_sum_0_split -> layer_256_5_sum_layer_256_5_sum_0_split_0
I0205 20:23:33.064596 14127 net.cpp:408] layer_256_5_sum_layer_256_5_sum_0_split -> layer_256_5_sum_layer_256_5_sum_0_split_1
I0205 20:23:33.064623 14127 net.cpp:150] Setting up layer_256_5_sum_layer_256_5_sum_0_split
I0205 20:23:33.064627 14127 net.cpp:157] Top shape: 10 1024 14 14 (2007040)
I0205 20:23:33.064631 14127 net.cpp:157] Top shape: 10 1024 14 14 (2007040)
I0205 20:23:33.064633 14127 net.cpp:165] Memory required for data: 2081300640
I0205 20:23:33.064636 14127 layer_factory.hpp:77] Creating layer layer_256_6_bn1
I0205 20:23:33.064641 14127 net.cpp:100] Creating Layer layer_256_6_bn1
I0205 20:23:33.064644 14127 net.cpp:434] layer_256_6_bn1 <- layer_256_5_sum_layer_256_5_sum_0_split_0
I0205 20:23:33.064648 14127 net.cpp:408] layer_256_6_bn1 -> layer_256_6_bn1
I0205 20:23:33.064797 14127 net.cpp:150] Setting up layer_256_6_bn1
I0205 20:23:33.064802 14127 net.cpp:157] Top shape: 10 1024 14 14 (2007040)
I0205 20:23:33.064805 14127 net.cpp:165] Memory required for data: 2089328800
I0205 20:23:33.064810 14127 layer_factory.hpp:77] Creating layer layer_256_6_scale1
I0205 20:23:33.064815 14127 net.cpp:100] Creating Layer layer_256_6_scale1
I0205 20:23:33.064818 14127 net.cpp:434] layer_256_6_scale1 <- layer_256_6_bn1
I0205 20:23:33.064822 14127 net.cpp:395] layer_256_6_scale1 -> layer_256_6_bn1 (in-place)
I0205 20:23:33.064853 14127 layer_factory.hpp:77] Creating layer layer_256_6_scale1
I0205 20:23:33.064936 14127 net.cpp:150] Setting up layer_256_6_scale1
I0205 20:23:33.064941 14127 net.cpp:157] Top shape: 10 1024 14 14 (2007040)
I0205 20:23:33.064944 14127 net.cpp:165] Memory required for data: 2097356960
I0205 20:23:33.064949 14127 layer_factory.hpp:77] Creating layer layer_256_6_relu1
I0205 20:23:33.064952 14127 net.cpp:100] Creating Layer layer_256_6_relu1
I0205 20:23:33.064955 14127 net.cpp:434] layer_256_6_relu1 <- layer_256_6_bn1
I0205 20:23:33.064960 14127 net.cpp:395] layer_256_6_relu1 -> layer_256_6_bn1 (in-place)
I0205 20:23:33.065076 14127 net.cpp:150] Setting up layer_256_6_relu1
I0205 20:23:33.065083 14127 net.cpp:157] Top shape: 10 1024 14 14 (2007040)
I0205 20:23:33.065085 14127 net.cpp:165] Memory required for data: 2105385120
I0205 20:23:33.065088 14127 layer_factory.hpp:77] Creating layer layer_256_6_conv1
I0205 20:23:33.065095 14127 net.cpp:100] Creating Layer layer_256_6_conv1
I0205 20:23:33.065099 14127 net.cpp:434] layer_256_6_conv1 <- layer_256_6_bn1
I0205 20:23:33.065104 14127 net.cpp:408] layer_256_6_conv1 -> layer_256_6_conv1
I0205 20:23:33.070452 14127 net.cpp:150] Setting up layer_256_6_conv1
I0205 20:23:33.070466 14127 net.cpp:157] Top shape: 10 256 14 14 (501760)
I0205 20:23:33.070468 14127 net.cpp:165] Memory required for data: 2107392160
I0205 20:23:33.070473 14127 layer_factory.hpp:77] Creating layer layer_256_6_bn2
I0205 20:23:33.070478 14127 net.cpp:100] Creating Layer layer_256_6_bn2
I0205 20:23:33.070482 14127 net.cpp:434] layer_256_6_bn2 <- layer_256_6_conv1
I0205 20:23:33.070487 14127 net.cpp:395] layer_256_6_bn2 -> layer_256_6_conv1 (in-place)
I0205 20:23:33.070628 14127 net.cpp:150] Setting up layer_256_6_bn2
I0205 20:23:33.070634 14127 net.cpp:157] Top shape: 10 256 14 14 (501760)
I0205 20:23:33.070637 14127 net.cpp:165] Memory required for data: 2109399200
I0205 20:23:33.070642 14127 layer_factory.hpp:77] Creating layer layer_256_6_scale2
I0205 20:23:33.070647 14127 net.cpp:100] Creating Layer layer_256_6_scale2
I0205 20:23:33.070650 14127 net.cpp:434] layer_256_6_scale2 <- layer_256_6_conv1
I0205 20:23:33.070654 14127 net.cpp:395] layer_256_6_scale2 -> layer_256_6_conv1 (in-place)
I0205 20:23:33.070689 14127 layer_factory.hpp:77] Creating layer layer_256_6_scale2
I0205 20:23:33.070775 14127 net.cpp:150] Setting up layer_256_6_scale2
I0205 20:23:33.070780 14127 net.cpp:157] Top shape: 10 256 14 14 (501760)
I0205 20:23:33.070783 14127 net.cpp:165] Memory required for data: 2111406240
I0205 20:23:33.070787 14127 layer_factory.hpp:77] Creating layer layer_256_6_relu2
I0205 20:23:33.070791 14127 net.cpp:100] Creating Layer layer_256_6_relu2
I0205 20:23:33.070794 14127 net.cpp:434] layer_256_6_relu2 <- layer_256_6_conv1
I0205 20:23:33.070798 14127 net.cpp:395] layer_256_6_relu2 -> layer_256_6_conv1 (in-place)
I0205 20:23:33.070916 14127 net.cpp:150] Setting up layer_256_6_relu2
I0205 20:23:33.070922 14127 net.cpp:157] Top shape: 10 256 14 14 (501760)
I0205 20:23:33.070926 14127 net.cpp:165] Memory required for data: 2113413280
I0205 20:23:33.070930 14127 layer_factory.hpp:77] Creating layer layer_256_6_conv2
I0205 20:23:33.070936 14127 net.cpp:100] Creating Layer layer_256_6_conv2
I0205 20:23:33.070940 14127 net.cpp:434] layer_256_6_conv2 <- layer_256_6_conv1
I0205 20:23:33.070945 14127 net.cpp:408] layer_256_6_conv2 -> layer_256_6_conv2
I0205 20:23:33.082614 14127 net.cpp:150] Setting up layer_256_6_conv2
I0205 20:23:33.082643 14127 net.cpp:157] Top shape: 10 256 14 14 (501760)
I0205 20:23:33.082646 14127 net.cpp:165] Memory required for data: 2115420320
I0205 20:23:33.082651 14127 layer_factory.hpp:77] Creating layer layer_256_6_bn3
I0205 20:23:33.082659 14127 net.cpp:100] Creating Layer layer_256_6_bn3
I0205 20:23:33.082661 14127 net.cpp:434] layer_256_6_bn3 <- layer_256_6_conv2
I0205 20:23:33.082666 14127 net.cpp:395] layer_256_6_bn3 -> layer_256_6_conv2 (in-place)
I0205 20:23:33.082828 14127 net.cpp:150] Setting up layer_256_6_bn3
I0205 20:23:33.082834 14127 net.cpp:157] Top shape: 10 256 14 14 (501760)
I0205 20:23:33.082837 14127 net.cpp:165] Memory required for data: 2117427360
I0205 20:23:33.082842 14127 layer_factory.hpp:77] Creating layer layer_256_6_scale3
I0205 20:23:33.082847 14127 net.cpp:100] Creating Layer layer_256_6_scale3
I0205 20:23:33.082850 14127 net.cpp:434] layer_256_6_scale3 <- layer_256_6_conv2
I0205 20:23:33.082855 14127 net.cpp:395] layer_256_6_scale3 -> layer_256_6_conv2 (in-place)
I0205 20:23:33.082886 14127 layer_factory.hpp:77] Creating layer layer_256_6_scale3
I0205 20:23:33.082967 14127 net.cpp:150] Setting up layer_256_6_scale3
I0205 20:23:33.082974 14127 net.cpp:157] Top shape: 10 256 14 14 (501760)
I0205 20:23:33.082979 14127 net.cpp:165] Memory required for data: 2119434400
I0205 20:23:33.082985 14127 layer_factory.hpp:77] Creating layer layer_256_6_relu3
I0205 20:23:33.082991 14127 net.cpp:100] Creating Layer layer_256_6_relu3
I0205 20:23:33.082995 14127 net.cpp:434] layer_256_6_relu3 <- layer_256_6_conv2
I0205 20:23:33.083000 14127 net.cpp:395] layer_256_6_relu3 -> layer_256_6_conv2 (in-place)
I0205 20:23:33.083130 14127 net.cpp:150] Setting up layer_256_6_relu3
I0205 20:23:33.083139 14127 net.cpp:157] Top shape: 10 256 14 14 (501760)
I0205 20:23:33.083142 14127 net.cpp:165] Memory required for data: 2121441440
I0205 20:23:33.083145 14127 layer_factory.hpp:77] Creating layer layer_256_6_conv3
I0205 20:23:33.083151 14127 net.cpp:100] Creating Layer layer_256_6_conv3
I0205 20:23:33.083155 14127 net.cpp:434] layer_256_6_conv3 <- layer_256_6_conv2
I0205 20:23:33.083159 14127 net.cpp:408] layer_256_6_conv3 -> layer_256_6_conv3
I0205 20:23:33.089139 14127 net.cpp:150] Setting up layer_256_6_conv3
I0205 20:23:33.089171 14127 net.cpp:157] Top shape: 10 1024 14 14 (2007040)
I0205 20:23:33.089175 14127 net.cpp:165] Memory required for data: 2129469600
I0205 20:23:33.089202 14127 layer_factory.hpp:77] Creating layer layer_256_6_sum
I0205 20:23:33.089208 14127 net.cpp:100] Creating Layer layer_256_6_sum
I0205 20:23:33.089213 14127 net.cpp:434] layer_256_6_sum <- layer_256_6_conv3
I0205 20:23:33.089217 14127 net.cpp:434] layer_256_6_sum <- layer_256_5_sum_layer_256_5_sum_0_split_1
I0205 20:23:33.089221 14127 net.cpp:408] layer_256_6_sum -> layer_256_6_sum
I0205 20:23:33.089246 14127 net.cpp:150] Setting up layer_256_6_sum
I0205 20:23:33.089256 14127 net.cpp:157] Top shape: 10 1024 14 14 (2007040)
I0205 20:23:33.089263 14127 net.cpp:165] Memory required for data: 2137497760
I0205 20:23:33.089267 14127 layer_factory.hpp:77] Creating layer layer_512_1_bn1
I0205 20:23:33.089270 14127 net.cpp:100] Creating Layer layer_512_1_bn1
I0205 20:23:33.089274 14127 net.cpp:434] layer_512_1_bn1 <- layer_256_6_sum
I0205 20:23:33.089277 14127 net.cpp:408] layer_512_1_bn1 -> layer_512_1_bn1
I0205 20:23:33.089437 14127 net.cpp:150] Setting up layer_512_1_bn1
I0205 20:23:33.089442 14127 net.cpp:157] Top shape: 10 1024 14 14 (2007040)
I0205 20:23:33.089445 14127 net.cpp:165] Memory required for data: 2145525920
I0205 20:23:33.089450 14127 layer_factory.hpp:77] Creating layer layer_512_1_scale1
I0205 20:23:33.089457 14127 net.cpp:100] Creating Layer layer_512_1_scale1
I0205 20:23:33.089458 14127 net.cpp:434] layer_512_1_scale1 <- layer_512_1_bn1
I0205 20:23:33.089464 14127 net.cpp:395] layer_512_1_scale1 -> layer_512_1_bn1 (in-place)
I0205 20:23:33.089496 14127 layer_factory.hpp:77] Creating layer layer_512_1_scale1
I0205 20:23:33.089581 14127 net.cpp:150] Setting up layer_512_1_scale1
I0205 20:23:33.089587 14127 net.cpp:157] Top shape: 10 1024 14 14 (2007040)
I0205 20:23:33.089591 14127 net.cpp:165] Memory required for data: 2153554080
I0205 20:23:33.089594 14127 layer_factory.hpp:77] Creating layer layer_512_1_relu1
I0205 20:23:33.089598 14127 net.cpp:100] Creating Layer layer_512_1_relu1
I0205 20:23:33.089601 14127 net.cpp:434] layer_512_1_relu1 <- layer_512_1_bn1
I0205 20:23:33.089604 14127 net.cpp:395] layer_512_1_relu1 -> layer_512_1_bn1 (in-place)
I0205 20:23:33.089922 14127 net.cpp:150] Setting up layer_512_1_relu1
I0205 20:23:33.089932 14127 net.cpp:157] Top shape: 10 1024 14 14 (2007040)
I0205 20:23:33.089936 14127 net.cpp:165] Memory required for data: 2161582240
I0205 20:23:33.089938 14127 layer_factory.hpp:77] Creating layer layer_512_1_bn1_layer_512_1_relu1_0_split
I0205 20:23:33.089942 14127 net.cpp:100] Creating Layer layer_512_1_bn1_layer_512_1_relu1_0_split
I0205 20:23:33.089946 14127 net.cpp:434] layer_512_1_bn1_layer_512_1_relu1_0_split <- layer_512_1_bn1
I0205 20:23:33.089951 14127 net.cpp:408] layer_512_1_bn1_layer_512_1_relu1_0_split -> layer_512_1_bn1_layer_512_1_relu1_0_split_0
I0205 20:23:33.089956 14127 net.cpp:408] layer_512_1_bn1_layer_512_1_relu1_0_split -> layer_512_1_bn1_layer_512_1_relu1_0_split_1
I0205 20:23:33.089987 14127 net.cpp:150] Setting up layer_512_1_bn1_layer_512_1_relu1_0_split
I0205 20:23:33.089993 14127 net.cpp:157] Top shape: 10 1024 14 14 (2007040)
I0205 20:23:33.089998 14127 net.cpp:157] Top shape: 10 1024 14 14 (2007040)
I0205 20:23:33.089999 14127 net.cpp:165] Memory required for data: 2177638560
I0205 20:23:33.090003 14127 layer_factory.hpp:77] Creating layer layer_512_1_conv1
I0205 20:23:33.090009 14127 net.cpp:100] Creating Layer layer_512_1_conv1
I0205 20:23:33.090013 14127 net.cpp:434] layer_512_1_conv1 <- layer_512_1_bn1_layer_512_1_relu1_0_split_0
I0205 20:23:33.090018 14127 net.cpp:408] layer_512_1_conv1 -> layer_512_1_conv1
I0205 20:23:33.100922 14127 net.cpp:150] Setting up layer_512_1_conv1
I0205 20:23:33.100942 14127 net.cpp:157] Top shape: 10 512 14 14 (1003520)
I0205 20:23:33.100946 14127 net.cpp:165] Memory required for data: 2181652640
I0205 20:23:33.100951 14127 layer_factory.hpp:77] Creating layer layer_512_1_bn2
I0205 20:23:33.100960 14127 net.cpp:100] Creating Layer layer_512_1_bn2
I0205 20:23:33.100963 14127 net.cpp:434] layer_512_1_bn2 <- layer_512_1_conv1
I0205 20:23:33.100968 14127 net.cpp:395] layer_512_1_bn2 -> layer_512_1_conv1 (in-place)
I0205 20:23:33.101125 14127 net.cpp:150] Setting up layer_512_1_bn2
I0205 20:23:33.101130 14127 net.cpp:157] Top shape: 10 512 14 14 (1003520)
I0205 20:23:33.101133 14127 net.cpp:165] Memory required for data: 2185666720
I0205 20:23:33.101138 14127 layer_factory.hpp:77] Creating layer layer_512_1_scale2
I0205 20:23:33.101145 14127 net.cpp:100] Creating Layer layer_512_1_scale2
I0205 20:23:33.101147 14127 net.cpp:434] layer_512_1_scale2 <- layer_512_1_conv1
I0205 20:23:33.101155 14127 net.cpp:395] layer_512_1_scale2 -> layer_512_1_conv1 (in-place)
I0205 20:23:33.101191 14127 layer_factory.hpp:77] Creating layer layer_512_1_scale2
I0205 20:23:33.101276 14127 net.cpp:150] Setting up layer_512_1_scale2
I0205 20:23:33.101282 14127 net.cpp:157] Top shape: 10 512 14 14 (1003520)
I0205 20:23:33.101285 14127 net.cpp:165] Memory required for data: 2189680800
I0205 20:23:33.101290 14127 layer_factory.hpp:77] Creating layer layer_512_1_relu2
I0205 20:23:33.101294 14127 net.cpp:100] Creating Layer layer_512_1_relu2
I0205 20:23:33.101297 14127 net.cpp:434] layer_512_1_relu2 <- layer_512_1_conv1
I0205 20:23:33.101300 14127 net.cpp:395] layer_512_1_relu2 -> layer_512_1_conv1 (in-place)
I0205 20:23:33.101837 14127 net.cpp:150] Setting up layer_512_1_relu2
I0205 20:23:33.101847 14127 net.cpp:157] Top shape: 10 512 14 14 (1003520)
I0205 20:23:33.101850 14127 net.cpp:165] Memory required for data: 2193694880
I0205 20:23:33.101855 14127 layer_factory.hpp:77] Creating layer layer_512_1_conv2
I0205 20:23:33.101861 14127 net.cpp:100] Creating Layer layer_512_1_conv2
I0205 20:23:33.101866 14127 net.cpp:434] layer_512_1_conv2 <- layer_512_1_conv1
I0205 20:23:33.101871 14127 net.cpp:408] layer_512_1_conv2 -> layer_512_1_conv2
I0205 20:23:33.145622 14127 net.cpp:150] Setting up layer_512_1_conv2
I0205 20:23:33.145656 14127 net.cpp:157] Top shape: 10 512 7 7 (250880)
I0205 20:23:33.145661 14127 net.cpp:165] Memory required for data: 2194698400
I0205 20:23:33.145668 14127 layer_factory.hpp:77] Creating layer layer_512_1_bn3
I0205 20:23:33.145674 14127 net.cpp:100] Creating Layer layer_512_1_bn3
I0205 20:23:33.145679 14127 net.cpp:434] layer_512_1_bn3 <- layer_512_1_conv2
I0205 20:23:33.145684 14127 net.cpp:395] layer_512_1_bn3 -> layer_512_1_conv2 (in-place)
I0205 20:23:33.145859 14127 net.cpp:150] Setting up layer_512_1_bn3
I0205 20:23:33.145864 14127 net.cpp:157] Top shape: 10 512 7 7 (250880)
I0205 20:23:33.145867 14127 net.cpp:165] Memory required for data: 2195701920
I0205 20:23:33.145892 14127 layer_factory.hpp:77] Creating layer layer_512_1_scale3
I0205 20:23:33.145900 14127 net.cpp:100] Creating Layer layer_512_1_scale3
I0205 20:23:33.145903 14127 net.cpp:434] layer_512_1_scale3 <- layer_512_1_conv2
I0205 20:23:33.145907 14127 net.cpp:395] layer_512_1_scale3 -> layer_512_1_conv2 (in-place)
I0205 20:23:33.145941 14127 layer_factory.hpp:77] Creating layer layer_512_1_scale3
I0205 20:23:33.146026 14127 net.cpp:150] Setting up layer_512_1_scale3
I0205 20:23:33.146033 14127 net.cpp:157] Top shape: 10 512 7 7 (250880)
I0205 20:23:33.146035 14127 net.cpp:165] Memory required for data: 2196705440
I0205 20:23:33.146039 14127 layer_factory.hpp:77] Creating layer layer_512_1_relu3
I0205 20:23:33.146044 14127 net.cpp:100] Creating Layer layer_512_1_relu3
I0205 20:23:33.146047 14127 net.cpp:434] layer_512_1_relu3 <- layer_512_1_conv2
I0205 20:23:33.146051 14127 net.cpp:395] layer_512_1_relu3 -> layer_512_1_conv2 (in-place)
I0205 20:23:33.146175 14127 net.cpp:150] Setting up layer_512_1_relu3
I0205 20:23:33.146183 14127 net.cpp:157] Top shape: 10 512 7 7 (250880)
I0205 20:23:33.146185 14127 net.cpp:165] Memory required for data: 2197708960
I0205 20:23:33.146188 14127 layer_factory.hpp:77] Creating layer layer_512_1_conv3
I0205 20:23:33.146195 14127 net.cpp:100] Creating Layer layer_512_1_conv3
I0205 20:23:33.146198 14127 net.cpp:434] layer_512_1_conv3 <- layer_512_1_conv2
I0205 20:23:33.146203 14127 net.cpp:408] layer_512_1_conv3 -> layer_512_1_conv3
I0205 20:23:33.166155 14127 net.cpp:150] Setting up layer_512_1_conv3
I0205 20:23:33.166188 14127 net.cpp:157] Top shape: 10 2048 7 7 (1003520)
I0205 20:23:33.166191 14127 net.cpp:165] Memory required for data: 2201723040
I0205 20:23:33.166196 14127 layer_factory.hpp:77] Creating layer layer_512_1_conv_expand
I0205 20:23:33.166208 14127 net.cpp:100] Creating Layer layer_512_1_conv_expand
I0205 20:23:33.166226 14127 net.cpp:434] layer_512_1_conv_expand <- layer_512_1_bn1_layer_512_1_relu1_0_split_1
I0205 20:23:33.166232 14127 net.cpp:408] layer_512_1_conv_expand -> layer_512_1_conv_expand
I0205 20:23:33.206123 14127 net.cpp:150] Setting up layer_512_1_conv_expand
I0205 20:23:33.206143 14127 net.cpp:157] Top shape: 10 2048 7 7 (1003520)
I0205 20:23:33.206147 14127 net.cpp:165] Memory required for data: 2205737120
I0205 20:23:33.206153 14127 layer_factory.hpp:77] Creating layer layer_512_1_sum
I0205 20:23:33.206161 14127 net.cpp:100] Creating Layer layer_512_1_sum
I0205 20:23:33.206166 14127 net.cpp:434] layer_512_1_sum <- layer_512_1_conv3
I0205 20:23:33.206171 14127 net.cpp:434] layer_512_1_sum <- layer_512_1_conv_expand
I0205 20:23:33.206174 14127 net.cpp:408] layer_512_1_sum -> layer_512_1_sum
I0205 20:23:33.206219 14127 net.cpp:150] Setting up layer_512_1_sum
I0205 20:23:33.206223 14127 net.cpp:157] Top shape: 10 2048 7 7 (1003520)
I0205 20:23:33.206226 14127 net.cpp:165] Memory required for data: 2209751200
I0205 20:23:33.206229 14127 layer_factory.hpp:77] Creating layer layer_512_1_sum_layer_512_1_sum_0_split
I0205 20:23:33.206233 14127 net.cpp:100] Creating Layer layer_512_1_sum_layer_512_1_sum_0_split
I0205 20:23:33.206236 14127 net.cpp:434] layer_512_1_sum_layer_512_1_sum_0_split <- layer_512_1_sum
I0205 20:23:33.206241 14127 net.cpp:408] layer_512_1_sum_layer_512_1_sum_0_split -> layer_512_1_sum_layer_512_1_sum_0_split_0
I0205 20:23:33.206246 14127 net.cpp:408] layer_512_1_sum_layer_512_1_sum_0_split -> layer_512_1_sum_layer_512_1_sum_0_split_1
I0205 20:23:33.206274 14127 net.cpp:150] Setting up layer_512_1_sum_layer_512_1_sum_0_split
I0205 20:23:33.206279 14127 net.cpp:157] Top shape: 10 2048 7 7 (1003520)
I0205 20:23:33.206282 14127 net.cpp:157] Top shape: 10 2048 7 7 (1003520)
I0205 20:23:33.206285 14127 net.cpp:165] Memory required for data: 2217779360
I0205 20:23:33.206287 14127 layer_factory.hpp:77] Creating layer layer_512_2_bn1
I0205 20:23:33.206293 14127 net.cpp:100] Creating Layer layer_512_2_bn1
I0205 20:23:33.206296 14127 net.cpp:434] layer_512_2_bn1 <- layer_512_1_sum_layer_512_1_sum_0_split_0
I0205 20:23:33.206300 14127 net.cpp:408] layer_512_2_bn1 -> layer_512_2_bn1
I0205 20:23:33.206468 14127 net.cpp:150] Setting up layer_512_2_bn1
I0205 20:23:33.206473 14127 net.cpp:157] Top shape: 10 2048 7 7 (1003520)
I0205 20:23:33.206476 14127 net.cpp:165] Memory required for data: 2221793440
I0205 20:23:33.206482 14127 layer_factory.hpp:77] Creating layer layer_512_2_scale1
I0205 20:23:33.206488 14127 net.cpp:100] Creating Layer layer_512_2_scale1
I0205 20:23:33.206491 14127 net.cpp:434] layer_512_2_scale1 <- layer_512_2_bn1
I0205 20:23:33.206496 14127 net.cpp:395] layer_512_2_scale1 -> layer_512_2_bn1 (in-place)
I0205 20:23:33.206529 14127 layer_factory.hpp:77] Creating layer layer_512_2_scale1
I0205 20:23:33.206617 14127 net.cpp:150] Setting up layer_512_2_scale1
I0205 20:23:33.206622 14127 net.cpp:157] Top shape: 10 2048 7 7 (1003520)
I0205 20:23:33.206625 14127 net.cpp:165] Memory required for data: 2225807520
I0205 20:23:33.206629 14127 layer_factory.hpp:77] Creating layer layer_512_2_relu1
I0205 20:23:33.206634 14127 net.cpp:100] Creating Layer layer_512_2_relu1
I0205 20:23:33.206637 14127 net.cpp:434] layer_512_2_relu1 <- layer_512_2_bn1
I0205 20:23:33.206641 14127 net.cpp:395] layer_512_2_relu1 -> layer_512_2_bn1 (in-place)
I0205 20:23:33.206758 14127 net.cpp:150] Setting up layer_512_2_relu1
I0205 20:23:33.206765 14127 net.cpp:157] Top shape: 10 2048 7 7 (1003520)
I0205 20:23:33.206768 14127 net.cpp:165] Memory required for data: 2229821600
I0205 20:23:33.206771 14127 layer_factory.hpp:77] Creating layer layer_512_2_conv1
I0205 20:23:33.206779 14127 net.cpp:100] Creating Layer layer_512_2_conv1
I0205 20:23:33.206781 14127 net.cpp:434] layer_512_2_conv1 <- layer_512_2_bn1
I0205 20:23:33.206786 14127 net.cpp:408] layer_512_2_conv1 -> layer_512_2_conv1
I0205 20:23:33.226955 14127 net.cpp:150] Setting up layer_512_2_conv1
I0205 20:23:33.226975 14127 net.cpp:157] Top shape: 10 512 7 7 (250880)
I0205 20:23:33.226979 14127 net.cpp:165] Memory required for data: 2230825120
I0205 20:23:33.226984 14127 layer_factory.hpp:77] Creating layer layer_512_2_bn2
I0205 20:23:33.226994 14127 net.cpp:100] Creating Layer layer_512_2_bn2
I0205 20:23:33.227005 14127 net.cpp:434] layer_512_2_bn2 <- layer_512_2_conv1
I0205 20:23:33.227031 14127 net.cpp:395] layer_512_2_bn2 -> layer_512_2_conv1 (in-place)
I0205 20:23:33.227196 14127 net.cpp:150] Setting up layer_512_2_bn2
I0205 20:23:33.227202 14127 net.cpp:157] Top shape: 10 512 7 7 (250880)
I0205 20:23:33.227205 14127 net.cpp:165] Memory required for data: 2231828640
I0205 20:23:33.227211 14127 layer_factory.hpp:77] Creating layer layer_512_2_scale2
I0205 20:23:33.227216 14127 net.cpp:100] Creating Layer layer_512_2_scale2
I0205 20:23:33.227219 14127 net.cpp:434] layer_512_2_scale2 <- layer_512_2_conv1
I0205 20:23:33.227223 14127 net.cpp:395] layer_512_2_scale2 -> layer_512_2_conv1 (in-place)
I0205 20:23:33.227257 14127 layer_factory.hpp:77] Creating layer layer_512_2_scale2
I0205 20:23:33.227344 14127 net.cpp:150] Setting up layer_512_2_scale2
I0205 20:23:33.227350 14127 net.cpp:157] Top shape: 10 512 7 7 (250880)
I0205 20:23:33.227354 14127 net.cpp:165] Memory required for data: 2232832160
I0205 20:23:33.227357 14127 layer_factory.hpp:77] Creating layer layer_512_2_relu2
I0205 20:23:33.227362 14127 net.cpp:100] Creating Layer layer_512_2_relu2
I0205 20:23:33.227365 14127 net.cpp:434] layer_512_2_relu2 <- layer_512_2_conv1
I0205 20:23:33.227370 14127 net.cpp:395] layer_512_2_relu2 -> layer_512_2_conv1 (in-place)
I0205 20:23:33.227483 14127 net.cpp:150] Setting up layer_512_2_relu2
I0205 20:23:33.227489 14127 net.cpp:157] Top shape: 10 512 7 7 (250880)
I0205 20:23:33.227493 14127 net.cpp:165] Memory required for data: 2233835680
I0205 20:23:33.227495 14127 layer_factory.hpp:77] Creating layer layer_512_2_conv2
I0205 20:23:33.227504 14127 net.cpp:100] Creating Layer layer_512_2_conv2
I0205 20:23:33.227506 14127 net.cpp:434] layer_512_2_conv2 <- layer_512_2_conv1
I0205 20:23:33.227511 14127 net.cpp:408] layer_512_2_conv2 -> layer_512_2_conv2
I0205 20:23:33.271371 14127 net.cpp:150] Setting up layer_512_2_conv2
I0205 20:23:33.271394 14127 net.cpp:157] Top shape: 10 512 7 7 (250880)
I0205 20:23:33.271397 14127 net.cpp:165] Memory required for data: 2234839200
I0205 20:23:33.271404 14127 layer_factory.hpp:77] Creating layer layer_512_2_bn3
I0205 20:23:33.271410 14127 net.cpp:100] Creating Layer layer_512_2_bn3
I0205 20:23:33.271415 14127 net.cpp:434] layer_512_2_bn3 <- layer_512_2_conv2
I0205 20:23:33.271421 14127 net.cpp:395] layer_512_2_bn3 -> layer_512_2_conv2 (in-place)
I0205 20:23:33.271581 14127 net.cpp:150] Setting up layer_512_2_bn3
I0205 20:23:33.271589 14127 net.cpp:157] Top shape: 10 512 7 7 (250880)
I0205 20:23:33.271590 14127 net.cpp:165] Memory required for data: 2235842720
I0205 20:23:33.271596 14127 layer_factory.hpp:77] Creating layer layer_512_2_scale3
I0205 20:23:33.271602 14127 net.cpp:100] Creating Layer layer_512_2_scale3
I0205 20:23:33.271605 14127 net.cpp:434] layer_512_2_scale3 <- layer_512_2_conv2
I0205 20:23:33.271610 14127 net.cpp:395] layer_512_2_scale3 -> layer_512_2_conv2 (in-place)
I0205 20:23:33.271642 14127 layer_factory.hpp:77] Creating layer layer_512_2_scale3
I0205 20:23:33.271729 14127 net.cpp:150] Setting up layer_512_2_scale3
I0205 20:23:33.271735 14127 net.cpp:157] Top shape: 10 512 7 7 (250880)
I0205 20:23:33.271737 14127 net.cpp:165] Memory required for data: 2236846240
I0205 20:23:33.271742 14127 layer_factory.hpp:77] Creating layer layer_512_2_relu3
I0205 20:23:33.271746 14127 net.cpp:100] Creating Layer layer_512_2_relu3
I0205 20:23:33.271749 14127 net.cpp:434] layer_512_2_relu3 <- layer_512_2_conv2
I0205 20:23:33.271754 14127 net.cpp:395] layer_512_2_relu3 -> layer_512_2_conv2 (in-place)
I0205 20:23:33.271883 14127 net.cpp:150] Setting up layer_512_2_relu3
I0205 20:23:33.271890 14127 net.cpp:157] Top shape: 10 512 7 7 (250880)
I0205 20:23:33.271893 14127 net.cpp:165] Memory required for data: 2237849760
I0205 20:23:33.271896 14127 layer_factory.hpp:77] Creating layer layer_512_2_conv3
I0205 20:23:33.271904 14127 net.cpp:100] Creating Layer layer_512_2_conv3
I0205 20:23:33.271913 14127 net.cpp:434] layer_512_2_conv3 <- layer_512_2_conv2
I0205 20:23:33.271922 14127 net.cpp:408] layer_512_2_conv3 -> layer_512_2_conv3
I0205 20:23:33.292124 14127 net.cpp:150] Setting up layer_512_2_conv3
I0205 20:23:33.292142 14127 net.cpp:157] Top shape: 10 2048 7 7 (1003520)
I0205 20:23:33.292146 14127 net.cpp:165] Memory required for data: 2241863840
I0205 20:23:33.292152 14127 layer_factory.hpp:77] Creating layer layer_512_2_sum
I0205 20:23:33.292160 14127 net.cpp:100] Creating Layer layer_512_2_sum
I0205 20:23:33.292165 14127 net.cpp:434] layer_512_2_sum <- layer_512_2_conv3
I0205 20:23:33.292170 14127 net.cpp:434] layer_512_2_sum <- layer_512_1_sum_layer_512_1_sum_0_split_1
I0205 20:23:33.292173 14127 net.cpp:408] layer_512_2_sum -> layer_512_2_sum
I0205 20:23:33.292198 14127 net.cpp:150] Setting up layer_512_2_sum
I0205 20:23:33.292202 14127 net.cpp:157] Top shape: 10 2048 7 7 (1003520)
I0205 20:23:33.292206 14127 net.cpp:165] Memory required for data: 2245877920
I0205 20:23:33.292208 14127 layer_factory.hpp:77] Creating layer layer_512_2_sum_layer_512_2_sum_0_split
I0205 20:23:33.292212 14127 net.cpp:100] Creating Layer layer_512_2_sum_layer_512_2_sum_0_split
I0205 20:23:33.292217 14127 net.cpp:434] layer_512_2_sum_layer_512_2_sum_0_split <- layer_512_2_sum
I0205 20:23:33.292220 14127 net.cpp:408] layer_512_2_sum_layer_512_2_sum_0_split -> layer_512_2_sum_layer_512_2_sum_0_split_0
I0205 20:23:33.292225 14127 net.cpp:408] layer_512_2_sum_layer_512_2_sum_0_split -> layer_512_2_sum_layer_512_2_sum_0_split_1
I0205 20:23:33.292254 14127 net.cpp:150] Setting up layer_512_2_sum_layer_512_2_sum_0_split
I0205 20:23:33.292259 14127 net.cpp:157] Top shape: 10 2048 7 7 (1003520)
I0205 20:23:33.292263 14127 net.cpp:157] Top shape: 10 2048 7 7 (1003520)
I0205 20:23:33.292265 14127 net.cpp:165] Memory required for data: 2253906080
I0205 20:23:33.292268 14127 layer_factory.hpp:77] Creating layer layer_512_3_bn1
I0205 20:23:33.292273 14127 net.cpp:100] Creating Layer layer_512_3_bn1
I0205 20:23:33.292275 14127 net.cpp:434] layer_512_3_bn1 <- layer_512_2_sum_layer_512_2_sum_0_split_0
I0205 20:23:33.292279 14127 net.cpp:408] layer_512_3_bn1 -> layer_512_3_bn1
I0205 20:23:33.292443 14127 net.cpp:150] Setting up layer_512_3_bn1
I0205 20:23:33.292448 14127 net.cpp:157] Top shape: 10 2048 7 7 (1003520)
I0205 20:23:33.292450 14127 net.cpp:165] Memory required for data: 2257920160
I0205 20:23:33.292455 14127 layer_factory.hpp:77] Creating layer layer_512_3_scale1
I0205 20:23:33.292460 14127 net.cpp:100] Creating Layer layer_512_3_scale1
I0205 20:23:33.292464 14127 net.cpp:434] layer_512_3_scale1 <- layer_512_3_bn1
I0205 20:23:33.292467 14127 net.cpp:395] layer_512_3_scale1 -> layer_512_3_bn1 (in-place)
I0205 20:23:33.292501 14127 layer_factory.hpp:77] Creating layer layer_512_3_scale1
I0205 20:23:33.292590 14127 net.cpp:150] Setting up layer_512_3_scale1
I0205 20:23:33.292596 14127 net.cpp:157] Top shape: 10 2048 7 7 (1003520)
I0205 20:23:33.292598 14127 net.cpp:165] Memory required for data: 2261934240
I0205 20:23:33.292603 14127 layer_factory.hpp:77] Creating layer layer_512_3_relu1
I0205 20:23:33.292608 14127 net.cpp:100] Creating Layer layer_512_3_relu1
I0205 20:23:33.292611 14127 net.cpp:434] layer_512_3_relu1 <- layer_512_3_bn1
I0205 20:23:33.292614 14127 net.cpp:395] layer_512_3_relu1 -> layer_512_3_bn1 (in-place)
I0205 20:23:33.292732 14127 net.cpp:150] Setting up layer_512_3_relu1
I0205 20:23:33.292738 14127 net.cpp:157] Top shape: 10 2048 7 7 (1003520)
I0205 20:23:33.292742 14127 net.cpp:165] Memory required for data: 2265948320
I0205 20:23:33.292743 14127 layer_factory.hpp:77] Creating layer layer_512_3_conv1
I0205 20:23:33.292750 14127 net.cpp:100] Creating Layer layer_512_3_conv1
I0205 20:23:33.292753 14127 net.cpp:434] layer_512_3_conv1 <- layer_512_3_bn1
I0205 20:23:33.292758 14127 net.cpp:408] layer_512_3_conv1 -> layer_512_3_conv1
I0205 20:23:33.313138 14127 net.cpp:150] Setting up layer_512_3_conv1
I0205 20:23:33.313174 14127 net.cpp:157] Top shape: 10 512 7 7 (250880)
I0205 20:23:33.313179 14127 net.cpp:165] Memory required for data: 2266951840
I0205 20:23:33.313210 14127 layer_factory.hpp:77] Creating layer layer_512_3_bn2
I0205 20:23:33.313217 14127 net.cpp:100] Creating Layer layer_512_3_bn2
I0205 20:23:33.313222 14127 net.cpp:434] layer_512_3_bn2 <- layer_512_3_conv1
I0205 20:23:33.313227 14127 net.cpp:395] layer_512_3_bn2 -> layer_512_3_conv1 (in-place)
I0205 20:23:33.313397 14127 net.cpp:150] Setting up layer_512_3_bn2
I0205 20:23:33.313403 14127 net.cpp:157] Top shape: 10 512 7 7 (250880)
I0205 20:23:33.313406 14127 net.cpp:165] Memory required for data: 2267955360
I0205 20:23:33.313412 14127 layer_factory.hpp:77] Creating layer layer_512_3_scale2
I0205 20:23:33.313418 14127 net.cpp:100] Creating Layer layer_512_3_scale2
I0205 20:23:33.313421 14127 net.cpp:434] layer_512_3_scale2 <- layer_512_3_conv1
I0205 20:23:33.313424 14127 net.cpp:395] layer_512_3_scale2 -> layer_512_3_conv1 (in-place)
I0205 20:23:33.313458 14127 layer_factory.hpp:77] Creating layer layer_512_3_scale2
I0205 20:23:33.313549 14127 net.cpp:150] Setting up layer_512_3_scale2
I0205 20:23:33.313555 14127 net.cpp:157] Top shape: 10 512 7 7 (250880)
I0205 20:23:33.313558 14127 net.cpp:165] Memory required for data: 2268958880
I0205 20:23:33.313562 14127 layer_factory.hpp:77] Creating layer layer_512_3_relu2
I0205 20:23:33.313567 14127 net.cpp:100] Creating Layer layer_512_3_relu2
I0205 20:23:33.313570 14127 net.cpp:434] layer_512_3_relu2 <- layer_512_3_conv1
I0205 20:23:33.313573 14127 net.cpp:395] layer_512_3_relu2 -> layer_512_3_conv1 (in-place)
I0205 20:23:33.313907 14127 net.cpp:150] Setting up layer_512_3_relu2
I0205 20:23:33.313916 14127 net.cpp:157] Top shape: 10 512 7 7 (250880)
I0205 20:23:33.313920 14127 net.cpp:165] Memory required for data: 2269962400
I0205 20:23:33.313923 14127 layer_factory.hpp:77] Creating layer layer_512_3_conv2
I0205 20:23:33.313930 14127 net.cpp:100] Creating Layer layer_512_3_conv2
I0205 20:23:33.313933 14127 net.cpp:434] layer_512_3_conv2 <- layer_512_3_conv1
I0205 20:23:33.313940 14127 net.cpp:408] layer_512_3_conv2 -> layer_512_3_conv2
I0205 20:23:33.357656 14127 net.cpp:150] Setting up layer_512_3_conv2
I0205 20:23:33.357692 14127 net.cpp:157] Top shape: 10 512 7 7 (250880)
I0205 20:23:33.357695 14127 net.cpp:165] Memory required for data: 2270965920
I0205 20:23:33.357700 14127 layer_factory.hpp:77] Creating layer layer_512_3_bn3
I0205 20:23:33.357709 14127 net.cpp:100] Creating Layer layer_512_3_bn3
I0205 20:23:33.357714 14127 net.cpp:434] layer_512_3_bn3 <- layer_512_3_conv2
I0205 20:23:33.357718 14127 net.cpp:395] layer_512_3_bn3 -> layer_512_3_conv2 (in-place)
I0205 20:23:33.357898 14127 net.cpp:150] Setting up layer_512_3_bn3
I0205 20:23:33.357903 14127 net.cpp:157] Top shape: 10 512 7 7 (250880)
I0205 20:23:33.357906 14127 net.cpp:165] Memory required for data: 2271969440
I0205 20:23:33.357911 14127 layer_factory.hpp:77] Creating layer layer_512_3_scale3
I0205 20:23:33.357918 14127 net.cpp:100] Creating Layer layer_512_3_scale3
I0205 20:23:33.357920 14127 net.cpp:434] layer_512_3_scale3 <- layer_512_3_conv2
I0205 20:23:33.357924 14127 net.cpp:395] layer_512_3_scale3 -> layer_512_3_conv2 (in-place)
I0205 20:23:33.357956 14127 layer_factory.hpp:77] Creating layer layer_512_3_scale3
I0205 20:23:33.358047 14127 net.cpp:150] Setting up layer_512_3_scale3
I0205 20:23:33.358052 14127 net.cpp:157] Top shape: 10 512 7 7 (250880)
I0205 20:23:33.358055 14127 net.cpp:165] Memory required for data: 2272972960
I0205 20:23:33.358059 14127 layer_factory.hpp:77] Creating layer layer_512_3_relu3
I0205 20:23:33.358064 14127 net.cpp:100] Creating Layer layer_512_3_relu3
I0205 20:23:33.358067 14127 net.cpp:434] layer_512_3_relu3 <- layer_512_3_conv2
I0205 20:23:33.358072 14127 net.cpp:395] layer_512_3_relu3 -> layer_512_3_conv2 (in-place)
I0205 20:23:33.358191 14127 net.cpp:150] Setting up layer_512_3_relu3
I0205 20:23:33.358197 14127 net.cpp:157] Top shape: 10 512 7 7 (250880)
I0205 20:23:33.358201 14127 net.cpp:165] Memory required for data: 2273976480
I0205 20:23:33.358203 14127 layer_factory.hpp:77] Creating layer layer_512_3_conv3
I0205 20:23:33.358213 14127 net.cpp:100] Creating Layer layer_512_3_conv3
I0205 20:23:33.358222 14127 net.cpp:434] layer_512_3_conv3 <- layer_512_3_conv2
I0205 20:23:33.358227 14127 net.cpp:408] layer_512_3_conv3 -> layer_512_3_conv3
I0205 20:23:33.378615 14127 net.cpp:150] Setting up layer_512_3_conv3
I0205 20:23:33.378638 14127 net.cpp:157] Top shape: 10 2048 7 7 (1003520)
I0205 20:23:33.378641 14127 net.cpp:165] Memory required for data: 2277990560
I0205 20:23:33.378646 14127 layer_factory.hpp:77] Creating layer layer_512_3_sum
I0205 20:23:33.378654 14127 net.cpp:100] Creating Layer layer_512_3_sum
I0205 20:23:33.378659 14127 net.cpp:434] layer_512_3_sum <- layer_512_3_conv3
I0205 20:23:33.378664 14127 net.cpp:434] layer_512_3_sum <- layer_512_2_sum_layer_512_2_sum_0_split_1
I0205 20:23:33.378667 14127 net.cpp:408] layer_512_3_sum -> layer_512_3_sum
I0205 20:23:33.378690 14127 net.cpp:150] Setting up layer_512_3_sum
I0205 20:23:33.378695 14127 net.cpp:157] Top shape: 10 2048 7 7 (1003520)
I0205 20:23:33.378698 14127 net.cpp:165] Memory required for data: 2282004640
I0205 20:23:33.378700 14127 layer_factory.hpp:77] Creating layer last_bn
I0205 20:23:33.378705 14127 net.cpp:100] Creating Layer last_bn
I0205 20:23:33.378722 14127 net.cpp:434] last_bn <- layer_512_3_sum
I0205 20:23:33.378726 14127 net.cpp:395] last_bn -> layer_512_3_sum (in-place)
I0205 20:23:33.378887 14127 net.cpp:150] Setting up last_bn
I0205 20:23:33.378893 14127 net.cpp:157] Top shape: 10 2048 7 7 (1003520)
I0205 20:23:33.378896 14127 net.cpp:165] Memory required for data: 2286018720
I0205 20:23:33.378901 14127 layer_factory.hpp:77] Creating layer last_scale
I0205 20:23:33.378907 14127 net.cpp:100] Creating Layer last_scale
I0205 20:23:33.378911 14127 net.cpp:434] last_scale <- layer_512_3_sum
I0205 20:23:33.378914 14127 net.cpp:395] last_scale -> layer_512_3_sum (in-place)
I0205 20:23:33.378948 14127 layer_factory.hpp:77] Creating layer last_scale
I0205 20:23:33.379040 14127 net.cpp:150] Setting up last_scale
I0205 20:23:33.379045 14127 net.cpp:157] Top shape: 10 2048 7 7 (1003520)
I0205 20:23:33.379048 14127 net.cpp:165] Memory required for data: 2290032800
I0205 20:23:33.379052 14127 layer_factory.hpp:77] Creating layer last_relu
I0205 20:23:33.379056 14127 net.cpp:100] Creating Layer last_relu
I0205 20:23:33.379060 14127 net.cpp:434] last_relu <- layer_512_3_sum
I0205 20:23:33.379065 14127 net.cpp:395] last_relu -> layer_512_3_sum (in-place)
I0205 20:23:33.379184 14127 net.cpp:150] Setting up last_relu
I0205 20:23:33.379190 14127 net.cpp:157] Top shape: 10 2048 7 7 (1003520)
I0205 20:23:33.379194 14127 net.cpp:165] Memory required for data: 2294046880
I0205 20:23:33.379196 14127 layer_factory.hpp:77] Creating layer global_pool
I0205 20:23:33.379202 14127 net.cpp:100] Creating Layer global_pool
I0205 20:23:33.379205 14127 net.cpp:434] global_pool <- layer_512_3_sum
I0205 20:23:33.379209 14127 net.cpp:408] global_pool -> global_pool
I0205 20:23:33.379345 14127 net.cpp:150] Setting up global_pool
I0205 20:23:33.379354 14127 net.cpp:157] Top shape: 10 2048 1 1 (20480)
I0205 20:23:33.379356 14127 net.cpp:165] Memory required for data: 2294128800
I0205 20:23:33.379359 14127 layer_factory.hpp:77] Creating layer score
I0205 20:23:33.379369 14127 net.cpp:100] Creating Layer score
I0205 20:23:33.379372 14127 net.cpp:434] score <- global_pool
I0205 20:23:33.379377 14127 net.cpp:408] score -> score
I0205 20:23:33.381709 14127 net.cpp:150] Setting up score
I0205 20:23:33.381731 14127 net.cpp:157] Top shape: 10 1000 (10000)
I0205 20:23:33.381736 14127 net.cpp:165] Memory required for data: 2294168800
I0205 20:23:33.381742 14127 layer_factory.hpp:77] Creating layer score_score_0_split
I0205 20:23:33.381749 14127 net.cpp:100] Creating Layer score_score_0_split
I0205 20:23:33.381754 14127 net.cpp:434] score_score_0_split <- score
I0205 20:23:33.381759 14127 net.cpp:408] score_score_0_split -> score_score_0_split_0
I0205 20:23:33.381765 14127 net.cpp:408] score_score_0_split -> score_score_0_split_1
I0205 20:23:33.381770 14127 net.cpp:408] score_score_0_split -> score_score_0_split_2
I0205 20:23:33.381824 14127 net.cpp:150] Setting up score_score_0_split
I0205 20:23:33.381836 14127 net.cpp:157] Top shape: 10 1000 (10000)
I0205 20:23:33.381840 14127 net.cpp:157] Top shape: 10 1000 (10000)
I0205 20:23:33.381844 14127 net.cpp:157] Top shape: 10 1000 (10000)
I0205 20:23:33.381845 14127 net.cpp:165] Memory required for data: 2294288800
I0205 20:23:33.381849 14127 layer_factory.hpp:77] Creating layer loss
I0205 20:23:33.381856 14127 net.cpp:100] Creating Layer loss
I0205 20:23:33.381860 14127 net.cpp:434] loss <- score_score_0_split_0
I0205 20:23:33.381863 14127 net.cpp:434] loss <- label_data_1_split_0
I0205 20:23:33.381868 14127 net.cpp:408] loss -> loss
…
