…
I0201 21:16:42.373172  2647 net.cpp:322] The NetState phase (0) differed from the phase (1) specified by a rule in layer accuracy5
I0201 21:16:42.373991  2647 net.cpp:58] Initializing net from parameters: 
state {
  phase: TRAIN
  level: 0
  stage: ""
}
layer {
  name: "data"
  type: "ImageData"
  top: "data"
  top: "label"
  include {
    phase: TRAIN
  }
  transform_param {
    mirror: true
    crop_size: 224
  }
  image_data_param {
    source: "/media/yves/sandisk3/caffe-master/data/ilsvrc12/train.txt"
    batch_size: 8
    shuffle: true
    root_folder: "/media/yves/sandisk3/caffe-master/data/ilsvrc12/original.imagenet/train/"
  }
}
layer {
  name: "data_bn"
  type: "BatchNorm"
  bottom: "data"
  top: "data_bn"
}
layer {
  name: "data_scale"
  type: "Scale"
  bottom: "data_bn"
  top: "data_bn"
  param {
    lr_mult: 1
    decay_mult: 1
  }
  param {
    lr_mult: 2
    decay_mult: 1
  }
  scale_param {
    bias_term: true
  }
}
layer {
  name: "conv1"
  type: "Convolution"
  bottom: "data_bn"
  top: "conv1"
  param {
    lr_mult: 1
    decay_mult: 1
  }
  param {
    lr_mult: 2
    decay_mult: 1
  }
  convolution_param {
    num_output: 64
    pad: 3
    kernel_size: 7
    stride: 2
    weight_filler {
      type: "msra"
      variance_norm: FAN_OUT
    }
    bias_filler {
      type: "constant"
      value: 0
    }
  }
}
layer {
  name: "conv1_bn"
  type: "BatchNorm"
  bottom: "conv1"
  top: "conv1"
}
layer {
  name: "conv1_scale"
  type: "Scale"
  bottom: "conv1"
  top: "conv1"
  param {
    lr_mult: 1
    decay_mult: 1
  }
  param {
    lr_mult: 2
    decay_mult: 1
  }
  scale_param {
    bias_term: true
  }
}
layer {
  name: "conv1_relu"
  type: "ReLU"
  bottom: "conv1"
  top: "conv1"
}
layer {
  name: "conv1_pool"
  type: "Pooling"
  bottom: "conv1"
  top: "conv1_pool"
  pooling_param {
    kernel_size: 3
    stride: 2
  }
}
layer {
  name: "layer_64_1_conv1"
  type: "Convolution"
  bottom: "conv1_pool"
  top: "layer_64_1_conv1"
  param {
    lr_mult: 1
    decay_mult: 1
  }
  convolution_param {
    num_output: 64
    bias_term: false
    pad: 0
    kernel_size: 1
    stride: 1
    weight_filler {
      type: "msra"
    }
    bias_filler {
      type: "constant"
      value: 0
    }
  }
}
layer {
  name: "layer_64_1_bn2"
  type: "BatchNorm"
  bottom: "layer_64_1_conv1"
  top: "layer_64_1_conv1"
}
layer {
  name: "layer_64_1_scale2"
  type: "Scale"
  bottom: "layer_64_1_conv1"
  top: "layer_64_1_conv1"
  param {
    lr_mult: 1
    decay_mult: 1
  }
  param {
    lr_mult: 2
    decay_mult: 1
  }
  scale_param {
    bias_term: true
  }
}
layer {
  name: "layer_64_1_relu2"
  type: "ReLU"
  bottom: "layer_64_1_conv1"
  top: "layer_64_1_conv1"
}
layer {
  name: "layer_64_1_conv2"
  type: "Convolution"
  bottom: "layer_64_1_conv1"
  top: "layer_64_1_conv2"
  param {
    lr_mult: 1
    decay_mult: 1
  }
  convolution_param {
    num_output: 64
    bias_term: false
    pad: 1
    kernel_size: 3
    stride: 1
    weight_filler {
      type: "msra"
    }
    bias_filler {
      type: "constant"
      value: 0
    }
  }
}
layer {
  name: "layer_64_1_bn3"
  type: "BatchNorm"
  bottom: "layer_64_1_conv2"
  top: "layer_64_1_conv2"
}
layer {
  name: "layer_64_1_scale3"
  type: "Scale"
  bottom: "layer_64_1_conv2"
  top: "layer_64_1_conv2"
  param {
    lr_mult: 1
    decay_mult: 1
  }
  param {
    lr_mult: 2
    decay_mult: 1
  }
  scale_param {
    bias_term: true
  }
}
layer {
  name: "layer_64_1_relu3"
  type: "ReLU"
  bottom: "layer_64_1_conv2"
  top: "layer_64_1_conv2"
}
layer {
  name: "layer_64_1_conv3"
  type: "Convolution"
  bottom: "layer_64_1_conv2"
  top: "layer_64_1_conv3"
  param {
    lr_mult: 1
    decay_mult: 1
  }
  convolution_param {
    num_output: 256
    bias_term: false
    pad: 0
    kernel_size: 1
    stride: 1
    weight_filler {
      type: "msra"
    }
    bias_filler {
      type: "constant"
      value: 0
    }
  }
}
layer {
  name: "layer_64_1_conv_expand"
  type: "Convolution"
  bottom: "layer_64_1_conv1"
  top: "layer_64_1_conv_expand"
  param {
    lr_mult: 1
    decay_mult: 1
  }
  convolution_param {
    num_output: 256
    bias_term: false
    pad: 0
    kernel_size: 1
    stride: 1
    weight_filler {
      type: "msra"
    }
    bias_filler {
      type: "constant"
      value: 0
    }
  }
}
layer {
  name: "layer_64_1_sum"
  type: "Eltwise"
  bottom: "layer_64_1_conv3"
  bottom: "layer_64_1_conv_expand"
  top: "layer_64_1_sum"
}
layer {
  name: "layer_64_2_bn1"
  type: "BatchNorm"
  bottom: "layer_64_1_sum"
  top: "layer_64_2_bn1"
}
layer {
  name: "layer_64_2_scale1"
  type: "Scale"
  bottom: "layer_64_2_bn1"
  top: "layer_64_2_bn1"
  param {
    lr_mult: 1
    decay_mult: 1
  }
  param {
    lr_mult: 2
    decay_mult: 1
  }
  scale_param {
    bias_term: true
  }
}
layer {
  name: "layer_64_2_relu1"
  type: "ReLU"
  bottom: "layer_64_2_bn1"
  top: "layer_64_2_bn1"
}
layer {
  name: "layer_64_2_conv1"
  type: "Convolution"
  bottom: "layer_64_2_bn1"
  top: "layer_64_2_conv1"
  param {
    lr_mult: 1
    decay_mult: 1
  }
  convolution_param {
    num_output: 64
    bias_term: false
    pad: 0
    kernel_size: 1
    stride: 1
    weight_filler {
      type: "msra"
    }
    bias_filler {
      type: "constant"
      value: 0
    }
  }
}
layer {
  name: "layer_64_2_bn2"
  type: "BatchNorm"
  bottom: "layer_64_2_conv1"
  top: "layer_64_2_conv1"
}
layer {
  name: "layer_64_2_scale2"
  type: "Scale"
  bottom: "layer_64_2_conv1"
  top: "layer_64_2_conv1"
  param {
    lr_mult: 1
    decay_mult: 1
  }
  param {
    lr_mult: 2
    decay_mult: 1
  }
  scale_param {
    bias_term: true
  }
}
layer {
  name: "layer_64_2_relu2"
  type: "ReLU"
  bottom: "layer_64_2_conv1"
  top: "layer_64_2_conv1"
}
layer {
  name: "layer_64_2_conv2"
  type: "Convolution"
  bottom: "layer_64_2_conv1"
  top: "layer_64_2_conv2"
  param {
    lr_mult: 1
    decay_mult: 1
  }
  convolution_param {
    num_output: 64
    bias_term: false
    pad: 1
    kernel_size: 3
    stride: 1
    weight_filler {
      type: "msra"
    }
    bias_filler {
      type: "constant"
      value: 0
    }
  }
}
layer {
  name: "layer_64_2_bn3"
  type: "BatchNorm"
  bottom: "layer_64_2_conv2"
  top: "layer_64_2_conv2"
}
layer {
  name: "layer_64_2_scale3"
  type: "Scale"
  bottom: "layer_64_2_conv2"
  top: "layer_64_2_conv2"
  param {
    lr_mult: 1
    decay_mult: 1
  }
  param {
    lr_mult: 2
    decay_mult: 1
  }
  scale_param {
    bias_term: true
  }
}
layer {
  name: "layer_64_2_relu3"
  type: "ReLU"
  bottom: "layer_64_2_conv2"
  top: "layer_64_2_conv2"
}
layer {
  name: "layer_64_2_conv3"
  type: "Convolution"
  bottom: "layer_64_2_conv2"
  top: "layer_64_2_conv3"
  param {
    lr_mult: 1
    decay_mult: 1
  }
  convolution_param {
    num_output: 256
    bias_term: false
    pad: 0
    kernel_size: 1
    stride: 1
    weight_filler {
      type: "msra"
    }
    bias_filler {
      type: "constant"
      value: 0
    }
  }
}
layer {
  name: "layer_64_2_sum"
  type: "Eltwise"
  bottom: "layer_64_2_conv3"
  bottom: "layer_64_1_sum"
  top: "layer_64_2_sum"
}
layer {
  name: "layer_64_3_bn1"
  type: "BatchNorm"
  bottom: "layer_64_2_sum"
  top: "layer_64_3_bn1"
}
layer {
  name: "layer_64_3_scale1"
  type: "Scale"
  bottom: "layer_64_3_bn1"
  top: "layer_64_3_bn1"
  param {
    lr_mult: 1
    decay_mult: 1
  }
  param {
    lr_mult: 2
    decay_mult: 1
  }
  scale_param {
    bias_term: true
  }
}
layer {
  name: "layer_64_3_relu1"
  type: "ReLU"
  bottom: "layer_64_3_bn1"
  top: "layer_64_3_bn1"
}
layer {
  name: "layer_64_3_conv1"
  type: "Convolution"
  bottom: "layer_64_3_bn1"
  top: "layer_64_3_conv1"
  param {
    lr_mult: 1
    decay_mult: 1
  }
  convolution_param {
    num_output: 64
    bias_term: false
    pad: 0
    kernel_size: 1
    stride: 1
    weight_filler {
      type: "msra"
    }
    bias_filler {
      type: "constant"
      value: 0
    }
  }
}
layer {
  name: "layer_64_3_bn2"
  type: "BatchNorm"
  bottom: "layer_64_3_conv1"
  top: "layer_64_3_conv1"
}
layer {
  name: "layer_64_3_scale2"
  type: "Scale"
  bottom: "layer_64_3_conv1"
  top: "layer_64_3_conv1"
  param {
    lr_mult: 1
    decay_mult: 1
  }
  param {
    lr_mult: 2
    decay_mult: 1
  }
  scale_param {
    bias_term: true
  }
}
layer {
  name: "layer_64_3_relu2"
  type: "ReLU"
  bottom: "layer_64_3_conv1"
  top: "layer_64_3_conv1"
}
layer {
  name: "layer_64_3_conv2"
  type: "Convolution"
  bottom: "layer_64_3_conv1"
  top: "layer_64_3_conv2"
  param {
    lr_mult: 1
    decay_mult: 1
  }
  convolution_param {
    num_output: 64
    bias_term: false
    pad: 1
    kernel_size: 3
    stride: 1
    weight_filler {
      type: "msra"
    }
    bias_filler {
      type: "constant"
      value: 0
    }
  }
}
layer {
  name: "layer_64_3_bn3"
  type: "BatchNorm"
  bottom: "layer_64_3_conv2"
  top: "layer_64_3_conv2"
}
layer {
  name: "layer_64_3_scale3"
  type: "Scale"
  bottom: "layer_64_3_conv2"
  top: "layer_64_3_conv2"
  param {
    lr_mult: 1
    decay_mult: 1
  }
  param {
    lr_mult: 2
    decay_mult: 1
  }
  scale_param {
    bias_term: true
  }
}
layer {
  name: "layer_64_3_relu3"
  type: "ReLU"
  bottom: "layer_64_3_conv2"
  top: "layer_64_3_conv2"
}
layer {
  name: "layer_64_3_conv3"
  type: "Convolution"
  bottom: "layer_64_3_conv2"
  top: "layer_64_3_conv3"
  param {
    lr_mult: 1
    decay_mult: 1
  }
  convolution_param {
    num_output: 256
    bias_term: false
    pad: 0
    kernel_size: 1
    stride: 1
    weight_filler {
      type: "msra"
    }
    bias_filler {
      type: "constant"
      value: 0
    }
  }
}
layer {
  name: "layer_64_3_sum"
  type: "Eltwise"
  bottom: "layer_64_3_conv3"
  bottom: "layer_64_2_sum"
  top: "layer_64_3_sum"
}
layer {
  name: "layer_128_1_bn1"
  type: "BatchNorm"
  bottom: "layer_64_3_sum"
  top: "layer_128_1_bn1"
}
layer {
  name: "layer_128_1_scale1"
  type: "Scale"
  bottom: "layer_128_1_bn1"
  top: "layer_128_1_bn1"
  param {
    lr_mult: 1
    decay_mult: 1
  }
  param {
    lr_mult: 2
    decay_mult: 1
  }
  scale_param {
    bias_term: true
  }
}
layer {
  name: "layer_128_1_relu1"
  type: "ReLU"
  bottom: "layer_128_1_bn1"
  top: "layer_128_1_bn1"
}
layer {
  name: "layer_128_1_conv1"
  type: "Convolution"
  bottom: "layer_128_1_bn1"
  top: "layer_128_1_conv1"
  param {
    lr_mult: 1
    decay_mult: 1
  }
  convolution_param {
    num_output: 128
    bias_term: false
    pad: 0
    kernel_size: 1
    stride: 1
    weight_filler {
      type: "msra"
    }
    bias_filler {
      type: "constant"
      value: 0
    }
  }
}
layer {
  name: "layer_128_1_bn2"
  type: "BatchNorm"
  bottom: "layer_128_1_conv1"
  top: "layer_128_1_conv1"
}
layer {
  name: "layer_128_1_scale2"
  type: "Scale"
  bottom: "layer_128_1_conv1"
  top: "layer_128_1_conv1"
  param {
    lr_mult: 1
    decay_mult: 1
  }
  param {
    lr_mult: 2
    decay_mult: 1
  }
  scale_param {
    bias_term: true
  }
}
layer {
  name: "layer_128_1_relu2"
  type: "ReLU"
  bottom: "layer_128_1_conv1"
  top: "layer_128_1_conv1"
}
layer {
  name: "layer_128_1_conv2"
  type: "Convolution"
  bottom: "layer_128_1_conv1"
  top: "layer_128_1_conv2"
  param {
    lr_mult: 1
    decay_mult: 1
  }
  convolution_param {
    num_output: 128
    bias_term: false
    pad: 1
    kernel_size: 3
    stride: 2
    weight_filler {
      type: "msra"
    }
    bias_filler {
      type: "constant"
      value: 0
    }
  }
}
layer {
  name: "layer_128_1_bn3"
  type: "BatchNorm"
  bottom: "layer_128_1_conv2"
  top: "layer_128_1_conv2"
}
layer {
  name: "layer_128_1_scale3"
  type: "Scale"
  bottom: "layer_128_1_conv2"
  top: "layer_128_1_conv2"
  param {
    lr_mult: 1
    decay_mult: 1
  }
  param {
    lr_mult: 2
    decay_mult: 1
  }
  scale_param {
    bias_term: true
  }
}
layer {
  name: "layer_128_1_relu3"
  type: "ReLU"
  bottom: "layer_128_1_conv2"
  top: "layer_128_1_conv2"
}
layer {
  name: "layer_128_1_conv3"
  type: "Convolution"
  bottom: "layer_128_1_conv2"
  top: "layer_128_1_conv3"
  param {
    lr_mult: 1
    decay_mult: 1
  }
  convolution_param {
    num_output: 512
    bias_term: false
    pad: 0
    kernel_size: 1
    stride: 1
    weight_filler {
      type: "msra"
    }
    bias_filler {
      type: "constant"
      value: 0
    }
  }
}
layer {
  name: "layer_128_1_conv_expand"
  type: "Convolution"
  bottom: "layer_128_1_bn1"
  top: "layer_128_1_conv_expand"
  param {
    lr_mult: 1
    decay_mult: 1
  }
  convolution_param {
    num_output: 512
    bias_term: false
    pad: 0
    kernel_size: 1
    stride: 2
    weight_filler {
      type: "msra"
    }
    bias_filler {
      type: "constant"
      value: 0
    }
  }
}
layer {
  name: "layer_128_1_sum"
  type: "Eltwise"
  bottom: "layer_128_1_conv3"
  bottom: "layer_128_1_conv_expand"
  top: "layer_128_1_sum"
}
layer {
  name: "layer_128_2_bn1"
  type: "BatchNorm"
  bottom: "layer_128_1_sum"
  top: "layer_128_2_bn1"
}
layer {
  name: "layer_128_2_scale1"
  type: "Scale"
  bottom: "layer_128_2_bn1"
  top: "layer_128_2_bn1"
  param {
    lr_mult: 1
    decay_mult: 1
  }
  param {
    lr_mult: 2
    decay_mult: 1
  }
  scale_param {
    bias_term: true
  }
}
layer {
  name: "layer_128_2_relu1"
  type: "ReLU"
  bottom: "layer_128_2_bn1"
  top: "layer_128_2_bn1"
}
layer {
  name: "layer_128_2_conv1"
  type: "Convolution"
  bottom: "layer_128_2_bn1"
  top: "layer_128_2_conv1"
  param {
    lr_mult: 1
    decay_mult: 1
  }
  convolution_param {
    num_output: 128
    bias_term: false
    pad: 0
    kernel_size: 1
    stride: 1
    weight_filler {
      type: "msra"
    }
    bias_filler {
      type: "constant"
      value: 0
    }
  }
}
layer {
  name: "layer_128_2_bn2"
  type: "BatchNorm"
  bottom: "layer_128_2_conv1"
  top: "layer_128_2_conv1"
}
layer {
  name: "layer_128_2_scale2"
  type: "Scale"
  bottom: "layer_128_2_conv1"
  top: "layer_128_2_conv1"
  param {
    lr_mult: 1
    decay_mult: 1
  }
  param {
    lr_mult: 2
    decay_mult: 1
  }
  scale_param {
    bias_term: true
  }
}
layer {
  name: "layer_128_2_relu2"
  type: "ReLU"
  bottom: "layer_128_2_conv1"
  top: "layer_128_2_conv1"
}
layer {
  name: "layer_128_2_conv2"
  type: "Convolution"
  bottom: "layer_128_2_conv1"
  top: "layer_128_2_conv2"
  param {
    lr_mult: 1
    decay_mult: 1
  }
  convolution_param {
    num_output: 128
    bias_term: false
    pad: 1
    kernel_size: 3
    stride: 1
    weight_filler {
      type: "msra"
    }
    bias_filler {
      type: "constant"
      value: 0
    }
  }
}
layer {
  name: "layer_128_2_bn3"
  type: "BatchNorm"
  bottom: "layer_128_2_conv2"
  top: "layer_128_2_conv2"
}
layer {
  name: "layer_128_2_scale3"
  type: "Scale"
  bottom: "layer_128_2_conv2"
  top: "layer_128_2_conv2"
  param {
    lr_mult: 1
    decay_mult: 1
  }
  param {
    lr_mult: 2
    decay_mult: 1
  }
  scale_param {
    bias_term: true
  }
}
layer {
  name: "layer_128_2_relu3"
  type: "ReLU"
  bottom: "layer_128_2_conv2"
  top: "layer_128_2_conv2"
}
layer {
  name: "layer_128_2_conv3"
  type: "Convolution"
  bottom: "layer_128_2_conv2"
  top: "layer_128_2_conv3"
  param {
    lr_mult: 1
    decay_mult: 1
  }
  convolution_param {
    num_output: 512
    bias_term: false
    pad: 0
    kernel_size: 1
    stride: 1
    weight_filler {
      type: "msra"
    }
    bias_filler {
      type: "constant"
      value: 0
    }
  }
}
layer {
  name: "layer_128_2_sum"
  type: "Eltwise"
  bottom: "layer_128_2_conv3"
  bottom: "layer_128_1_sum"
  top: "layer_128_2_sum"
}
layer {
  name: "layer_128_3_bn1"
  type: "BatchNorm"
  bottom: "layer_128_2_sum"
  top: "layer_128_3_bn1"
}
layer {
  name: "layer_128_3_scale1"
  type: "Scale"
  bottom: "layer_128_3_bn1"
  top: "layer_128_3_bn1"
  param {
    lr_mult: 1
    decay_mult: 1
  }
  param {
    lr_mult: 2
    decay_mult: 1
  }
  scale_param {
    bias_term: true
  }
}
layer {
  name: "layer_128_3_relu1"
  type: "ReLU"
  bottom: "layer_128_3_bn1"
  top: "layer_128_3_bn1"
}
layer {
  name: "layer_128_3_conv1"
  type: "Convolution"
  bottom: "layer_128_3_bn1"
  top: "layer_128_3_conv1"
  param {
    lr_mult: 1
    decay_mult: 1
  }
  convolution_param {
    num_output: 128
    bias_term: false
    pad: 0
    kernel_size: 1
    stride: 1
    weight_filler {
      type: "msra"
    }
    bias_filler {
      type: "constant"
      value: 0
    }
  }
}
layer {
  name: "layer_128_3_bn2"
  type: "BatchNorm"
  bottom: "layer_128_3_conv1"
  top: "layer_128_3_conv1"
}
layer {
  name: "layer_128_3_scale2"
  type: "Scale"
  bottom: "layer_128_3_conv1"
  top: "layer_128_3_conv1"
  param {
    lr_mult: 1
    decay_mult: 1
  }
  param {
    lr_mult: 2
    decay_mult: 1
  }
  scale_param {
    bias_term: true
  }
}
layer {
  name: "layer_128_3_relu2"
  type: "ReLU"
  bottom: "layer_128_3_conv1"
  top: "layer_128_3_conv1"
}
layer {
  name: "layer_128_3_conv2"
  type: "Convolution"
  bottom: "layer_128_3_conv1"
  top: "layer_128_3_conv2"
  param {
    lr_mult: 1
    decay_mult: 1
  }
  convolution_param {
    num_output: 128
    bias_term: false
    pad: 1
    kernel_size: 3
    stride: 1
    weight_filler {
      type: "msra"
    }
    bias_filler {
      type: "constant"
      value: 0
    }
  }
}
layer {
  name: "layer_128_3_bn3"
  type: "BatchNorm"
  bottom: "layer_128_3_conv2"
  top: "layer_128_3_conv2"
}
layer {
  name: "layer_128_3_scale3"
  type: "Scale"
  bottom: "layer_128_3_conv2"
  top: "layer_128_3_conv2"
  param {
    lr_mult: 1
    decay_mult: 1
  }
  param {
    lr_mult: 2
    decay_mult: 1
  }
  scale_param {
    bias_term: true
  }
}
layer {
  name: "layer_128_3_relu3"
  type: "ReLU"
  bottom: "layer_128_3_conv2"
  top: "layer_128_3_conv2"
}
layer {
  name: "layer_128_3_conv3"
  type: "Convolution"
  bottom: "layer_128_3_conv2"
  top: "layer_128_3_conv3"
  param {
    lr_mult: 1
    decay_mult: 1
  }
  convolution_param {
    num_output: 512
    bias_term: false
    pad: 0
    kernel_size: 1
    stride: 1
    weight_filler {
      type: "msra"
    }
    bias_filler {
      type: "constant"
      value: 0
    }
  }
}
layer {
  name: "layer_128_3_sum"
  type: "Eltwise"
  bottom: "layer_128_3_conv3"
  bottom: "layer_128_2_sum"
  top: "layer_128_3_sum"
}
layer {
  name: "layer_128_4_bn1"
  type: "BatchNorm"
  bottom: "layer_128_3_sum"
  top: "layer_128_4_bn1"
}
layer {
  name: "layer_128_4_scale1"
  type: "Scale"
  bottom: "layer_128_4_bn1"
  top: "layer_128_4_bn1"
  param {
    lr_mult: 1
    decay_mult: 1
  }
  param {
    lr_mult: 2
    decay_mult: 1
  }
  scale_param {
    bias_term: true
  }
}
layer {
  name: "layer_128_4_relu1"
  type: "ReLU"
  bottom: "layer_128_4_bn1"
  top: "layer_128_4_bn1"
}
layer {
  name: "layer_128_4_conv1"
  type: "Convolution"
  bottom: "layer_128_4_bn1"
  top: "layer_128_4_conv1"
  param {
    lr_mult: 1
    decay_mult: 1
  }
  convolution_param {
    num_output: 128
    bias_term: false
    pad: 0
    kernel_size: 1
    stride: 1
    weight_filler {
      type: "msra"
    }
    bias_filler {
      type: "constant"
      value: 0
    }
  }
}
layer {
  name: "layer_128_4_bn2"
  type: "BatchNorm"
  bottom: "layer_128_4_conv1"
  top: "layer_128_4_conv1"
}
layer {
  name: "layer_128_4_scale2"
  type: "Scale"
  bottom: "layer_128_4_conv1"
  top: "layer_128_4_conv1"
  param {
    lr_mult: 1
    decay_mult: 1
  }
  param {
    lr_mult: 2
    decay_mult: 1
  }
  scale_param {
    bias_term: true
  }
}
layer {
  name: "layer_128_4_relu2"
  type: "ReLU"
  bottom: "layer_128_4_conv1"
  top: "layer_128_4_conv1"
}
layer {
  name: "layer_128_4_conv2"
  type: "Convolution"
  bottom: "layer_128_4_conv1"
  top: "layer_128_4_conv2"
  param {
    lr_mult: 1
    decay_mult: 1
  }
  convolution_param {
    num_output: 128
    bias_term: false
    pad: 1
    kernel_size: 3
    stride: 1
    weight_filler {
      type: "msra"
    }
    bias_filler {
      type: "constant"
      value: 0
    }
  }
}
layer {
  name: "layer_128_4_bn3"
  type: "BatchNorm"
  bottom: "layer_128_4_conv2"
  top: "layer_128_4_conv2"
}
layer {
  name: "layer_128_4_scale3"
  type: "Scale"
  bottom: "layer_128_4_conv2"
  top: "layer_128_4_conv2"
  param {
    lr_mult: 1
    decay_mult: 1
  }
  param {
    lr_mult: 2
    decay_mult: 1
  }
  scale_param {
    bias_term: true
  }
}
layer {
  name: "layer_128_4_relu3"
  type: "ReLU"
  bottom: "layer_128_4_conv2"
  top: "layer_128_4_conv2"
}
layer {
  name: "layer_128_4_conv3"
  type: "Convolution"
  bottom: "layer_128_4_conv2"
  top: "layer_128_4_conv3"
  param {
    lr_mult: 1
    decay_mult: 1
  }
  convolution_param {
    num_output: 512
    bias_term: false
    pad: 0
    kernel_size: 1
    stride: 1
    weight_filler {
      type: "msra"
    }
    bias_filler {
      type: "constant"
      value: 0
    }
  }
}
layer {
  name: "layer_128_4_sum"
  type: "Eltwise"
  bottom: "layer_128_4_conv3"
  bottom: "layer_128_3_sum"
  top: "layer_128_4_sum"
}
layer {
  name: "layer_256_1_bn1"
  type: "BatchNorm"
  bottom: "layer_128_4_sum"
  top: "layer_256_1_bn1"
}
layer {
  name: "layer_256_1_scale1"
  type: "Scale"
  bottom: "layer_256_1_bn1"
  top: "layer_256_1_bn1"
  param {
    lr_mult: 1
    decay_mult: 1
  }
  param {
    lr_mult: 2
    decay_mult: 1
  }
  scale_param {
    bias_term: true
  }
}
layer {
  name: "layer_256_1_relu1"
  type: "ReLU"
  bottom: "layer_256_1_bn1"
  top: "layer_256_1_bn1"
}
layer {
  name: "layer_256_1_conv1"
  type: "Convolution"
  bottom: "layer_256_1_bn1"
  top: "layer_256_1_conv1"
  param {
    lr_mult: 1
    decay_mult: 1
  }
  convolution_param {
    num_output: 256
    bias_term: false
    pad: 0
    kernel_size: 1
    stride: 1
    weight_filler {
      type: "msra"
    }
    bias_filler {
      type: "constant"
      value: 0
    }
  }
}
layer {
  name: "layer_256_1_bn2"
  type: "BatchNorm"
  bottom: "layer_256_1_conv1"
  top: "layer_256_1_conv1"
}
layer {
  name: "layer_256_1_scale2"
  type: "Scale"
  bottom: "layer_256_1_conv1"
  top: "layer_256_1_conv1"
  param {
    lr_mult: 1
    decay_mult: 1
  }
  param {
    lr_mult: 2
    decay_mult: 1
  }
  scale_param {
    bias_term: true
  }
}
layer {
  name: "layer_256_1_relu2"
  type: "ReLU"
  bottom: "layer_256_1_conv1"
  top: "layer_256_1_conv1"
}
layer {
  name: "layer_256_1_conv2"
  type: "Convolution"
  bottom: "layer_256_1_conv1"
  top: "layer_256_1_conv2"
  param {
    lr_mult: 1
    decay_mult: 1
  }
  convolution_param {
    num_output: 256
    bias_term: false
    pad: 1
    kernel_size: 3
    stride: 2
    weight_filler {
      type: "msra"
    }
    bias_filler {
      type: "constant"
      value: 0
    }
  }
}
layer {
  name: "layer_256_1_bn3"
  type: "BatchNorm"
  bottom: "layer_256_1_conv2"
  top: "layer_256_1_conv2"
}
layer {
  name: "layer_256_1_scale3"
  type: "Scale"
  bottom: "layer_256_1_conv2"
  top: "layer_256_1_conv2"
  param {
    lr_mult: 1
    decay_mult: 1
  }
  param {
    lr_mult: 2
    decay_mult: 1
  }
  scale_param {
    bias_term: true
  }
}
layer {
  name: "layer_256_1_relu3"
  type: "ReLU"
  bottom: "layer_256_1_conv2"
  top: "layer_256_1_conv2"
}
layer {
  name: "layer_256_1_conv3"
  type: "Convolution"
  bottom: "layer_256_1_conv2"
  top: "layer_256_1_conv3"
  param {
    lr_mult: 1
    decay_mult: 1
  }
  convolution_param {
    num_output: 1024
    bias_term: false
    pad: 0
    kernel_size: 1
    stride: 1
    weight_filler {
      type: "msra"
    }
    bias_filler {
      type: "constant"
      value: 0
    }
  }
}
layer {
  name: "layer_256_1_conv_expand"
  type: "Convolution"
  bottom: "layer_256_1_bn1"
  top: "layer_256_1_conv_expand"
  param {
    lr_mult: 1
    decay_mult: 1
  }
  convolution_param {
    num_output: 1024
    bias_term: false
    pad: 0
    kernel_size: 1
    stride: 2
    weight_filler {
      type: "msra"
    }
    bias_filler {
      type: "constant"
      value: 0
    }
  }
}
layer {
  name: "layer_256_1_sum"
  type: "Eltwise"
  bottom: "layer_256_1_conv3"
  bottom: "layer_256_1_conv_expand"
  top: "layer_256_1_sum"
}
layer {
  name: "layer_256_2_bn1"
  type: "BatchNorm"
  bottom: "layer_256_1_sum"
  top: "layer_256_2_bn1"
}
layer {
  name: "layer_256_2_scale1"
  type: "Scale"
  bottom: "layer_256_2_bn1"
  top: "layer_256_2_bn1"
  param {
    lr_mult: 1
    decay_mult: 1
  }
  param {
    lr_mult: 2
    decay_mult: 1
  }
  scale_param {
    bias_term: true
  }
}
layer {
  name: "layer_256_2_relu1"
  type: "ReLU"
  bottom: "layer_256_2_bn1"
  top: "layer_256_2_bn1"
}
layer {
  name: "layer_256_2_conv1"
  type: "Convolution"
  bottom: "layer_256_2_bn1"
  top: "layer_256_2_conv1"
  param {
    lr_mult: 1
    decay_mult: 1
  }
  convolution_param {
    num_output: 256
    bias_term: false
    pad: 0
    kernel_size: 1
    stride: 1
    weight_filler {
      type: "msra"
    }
    bias_filler {
      type: "constant"
      value: 0
    }
  }
}
layer {
  name: "layer_256_2_bn2"
  type: "BatchNorm"
  bottom: "layer_256_2_conv1"
  top: "layer_256_2_conv1"
}
layer {
  name: "layer_256_2_scale2"
  type: "Scale"
  bottom: "layer_256_2_conv1"
  top: "layer_256_2_conv1"
  param {
    lr_mult: 1
    decay_mult: 1
  }
  param {
    lr_mult: 2
    decay_mult: 1
  }
  scale_param {
    bias_term: true
  }
}
layer {
  name: "layer_256_2_relu2"
  type: "ReLU"
  bottom: "layer_256_2_conv1"
  top: "layer_256_2_conv1"
}
layer {
  name: "layer_256_2_conv2"
  type: "Convolution"
  bottom: "layer_256_2_conv1"
  top: "layer_256_2_conv2"
  param {
    lr_mult: 1
    decay_mult: 1
  }
  convolution_param {
    num_output: 256
    bias_term: false
    pad: 1
    kernel_size: 3
    stride: 1
    weight_filler {
      type: "msra"
    }
    bias_filler {
      type: "constant"
      value: 0
    }
  }
}
layer {
  name: "layer_256_2_bn3"
  type: "BatchNorm"
  bottom: "layer_256_2_conv2"
  top: "layer_256_2_conv2"
}
layer {
  name: "layer_256_2_scale3"
  type: "Scale"
  bottom: "layer_256_2_conv2"
  top: "layer_256_2_conv2"
  param {
    lr_mult: 1
    decay_mult: 1
  }
  param {
    lr_mult: 2
    decay_mult: 1
  }
  scale_param {
    bias_term: true
  }
}
layer {
  name: "layer_256_2_relu3"
  type: "ReLU"
  bottom: "layer_256_2_conv2"
  top: "layer_256_2_conv2"
}
layer {
  name: "layer_256_2_conv3"
  type: "Convolution"
  bottom: "layer_256_2_conv2"
  top: "layer_256_2_conv3"
  param {
    lr_mult: 1
    decay_mult: 1
  }
  convolution_param {
    num_output: 1024
    bias_term: false
    pad: 0
    kernel_size: 1
    stride: 1
    weight_filler {
      type: "msra"
    }
    bias_filler {
      type: "constant"
      value: 0
    }
  }
}
layer {
  name: "layer_256_2_sum"
  type: "Eltwise"
  bottom: "layer_256_2_conv3"
  bottom: "layer_256_1_sum"
  top: "layer_256_2_sum"
}
layer {
  name: "layer_256_3_bn1"
  type: "BatchNorm"
  bottom: "layer_256_2_sum"
  top: "layer_256_3_bn1"
}
layer {
  name: "layer_256_3_scale1"
  type: "Scale"
  bottom: "layer_256_3_bn1"
  top: "layer_256_3_bn1"
  param {
    lr_mult: 1
    decay_mult: 1
  }
  param {
    lr_mult: 2
    decay_mult: 1
  }
  scale_param {
    bias_term: true
  }
}
layer {
  name: "layer_256_3_relu1"
  type: "ReLU"
  bottom: "layer_256_3_bn1"
  top: "layer_256_3_bn1"
}
layer {
  name: "layer_256_3_conv1"
  type: "Convolution"
  bottom: "layer_256_3_bn1"
  top: "layer_256_3_conv1"
  param {
    lr_mult: 1
    decay_mult: 1
  }
  convolution_param {
    num_output: 256
    bias_term: false
    pad: 0
    kernel_size: 1
    stride: 1
    weight_filler {
      type: "msra"
    }
    bias_filler {
      type: "constant"
      value: 0
    }
  }
}
layer {
  name: "layer_256_3_bn2"
  type: "BatchNorm"
  bottom: "layer_256_3_conv1"
  top: "layer_256_3_conv1"
}
layer {
  name: "layer_256_3_scale2"
  type: "Scale"
  bottom: "layer_256_3_conv1"
  top: "layer_256_3_conv1"
  param {
    lr_mult: 1
    decay_mult: 1
  }
  param {
    lr_mult: 2
    decay_mult: 1
  }
  scale_param {
    bias_term: true
  }
}
layer {
  name: "layer_256_3_relu2"
  type: "ReLU"
  bottom: "layer_256_3_conv1"
  top: "layer_256_3_conv1"
}
layer {
  name: "layer_256_3_conv2"
  type: "Convolution"
  bottom: "layer_256_3_conv1"
  top: "layer_256_3_conv2"
  param {
    lr_mult: 1
    decay_mult: 1
  }
  convolution_param {
    num_output: 256
    bias_term: false
    pad: 1
    kernel_size: 3
    stride: 1
    weight_filler {
      type: "msra"
    }
    bias_filler {
      type: "constant"
      value: 0
    }
  }
}
layer {
  name: "layer_256_3_bn3"
  type: "BatchNorm"
  bottom: "layer_256_3_conv2"
  top: "layer_256_3_conv2"
}
layer {
  name: "layer_256_3_scale3"
  type: "Scale"
  bottom: "layer_256_3_conv2"
  top: "layer_256_3_conv2"
  param {
    lr_mult: 1
    decay_mult: 1
  }
  param {
    lr_mult: 2
    decay_mult: 1
  }
  scale_param {
    bias_term: true
  }
}
layer {
  name: "layer_256_3_relu3"
  type: "ReLU"
  bottom: "layer_256_3_conv2"
  top: "layer_256_3_conv2"
}
layer {
  name: "layer_256_3_conv3"
  type: "Convolution"
  bottom: "layer_256_3_conv2"
  top: "layer_256_3_conv3"
  param {
    lr_mult: 1
    decay_mult: 1
  }
  convolution_param {
    num_output: 1024
    bias_term: false
    pad: 0
    kernel_size: 1
    stride: 1
    weight_filler {
      type: "msra"
    }
    bias_filler {
      type: "constant"
      value: 0
    }
  }
}
layer {
  name: "layer_256_3_sum"
  type: "Eltwise"
  bottom: "layer_256_3_conv3"
  bottom: "layer_256_2_sum"
  top: "layer_256_3_sum"
}
layer {
  name: "layer_256_4_bn1"
  type: "BatchNorm"
  bottom: "layer_256_3_sum"
  top: "layer_256_4_bn1"
}
layer {
  name: "layer_256_4_scale1"
  type: "Scale"
  bottom: "layer_256_4_bn1"
  top: "layer_256_4_bn1"
  param {
    lr_mult: 1
    decay_mult: 1
  }
  param {
    lr_mult: 2
    decay_mult: 1
  }
  scale_param {
    bias_term: true
  }
}
layer {
  name: "layer_256_4_relu1"
  type: "ReLU"
  bottom: "layer_256_4_bn1"
  top: "layer_256_4_bn1"
}
layer {
  name: "layer_256_4_conv1"
  type: "Convolution"
  bottom: "layer_256_4_bn1"
  top: "layer_256_4_conv1"
  param {
    lr_mult: 1
    decay_mult: 1
  }
  convolution_param {
    num_output: 256
    bias_term: false
    pad: 0
    kernel_size: 1
    stride: 1
    weight_filler {
      type: "msra"
    }
    bias_filler {
      type: "constant"
      value: 0
    }
  }
}
layer {
  name: "layer_256_4_bn2"
  type: 
I0201 21:16:42.374718  2647 layer_factory.hpp:77] Creating layer data
I0201 21:16:42.375629  2647 net.cpp:100] Creating Layer data
I0201 21:16:42.375638  2647 net.cpp:408] data -> data
I0201 21:16:42.375656  2647 net.cpp:408] data -> label
I0201 21:16:42.375677  2647 image_data_layer.cpp:38] Opening file /media/yves/sandisk3/caffe-master/data/ilsvrc12/train.txt
I0201 21:16:42.613626  2647 image_data_layer.cpp:53] Shuffling data
I0201 21:16:42.794234  2647 image_data_layer.cpp:58] A total of 1281167 images.
I0201 21:16:42.877349  2647 image_data_layer.cpp:85] output data size: 8,3,224,224
I0201 21:16:42.884071  2647 net.cpp:150] Setting up data
I0201 21:16:42.884093  2647 net.cpp:157] Top shape: 8 3 224 224 (1204224)
I0201 21:16:42.884099  2647 net.cpp:157] Top shape: 8 (8)
I0201 21:16:42.884101  2647 net.cpp:165] Memory required for data: 4816928
I0201 21:16:42.884107  2647 layer_factory.hpp:77] Creating layer label_data_1_split
I0201 21:16:42.884538  2647 net.cpp:100] Creating Layer label_data_1_split
I0201 21:16:42.884551  2647 net.cpp:434] label_data_1_split <- label
I0201 21:16:42.884559  2647 net.cpp:408] label_data_1_split -> label_data_1_split_0
I0201 21:16:42.884567  2647 net.cpp:408] label_data_1_split -> label_data_1_split_1
I0201 21:16:42.884594  2647 net.cpp:150] Setting up label_data_1_split
I0201 21:16:42.884599  2647 net.cpp:157] Top shape: 8 (8)
I0201 21:16:42.884603  2647 net.cpp:157] Top shape: 8 (8)
I0201 21:16:42.884605  2647 net.cpp:165] Memory required for data: 4816992
I0201 21:16:42.884608  2647 layer_factory.hpp:77] Creating layer data_bn
I0201 21:16:42.884613  2647 net.cpp:100] Creating Layer data_bn
I0201 21:16:42.884615  2647 net.cpp:434] data_bn <- data
I0201 21:16:42.884624  2647 net.cpp:408] data_bn -> data_bn
I0201 21:16:42.885210  2647 net.cpp:150] Setting up data_bn
I0201 21:16:42.885218  2647 net.cpp:157] Top shape: 8 3 224 224 (1204224)
I0201 21:16:42.885222  2647 net.cpp:165] Memory required for data: 9633888
I0201 21:16:42.885234  2647 layer_factory.hpp:77] Creating layer data_scale
I0201 21:16:42.885633  2647 net.cpp:100] Creating Layer data_scale
I0201 21:16:42.885643  2647 net.cpp:434] data_scale <- data_bn
I0201 21:16:42.885648  2647 net.cpp:395] data_scale -> data_bn (in-place)
I0201 21:16:42.885686  2647 layer_factory.hpp:77] Creating layer data_scale
I0201 21:16:42.885767  2647 net.cpp:150] Setting up data_scale
I0201 21:16:42.885772  2647 net.cpp:157] Top shape: 8 3 224 224 (1204224)
I0201 21:16:42.885776  2647 net.cpp:165] Memory required for data: 14450784
I0201 21:16:42.885782  2647 layer_factory.hpp:77] Creating layer conv1
I0201 21:16:42.885790  2647 net.cpp:100] Creating Layer conv1
I0201 21:16:42.885793  2647 net.cpp:434] conv1 <- data_bn
I0201 21:16:42.885797  2647 net.cpp:408] conv1 -> conv1
I0201 21:16:47.341119  2647 net.cpp:150] Setting up conv1
I0201 21:16:47.341194  2647 net.cpp:157] Top shape: 8 64 112 112 (6422528)
I0201 21:16:47.341213  2647 net.cpp:165] Memory required for data: 40140896
I0201 21:16:47.341243  2647 layer_factory.hpp:77] Creating layer conv1_bn
I0201 21:16:47.341269  2647 net.cpp:100] Creating Layer conv1_bn
I0201 21:16:47.341285  2647 net.cpp:434] conv1_bn <- conv1
I0201 21:16:47.341305  2647 net.cpp:395] conv1_bn -> conv1 (in-place)
I0201 21:16:47.341845  2647 net.cpp:150] Setting up conv1_bn
I0201 21:16:47.341871  2647 net.cpp:157] Top shape: 8 64 112 112 (6422528)
I0201 21:16:47.341884  2647 net.cpp:165] Memory required for data: 65831008
I0201 21:16:47.341922  2647 layer_factory.hpp:77] Creating layer conv1_scale
I0201 21:16:47.341945  2647 net.cpp:100] Creating Layer conv1_scale
I0201 21:16:47.341959  2647 net.cpp:434] conv1_scale <- conv1
I0201 21:16:47.341977  2647 net.cpp:395] conv1_scale -> conv1 (in-place)
I0201 21:16:47.342089  2647 layer_factory.hpp:77] Creating layer conv1_scale
I0201 21:16:47.342398  2647 net.cpp:150] Setting up conv1_scale
I0201 21:16:47.342423  2647 net.cpp:157] Top shape: 8 64 112 112 (6422528)
I0201 21:16:47.342437  2647 net.cpp:165] Memory required for data: 91521120
I0201 21:16:47.342458  2647 layer_factory.hpp:77] Creating layer conv1_relu
I0201 21:16:47.342476  2647 net.cpp:100] Creating Layer conv1_relu
I0201 21:16:47.342490  2647 net.cpp:434] conv1_relu <- conv1
I0201 21:16:47.342507  2647 net.cpp:395] conv1_relu -> conv1 (in-place)
I0201 21:16:47.349642  2647 net.cpp:150] Setting up conv1_relu
I0201 21:16:47.349709  2647 net.cpp:157] Top shape: 8 64 112 112 (6422528)
I0201 21:16:47.349728  2647 net.cpp:165] Memory required for data: 117211232
I0201 21:16:47.349745  2647 layer_factory.hpp:77] Creating layer conv1_pool
I0201 21:16:47.349778  2647 net.cpp:100] Creating Layer conv1_pool
I0201 21:16:47.349794  2647 net.cpp:434] conv1_pool <- conv1
I0201 21:16:47.349817  2647 net.cpp:408] conv1_pool -> conv1_pool
I0201 21:16:47.350512  2647 net.cpp:150] Setting up conv1_pool
I0201 21:16:47.350549  2647 net.cpp:157] Top shape: 8 64 56 56 (1605632)
I0201 21:16:47.350564  2647 net.cpp:165] Memory required for data: 123633760
I0201 21:16:47.350579  2647 layer_factory.hpp:77] Creating layer layer_64_1_conv1
I0201 21:16:47.350610  2647 net.cpp:100] Creating Layer layer_64_1_conv1
I0201 21:16:47.350626  2647 net.cpp:434] layer_64_1_conv1 <- conv1_pool
I0201 21:16:47.350652  2647 net.cpp:408] layer_64_1_conv1 -> layer_64_1_conv1
I0201 21:16:47.367480  2647 net.cpp:150] Setting up layer_64_1_conv1
I0201 21:16:47.367552  2647 net.cpp:157] Top shape: 8 64 56 56 (1605632)
I0201 21:16:47.367573  2647 net.cpp:165] Memory required for data: 130056288
I0201 21:16:47.367597  2647 layer_factory.hpp:77] Creating layer layer_64_1_bn2
I0201 21:16:47.367624  2647 net.cpp:100] Creating Layer layer_64_1_bn2
I0201 21:16:47.367640  2647 net.cpp:434] layer_64_1_bn2 <- layer_64_1_conv1
I0201 21:16:47.367677  2647 net.cpp:395] layer_64_1_bn2 -> layer_64_1_conv1 (in-place)
I0201 21:16:47.368460  2647 net.cpp:150] Setting up layer_64_1_bn2
I0201 21:16:47.368516  2647 net.cpp:157] Top shape: 8 64 56 56 (1605632)
I0201 21:16:47.368542  2647 net.cpp:165] Memory required for data: 136478816
I0201 21:16:47.368588  2647 layer_factory.hpp:77] Creating layer layer_64_1_scale2
I0201 21:16:47.368629  2647 net.cpp:100] Creating Layer layer_64_1_scale2
I0201 21:16:47.368654  2647 net.cpp:434] layer_64_1_scale2 <- layer_64_1_conv1
I0201 21:16:47.368685  2647 net.cpp:395] layer_64_1_scale2 -> layer_64_1_conv1 (in-place)
I0201 21:16:47.368870  2647 layer_factory.hpp:77] Creating layer layer_64_1_scale2
I0201 21:16:47.369277  2647 net.cpp:150] Setting up layer_64_1_scale2
I0201 21:16:47.369313  2647 net.cpp:157] Top shape: 8 64 56 56 (1605632)
I0201 21:16:47.369333  2647 net.cpp:165] Memory required for data: 142901344
I0201 21:16:47.369381  2647 layer_factory.hpp:77] Creating layer layer_64_1_relu2
I0201 21:16:47.369412  2647 net.cpp:100] Creating Layer layer_64_1_relu2
I0201 21:16:47.369433  2647 net.cpp:434] layer_64_1_relu2 <- layer_64_1_conv1
I0201 21:16:47.369459  2647 net.cpp:395] layer_64_1_relu2 -> layer_64_1_conv1 (in-place)
I0201 21:16:47.371132  2647 net.cpp:150] Setting up layer_64_1_relu2
I0201 21:16:47.371191  2647 net.cpp:157] Top shape: 8 64 56 56 (1605632)
I0201 21:16:47.371217  2647 net.cpp:165] Memory required for data: 149323872
I0201 21:16:47.371243  2647 layer_factory.hpp:77] Creating layer layer_64_1_conv1_layer_64_1_relu2_0_split
I0201 21:16:47.371273  2647 net.cpp:100] Creating Layer layer_64_1_conv1_layer_64_1_relu2_0_split
I0201 21:16:47.371297  2647 net.cpp:434] layer_64_1_conv1_layer_64_1_relu2_0_split <- layer_64_1_conv1
I0201 21:16:47.371328  2647 net.cpp:408] layer_64_1_conv1_layer_64_1_relu2_0_split -> layer_64_1_conv1_layer_64_1_relu2_0_split_0
I0201 21:16:47.371369  2647 net.cpp:408] layer_64_1_conv1_layer_64_1_relu2_0_split -> layer_64_1_conv1_layer_64_1_relu2_0_split_1
I0201 21:16:47.371541  2647 net.cpp:150] Setting up layer_64_1_conv1_layer_64_1_relu2_0_split
I0201 21:16:47.371574  2647 net.cpp:157] Top shape: 8 64 56 56 (1605632)
I0201 21:16:47.371592  2647 net.cpp:157] Top shape: 8 64 56 56 (1605632)
I0201 21:16:47.371603  2647 net.cpp:165] Memory required for data: 162168928
I0201 21:16:47.371618  2647 layer_factory.hpp:77] Creating layer layer_64_1_conv2
I0201 21:16:47.371649  2647 net.cpp:100] Creating Layer layer_64_1_conv2
I0201 21:16:47.371664  2647 net.cpp:434] layer_64_1_conv2 <- layer_64_1_conv1_layer_64_1_relu2_0_split_0
I0201 21:16:47.371685  2647 net.cpp:408] layer_64_1_conv2 -> layer_64_1_conv2
I0201 21:16:47.377250  2647 net.cpp:150] Setting up layer_64_1_conv2
I0201 21:16:47.377300  2647 net.cpp:157] Top shape: 8 64 56 56 (1605632)
I0201 21:16:47.377315  2647 net.cpp:165] Memory required for data: 168591456
I0201 21:16:47.377336  2647 layer_factory.hpp:77] Creating layer layer_64_1_bn3
I0201 21:16:47.377377  2647 net.cpp:100] Creating Layer layer_64_1_bn3
I0201 21:16:47.377394  2647 net.cpp:434] layer_64_1_bn3 <- layer_64_1_conv2
I0201 21:16:47.377414  2647 net.cpp:395] layer_64_1_bn3 -> layer_64_1_conv2 (in-place)
I0201 21:16:47.377959  2647 net.cpp:150] Setting up layer_64_1_bn3
I0201 21:16:47.377986  2647 net.cpp:157] Top shape: 8 64 56 56 (1605632)
I0201 21:16:47.378007  2647 net.cpp:165] Memory required for data: 175013984
I0201 21:16:47.378046  2647 layer_factory.hpp:77] Creating layer layer_64_1_scale3
I0201 21:16:47.378087  2647 net.cpp:100] Creating Layer layer_64_1_scale3
I0201 21:16:47.378103  2647 net.cpp:434] layer_64_1_scale3 <- layer_64_1_conv2
I0201 21:16:47.378129  2647 net.cpp:395] layer_64_1_scale3 -> layer_64_1_conv2 (in-place)
I0201 21:16:47.378257  2647 layer_factory.hpp:77] Creating layer layer_64_1_scale3
I0201 21:16:47.378599  2647 net.cpp:150] Setting up layer_64_1_scale3
I0201 21:16:47.378623  2647 net.cpp:157] Top shape: 8 64 56 56 (1605632)
I0201 21:16:47.378634  2647 net.cpp:165] Memory required for data: 181436512
I0201 21:16:47.378655  2647 layer_factory.hpp:77] Creating layer layer_64_1_relu3
I0201 21:16:47.378705  2647 net.cpp:100] Creating Layer layer_64_1_relu3
I0201 21:16:47.378720  2647 net.cpp:434] layer_64_1_relu3 <- layer_64_1_conv2
I0201 21:16:47.378739  2647 net.cpp:395] layer_64_1_relu3 -> layer_64_1_conv2 (in-place)
I0201 21:16:47.379981  2647 net.cpp:150] Setting up layer_64_1_relu3
I0201 21:16:47.380023  2647 net.cpp:157] Top shape: 8 64 56 56 (1605632)
I0201 21:16:47.380038  2647 net.cpp:165] Memory required for data: 187859040
I0201 21:16:47.380051  2647 layer_factory.hpp:77] Creating layer layer_64_1_conv3
I0201 21:16:47.380084  2647 net.cpp:100] Creating Layer layer_64_1_conv3
I0201 21:16:47.380098  2647 net.cpp:434] layer_64_1_conv3 <- layer_64_1_conv2
I0201 21:16:47.380125  2647 net.cpp:408] layer_64_1_conv3 -> layer_64_1_conv3
I0201 21:16:47.384172  2647 net.cpp:150] Setting up layer_64_1_conv3
I0201 21:16:47.384207  2647 net.cpp:157] Top shape: 8 256 56 56 (6422528)
I0201 21:16:47.384218  2647 net.cpp:165] Memory required for data: 213549152
I0201 21:16:47.384232  2647 layer_factory.hpp:77] Creating layer layer_64_1_conv_expand
I0201 21:16:47.384259  2647 net.cpp:100] Creating Layer layer_64_1_conv_expand
I0201 21:16:47.384270  2647 net.cpp:434] layer_64_1_conv_expand <- layer_64_1_conv1_layer_64_1_relu2_0_split_1
I0201 21:16:47.384285  2647 net.cpp:408] layer_64_1_conv_expand -> layer_64_1_conv_expand
I0201 21:16:47.386871  2647 net.cpp:150] Setting up layer_64_1_conv_expand
I0201 21:16:47.386901  2647 net.cpp:157] Top shape: 8 256 56 56 (6422528)
I0201 21:16:47.386912  2647 net.cpp:165] Memory required for data: 239239264
I0201 21:16:47.386925  2647 layer_factory.hpp:77] Creating layer layer_64_1_sum
I0201 21:16:47.386942  2647 net.cpp:100] Creating Layer layer_64_1_sum
I0201 21:16:47.386952  2647 net.cpp:434] layer_64_1_sum <- layer_64_1_conv3
I0201 21:16:47.386965  2647 net.cpp:434] layer_64_1_sum <- layer_64_1_conv_expand
I0201 21:16:47.386976  2647 net.cpp:408] layer_64_1_sum -> layer_64_1_sum
I0201 21:16:47.387032  2647 net.cpp:150] Setting up layer_64_1_sum
I0201 21:16:47.387045  2647 net.cpp:157] Top shape: 8 256 56 56 (6422528)
I0201 21:16:47.387053  2647 net.cpp:165] Memory required for data: 264929376
I0201 21:16:47.387061  2647 layer_factory.hpp:77] Creating layer layer_64_1_sum_layer_64_1_sum_0_split
I0201 21:16:47.387073  2647 net.cpp:100] Creating Layer layer_64_1_sum_layer_64_1_sum_0_split
I0201 21:16:47.387082  2647 net.cpp:434] layer_64_1_sum_layer_64_1_sum_0_split <- layer_64_1_sum
I0201 21:16:47.387095  2647 net.cpp:408] layer_64_1_sum_layer_64_1_sum_0_split -> layer_64_1_sum_layer_64_1_sum_0_split_0
I0201 21:16:47.387109  2647 net.cpp:408] layer_64_1_sum_layer_64_1_sum_0_split -> layer_64_1_sum_layer_64_1_sum_0_split_1
I0201 21:16:47.387176  2647 net.cpp:150] Setting up layer_64_1_sum_layer_64_1_sum_0_split
I0201 21:16:47.387189  2647 net.cpp:157] Top shape: 8 256 56 56 (6422528)
I0201 21:16:47.387199  2647 net.cpp:157] Top shape: 8 256 56 56 (6422528)
I0201 21:16:47.387207  2647 net.cpp:165] Memory required for data: 316309600
I0201 21:16:47.387214  2647 layer_factory.hpp:77] Creating layer layer_64_2_bn1
I0201 21:16:47.387229  2647 net.cpp:100] Creating Layer layer_64_2_bn1
I0201 21:16:47.387238  2647 net.cpp:434] layer_64_2_bn1 <- layer_64_1_sum_layer_64_1_sum_0_split_0
I0201 21:16:47.387251  2647 net.cpp:408] layer_64_2_bn1 -> layer_64_2_bn1
I0201 21:16:47.387632  2647 net.cpp:150] Setting up layer_64_2_bn1
I0201 21:16:47.387648  2647 net.cpp:157] Top shape: 8 256 56 56 (6422528)
I0201 21:16:47.387657  2647 net.cpp:165] Memory required for data: 341999712
I0201 21:16:47.387672  2647 layer_factory.hpp:77] Creating layer layer_64_2_scale1
I0201 21:16:47.387687  2647 net.cpp:100] Creating Layer layer_64_2_scale1
I0201 21:16:47.387696  2647 net.cpp:434] layer_64_2_scale1 <- layer_64_2_bn1
I0201 21:16:47.387707  2647 net.cpp:395] layer_64_2_scale1 -> layer_64_2_bn1 (in-place)
I0201 21:16:47.387804  2647 layer_factory.hpp:77] Creating layer layer_64_2_scale1
I0201 21:16:47.387989  2647 net.cpp:150] Setting up layer_64_2_scale1
I0201 21:16:47.388010  2647 net.cpp:157] Top shape: 8 256 56 56 (6422528)
I0201 21:16:47.388025  2647 net.cpp:165] Memory required for data: 367689824
I0201 21:16:47.388036  2647 layer_factory.hpp:77] Creating layer layer_64_2_relu1
I0201 21:16:47.388047  2647 net.cpp:100] Creating Layer layer_64_2_relu1
I0201 21:16:47.388054  2647 net.cpp:434] layer_64_2_relu1 <- layer_64_2_bn1
I0201 21:16:47.388063  2647 net.cpp:395] layer_64_2_relu1 -> layer_64_2_bn1 (in-place)
I0201 21:16:47.388700  2647 net.cpp:150] Setting up layer_64_2_relu1
I0201 21:16:47.388720  2647 net.cpp:157] Top shape: 8 256 56 56 (6422528)
I0201 21:16:47.388726  2647 net.cpp:165] Memory required for data: 393379936
I0201 21:16:47.388733  2647 layer_factory.hpp:77] Creating layer layer_64_2_conv1
I0201 21:16:47.388751  2647 net.cpp:100] Creating Layer layer_64_2_conv1
I0201 21:16:47.388759  2647 net.cpp:434] layer_64_2_conv1 <- layer_64_2_bn1
I0201 21:16:47.388770  2647 net.cpp:408] layer_64_2_conv1 -> layer_64_2_conv1
I0201 21:16:47.390913  2647 net.cpp:150] Setting up layer_64_2_conv1
I0201 21:16:47.390933  2647 net.cpp:157] Top shape: 8 64 56 56 (1605632)
I0201 21:16:47.390941  2647 net.cpp:165] Memory required for data: 399802464
I0201 21:16:47.390951  2647 layer_factory.hpp:77] Creating layer layer_64_2_bn2
I0201 21:16:47.390964  2647 net.cpp:100] Creating Layer layer_64_2_bn2
I0201 21:16:47.390971  2647 net.cpp:434] layer_64_2_bn2 <- layer_64_2_conv1
I0201 21:16:47.390980  2647 net.cpp:395] layer_64_2_bn2 -> layer_64_2_conv1 (in-place)
I0201 21:16:47.391270  2647 net.cpp:150] Setting up layer_64_2_bn2
I0201 21:16:47.391283  2647 net.cpp:157] Top shape: 8 64 56 56 (1605632)
I0201 21:16:47.391288  2647 net.cpp:165] Memory required for data: 406224992
I0201 21:16:47.391309  2647 layer_factory.hpp:77] Creating layer layer_64_2_scale2
I0201 21:16:47.391321  2647 net.cpp:100] Creating Layer layer_64_2_scale2
I0201 21:16:47.391329  2647 net.cpp:434] layer_64_2_scale2 <- layer_64_2_conv1
I0201 21:16:47.391337  2647 net.cpp:395] layer_64_2_scale2 -> layer_64_2_conv1 (in-place)
I0201 21:16:47.391399  2647 layer_factory.hpp:77] Creating layer layer_64_2_scale2
I0201 21:16:47.391572  2647 net.cpp:150] Setting up layer_64_2_scale2
I0201 21:16:47.391583  2647 net.cpp:157] Top shape: 8 64 56 56 (1605632)
I0201 21:16:47.391590  2647 net.cpp:165] Memory required for data: 412647520
I0201 21:16:47.391599  2647 layer_factory.hpp:77] Creating layer layer_64_2_relu2
I0201 21:16:47.391613  2647 net.cpp:100] Creating Layer layer_64_2_relu2
I0201 21:16:47.391619  2647 net.cpp:434] layer_64_2_relu2 <- layer_64_2_conv1
I0201 21:16:47.391628  2647 net.cpp:395] layer_64_2_relu2 -> layer_64_2_conv1 (in-place)
I0201 21:16:47.391902  2647 net.cpp:150] Setting up layer_64_2_relu2
I0201 21:16:47.391918  2647 net.cpp:157] Top shape: 8 64 56 56 (1605632)
I0201 21:16:47.391926  2647 net.cpp:165] Memory required for data: 419070048
I0201 21:16:47.391932  2647 layer_factory.hpp:77] Creating layer layer_64_2_conv2
I0201 21:16:47.391947  2647 net.cpp:100] Creating Layer layer_64_2_conv2
I0201 21:16:47.391954  2647 net.cpp:434] layer_64_2_conv2 <- layer_64_2_conv1
I0201 21:16:47.391965  2647 net.cpp:408] layer_64_2_conv2 -> layer_64_2_conv2
I0201 21:16:47.394716  2647 net.cpp:150] Setting up layer_64_2_conv2
I0201 21:16:47.394734  2647 net.cpp:157] Top shape: 8 64 56 56 (1605632)
I0201 21:16:47.394740  2647 net.cpp:165] Memory required for data: 425492576
I0201 21:16:47.394748  2647 layer_factory.hpp:77] Creating layer layer_64_2_bn3
I0201 21:16:47.394758  2647 net.cpp:100] Creating Layer layer_64_2_bn3
I0201 21:16:47.394767  2647 net.cpp:434] layer_64_2_bn3 <- layer_64_2_conv2
I0201 21:16:47.394780  2647 net.cpp:395] layer_64_2_bn3 -> layer_64_2_conv2 (in-place)
I0201 21:16:47.395027  2647 net.cpp:150] Setting up layer_64_2_bn3
I0201 21:16:47.395038  2647 net.cpp:157] Top shape: 8 64 56 56 (1605632)
I0201 21:16:47.395043  2647 net.cpp:165] Memory required for data: 431915104
I0201 21:16:47.395054  2647 layer_factory.hpp:77] Creating layer layer_64_2_scale3
I0201 21:16:47.395068  2647 net.cpp:100] Creating Layer layer_64_2_scale3
I0201 21:16:47.395081  2647 net.cpp:434] layer_64_2_scale3 <- layer_64_2_conv2
I0201 21:16:47.395089  2647 net.cpp:395] layer_64_2_scale3 -> layer_64_2_conv2 (in-place)
I0201 21:16:47.395138  2647 layer_factory.hpp:77] Creating layer layer_64_2_scale3
I0201 21:16:47.395277  2647 net.cpp:150] Setting up layer_64_2_scale3
I0201 21:16:47.395287  2647 net.cpp:157] Top shape: 8 64 56 56 (1605632)
I0201 21:16:47.395292  2647 net.cpp:165] Memory required for data: 438337632
I0201 21:16:47.395300  2647 layer_factory.hpp:77] Creating layer layer_64_2_relu3
I0201 21:16:47.395313  2647 net.cpp:100] Creating Layer layer_64_2_relu3
I0201 21:16:47.395318  2647 net.cpp:434] layer_64_2_relu3 <- layer_64_2_conv2
I0201 21:16:47.395324  2647 net.cpp:395] layer_64_2_relu3 -> layer_64_2_conv2 (in-place)
I0201 21:16:47.395539  2647 net.cpp:150] Setting up layer_64_2_relu3
I0201 21:16:47.395550  2647 net.cpp:157] Top shape: 8 64 56 56 (1605632)
I0201 21:16:47.395555  2647 net.cpp:165] Memory required for data: 444760160
I0201 21:16:47.395560  2647 layer_factory.hpp:77] Creating layer layer_64_2_conv3
I0201 21:16:47.395572  2647 net.cpp:100] Creating Layer layer_64_2_conv3
I0201 21:16:47.395578  2647 net.cpp:434] layer_64_2_conv3 <- layer_64_2_conv2
I0201 21:16:47.395586  2647 net.cpp:408] layer_64_2_conv3 -> layer_64_2_conv3
I0201 21:16:47.397352  2647 net.cpp:150] Setting up layer_64_2_conv3
I0201 21:16:47.397372  2647 net.cpp:157] Top shape: 8 256 56 56 (6422528)
I0201 21:16:47.397377  2647 net.cpp:165] Memory required for data: 470450272
I0201 21:16:47.397385  2647 layer_factory.hpp:77] Creating layer layer_64_2_sum
I0201 21:16:47.397393  2647 net.cpp:100] Creating Layer layer_64_2_sum
I0201 21:16:47.397399  2647 net.cpp:434] layer_64_2_sum <- layer_64_2_conv3
I0201 21:16:47.397406  2647 net.cpp:434] layer_64_2_sum <- layer_64_1_sum_layer_64_1_sum_0_split_1
I0201 21:16:47.397414  2647 net.cpp:408] layer_64_2_sum -> layer_64_2_sum
I0201 21:16:47.397446  2647 net.cpp:150] Setting up layer_64_2_sum
I0201 21:16:47.397454  2647 net.cpp:157] Top shape: 8 256 56 56 (6422528)
I0201 21:16:47.397459  2647 net.cpp:165] Memory required for data: 496140384
I0201 21:16:47.397464  2647 layer_factory.hpp:77] Creating layer layer_64_2_sum_layer_64_2_sum_0_split
I0201 21:16:47.397471  2647 net.cpp:100] Creating Layer layer_64_2_sum_layer_64_2_sum_0_split
I0201 21:16:47.397478  2647 net.cpp:434] layer_64_2_sum_layer_64_2_sum_0_split <- layer_64_2_sum
I0201 21:16:47.397485  2647 net.cpp:408] layer_64_2_sum_layer_64_2_sum_0_split -> layer_64_2_sum_layer_64_2_sum_0_split_0
I0201 21:16:47.397493  2647 net.cpp:408] layer_64_2_sum_layer_64_2_sum_0_split -> layer_64_2_sum_layer_64_2_sum_0_split_1
I0201 21:16:47.397537  2647 net.cpp:150] Setting up layer_64_2_sum_layer_64_2_sum_0_split
I0201 21:16:47.397545  2647 net.cpp:157] Top shape: 8 256 56 56 (6422528)
I0201 21:16:47.397552  2647 net.cpp:157] Top shape: 8 256 56 56 (6422528)
I0201 21:16:47.397557  2647 net.cpp:165] Memory required for data: 547520608
I0201 21:16:47.397562  2647 layer_factory.hpp:77] Creating layer layer_64_3_bn1
I0201 21:16:47.397568  2647 net.cpp:100] Creating Layer layer_64_3_bn1
I0201 21:16:47.397573  2647 net.cpp:434] layer_64_3_bn1 <- layer_64_2_sum_layer_64_2_sum_0_split_0
I0201 21:16:47.397581  2647 net.cpp:408] layer_64_3_bn1 -> layer_64_3_bn1
I0201 21:16:47.397840  2647 net.cpp:150] Setting up layer_64_3_bn1
I0201 21:16:47.397867  2647 net.cpp:157] Top shape: 8 256 56 56 (6422528)
I0201 21:16:47.397876  2647 net.cpp:165] Memory required for data: 573210720
I0201 21:16:47.397888  2647 layer_factory.hpp:77] Creating layer layer_64_3_scale1
I0201 21:16:47.397900  2647 net.cpp:100] Creating Layer layer_64_3_scale1
I0201 21:16:47.397908  2647 net.cpp:434] layer_64_3_scale1 <- layer_64_3_bn1
I0201 21:16:47.397917  2647 net.cpp:395] layer_64_3_scale1 -> layer_64_3_bn1 (in-place)
I0201 21:16:47.397970  2647 layer_factory.hpp:77] Creating layer layer_64_3_scale1
I0201 21:16:47.398083  2647 net.cpp:150] Setting up layer_64_3_scale1
I0201 21:16:47.398095  2647 net.cpp:157] Top shape: 8 256 56 56 (6422528)
I0201 21:16:47.398105  2647 net.cpp:165] Memory required for data: 598900832
I0201 21:16:47.398113  2647 layer_factory.hpp:77] Creating layer layer_64_3_relu1
I0201 21:16:47.398119  2647 net.cpp:100] Creating Layer layer_64_3_relu1
I0201 21:16:47.398124  2647 net.cpp:434] layer_64_3_relu1 <- layer_64_3_bn1
I0201 21:16:47.398130  2647 net.cpp:395] layer_64_3_relu1 -> layer_64_3_bn1 (in-place)
I0201 21:16:47.398358  2647 net.cpp:150] Setting up layer_64_3_relu1
I0201 21:16:47.398375  2647 net.cpp:157] Top shape: 8 256 56 56 (6422528)
I0201 21:16:47.398381  2647 net.cpp:165] Memory required for data: 624590944
I0201 21:16:47.398386  2647 layer_factory.hpp:77] Creating layer layer_64_3_conv1
I0201 21:16:47.398398  2647 net.cpp:100] Creating Layer layer_64_3_conv1
I0201 21:16:47.398403  2647 net.cpp:434] layer_64_3_conv1 <- layer_64_3_bn1
I0201 21:16:47.398411  2647 net.cpp:408] layer_64_3_conv1 -> layer_64_3_conv1
I0201 21:16:47.399937  2647 net.cpp:150] Setting up layer_64_3_conv1
I0201 21:16:47.399955  2647 net.cpp:157] Top shape: 8 64 56 56 (1605632)
I0201 21:16:47.399960  2647 net.cpp:165] Memory required for data: 631013472
I0201 21:16:47.399966  2647 layer_factory.hpp:77] Creating layer layer_64_3_bn2
I0201 21:16:47.399976  2647 net.cpp:100] Creating Layer layer_64_3_bn2
I0201 21:16:47.399981  2647 net.cpp:434] layer_64_3_bn2 <- layer_64_3_conv1
I0201 21:16:47.399987  2647 net.cpp:395] layer_64_3_bn2 -> layer_64_3_conv1 (in-place)
I0201 21:16:47.400188  2647 net.cpp:150] Setting up layer_64_3_bn2
I0201 21:16:47.400197  2647 net.cpp:157] Top shape: 8 64 56 56 (1605632)
I0201 21:16:47.400200  2647 net.cpp:165] Memory required for data: 637436000
I0201 21:16:47.400209  2647 layer_factory.hpp:77] Creating layer layer_64_3_scale2
I0201 21:16:47.400218  2647 net.cpp:100] Creating Layer layer_64_3_scale2
I0201 21:16:47.400221  2647 net.cpp:434] layer_64_3_scale2 <- layer_64_3_conv1
I0201 21:16:47.400228  2647 net.cpp:395] layer_64_3_scale2 -> layer_64_3_conv1 (in-place)
I0201 21:16:47.400270  2647 layer_factory.hpp:77] Creating layer layer_64_3_scale2
I0201 21:16:47.400405  2647 net.cpp:150] Setting up layer_64_3_scale2
I0201 21:16:47.400421  2647 net.cpp:157] Top shape: 8 64 56 56 (1605632)
I0201 21:16:47.400429  2647 net.cpp:165] Memory required for data: 643858528
I0201 21:16:47.400440  2647 layer_factory.hpp:77] Creating layer layer_64_3_relu2
I0201 21:16:47.400451  2647 net.cpp:100] Creating Layer layer_64_3_relu2
I0201 21:16:47.400459  2647 net.cpp:434] layer_64_3_relu2 <- layer_64_3_conv1
I0201 21:16:47.400467  2647 net.cpp:395] layer_64_3_relu2 -> layer_64_3_conv1 (in-place)
I0201 21:16:47.400701  2647 net.cpp:150] Setting up layer_64_3_relu2
I0201 21:16:47.400713  2647 net.cpp:157] Top shape: 8 64 56 56 (1605632)
I0201 21:16:47.400718  2647 net.cpp:165] Memory required for data: 650281056
I0201 21:16:47.400722  2647 layer_factory.hpp:77] Creating layer layer_64_3_conv2
I0201 21:16:47.400733  2647 net.cpp:100] Creating Layer layer_64_3_conv2
I0201 21:16:47.400738  2647 net.cpp:434] layer_64_3_conv2 <- layer_64_3_conv1
I0201 21:16:47.400746  2647 net.cpp:408] layer_64_3_conv2 -> layer_64_3_conv2
I0201 21:16:47.402907  2647 net.cpp:150] Setting up layer_64_3_conv2
I0201 21:16:47.402920  2647 net.cpp:157] Top shape: 8 64 56 56 (1605632)
I0201 21:16:47.402925  2647 net.cpp:165] Memory required for data: 656703584
I0201 21:16:47.402931  2647 layer_factory.hpp:77] Creating layer layer_64_3_bn3
I0201 21:16:47.402940  2647 net.cpp:100] Creating Layer layer_64_3_bn3
I0201 21:16:47.402943  2647 net.cpp:434] layer_64_3_bn3 <- layer_64_3_conv2
I0201 21:16:47.402951  2647 net.cpp:395] layer_64_3_bn3 -> layer_64_3_conv2 (in-place)
I0201 21:16:47.403120  2647 net.cpp:150] Setting up layer_64_3_bn3
I0201 21:16:47.403126  2647 net.cpp:157] Top shape: 8 64 56 56 (1605632)
I0201 21:16:47.403129  2647 net.cpp:165] Memory required for data: 663126112
I0201 21:16:47.403137  2647 layer_factory.hpp:77] Creating layer layer_64_3_scale3
I0201 21:16:47.403144  2647 net.cpp:100] Creating Layer layer_64_3_scale3
I0201 21:16:47.403152  2647 net.cpp:434] layer_64_3_scale3 <- layer_64_3_conv2
I0201 21:16:47.403163  2647 net.cpp:395] layer_64_3_scale3 -> layer_64_3_conv2 (in-place)
I0201 21:16:47.403200  2647 layer_factory.hpp:77] Creating layer layer_64_3_scale3
I0201 21:16:47.403301  2647 net.cpp:150] Setting up layer_64_3_scale3
I0201 21:16:47.403307  2647 net.cpp:157] Top shape: 8 64 56 56 (1605632)
I0201 21:16:47.403311  2647 net.cpp:165] Memory required for data: 669548640
I0201 21:16:47.403317  2647 layer_factory.hpp:77] Creating layer layer_64_3_relu3
I0201 21:16:47.403323  2647 net.cpp:100] Creating Layer layer_64_3_relu3
I0201 21:16:47.403327  2647 net.cpp:434] layer_64_3_relu3 <- layer_64_3_conv2
I0201 21:16:47.403332  2647 net.cpp:395] layer_64_3_relu3 -> layer_64_3_conv2 (in-place)
I0201 21:16:47.403702  2647 net.cpp:150] Setting up layer_64_3_relu3
I0201 21:16:47.403713  2647 net.cpp:157] Top shape: 8 64 56 56 (1605632)
I0201 21:16:47.403717  2647 net.cpp:165] Memory required for data: 675971168
I0201 21:16:47.403722  2647 layer_factory.hpp:77] Creating layer layer_64_3_conv3
I0201 21:16:47.403733  2647 net.cpp:100] Creating Layer layer_64_3_conv3
I0201 21:16:47.403736  2647 net.cpp:434] layer_64_3_conv3 <- layer_64_3_conv2
I0201 21:16:47.403743  2647 net.cpp:408] layer_64_3_conv3 -> layer_64_3_conv3
I0201 21:16:47.404786  2647 net.cpp:150] Setting up layer_64_3_conv3
I0201 21:16:47.404798  2647 net.cpp:157] Top shape: 8 256 56 56 (6422528)
I0201 21:16:47.404803  2647 net.cpp:165] Memory required for data: 701661280
I0201 21:16:47.404808  2647 layer_factory.hpp:77] Creating layer layer_64_3_sum
I0201 21:16:47.404814  2647 net.cpp:100] Creating Layer layer_64_3_sum
I0201 21:16:47.404819  2647 net.cpp:434] layer_64_3_sum <- layer_64_3_conv3
I0201 21:16:47.404824  2647 net.cpp:434] layer_64_3_sum <- layer_64_2_sum_layer_64_2_sum_0_split_1
I0201 21:16:47.404829  2647 net.cpp:408] layer_64_3_sum -> layer_64_3_sum
I0201 21:16:47.404851  2647 net.cpp:150] Setting up layer_64_3_sum
I0201 21:16:47.404857  2647 net.cpp:157] Top shape: 8 256 56 56 (6422528)
I0201 21:16:47.404860  2647 net.cpp:165] Memory required for data: 727351392
I0201 21:16:47.404865  2647 layer_factory.hpp:77] Creating layer layer_128_1_bn1
I0201 21:16:47.404870  2647 net.cpp:100] Creating Layer layer_128_1_bn1
I0201 21:16:47.404873  2647 net.cpp:434] layer_128_1_bn1 <- layer_64_3_sum
I0201 21:16:47.404881  2647 net.cpp:408] layer_128_1_bn1 -> layer_128_1_bn1
I0201 21:16:47.405051  2647 net.cpp:150] Setting up layer_128_1_bn1
I0201 21:16:47.405057  2647 net.cpp:157] Top shape: 8 256 56 56 (6422528)
I0201 21:16:47.405061  2647 net.cpp:165] Memory required for data: 753041504
I0201 21:16:47.405077  2647 layer_factory.hpp:77] Creating layer layer_128_1_scale1
I0201 21:16:47.405084  2647 net.cpp:100] Creating Layer layer_128_1_scale1
I0201 21:16:47.405089  2647 net.cpp:434] layer_128_1_scale1 <- layer_128_1_bn1
I0201 21:16:47.405094  2647 net.cpp:395] layer_128_1_scale1 -> layer_128_1_bn1 (in-place)
I0201 21:16:47.405131  2647 layer_factory.hpp:77] Creating layer layer_128_1_scale1
I0201 21:16:47.405227  2647 net.cpp:150] Setting up layer_128_1_scale1
I0201 21:16:47.405234  2647 net.cpp:157] Top shape: 8 256 56 56 (6422528)
I0201 21:16:47.405237  2647 net.cpp:165] Memory required for data: 778731616
I0201 21:16:47.405243  2647 layer_factory.hpp:77] Creating layer layer_128_1_relu1
I0201 21:16:47.405248  2647 net.cpp:100] Creating Layer layer_128_1_relu1
I0201 21:16:47.405252  2647 net.cpp:434] layer_128_1_relu1 <- layer_128_1_bn1
I0201 21:16:47.405257  2647 net.cpp:395] layer_128_1_relu1 -> layer_128_1_bn1 (in-place)
I0201 21:16:47.405617  2647 net.cpp:150] Setting up layer_128_1_relu1
I0201 21:16:47.405628  2647 net.cpp:157] Top shape: 8 256 56 56 (6422528)
I0201 21:16:47.405632  2647 net.cpp:165] Memory required for data: 804421728
I0201 21:16:47.405637  2647 layer_factory.hpp:77] Creating layer layer_128_1_bn1_layer_128_1_relu1_0_split
I0201 21:16:47.405643  2647 net.cpp:100] Creating Layer layer_128_1_bn1_layer_128_1_relu1_0_split
I0201 21:16:47.405652  2647 net.cpp:434] layer_128_1_bn1_layer_128_1_relu1_0_split <- layer_128_1_bn1
I0201 21:16:47.405663  2647 net.cpp:408] layer_128_1_bn1_layer_128_1_relu1_0_split -> layer_128_1_bn1_layer_128_1_relu1_0_split_0
I0201 21:16:47.405669  2647 net.cpp:408] layer_128_1_bn1_layer_128_1_relu1_0_split -> layer_128_1_bn1_layer_128_1_relu1_0_split_1
I0201 21:16:47.405706  2647 net.cpp:150] Setting up layer_128_1_bn1_layer_128_1_relu1_0_split
I0201 21:16:47.405712  2647 net.cpp:157] Top shape: 8 256 56 56 (6422528)
I0201 21:16:47.405717  2647 net.cpp:157] Top shape: 8 256 56 56 (6422528)
I0201 21:16:47.405720  2647 net.cpp:165] Memory required for data: 855801952
I0201 21:16:47.405725  2647 layer_factory.hpp:77] Creating layer layer_128_1_conv1
I0201 21:16:47.405733  2647 net.cpp:100] Creating Layer layer_128_1_conv1
I0201 21:16:47.405737  2647 net.cpp:434] layer_128_1_conv1 <- layer_128_1_bn1_layer_128_1_relu1_0_split_0
I0201 21:16:47.405743  2647 net.cpp:408] layer_128_1_conv1 -> layer_128_1_conv1
I0201 21:16:47.407414  2647 net.cpp:150] Setting up layer_128_1_conv1
I0201 21:16:47.407425  2647 net.cpp:157] Top shape: 8 128 56 56 (3211264)
I0201 21:16:47.407430  2647 net.cpp:165] Memory required for data: 868647008
I0201 21:16:47.407436  2647 layer_factory.hpp:77] Creating layer layer_128_1_bn2
I0201 21:16:47.407444  2647 net.cpp:100] Creating Layer layer_128_1_bn2
I0201 21:16:47.407447  2647 net.cpp:434] layer_128_1_bn2 <- layer_128_1_conv1
I0201 21:16:47.407452  2647 net.cpp:395] layer_128_1_bn2 -> layer_128_1_conv1 (in-place)
I0201 21:16:47.407620  2647 net.cpp:150] Setting up layer_128_1_bn2
I0201 21:16:47.407626  2647 net.cpp:157] Top shape: 8 128 56 56 (3211264)
I0201 21:16:47.407630  2647 net.cpp:165] Memory required for data: 881492064
I0201 21:16:47.407637  2647 layer_factory.hpp:77] Creating layer layer_128_1_scale2
I0201 21:16:47.407644  2647 net.cpp:100] Creating Layer layer_128_1_scale2
I0201 21:16:47.407647  2647 net.cpp:434] layer_128_1_scale2 <- layer_128_1_conv1
I0201 21:16:47.407654  2647 net.cpp:395] layer_128_1_scale2 -> layer_128_1_conv1 (in-place)
I0201 21:16:47.407687  2647 layer_factory.hpp:77] Creating layer layer_128_1_scale2
I0201 21:16:47.407788  2647 net.cpp:150] Setting up layer_128_1_scale2
I0201 21:16:47.407798  2647 net.cpp:157] Top shape: 8 128 56 56 (3211264)
I0201 21:16:47.407800  2647 net.cpp:165] Memory required for data: 894337120
I0201 21:16:47.407806  2647 layer_factory.hpp:77] Creating layer layer_128_1_relu2
I0201 21:16:47.407812  2647 net.cpp:100] Creating Layer layer_128_1_relu2
I0201 21:16:47.407815  2647 net.cpp:434] layer_128_1_relu2 <- layer_128_1_conv1
I0201 21:16:47.407820  2647 net.cpp:395] layer_128_1_relu2 -> layer_128_1_conv1 (in-place)
I0201 21:16:47.407973  2647 net.cpp:150] Setting up layer_128_1_relu2
I0201 21:16:47.407979  2647 net.cpp:157] Top shape: 8 128 56 56 (3211264)
I0201 21:16:47.407982  2647 net.cpp:165] Memory required for data: 907182176
I0201 21:16:47.407985  2647 layer_factory.hpp:77] Creating layer layer_128_1_conv2
I0201 21:16:47.407994  2647 net.cpp:100] Creating Layer layer_128_1_conv2
I0201 21:16:47.407996  2647 net.cpp:434] layer_128_1_conv2 <- layer_128_1_conv1
I0201 21:16:47.408004  2647 net.cpp:408] layer_128_1_conv2 -> layer_128_1_conv2
I0201 21:16:47.412976  2647 net.cpp:150] Setting up layer_128_1_conv2
I0201 21:16:47.412994  2647 net.cpp:157] Top shape: 8 128 28 28 (802816)
I0201 21:16:47.412997  2647 net.cpp:165] Memory required for data: 910393440
I0201 21:16:47.413003  2647 layer_factory.hpp:77] Creating layer layer_128_1_bn3
I0201 21:16:47.413012  2647 net.cpp:100] Creating Layer layer_128_1_bn3
I0201 21:16:47.413015  2647 net.cpp:434] layer_128_1_bn3 <- layer_128_1_conv2
I0201 21:16:47.413020  2647 net.cpp:395] layer_128_1_bn3 -> layer_128_1_conv2 (in-place)
I0201 21:16:47.413594  2647 net.cpp:150] Setting up layer_128_1_bn3
I0201 21:16:47.413601  2647 net.cpp:157] Top shape: 8 128 28 28 (802816)
I0201 21:16:47.413605  2647 net.cpp:165] Memory required for data: 913604704
I0201 21:16:47.413611  2647 layer_factory.hpp:77] Creating layer layer_128_1_scale3
I0201 21:16:47.413630  2647 net.cpp:100] Creating Layer layer_128_1_scale3
I0201 21:16:47.413635  2647 net.cpp:434] layer_128_1_scale3 <- layer_128_1_conv2
I0201 21:16:47.413643  2647 net.cpp:395] layer_128_1_scale3 -> layer_128_1_conv2 (in-place)
I0201 21:16:47.413683  2647 layer_factory.hpp:77] Creating layer layer_128_1_scale3
I0201 21:16:47.413777  2647 net.cpp:150] Setting up layer_128_1_scale3
I0201 21:16:47.413785  2647 net.cpp:157] Top shape: 8 128 28 28 (802816)
I0201 21:16:47.413787  2647 net.cpp:165] Memory required for data: 916815968
I0201 21:16:47.413792  2647 layer_factory.hpp:77] Creating layer layer_128_1_relu3
I0201 21:16:47.413799  2647 net.cpp:100] Creating Layer layer_128_1_relu3
I0201 21:16:47.413801  2647 net.cpp:434] layer_128_1_relu3 <- layer_128_1_conv2
I0201 21:16:47.413805  2647 net.cpp:395] layer_128_1_relu3 -> layer_128_1_conv2 (in-place)
I0201 21:16:47.413954  2647 net.cpp:150] Setting up layer_128_1_relu3
I0201 21:16:47.413961  2647 net.cpp:157] Top shape: 8 128 28 28 (802816)
I0201 21:16:47.413964  2647 net.cpp:165] Memory required for data: 920027232
I0201 21:16:47.413967  2647 layer_factory.hpp:77] Creating layer layer_128_1_conv3
I0201 21:16:47.413975  2647 net.cpp:100] Creating Layer layer_128_1_conv3
I0201 21:16:47.413978  2647 net.cpp:434] layer_128_1_conv3 <- layer_128_1_conv2
I0201 21:16:47.413983  2647 net.cpp:408] layer_128_1_conv3 -> layer_128_1_conv3
I0201 21:16:47.423029  2647 net.cpp:150] Setting up layer_128_1_conv3
I0201 21:16:47.423044  2647 net.cpp:157] Top shape: 8 512 28 28 (3211264)
I0201 21:16:47.423048  2647 net.cpp:165] Memory required for data: 932872288
I0201 21:16:47.423053  2647 layer_factory.hpp:77] Creating layer layer_128_1_conv_expand
I0201 21:16:47.423063  2647 net.cpp:100] Creating Layer layer_128_1_conv_expand
I0201 21:16:47.423066  2647 net.cpp:434] layer_128_1_conv_expand <- layer_128_1_bn1_layer_128_1_relu1_0_split_1
I0201 21:16:47.423072  2647 net.cpp:408] layer_128_1_conv_expand -> layer_128_1_conv_expand
I0201 21:16:47.426076  2647 net.cpp:150] Setting up layer_128_1_conv_expand
I0201 21:16:47.426087  2647 net.cpp:157] Top shape: 8 512 28 28 (3211264)
I0201 21:16:47.426092  2647 net.cpp:165] Memory required for data: 945717344
I0201 21:16:47.426096  2647 layer_factory.hpp:77] Creating layer layer_128_1_sum
I0201 21:16:47.426101  2647 net.cpp:100] Creating Layer layer_128_1_sum
I0201 21:16:47.426105  2647 net.cpp:434] layer_128_1_sum <- layer_128_1_conv3
I0201 21:16:47.426108  2647 net.cpp:434] layer_128_1_sum <- layer_128_1_conv_expand
I0201 21:16:47.426112  2647 net.cpp:408] layer_128_1_sum -> layer_128_1_sum
I0201 21:16:47.426131  2647 net.cpp:150] Setting up layer_128_1_sum
I0201 21:16:47.426136  2647 net.cpp:157] Top shape: 8 512 28 28 (3211264)
I0201 21:16:47.426137  2647 net.cpp:165] Memory required for data: 958562400
I0201 21:16:47.426141  2647 layer_factory.hpp:77] Creating layer layer_128_1_sum_layer_128_1_sum_0_split
I0201 21:16:47.426148  2647 net.cpp:100] Creating Layer layer_128_1_sum_layer_128_1_sum_0_split
I0201 21:16:47.426151  2647 net.cpp:434] layer_128_1_sum_layer_128_1_sum_0_split <- layer_128_1_sum
I0201 21:16:47.426156  2647 net.cpp:408] layer_128_1_sum_layer_128_1_sum_0_split -> layer_128_1_sum_layer_128_1_sum_0_split_0
I0201 21:16:47.426161  2647 net.cpp:408] layer_128_1_sum_layer_128_1_sum_0_split -> layer_128_1_sum_layer_128_1_sum_0_split_1
I0201 21:16:47.426183  2647 net.cpp:150] Setting up layer_128_1_sum_layer_128_1_sum_0_split
I0201 21:16:47.426187  2647 net.cpp:157] Top shape: 8 512 28 28 (3211264)
I0201 21:16:47.426190  2647 net.cpp:157] Top shape: 8 512 28 28 (3211264)
I0201 21:16:47.426193  2647 net.cpp:165] Memory required for data: 984252512
I0201 21:16:47.426195  2647 layer_factory.hpp:77] Creating layer layer_128_2_bn1
I0201 21:16:47.426200  2647 net.cpp:100] Creating Layer layer_128_2_bn1
I0201 21:16:47.426203  2647 net.cpp:434] layer_128_2_bn1 <- layer_128_1_sum_layer_128_1_sum_0_split_0
I0201 21:16:47.426206  2647 net.cpp:408] layer_128_2_bn1 -> layer_128_2_bn1
I0201 21:16:47.426334  2647 net.cpp:150] Setting up layer_128_2_bn1
I0201 21:16:47.426343  2647 net.cpp:157] Top shape: 8 512 28 28 (3211264)
I0201 21:16:47.426347  2647 net.cpp:165] Memory required for data: 997097568
I0201 21:16:47.426352  2647 layer_factory.hpp:77] Creating layer layer_128_2_scale1
I0201 21:16:47.426357  2647 net.cpp:100] Creating Layer layer_128_2_scale1
I0201 21:16:47.426359  2647 net.cpp:434] layer_128_2_scale1 <- layer_128_2_bn1
I0201 21:16:47.426363  2647 net.cpp:395] layer_128_2_scale1 -> layer_128_2_bn1 (in-place)
I0201 21:16:47.426393  2647 layer_factory.hpp:77] Creating layer layer_128_2_scale1
I0201 21:16:47.426466  2647 net.cpp:150] Setting up layer_128_2_scale1
I0201 21:16:47.426472  2647 net.cpp:157] Top shape: 8 512 28 28 (3211264)
I0201 21:16:47.426475  2647 net.cpp:165] Memory required for data: 1009942624
I0201 21:16:47.426479  2647 layer_factory.hpp:77] Creating layer layer_128_2_relu1
I0201 21:16:47.426484  2647 net.cpp:100] Creating Layer layer_128_2_relu1
I0201 21:16:47.426487  2647 net.cpp:434] layer_128_2_relu1 <- layer_128_2_bn1
I0201 21:16:47.426491  2647 net.cpp:395] layer_128_2_relu1 -> layer_128_2_bn1 (in-place)
I0201 21:16:47.426605  2647 net.cpp:150] Setting up layer_128_2_relu1
I0201 21:16:47.426611  2647 net.cpp:157] Top shape: 8 512 28 28 (3211264)
I0201 21:16:47.426614  2647 net.cpp:165] Memory required for data: 1022787680
I0201 21:16:47.426617  2647 layer_factory.hpp:77] Creating layer layer_128_2_conv1
I0201 21:16:47.426625  2647 net.cpp:100] Creating Layer layer_128_2_conv1
I0201 21:16:47.426627  2647 net.cpp:434] layer_128_2_conv1 <- layer_128_2_bn1
I0201 21:16:47.426631  2647 net.cpp:408] layer_128_2_conv1 -> layer_128_2_conv1
I0201 21:16:47.428429  2647 net.cpp:150] Setting up layer_128_2_conv1
I0201 21:16:47.428441  2647 net.cpp:157] Top shape: 8 128 28 28 (802816)
I0201 21:16:47.428444  2647 net.cpp:165] Memory required for data: 1025998944
I0201 21:16:47.428448  2647 layer_factory.hpp:77] Creating layer layer_128_2_bn2
I0201 21:16:47.428452  2647 net.cpp:100] Creating Layer layer_128_2_bn2
I0201 21:16:47.428457  2647 net.cpp:434] layer_128_2_bn2 <- layer_128_2_conv1
I0201 21:16:47.428459  2647 net.cpp:395] layer_128_2_bn2 -> layer_128_2_conv1 (in-place)
I0201 21:16:47.428580  2647 net.cpp:150] Setting up layer_128_2_bn2
I0201 21:16:47.428584  2647 net.cpp:157] Top shape: 8 128 28 28 (802816)
I0201 21:16:47.428587  2647 net.cpp:165] Memory required for data: 1029210208
I0201 21:16:47.428592  2647 layer_factory.hpp:77] Creating layer layer_128_2_scale2
I0201 21:16:47.428596  2647 net.cpp:100] Creating Layer layer_128_2_scale2
I0201 21:16:47.428599  2647 net.cpp:434] layer_128_2_scale2 <- layer_128_2_conv1
I0201 21:16:47.428603  2647 net.cpp:395] layer_128_2_scale2 -> layer_128_2_conv1 (in-place)
I0201 21:16:47.428629  2647 layer_factory.hpp:77] Creating layer layer_128_2_scale2
I0201 21:16:47.428697  2647 net.cpp:150] Setting up layer_128_2_scale2
I0201 21:16:47.428701  2647 net.cpp:157] Top shape: 8 128 28 28 (802816)
I0201 21:16:47.428704  2647 net.cpp:165] Memory required for data: 1032421472
I0201 21:16:47.428709  2647 layer_factory.hpp:77] Creating layer layer_128_2_relu2
I0201 21:16:47.428712  2647 net.cpp:100] Creating Layer layer_128_2_relu2
I0201 21:16:47.428714  2647 net.cpp:434] layer_128_2_relu2 <- layer_128_2_conv1
I0201 21:16:47.428719  2647 net.cpp:395] layer_128_2_relu2 -> layer_128_2_conv1 (in-place)
I0201 21:16:47.428828  2647 net.cpp:150] Setting up layer_128_2_relu2
I0201 21:16:47.428833  2647 net.cpp:157] Top shape: 8 128 28 28 (802816)
I0201 21:16:47.428836  2647 net.cpp:165] Memory required for data: 1035632736
I0201 21:16:47.428838  2647 layer_factory.hpp:77] Creating layer layer_128_2_conv2
I0201 21:16:47.428845  2647 net.cpp:100] Creating Layer layer_128_2_conv2
I0201 21:16:47.428848  2647 net.cpp:434] layer_128_2_conv2 <- layer_128_2_conv1
I0201 21:16:47.428853  2647 net.cpp:408] layer_128_2_conv2 -> layer_128_2_conv2
I0201 21:16:47.432404  2647 net.cpp:150] Setting up layer_128_2_conv2
I0201 21:16:47.432418  2647 net.cpp:157] Top shape: 8 128 28 28 (802816)
I0201 21:16:47.432425  2647 net.cpp:165] Memory required for data: 1038844000
I0201 21:16:47.432435  2647 layer_factory.hpp:77] Creating layer layer_128_2_bn3
I0201 21:16:47.432441  2647 net.cpp:100] Creating Layer layer_128_2_bn3
I0201 21:16:47.432446  2647 net.cpp:434] layer_128_2_bn3 <- layer_128_2_conv2
I0201 21:16:47.432449  2647 net.cpp:395] layer_128_2_bn3 -> layer_128_2_conv2 (in-place)
I0201 21:16:47.432574  2647 net.cpp:150] Setting up layer_128_2_bn3
I0201 21:16:47.432579  2647 net.cpp:157] Top shape: 8 128 28 28 (802816)
I0201 21:16:47.432581  2647 net.cpp:165] Memory required for data: 1042055264
I0201 21:16:47.432586  2647 layer_factory.hpp:77] Creating layer layer_128_2_scale3
I0201 21:16:47.432592  2647 net.cpp:100] Creating Layer layer_128_2_scale3
I0201 21:16:47.432595  2647 net.cpp:434] layer_128_2_scale3 <- layer_128_2_conv2
I0201 21:16:47.432598  2647 net.cpp:395] layer_128_2_scale3 -> layer_128_2_conv2 (in-place)
I0201 21:16:47.432624  2647 layer_factory.hpp:77] Creating layer layer_128_2_scale3
I0201 21:16:47.432693  2647 net.cpp:150] Setting up layer_128_2_scale3
I0201 21:16:47.432698  2647 net.cpp:157] Top shape: 8 128 28 28 (802816)
I0201 21:16:47.432700  2647 net.cpp:165] Memory required for data: 1045266528
I0201 21:16:47.432704  2647 layer_factory.hpp:77] Creating layer layer_128_2_relu3
I0201 21:16:47.432709  2647 net.cpp:100] Creating Layer layer_128_2_relu3
I0201 21:16:47.432713  2647 net.cpp:434] layer_128_2_relu3 <- layer_128_2_conv2
I0201 21:16:47.432715  2647 net.cpp:395] layer_128_2_relu3 -> layer_128_2_conv2 (in-place)
I0201 21:16:47.432826  2647 net.cpp:150] Setting up layer_128_2_relu3
I0201 21:16:47.432832  2647 net.cpp:157] Top shape: 8 128 28 28 (802816)
I0201 21:16:47.432835  2647 net.cpp:165] Memory required for data: 1048477792
I0201 21:16:47.432837  2647 layer_factory.hpp:77] Creating layer layer_128_2_conv3
I0201 21:16:47.432845  2647 net.cpp:100] Creating Layer layer_128_2_conv3
I0201 21:16:47.432848  2647 net.cpp:434] layer_128_2_conv3 <- layer_128_2_conv2
I0201 21:16:47.432853  2647 net.cpp:408] layer_128_2_conv3 -> layer_128_2_conv3
I0201 21:16:47.434633  2647 net.cpp:150] Setting up layer_128_2_conv3
I0201 21:16:47.434643  2647 net.cpp:157] Top shape: 8 512 28 28 (3211264)
I0201 21:16:47.434646  2647 net.cpp:165] Memory required for data: 1061322848
I0201 21:16:47.434650  2647 layer_factory.hpp:77] Creating layer layer_128_2_sum
I0201 21:16:47.434654  2647 net.cpp:100] Creating Layer layer_128_2_sum
I0201 21:16:47.434659  2647 net.cpp:434] layer_128_2_sum <- layer_128_2_conv3
I0201 21:16:47.434661  2647 net.cpp:434] layer_128_2_sum <- layer_128_1_sum_layer_128_1_sum_0_split_1
I0201 21:16:47.434665  2647 net.cpp:408] layer_128_2_sum -> layer_128_2_sum
I0201 21:16:47.434684  2647 net.cpp:150] Setting up layer_128_2_sum
I0201 21:16:47.434687  2647 net.cpp:157] Top shape: 8 512 28 28 (3211264)
I0201 21:16:47.434689  2647 net.cpp:165] Memory required for data: 1074167904
I0201 21:16:47.434692  2647 layer_factory.hpp:77] Creating layer layer_128_2_sum_layer_128_2_sum_0_split
I0201 21:16:47.434695  2647 net.cpp:100] Creating Layer layer_128_2_sum_layer_128_2_sum_0_split
I0201 21:16:47.434700  2647 net.cpp:434] layer_128_2_sum_layer_128_2_sum_0_split <- layer_128_2_sum
I0201 21:16:47.434702  2647 net.cpp:408] layer_128_2_sum_layer_128_2_sum_0_split -> layer_128_2_sum_layer_128_2_sum_0_split_0
I0201 21:16:47.434707  2647 net.cpp:408] layer_128_2_sum_layer_128_2_sum_0_split -> layer_128_2_sum_layer_128_2_sum_0_split_1
I0201 21:16:47.434729  2647 net.cpp:150] Setting up layer_128_2_sum_layer_128_2_sum_0_split
I0201 21:16:47.434733  2647 net.cpp:157] Top shape: 8 512 28 28 (3211264)
I0201 21:16:47.434736  2647 net.cpp:157] Top shape: 8 512 28 28 (3211264)
I0201 21:16:47.434739  2647 net.cpp:165] Memory required for data: 1099858016
I0201 21:16:47.434741  2647 layer_factory.hpp:77] Creating layer layer_128_3_bn1
I0201 21:16:47.434746  2647 net.cpp:100] Creating Layer layer_128_3_bn1
I0201 21:16:47.434748  2647 net.cpp:434] layer_128_3_bn1 <- layer_128_2_sum_layer_128_2_sum_0_split_0
I0201 21:16:47.434754  2647 net.cpp:408] layer_128_3_bn1 -> layer_128_3_bn1
I0201 21:16:47.434881  2647 net.cpp:150] Setting up layer_128_3_bn1
I0201 21:16:47.434885  2647 net.cpp:157] Top shape: 8 512 28 28 (3211264)
I0201 21:16:47.434888  2647 net.cpp:165] Memory required for data: 1112703072
I0201 21:16:47.434893  2647 layer_factory.hpp:77] Creating layer layer_128_3_scale1
I0201 21:16:47.434900  2647 net.cpp:100] Creating Layer layer_128_3_scale1
I0201 21:16:47.434902  2647 net.cpp:434] layer_128_3_scale1 <- layer_128_3_bn1
I0201 21:16:47.434906  2647 net.cpp:395] layer_128_3_scale1 -> layer_128_3_bn1 (in-place)
I0201 21:16:47.434931  2647 layer_factory.hpp:77] Creating layer layer_128_3_scale1
I0201 21:16:47.434999  2647 net.cpp:150] Setting up layer_128_3_scale1
I0201 21:16:47.435003  2647 net.cpp:157] Top shape: 8 512 28 28 (3211264)
I0201 21:16:47.435006  2647 net.cpp:165] Memory required for data: 1125548128
I0201 21:16:47.435010  2647 layer_factory.hpp:77] Creating layer layer_128_3_relu1
I0201 21:16:47.435014  2647 net.cpp:100] Creating Layer layer_128_3_relu1
I0201 21:16:47.435016  2647 net.cpp:434] layer_128_3_relu1 <- layer_128_3_bn1
I0201 21:16:47.435020  2647 net.cpp:395] layer_128_3_relu1 -> layer_128_3_bn1 (in-place)
I0201 21:16:47.435286  2647 net.cpp:150] Setting up layer_128_3_relu1
I0201 21:16:47.435294  2647 net.cpp:157] Top shape: 8 512 28 28 (3211264)
I0201 21:16:47.435297  2647 net.cpp:165] Memory required for data: 1138393184
I0201 21:16:47.435299  2647 layer_factory.hpp:77] Creating layer layer_128_3_conv1
I0201 21:16:47.435307  2647 net.cpp:100] Creating Layer layer_128_3_conv1
I0201 21:16:47.435309  2647 net.cpp:434] layer_128_3_conv1 <- layer_128_3_bn1
I0201 21:16:47.435315  2647 net.cpp:408] layer_128_3_conv1 -> layer_128_3_conv1
I0201 21:16:47.437502  2647 net.cpp:150] Setting up layer_128_3_conv1
I0201 21:16:47.437513  2647 net.cpp:157] Top shape: 8 128 28 28 (802816)
I0201 21:16:47.437516  2647 net.cpp:165] Memory required for data: 1141604448
I0201 21:16:47.437520  2647 layer_factory.hpp:77] Creating layer layer_128_3_bn2
I0201 21:16:47.437525  2647 net.cpp:100] Creating Layer layer_128_3_bn2
I0201 21:16:47.437530  2647 net.cpp:434] layer_128_3_bn2 <- layer_128_3_conv1
I0201 21:16:47.437532  2647 net.cpp:395] layer_128_3_bn2 -> layer_128_3_conv1 (in-place)
I0201 21:16:47.437655  2647 net.cpp:150] Setting up layer_128_3_bn2
I0201 21:16:47.437660  2647 net.cpp:157] Top shape: 8 128 28 28 (802816)
I0201 21:16:47.437664  2647 net.cpp:165] Memory required for data: 1144815712
I0201 21:16:47.437669  2647 layer_factory.hpp:77] Creating layer layer_128_3_scale2
I0201 21:16:47.437674  2647 net.cpp:100] Creating Layer layer_128_3_scale2
I0201 21:16:47.437675  2647 net.cpp:434] layer_128_3_scale2 <- layer_128_3_conv1
I0201 21:16:47.437680  2647 net.cpp:395] layer_128_3_scale2 -> layer_128_3_conv1 (in-place)
I0201 21:16:47.437706  2647 layer_factory.hpp:77] Creating layer layer_128_3_scale2
I0201 21:16:47.437777  2647 net.cpp:150] Setting up layer_128_3_scale2
I0201 21:16:47.437780  2647 net.cpp:157] Top shape: 8 128 28 28 (802816)
I0201 21:16:47.437783  2647 net.cpp:165] Memory required for data: 1148026976
I0201 21:16:47.437788  2647 layer_factory.hpp:77] Creating layer layer_128_3_relu2
I0201 21:16:47.437791  2647 net.cpp:100] Creating Layer layer_128_3_relu2
I0201 21:16:47.437793  2647 net.cpp:434] layer_128_3_relu2 <- layer_128_3_conv1
I0201 21:16:47.437798  2647 net.cpp:395] layer_128_3_relu2 -> layer_128_3_conv1 (in-place)
I0201 21:16:47.437906  2647 net.cpp:150] Setting up layer_128_3_relu2
I0201 21:16:47.437912  2647 net.cpp:157] Top shape: 8 128 28 28 (802816)
I0201 21:16:47.437916  2647 net.cpp:165] Memory required for data: 1151238240
I0201 21:16:47.437919  2647 layer_factory.hpp:77] Creating layer layer_128_3_conv2
I0201 21:16:47.437929  2647 net.cpp:100] Creating Layer layer_128_3_conv2
I0201 21:16:47.437934  2647 net.cpp:434] layer_128_3_conv2 <- layer_128_3_conv1
I0201 21:16:47.437942  2647 net.cpp:408] layer_128_3_conv2 -> layer_128_3_conv2
I0201 21:16:47.441936  2647 net.cpp:150] Setting up layer_128_3_conv2
I0201 21:16:47.441956  2647 net.cpp:157] Top shape: 8 128 28 28 (802816)
I0201 21:16:47.441959  2647 net.cpp:165] Memory required for data: 1154449504
I0201 21:16:47.441963  2647 layer_factory.hpp:77] Creating layer layer_128_3_bn3
I0201 21:16:47.441970  2647 net.cpp:100] Creating Layer layer_128_3_bn3
I0201 21:16:47.441974  2647 net.cpp:434] layer_128_3_bn3 <- layer_128_3_conv2
I0201 21:16:47.441978  2647 net.cpp:395] layer_128_3_bn3 -> layer_128_3_conv2 (in-place)
I0201 21:16:47.442107  2647 net.cpp:150] Setting up layer_128_3_bn3
I0201 21:16:47.442112  2647 net.cpp:157] Top shape: 8 128 28 28 (802816)
I0201 21:16:47.442116  2647 net.cpp:165] Memory required for data: 1157660768
I0201 21:16:47.442121  2647 layer_factory.hpp:77] Creating layer layer_128_3_scale3
I0201 21:16:47.442126  2647 net.cpp:100] Creating Layer layer_128_3_scale3
I0201 21:16:47.442128  2647 net.cpp:434] layer_128_3_scale3 <- layer_128_3_conv2
I0201 21:16:47.442132  2647 net.cpp:395] layer_128_3_scale3 -> layer_128_3_conv2 (in-place)
I0201 21:16:47.442159  2647 layer_factory.hpp:77] Creating layer layer_128_3_scale3
I0201 21:16:47.442230  2647 net.cpp:150] Setting up layer_128_3_scale3
I0201 21:16:47.442236  2647 net.cpp:157] Top shape: 8 128 28 28 (802816)
I0201 21:16:47.442239  2647 net.cpp:165] Memory required for data: 1160872032
I0201 21:16:47.442242  2647 layer_factory.hpp:77] Creating layer layer_128_3_relu3
I0201 21:16:47.442246  2647 net.cpp:100] Creating Layer layer_128_3_relu3
I0201 21:16:47.442250  2647 net.cpp:434] layer_128_3_relu3 <- layer_128_3_conv2
I0201 21:16:47.442252  2647 net.cpp:395] layer_128_3_relu3 -> layer_128_3_conv2 (in-place)
I0201 21:16:47.442366  2647 net.cpp:150] Setting up layer_128_3_relu3
I0201 21:16:47.442373  2647 net.cpp:157] Top shape: 8 128 28 28 (802816)
I0201 21:16:47.442375  2647 net.cpp:165] Memory required for data: 1164083296
I0201 21:16:47.442378  2647 layer_factory.hpp:77] Creating layer layer_128_3_conv3
I0201 21:16:47.442384  2647 net.cpp:100] Creating Layer layer_128_3_conv3
I0201 21:16:47.442387  2647 net.cpp:434] layer_128_3_conv3 <- layer_128_3_conv2
I0201 21:16:47.442392  2647 net.cpp:408] layer_128_3_conv3 -> layer_128_3_conv3
I0201 21:16:47.444206  2647 net.cpp:150] Setting up layer_128_3_conv3
I0201 21:16:47.444216  2647 net.cpp:157] Top shape: 8 512 28 28 (3211264)
I0201 21:16:47.444219  2647 net.cpp:165] Memory required for data: 1176928352
I0201 21:16:47.444223  2647 layer_factory.hpp:77] Creating layer layer_128_3_sum
I0201 21:16:47.444229  2647 net.cpp:100] Creating Layer layer_128_3_sum
I0201 21:16:47.444232  2647 net.cpp:434] layer_128_3_sum <- layer_128_3_conv3
I0201 21:16:47.444236  2647 net.cpp:434] layer_128_3_sum <- layer_128_2_sum_layer_128_2_sum_0_split_1
I0201 21:16:47.444241  2647 net.cpp:408] layer_128_3_sum -> layer_128_3_sum
I0201 21:16:47.444258  2647 net.cpp:150] Setting up layer_128_3_sum
I0201 21:16:47.444262  2647 net.cpp:157] Top shape: 8 512 28 28 (3211264)
I0201 21:16:47.444265  2647 net.cpp:165] Memory required for data: 1189773408
I0201 21:16:47.444267  2647 layer_factory.hpp:77] Creating layer layer_128_3_sum_layer_128_3_sum_0_split
I0201 21:16:47.444272  2647 net.cpp:100] Creating Layer layer_128_3_sum_layer_128_3_sum_0_split
I0201 21:16:47.444274  2647 net.cpp:434] layer_128_3_sum_layer_128_3_sum_0_split <- layer_128_3_sum
I0201 21:16:47.444279  2647 net.cpp:408] layer_128_3_sum_layer_128_3_sum_0_split -> layer_128_3_sum_layer_128_3_sum_0_split_0
I0201 21:16:47.444283  2647 net.cpp:408] layer_128_3_sum_layer_128_3_sum_0_split -> layer_128_3_sum_layer_128_3_sum_0_split_1
I0201 21:16:47.444308  2647 net.cpp:150] Setting up layer_128_3_sum_layer_128_3_sum_0_split
I0201 21:16:47.444311  2647 net.cpp:157] Top shape: 8 512 28 28 (3211264)
I0201 21:16:47.444314  2647 net.cpp:157] Top shape: 8 512 28 28 (3211264)
I0201 21:16:47.444316  2647 net.cpp:165] Memory required for data: 1215463520
I0201 21:16:47.444319  2647 layer_factory.hpp:77] Creating layer layer_128_4_bn1
I0201 21:16:47.444324  2647 net.cpp:100] Creating Layer layer_128_4_bn1
I0201 21:16:47.444329  2647 net.cpp:434] layer_128_4_bn1 <- layer_128_3_sum_layer_128_3_sum_0_split_0
I0201 21:16:47.444336  2647 net.cpp:408] layer_128_4_bn1 -> layer_128_4_bn1
I0201 21:16:47.444463  2647 net.cpp:150] Setting up layer_128_4_bn1
I0201 21:16:47.444468  2647 net.cpp:157] Top shape: 8 512 28 28 (3211264)
I0201 21:16:47.444470  2647 net.cpp:165] Memory required for data: 1228308576
I0201 21:16:47.444475  2647 layer_factory.hpp:77] Creating layer layer_128_4_scale1
I0201 21:16:47.444480  2647 net.cpp:100] Creating Layer layer_128_4_scale1
I0201 21:16:47.444483  2647 net.cpp:434] layer_128_4_scale1 <- layer_128_4_bn1
I0201 21:16:47.444486  2647 net.cpp:395] layer_128_4_scale1 -> layer_128_4_bn1 (in-place)
I0201 21:16:47.444514  2647 layer_factory.hpp:77] Creating layer layer_128_4_scale1
I0201 21:16:47.444583  2647 net.cpp:150] Setting up layer_128_4_scale1
I0201 21:16:47.444587  2647 net.cpp:157] Top shape: 8 512 28 28 (3211264)
I0201 21:16:47.444591  2647 net.cpp:165] Memory required for data: 1241153632
I0201 21:16:47.444594  2647 layer_factory.hpp:77] Creating layer layer_128_4_relu1
I0201 21:16:47.444598  2647 net.cpp:100] Creating Layer layer_128_4_relu1
I0201 21:16:47.444602  2647 net.cpp:434] layer_128_4_relu1 <- layer_128_4_bn1
I0201 21:16:47.444604  2647 net.cpp:395] layer_128_4_relu1 -> layer_128_4_bn1 (in-place)
I0201 21:16:47.444712  2647 net.cpp:150] Setting up layer_128_4_relu1
I0201 21:16:47.444717  2647 net.cpp:157] Top shape: 8 512 28 28 (3211264)
I0201 21:16:47.444720  2647 net.cpp:165] Memory required for data: 1253998688
I0201 21:16:47.444723  2647 layer_factory.hpp:77] Creating layer layer_128_4_conv1
I0201 21:16:47.444730  2647 net.cpp:100] Creating Layer layer_128_4_conv1
I0201 21:16:47.444732  2647 net.cpp:434] layer_128_4_conv1 <- layer_128_4_bn1
I0201 21:16:47.444736  2647 net.cpp:408] layer_128_4_conv1 -> layer_128_4_conv1
I0201 21:16:47.446576  2647 net.cpp:150] Setting up layer_128_4_conv1
I0201 21:16:47.446586  2647 net.cpp:157] Top shape: 8 128 28 28 (802816)
I0201 21:16:47.446590  2647 net.cpp:165] Memory required for data: 1257209952
I0201 21:16:47.446594  2647 layer_factory.hpp:77] Creating layer layer_128_4_bn2
I0201 21:16:47.446599  2647 net.cpp:100] Creating Layer layer_128_4_bn2
I0201 21:16:47.446602  2647 net.cpp:434] layer_128_4_bn2 <- layer_128_4_conv1
I0201 21:16:47.446607  2647 net.cpp:395] layer_128_4_bn2 -> layer_128_4_conv1 (in-place)
I0201 21:16:47.446738  2647 net.cpp:150] Setting up layer_128_4_bn2
I0201 21:16:47.446743  2647 net.cpp:157] Top shape: 8 128 28 28 (802816)
I0201 21:16:47.446744  2647 net.cpp:165] Memory required for data: 1260421216
I0201 21:16:47.446749  2647 layer_factory.hpp:77] Creating layer layer_128_4_scale2
I0201 21:16:47.446753  2647 net.cpp:100] Creating Layer layer_128_4_scale2
I0201 21:16:47.446756  2647 net.cpp:434] layer_128_4_scale2 <- layer_128_4_conv1
I0201 21:16:47.446760  2647 net.cpp:395] layer_128_4_scale2 -> layer_128_4_conv1 (in-place)
I0201 21:16:47.446787  2647 layer_factory.hpp:77] Creating layer layer_128_4_scale2
I0201 21:16:47.446856  2647 net.cpp:150] Setting up layer_128_4_scale2
I0201 21:16:47.446861  2647 net.cpp:157] Top shape: 8 128 28 28 (802816)
I0201 21:16:47.446863  2647 net.cpp:165] Memory required for data: 1263632480
I0201 21:16:47.446867  2647 layer_factory.hpp:77] Creating layer layer_128_4_relu2
I0201 21:16:47.446871  2647 net.cpp:100] Creating Layer layer_128_4_relu2
I0201 21:16:47.446874  2647 net.cpp:434] layer_128_4_relu2 <- layer_128_4_conv1
I0201 21:16:47.446877  2647 net.cpp:395] layer_128_4_relu2 -> layer_128_4_conv1 (in-place)
I0201 21:16:47.446991  2647 net.cpp:150] Setting up layer_128_4_relu2
I0201 21:16:47.446998  2647 net.cpp:157] Top shape: 8 128 28 28 (802816)
I0201 21:16:47.447001  2647 net.cpp:165] Memory required for data: 1266843744
I0201 21:16:47.447003  2647 layer_factory.hpp:77] Creating layer layer_128_4_conv2
I0201 21:16:47.447010  2647 net.cpp:100] Creating Layer layer_128_4_conv2
I0201 21:16:47.447013  2647 net.cpp:434] layer_128_4_conv2 <- layer_128_4_conv1
I0201 21:16:47.447021  2647 net.cpp:408] layer_128_4_conv2 -> layer_128_4_conv2
I0201 21:16:47.450568  2647 net.cpp:150] Setting up layer_128_4_conv2
I0201 21:16:47.450582  2647 net.cpp:157] Top shape: 8 128 28 28 (802816)
I0201 21:16:47.450587  2647 net.cpp:165] Memory required for data: 1270055008
I0201 21:16:47.450603  2647 layer_factory.hpp:77] Creating layer layer_128_4_bn3
I0201 21:16:47.450608  2647 net.cpp:100] Creating Layer layer_128_4_bn3
I0201 21:16:47.450613  2647 net.cpp:434] layer_128_4_bn3 <- layer_128_4_conv2
I0201 21:16:47.450616  2647 net.cpp:395] layer_128_4_bn3 -> layer_128_4_conv2 (in-place)
I0201 21:16:47.450747  2647 net.cpp:150] Setting up layer_128_4_bn3
I0201 21:16:47.450752  2647 net.cpp:157] Top shape: 8 128 28 28 (802816)
I0201 21:16:47.450754  2647 net.cpp:165] Memory required for data: 1273266272
I0201 21:16:47.450759  2647 layer_factory.hpp:77] Creating layer layer_128_4_scale3
I0201 21:16:47.450764  2647 net.cpp:100] Creating Layer layer_128_4_scale3
I0201 21:16:47.450767  2647 net.cpp:434] layer_128_4_scale3 <- layer_128_4_conv2
I0201 21:16:47.450772  2647 net.cpp:395] layer_128_4_scale3 -> layer_128_4_conv2 (in-place)
I0201 21:16:47.450798  2647 layer_factory.hpp:77] Creating layer layer_128_4_scale3
I0201 21:16:47.450868  2647 net.cpp:150] Setting up layer_128_4_scale3
I0201 21:16:47.450873  2647 net.cpp:157] Top shape: 8 128 28 28 (802816)
I0201 21:16:47.450876  2647 net.cpp:165] Memory required for data: 1276477536
I0201 21:16:47.450881  2647 layer_factory.hpp:77] Creating layer layer_128_4_relu3
I0201 21:16:47.450884  2647 net.cpp:100] Creating Layer layer_128_4_relu3
I0201 21:16:47.450887  2647 net.cpp:434] layer_128_4_relu3 <- layer_128_4_conv2
I0201 21:16:47.450891  2647 net.cpp:395] layer_128_4_relu3 -> layer_128_4_conv2 (in-place)
I0201 21:16:47.451005  2647 net.cpp:150] Setting up layer_128_4_relu3
I0201 21:16:47.451011  2647 net.cpp:157] Top shape: 8 128 28 28 (802816)
I0201 21:16:47.451014  2647 net.cpp:165] Memory required for data: 1279688800
I0201 21:16:47.451016  2647 layer_factory.hpp:77] Creating layer layer_128_4_conv3
I0201 21:16:47.451023  2647 net.cpp:100] Creating Layer layer_128_4_conv3
I0201 21:16:47.451026  2647 net.cpp:434] layer_128_4_conv3 <- layer_128_4_conv2
I0201 21:16:47.451030  2647 net.cpp:408] layer_128_4_conv3 -> layer_128_4_conv3
I0201 21:16:47.452843  2647 net.cpp:150] Setting up layer_128_4_conv3
I0201 21:16:47.452854  2647 net.cpp:157] Top shape: 8 512 28 28 (3211264)
I0201 21:16:47.452857  2647 net.cpp:165] Memory required for data: 1292533856
I0201 21:16:47.452862  2647 layer_factory.hpp:77] Creating layer layer_128_4_sum
I0201 21:16:47.452867  2647 net.cpp:100] Creating Layer layer_128_4_sum
I0201 21:16:47.452870  2647 net.cpp:434] layer_128_4_sum <- layer_128_4_conv3
I0201 21:16:47.452873  2647 net.cpp:434] layer_128_4_sum <- layer_128_3_sum_layer_128_3_sum_0_split_1
I0201 21:16:47.452877  2647 net.cpp:408] layer_128_4_sum -> layer_128_4_sum
I0201 21:16:47.452896  2647 net.cpp:150] Setting up layer_128_4_sum
I0201 21:16:47.452900  2647 net.cpp:157] Top shape: 8 512 28 28 (3211264)
I0201 21:16:47.452903  2647 net.cpp:165] Memory required for data: 1305378912
I0201 21:16:47.452905  2647 layer_factory.hpp:77] Creating layer layer_256_1_bn1
I0201 21:16:47.452909  2647 net.cpp:100] Creating Layer layer_256_1_bn1
I0201 21:16:47.452913  2647 net.cpp:434] layer_256_1_bn1 <- layer_128_4_sum
I0201 21:16:47.452915  2647 net.cpp:408] layer_256_1_bn1 -> layer_256_1_bn1
I0201 21:16:47.453045  2647 net.cpp:150] Setting up layer_256_1_bn1
I0201 21:16:47.453050  2647 net.cpp:157] Top shape: 8 512 28 28 (3211264)
I0201 21:16:47.453052  2647 net.cpp:165] Memory required for data: 1318223968
I0201 21:16:47.453058  2647 layer_factory.hpp:77] Creating layer layer_256_1_scale1
I0201 21:16:47.453063  2647 net.cpp:100] Creating Layer layer_256_1_scale1
I0201 21:16:47.453065  2647 net.cpp:434] layer_256_1_scale1 <- layer_256_1_bn1
I0201 21:16:47.453069  2647 net.cpp:395] layer_256_1_scale1 -> layer_256_1_bn1 (in-place)
I0201 21:16:47.453099  2647 layer_factory.hpp:77] Creating layer layer_256_1_scale1
I0201 21:16:47.453176  2647 net.cpp:150] Setting up layer_256_1_scale1
I0201 21:16:47.453181  2647 net.cpp:157] Top shape: 8 512 28 28 (3211264)
I0201 21:16:47.453184  2647 net.cpp:165] Memory required for data: 1331069024
I0201 21:16:47.453188  2647 layer_factory.hpp:77] Creating layer layer_256_1_relu1
I0201 21:16:47.453192  2647 net.cpp:100] Creating Layer layer_256_1_relu1
I0201 21:16:47.453194  2647 net.cpp:434] layer_256_1_relu1 <- layer_256_1_bn1
I0201 21:16:47.453197  2647 net.cpp:395] layer_256_1_relu1 -> layer_256_1_bn1 (in-place)
I0201 21:16:47.453485  2647 net.cpp:150] Setting up layer_256_1_relu1
I0201 21:16:47.453493  2647 net.cpp:157] Top shape: 8 512 28 28 (3211264)
I0201 21:16:47.453496  2647 net.cpp:165] Memory required for data: 1343914080
I0201 21:16:47.453500  2647 layer_factory.hpp:77] Creating layer layer_256_1_bn1_layer_256_1_relu1_0_split
I0201 21:16:47.453503  2647 net.cpp:100] Creating Layer layer_256_1_bn1_layer_256_1_relu1_0_split
I0201 21:16:47.453506  2647 net.cpp:434] layer_256_1_bn1_layer_256_1_relu1_0_split <- layer_256_1_bn1
I0201 21:16:47.453511  2647 net.cpp:408] layer_256_1_bn1_layer_256_1_relu1_0_split -> layer_256_1_bn1_layer_256_1_relu1_0_split_0
I0201 21:16:47.453516  2647 net.cpp:408] layer_256_1_bn1_layer_256_1_relu1_0_split -> layer_256_1_bn1_layer_256_1_relu1_0_split_1
I0201 21:16:47.453543  2647 net.cpp:150] Setting up layer_256_1_bn1_layer_256_1_relu1_0_split
I0201 21:16:47.453548  2647 net.cpp:157] Top shape: 8 512 28 28 (3211264)
I0201 21:16:47.453552  2647 net.cpp:157] Top shape: 8 512 28 28 (3211264)
I0201 21:16:47.453554  2647 net.cpp:165] Memory required for data: 1369604192
I0201 21:16:47.453557  2647 layer_factory.hpp:77] Creating layer layer_256_1_conv1
I0201 21:16:47.453562  2647 net.cpp:100] Creating Layer layer_256_1_conv1
I0201 21:16:47.453565  2647 net.cpp:434] layer_256_1_conv1 <- layer_256_1_bn1_layer_256_1_relu1_0_split_0
I0201 21:16:47.453570  2647 net.cpp:408] layer_256_1_conv1 -> layer_256_1_conv1
I0201 21:16:47.456652  2647 net.cpp:150] Setting up layer_256_1_conv1
I0201 21:16:47.456665  2647 net.cpp:157] Top shape: 8 256 28 28 (1605632)
I0201 21:16:47.456671  2647 net.cpp:165] Memory required for data: 1376026720
I0201 21:16:47.456678  2647 layer_factory.hpp:77] Creating layer layer_256_1_bn2
I0201 21:16:47.456686  2647 net.cpp:100] Creating Layer layer_256_1_bn2
I0201 21:16:47.456691  2647 net.cpp:434] layer_256_1_bn2 <- layer_256_1_conv1
I0201 21:16:47.456696  2647 net.cpp:395] layer_256_1_bn2 -> layer_256_1_conv1 (in-place)
I0201 21:16:47.456827  2647 net.cpp:150] Setting up layer_256_1_bn2
I0201 21:16:47.456832  2647 net.cpp:157] Top shape: 8 256 28 28 (1605632)
I0201 21:16:47.456835  2647 net.cpp:165] Memory required for data: 1382449248
I0201 21:16:47.456840  2647 layer_factory.hpp:77] Creating layer layer_256_1_scale2
I0201 21:16:47.456845  2647 net.cpp:100] Creating Layer layer_256_1_scale2
I0201 21:16:47.456847  2647 net.cpp:434] layer_256_1_scale2 <- layer_256_1_conv1
I0201 21:16:47.456851  2647 net.cpp:395] layer_256_1_scale2 -> layer_256_1_conv1 (in-place)
I0201 21:16:47.456881  2647 layer_factory.hpp:77] Creating layer layer_256_1_scale2
I0201 21:16:47.456953  2647 net.cpp:150] Setting up layer_256_1_scale2
I0201 21:16:47.456956  2647 net.cpp:157] Top shape: 8 256 28 28 (1605632)
I0201 21:16:47.456959  2647 net.cpp:165] Memory required for data: 1388871776
I0201 21:16:47.456964  2647 layer_factory.hpp:77] Creating layer layer_256_1_relu2
I0201 21:16:47.456967  2647 net.cpp:100] Creating Layer layer_256_1_relu2
I0201 21:16:47.456970  2647 net.cpp:434] layer_256_1_relu2 <- layer_256_1_conv1
I0201 21:16:47.456974  2647 net.cpp:395] layer_256_1_relu2 -> layer_256_1_conv1 (in-place)
I0201 21:16:47.457087  2647 net.cpp:150] Setting up layer_256_1_relu2
I0201 21:16:47.457093  2647 net.cpp:157] Top shape: 8 256 28 28 (1605632)
I0201 21:16:47.457095  2647 net.cpp:165] Memory required for data: 1395294304
I0201 21:16:47.457098  2647 layer_factory.hpp:77] Creating layer layer_256_1_conv2
I0201 21:16:47.457108  2647 net.cpp:100] Creating Layer layer_256_1_conv2
I0201 21:16:47.457116  2647 net.cpp:434] layer_256_1_conv2 <- layer_256_1_conv1
I0201 21:16:47.457120  2647 net.cpp:408] layer_256_1_conv2 -> layer_256_1_conv2
I0201 21:16:47.468840  2647 net.cpp:150] Setting up layer_256_1_conv2
I0201 21:16:47.468858  2647 net.cpp:157] Top shape: 8 256 14 14 (401408)
I0201 21:16:47.468863  2647 net.cpp:165] Memory required for data: 1396899936
I0201 21:16:47.468868  2647 layer_factory.hpp:77] Creating layer layer_256_1_bn3
I0201 21:16:47.468875  2647 net.cpp:100] Creating Layer layer_256_1_bn3
I0201 21:16:47.468879  2647 net.cpp:434] layer_256_1_bn3 <- layer_256_1_conv2
I0201 21:16:47.468884  2647 net.cpp:395] layer_256_1_bn3 -> layer_256_1_conv2 (in-place)
I0201 21:16:47.469014  2647 net.cpp:150] Setting up layer_256_1_bn3
I0201 21:16:47.469019  2647 net.cpp:157] Top shape: 8 256 14 14 (401408)
I0201 21:16:47.469022  2647 net.cpp:165] Memory required for data: 1398505568
I0201 21:16:47.469027  2647 layer_factory.hpp:77] Creating layer layer_256_1_scale3
I0201 21:16:47.469033  2647 net.cpp:100] Creating Layer layer_256_1_scale3
I0201 21:16:47.469035  2647 net.cpp:434] layer_256_1_scale3 <- layer_256_1_conv2
I0201 21:16:47.469038  2647 net.cpp:395] layer_256_1_scale3 -> layer_256_1_conv2 (in-place)
I0201 21:16:47.469069  2647 layer_factory.hpp:77] Creating layer layer_256_1_scale3
I0201 21:16:47.469137  2647 net.cpp:150] Setting up layer_256_1_scale3
I0201 21:16:47.469142  2647 net.cpp:157] Top shape: 8 256 14 14 (401408)
I0201 21:16:47.469144  2647 net.cpp:165] Memory required for data: 1400111200
I0201 21:16:47.469148  2647 layer_factory.hpp:77] Creating layer layer_256_1_relu3
I0201 21:16:47.469153  2647 net.cpp:100] Creating Layer layer_256_1_relu3
I0201 21:16:47.469156  2647 net.cpp:434] layer_256_1_relu3 <- layer_256_1_conv2
I0201 21:16:47.469159  2647 net.cpp:395] layer_256_1_relu3 -> layer_256_1_conv2 (in-place)
I0201 21:16:47.469270  2647 net.cpp:150] Setting up layer_256_1_relu3
I0201 21:16:47.469276  2647 net.cpp:157] Top shape: 8 256 14 14 (401408)
I0201 21:16:47.469280  2647 net.cpp:165] Memory required for data: 1401716832
I0201 21:16:47.469282  2647 layer_factory.hpp:77] Creating layer layer_256_1_conv3
I0201 21:16:47.469290  2647 net.cpp:100] Creating Layer layer_256_1_conv3
I0201 21:16:47.469291  2647 net.cpp:434] layer_256_1_conv3 <- layer_256_1_conv2
I0201 21:16:47.469296  2647 net.cpp:408] layer_256_1_conv3 -> layer_256_1_conv3
I0201 21:16:47.475152  2647 net.cpp:150] Setting up layer_256_1_conv3
I0201 21:16:47.475167  2647 net.cpp:157] Top shape: 8 1024 14 14 (1605632)
I0201 21:16:47.475172  2647 net.cpp:165] Memory required for data: 1408139360
I0201 21:16:47.475177  2647 layer_factory.hpp:77] Creating layer layer_256_1_conv_expand
I0201 21:16:47.475185  2647 net.cpp:100] Creating Layer layer_256_1_conv_expand
I0201 21:16:47.475189  2647 net.cpp:434] layer_256_1_conv_expand <- layer_256_1_bn1_layer_256_1_relu1_0_split_1
I0201 21:16:47.475194  2647 net.cpp:408] layer_256_1_conv_expand -> layer_256_1_conv_expand
I0201 21:16:47.485785  2647 net.cpp:150] Setting up layer_256_1_conv_expand
I0201 21:16:47.485802  2647 net.cpp:157] Top shape: 8 1024 14 14 (1605632)
I0201 21:16:47.485806  2647 net.cpp:165] Memory required for data: 1414561888
I0201 21:16:47.485811  2647 layer_factory.hpp:77] Creating layer layer_256_1_sum
I0201 21:16:47.485817  2647 net.cpp:100] Creating Layer layer_256_1_sum
I0201 21:16:47.485822  2647 net.cpp:434] layer_256_1_sum <- layer_256_1_conv3
I0201 21:16:47.485826  2647 net.cpp:434] layer_256_1_sum <- layer_256_1_conv_expand
I0201 21:16:47.485831  2647 net.cpp:408] layer_256_1_sum -> layer_256_1_sum
I0201 21:16:47.485857  2647 net.cpp:150] Setting up layer_256_1_sum
I0201 21:16:47.485862  2647 net.cpp:157] Top shape: 8 1024 14 14 (1605632)
I0201 21:16:47.485864  2647 net.cpp:165] Memory required for data: 1420984416
I0201 21:16:47.485867  2647 layer_factory.hpp:77] Creating layer layer_256_1_sum_layer_256_1_sum_0_split
I0201 21:16:47.485872  2647 net.cpp:100] Creating Layer layer_256_1_sum_layer_256_1_sum_0_split
I0201 21:16:47.485878  2647 net.cpp:434] layer_256_1_sum_layer_256_1_sum_0_split <- layer_256_1_sum
I0201 21:16:47.485888  2647 net.cpp:408] layer_256_1_sum_layer_256_1_sum_0_split -> layer_256_1_sum_layer_256_1_sum_0_split_0
I0201 21:16:47.485891  2647 net.cpp:408] layer_256_1_sum_layer_256_1_sum_0_split -> layer_256_1_sum_layer_256_1_sum_0_split_1
I0201 21:16:47.485918  2647 net.cpp:150] Setting up layer_256_1_sum_layer_256_1_sum_0_split
I0201 21:16:47.485921  2647 net.cpp:157] Top shape: 8 1024 14 14 (1605632)
I0201 21:16:47.485925  2647 net.cpp:157] Top shape: 8 1024 14 14 (1605632)
I0201 21:16:47.485927  2647 net.cpp:165] Memory required for data: 1433829472
I0201 21:16:47.485929  2647 layer_factory.hpp:77] Creating layer layer_256_2_bn1
I0201 21:16:47.485934  2647 net.cpp:100] Creating Layer layer_256_2_bn1
I0201 21:16:47.485937  2647 net.cpp:434] layer_256_2_bn1 <- layer_256_1_sum_layer_256_1_sum_0_split_0
I0201 21:16:47.485940  2647 net.cpp:408] layer_256_2_bn1 -> layer_256_2_bn1
I0201 21:16:47.486081  2647 net.cpp:150] Setting up layer_256_2_bn1
I0201 21:16:47.486086  2647 net.cpp:157] Top shape: 8 1024 14 14 (1605632)
I0201 21:16:47.486088  2647 net.cpp:165] Memory required for data: 1440252000
I0201 21:16:47.486093  2647 layer_factory.hpp:77] Creating layer layer_256_2_scale1
I0201 21:16:47.486099  2647 net.cpp:100] Creating Layer layer_256_2_scale1
I0201 21:16:47.486101  2647 net.cpp:434] layer_256_2_scale1 <- layer_256_2_bn1
I0201 21:16:47.486105  2647 net.cpp:395] layer_256_2_scale1 -> layer_256_2_bn1 (in-place)
I0201 21:16:47.486133  2647 layer_factory.hpp:77] Creating layer layer_256_2_scale1
I0201 21:16:47.486208  2647 net.cpp:150] Setting up layer_256_2_scale1
I0201 21:16:47.486213  2647 net.cpp:157] Top shape: 8 1024 14 14 (1605632)
I0201 21:16:47.486217  2647 net.cpp:165] Memory required for data: 1446674528
I0201 21:16:47.486220  2647 layer_factory.hpp:77] Creating layer layer_256_2_relu1
I0201 21:16:47.486224  2647 net.cpp:100] Creating Layer layer_256_2_relu1
I0201 21:16:47.486227  2647 net.cpp:434] layer_256_2_relu1 <- layer_256_2_bn1
I0201 21:16:47.486230  2647 net.cpp:395] layer_256_2_relu1 -> layer_256_2_bn1 (in-place)
I0201 21:16:47.486511  2647 net.cpp:150] Setting up layer_256_2_relu1
I0201 21:16:47.486518  2647 net.cpp:157] Top shape: 8 1024 14 14 (1605632)
I0201 21:16:47.486521  2647 net.cpp:165] Memory required for data: 1453097056
I0201 21:16:47.486524  2647 layer_factory.hpp:77] Creating layer layer_256_2_conv1
I0201 21:16:47.486531  2647 net.cpp:100] Creating Layer layer_256_2_conv1
I0201 21:16:47.486534  2647 net.cpp:434] layer_256_2_conv1 <- layer_256_2_bn1
I0201 21:16:47.486539  2647 net.cpp:408] layer_256_2_conv1 -> layer_256_2_conv1
I0201 21:16:47.491890  2647 net.cpp:150] Setting up layer_256_2_conv1
I0201 21:16:47.491902  2647 net.cpp:157] Top shape: 8 256 14 14 (401408)
I0201 21:16:47.491906  2647 net.cpp:165] Memory required for data: 1454702688
I0201 21:16:47.491910  2647 layer_factory.hpp:77] Creating layer layer_256_2_bn2
I0201 21:16:47.491915  2647 net.cpp:100] Creating Layer layer_256_2_bn2
I0201 21:16:47.491919  2647 net.cpp:434] layer_256_2_bn2 <- layer_256_2_conv1
I0201 21:16:47.491922  2647 net.cpp:395] layer_256_2_bn2 -> layer_256_2_conv1 (in-place)
I0201 21:16:47.492053  2647 net.cpp:150] Setting up layer_256_2_bn2
I0201 21:16:47.492058  2647 net.cpp:157] Top shape: 8 256 14 14 (401408)
I0201 21:16:47.492059  2647 net.cpp:165] Memory required for data: 1456308320
I0201 21:16:47.492064  2647 layer_factory.hpp:77] Creating layer layer_256_2_scale2
I0201 21:16:47.492069  2647 net.cpp:100] Creating Layer layer_256_2_scale2
I0201 21:16:47.492072  2647 net.cpp:434] layer_256_2_scale2 <- layer_256_2_conv1
I0201 21:16:47.492075  2647 net.cpp:395] layer_256_2_scale2 -> layer_256_2_conv1 (in-place)
I0201 21:16:47.492105  2647 layer_factory.hpp:77] Creating layer layer_256_2_scale2
I0201 21:16:47.492175  2647 net.cpp:150] Setting up layer_256_2_scale2
I0201 21:16:47.492179  2647 net.cpp:157] Top shape: 8 256 14 14 (401408)
I0201 21:16:47.492182  2647 net.cpp:165] Memory required for data: 1457913952
I0201 21:16:47.492193  2647 layer_factory.hpp:77] Creating layer layer_256_2_relu2
I0201 21:16:47.492207  2647 net.cpp:100] Creating Layer layer_256_2_relu2
I0201 21:16:47.492209  2647 net.cpp:434] layer_256_2_relu2 <- layer_256_2_conv1
I0201 21:16:47.492213  2647 net.cpp:395] layer_256_2_relu2 -> layer_256_2_conv1 (in-place)
I0201 21:16:47.492324  2647 net.cpp:150] Setting up layer_256_2_relu2
I0201 21:16:47.492329  2647 net.cpp:157] Top shape: 8 256 14 14 (401408)
I0201 21:16:47.492332  2647 net.cpp:165] Memory required for data: 1459519584
I0201 21:16:47.492336  2647 layer_factory.hpp:77] Creating layer layer_256_2_conv2
I0201 21:16:47.492342  2647 net.cpp:100] Creating Layer layer_256_2_conv2
I0201 21:16:47.492346  2647 net.cpp:434] layer_256_2_conv2 <- layer_256_2_conv1
I0201 21:16:47.492349  2647 net.cpp:408] layer_256_2_conv2 -> layer_256_2_conv2
I0201 21:16:47.504305  2647 net.cpp:150] Setting up layer_256_2_conv2
I0201 21:16:47.504323  2647 net.cpp:157] Top shape: 8 256 14 14 (401408)
I0201 21:16:47.504328  2647 net.cpp:165] Memory required for data: 1461125216
I0201 21:16:47.504333  2647 layer_factory.hpp:77] Creating layer layer_256_2_bn3
I0201 21:16:47.504340  2647 net.cpp:100] Creating Layer layer_256_2_bn3
I0201 21:16:47.504344  2647 net.cpp:434] layer_256_2_bn3 <- layer_256_2_conv2
I0201 21:16:47.504348  2647 net.cpp:395] layer_256_2_bn3 -> layer_256_2_conv2 (in-place)
I0201 21:16:47.504487  2647 net.cpp:150] Setting up layer_256_2_bn3
I0201 21:16:47.504492  2647 net.cpp:157] Top shape: 8 256 14 14 (401408)
I0201 21:16:47.504494  2647 net.cpp:165] Memory required for data: 1462730848
I0201 21:16:47.504499  2647 layer_factory.hpp:77] Creating layer layer_256_2_scale3
I0201 21:16:47.504505  2647 net.cpp:100] Creating Layer layer_256_2_scale3
I0201 21:16:47.504508  2647 net.cpp:434] layer_256_2_scale3 <- layer_256_2_conv2
I0201 21:16:47.504513  2647 net.cpp:395] layer_256_2_scale3 -> layer_256_2_conv2 (in-place)
I0201 21:16:47.504542  2647 layer_factory.hpp:77] Creating layer layer_256_2_scale3
I0201 21:16:47.504613  2647 net.cpp:150] Setting up layer_256_2_scale3
I0201 21:16:47.504618  2647 net.cpp:157] Top shape: 8 256 14 14 (401408)
I0201 21:16:47.504621  2647 net.cpp:165] Memory required for data: 1464336480
I0201 21:16:47.504624  2647 layer_factory.hpp:77] Creating layer layer_256_2_relu3
I0201 21:16:47.504629  2647 net.cpp:100] Creating Layer layer_256_2_relu3
I0201 21:16:47.504632  2647 net.cpp:434] layer_256_2_relu3 <- layer_256_2_conv2
I0201 21:16:47.504636  2647 net.cpp:395] layer_256_2_relu3 -> layer_256_2_conv2 (in-place)
I0201 21:16:47.504750  2647 net.cpp:150] Setting up layer_256_2_relu3
I0201 21:16:47.504755  2647 net.cpp:157] Top shape: 8 256 14 14 (401408)
I0201 21:16:47.504758  2647 net.cpp:165] Memory required for data: 1465942112
I0201 21:16:47.504761  2647 layer_factory.hpp:77] Creating layer layer_256_2_conv3
I0201 21:16:47.504768  2647 net.cpp:100] Creating Layer layer_256_2_conv3
I0201 21:16:47.504771  2647 net.cpp:434] layer_256_2_conv3 <- layer_256_2_conv2
I0201 21:16:47.504776  2647 net.cpp:408] layer_256_2_conv3 -> layer_256_2_conv3
I0201 21:16:47.510545  2647 net.cpp:150] Setting up layer_256_2_conv3
I0201 21:16:47.510560  2647 net.cpp:157] Top shape: 8 1024 14 14 (1605632)
I0201 21:16:47.510563  2647 net.cpp:165] Memory required for data: 1472364640
I0201 21:16:47.510567  2647 layer_factory.hpp:77] Creating layer layer_256_2_sum
I0201 21:16:47.510573  2647 net.cpp:100] Creating Layer layer_256_2_sum
I0201 21:16:47.510576  2647 net.cpp:434] layer_256_2_sum <- layer_256_2_conv3
I0201 21:16:47.510581  2647 net.cpp:434] layer_256_2_sum <- layer_256_1_sum_layer_256_1_sum_0_split_1
I0201 21:16:47.510586  2647 net.cpp:408] layer_256_2_sum -> layer_256_2_sum
I0201 21:16:47.510606  2647 net.cpp:150] Setting up layer_256_2_sum
I0201 21:16:47.510609  2647 net.cpp:157] Top shape: 8 1024 14 14 (1605632)
I0201 21:16:47.510612  2647 net.cpp:165] Memory required for data: 1478787168
I0201 21:16:47.510614  2647 layer_factory.hpp:77] Creating layer layer_256_2_sum_layer_256_2_sum_0_split
I0201 21:16:47.510629  2647 net.cpp:100] Creating Layer layer_256_2_sum_layer_256_2_sum_0_split
I0201 21:16:47.510634  2647 net.cpp:434] layer_256_2_sum_layer_256_2_sum_0_split <- layer_256_2_sum
I0201 21:16:47.510640  2647 net.cpp:408] layer_256_2_sum_layer_256_2_sum_0_split -> layer_256_2_sum_layer_256_2_sum_0_split_0
I0201 21:16:47.510648  2647 net.cpp:408] layer_256_2_sum_layer_256_2_sum_0_split -> layer_256_2_sum_layer_256_2_sum_0_split_1
I0201 21:16:47.510675  2647 net.cpp:150] Setting up layer_256_2_sum_layer_256_2_sum_0_split
I0201 21:16:47.510679  2647 net.cpp:157] Top shape: 8 1024 14 14 (1605632)
I0201 21:16:47.510682  2647 net.cpp:157] Top shape: 8 1024 14 14 (1605632)
I0201 21:16:47.510684  2647 net.cpp:165] Memory required for data: 1491632224
I0201 21:16:47.510687  2647 layer_factory.hpp:77] Creating layer layer_256_3_bn1
I0201 21:16:47.510692  2647 net.cpp:100] Creating Layer layer_256_3_bn1
I0201 21:16:47.510695  2647 net.cpp:434] layer_256_3_bn1 <- layer_256_2_sum_layer_256_2_sum_0_split_0
I0201 21:16:47.510699  2647 net.cpp:408] layer_256_3_bn1 -> layer_256_3_bn1
I0201 21:16:47.510833  2647 net.cpp:150] Setting up layer_256_3_bn1
I0201 21:16:47.510838  2647 net.cpp:157] Top shape: 8 1024 14 14 (1605632)
I0201 21:16:47.510840  2647 net.cpp:165] Memory required for data: 1498054752
I0201 21:16:47.510845  2647 layer_factory.hpp:77] Creating layer layer_256_3_scale1
I0201 21:16:47.510849  2647 net.cpp:100] Creating Layer layer_256_3_scale1
I0201 21:16:47.510852  2647 net.cpp:434] layer_256_3_scale1 <- layer_256_3_bn1
I0201 21:16:47.510856  2647 net.cpp:395] layer_256_3_scale1 -> layer_256_3_bn1 (in-place)
I0201 21:16:47.510885  2647 layer_factory.hpp:77] Creating layer layer_256_3_scale1
I0201 21:16:47.510959  2647 net.cpp:150] Setting up layer_256_3_scale1
I0201 21:16:47.510964  2647 net.cpp:157] Top shape: 8 1024 14 14 (1605632)
I0201 21:16:47.510967  2647 net.cpp:165] Memory required for data: 1504477280
I0201 21:16:47.510972  2647 layer_factory.hpp:77] Creating layer layer_256_3_relu1
I0201 21:16:47.510975  2647 net.cpp:100] Creating Layer layer_256_3_relu1
I0201 21:16:47.510978  2647 net.cpp:434] layer_256_3_relu1 <- layer_256_3_bn1
I0201 21:16:47.510982  2647 net.cpp:395] layer_256_3_relu1 -> layer_256_3_bn1 (in-place)
I0201 21:16:47.511272  2647 net.cpp:150] Setting up layer_256_3_relu1
I0201 21:16:47.511281  2647 net.cpp:157] Top shape: 8 1024 14 14 (1605632)
I0201 21:16:47.511283  2647 net.cpp:165] Memory required for data: 1510899808
I0201 21:16:47.511286  2647 layer_factory.hpp:77] Creating layer layer_256_3_conv1
I0201 21:16:47.511294  2647 net.cpp:100] Creating Layer layer_256_3_conv1
I0201 21:16:47.511297  2647 net.cpp:434] layer_256_3_conv1 <- layer_256_3_bn1
I0201 21:16:47.511301  2647 net.cpp:408] layer_256_3_conv1 -> layer_256_3_conv1
I0201 21:16:47.516577  2647 net.cpp:150] Setting up layer_256_3_conv1
I0201 21:16:47.516590  2647 net.cpp:157] Top shape: 8 256 14 14 (401408)
I0201 21:16:47.516593  2647 net.cpp:165] Memory required for data: 1512505440
I0201 21:16:47.516598  2647 layer_factory.hpp:77] Creating layer layer_256_3_bn2
I0201 21:16:47.516603  2647 net.cpp:100] Creating Layer layer_256_3_bn2
I0201 21:16:47.516607  2647 net.cpp:434] layer_256_3_bn2 <- layer_256_3_conv1
I0201 21:16:47.516613  2647 net.cpp:395] layer_256_3_bn2 -> layer_256_3_conv1 (in-place)
I0201 21:16:47.516743  2647 net.cpp:150] Setting up layer_256_3_bn2
I0201 21:16:47.516748  2647 net.cpp:157] Top shape: 8 256 14 14 (401408)
I0201 21:16:47.516752  2647 net.cpp:165] Memory required for data: 1514111072
I0201 21:16:47.516757  2647 layer_factory.hpp:77] Creating layer layer_256_3_scale2
I0201 21:16:47.516762  2647 net.cpp:100] Creating Layer layer_256_3_scale2
I0201 21:16:47.516764  2647 net.cpp:434] layer_256_3_scale2 <- layer_256_3_conv1
I0201 21:16:47.516768  2647 net.cpp:395] layer_256_3_scale2 -> layer_256_3_conv1 (in-place)
I0201 21:16:47.516798  2647 layer_factory.hpp:77] Creating layer layer_256_3_scale2
I0201 21:16:47.516870  2647 net.cpp:150] Setting up layer_256_3_scale2
I0201 21:16:47.516878  2647 net.cpp:157] Top shape: 8 256 14 14 (401408)
I0201 21:16:47.516885  2647 net.cpp:165] Memory required for data: 1515716704
I0201 21:16:47.516890  2647 layer_factory.hpp:77] Creating layer layer_256_3_relu2
I0201 21:16:47.516893  2647 net.cpp:100] Creating Layer layer_256_3_relu2
I0201 21:16:47.516896  2647 net.cpp:434] layer_256_3_relu2 <- layer_256_3_conv1
I0201 21:16:47.516901  2647 net.cpp:395] layer_256_3_relu2 -> layer_256_3_conv1 (in-place)
I0201 21:16:47.517215  2647 net.cpp:150] Setting up layer_256_3_relu2
I0201 21:16:47.517222  2647 net.cpp:157] Top shape: 8 256 14 14 (401408)
I0201 21:16:47.517225  2647 net.cpp:165] Memory required for data: 1517322336
I0201 21:16:47.517228  2647 layer_factory.hpp:77] Creating layer layer_256_3_conv2
I0201 21:16:47.517235  2647 net.cpp:100] Creating Layer layer_256_3_conv2
I0201 21:16:47.517240  2647 net.cpp:434] layer_256_3_conv2 <- layer_256_3_conv1
I0201 21:16:47.517246  2647 net.cpp:408] layer_256_3_conv2 -> layer_256_3_conv2
I0201 21:16:47.528970  2647 net.cpp:150] Setting up layer_256_3_conv2
I0201 21:16:47.528983  2647 net.cpp:157] Top shape: 8 256 14 14 (401408)
I0201 21:16:47.528986  2647 net.cpp:165] Memory required for data: 1518927968
I0201 21:16:47.528991  2647 layer_factory.hpp:77] Creating layer layer_256_3_bn3
I0201 21:16:47.528997  2647 net.cpp:100] Creating Layer layer_256_3_bn3
I0201 21:16:47.529000  2647 net.cpp:434] layer_256_3_bn3 <- layer_256_3_conv2
I0201 21:16:47.529005  2647 net.cpp:395] layer_256_3_bn3 -> layer_256_3_conv2 (in-place)
I0201 21:16:47.529165  2647 net.cpp:150] Setting up layer_256_3_bn3
I0201 21:16:47.529170  2647 net.cpp:157] Top shape: 8 256 14 14 (401408)
I0201 21:16:47.529173  2647 net.cpp:165] Memory required for data: 1520533600
I0201 21:16:47.529180  2647 layer_factory.hpp:77] Creating layer layer_256_3_scale3
I0201 21:16:47.529183  2647 net.cpp:100] Creating Layer layer_256_3_scale3
I0201 21:16:47.529186  2647 net.cpp:434] layer_256_3_scale3 <- layer_256_3_conv2
I0201 21:16:47.529191  2647 net.cpp:395] layer_256_3_scale3 -> layer_256_3_conv2 (in-place)
I0201 21:16:47.529220  2647 layer_factory.hpp:77] Creating layer layer_256_3_scale3
I0201 21:16:47.529302  2647 net.cpp:150] Setting up layer_256_3_scale3
I0201 21:16:47.529309  2647 net.cpp:157] Top shape: 8 256 14 14 (401408)
I0201 21:16:47.529310  2647 net.cpp:165] Memory required for data: 1522139232
I0201 21:16:47.529314  2647 layer_factory.hpp:77] Creating layer layer_256_3_relu3
I0201 21:16:47.529320  2647 net.cpp:100] Creating Layer layer_256_3_relu3
I0201 21:16:47.529321  2647 net.cpp:434] layer_256_3_relu3 <- layer_256_3_conv2
I0201 21:16:47.529325  2647 net.cpp:395] layer_256_3_relu3 -> layer_256_3_conv2 (in-place)
I0201 21:16:47.529448  2647 net.cpp:150] Setting up layer_256_3_relu3
I0201 21:16:47.529453  2647 net.cpp:157] Top shape: 8 256 14 14 (401408)
I0201 21:16:47.529456  2647 net.cpp:165] Memory required for data: 1523744864
I0201 21:16:47.529458  2647 layer_factory.hpp:77] Creating layer layer_256_3_conv3
I0201 21:16:47.529465  2647 net.cpp:100] Creating Layer layer_256_3_conv3
I0201 21:16:47.529469  2647 net.cpp:434] layer_256_3_conv3 <- layer_256_3_conv2
I0201 21:16:47.529474  2647 net.cpp:408] layer_256_3_conv3 -> layer_256_3_conv3
I0201 21:16:47.535367  2647 net.cpp:150] Setting up layer_256_3_conv3
I0201 21:16:47.535383  2647 net.cpp:157] Top shape: 8 1024 14 14 (1605632)
I0201 21:16:47.535387  2647 net.cpp:165] Memory required for data: 1530167392
I0201 21:16:47.535392  2647 layer_factory.hpp:77] Creating layer layer_256_3_sum
I0201 21:16:47.535399  2647 net.cpp:100] Creating Layer layer_256_3_sum
I0201 21:16:47.535403  2647 net.cpp:434] layer_256_3_sum <- layer_256_3_conv3
I0201 21:16:47.535408  2647 net.cpp:434] layer_256_3_sum <- layer_256_2_sum_layer_256_2_sum_0_split_1
I0201 21:16:47.535413  2647 net.cpp:408] layer_256_3_sum -> layer_256_3_sum
I0201 21:16:47.535434  2647 net.cpp:150] Setting up layer_256_3_sum
I0201 21:16:47.535439  2647 net.cpp:157] Top shape: 8 1024 14 14 (1605632)
I0201 21:16:47.535441  2647 net.cpp:165] Memory required for data: 1536589920
I0201 21:16:47.535452  2647 layer_factory.hpp:77] Creating layer layer_256_3_sum_layer_256_3_sum_0_split
I0201 21:16:47.535456  2647 net.cpp:100] Creating Layer layer_256_3_sum_layer_256_3_sum_0_split
I0201 21:16:47.535459  2647 net.cpp:434] layer_256_3_sum_layer_256_3_sum_0_split <- layer_256_3_sum
I0201 21:16:47.535465  2647 net.cpp:408] layer_256_3_sum_layer_256_3_sum_0_split -> layer_256_3_sum_layer_256_3_sum_0_split_0
I0201 21:16:47.535468  2647 net.cpp:408] layer_256_3_sum_layer_256_3_sum_0_split -> layer_256_3_sum_layer_256_3_sum_0_split_1
I0201 21:16:47.535495  2647 net.cpp:150] Setting up layer_256_3_sum_layer_256_3_sum_0_split
I0201 21:16:47.535500  2647 net.cpp:157] Top shape: 8 1024 14 14 (1605632)
I0201 21:16:47.535502  2647 net.cpp:157] Top shape: 8 1024 14 14 (1605632)
I0201 21:16:47.535506  2647 net.cpp:165] Memory required for data: 1549434976
I0201 21:16:47.535507  2647 layer_factory.hpp:77] Creating layer layer_256_4_bn1
I0201 21:16:47.535511  2647 net.cpp:100] Creating Layer layer_256_4_bn1
I0201 21:16:47.535514  2647 net.cpp:434] layer_256_4_bn1 <- layer_256_3_sum_layer_256_3_sum_0_split_0
I0201 21:16:47.535517  2647 net.cpp:408] layer_256_4_bn1 -> layer_256_4_bn1
I0201 21:16:47.535661  2647 net.cpp:150] Setting up layer_256_4_bn1
I0201 21:16:47.535666  2647 net.cpp:157] Top shape: 8 1024 14 14 (1605632)
I0201 21:16:47.535668  2647 net.cpp:165] Memory required for data: 1555857504
I0201 21:16:47.535673  2647 layer_factory.hpp:77] Creating layer layer_256_4_scale1
I0201 21:16:47.535679  2647 net.cpp:100] Creating Layer layer_256_4_scale1
I0201 21:16:47.535682  2647 net.cpp:434] layer_256_4_scale1 <- layer_256_4_bn1
I0201 21:16:47.535686  2647 net.cpp:395] layer_256_4_scale1 -> layer_256_4_bn1 (in-place)
I0201 21:16:47.535715  2647 layer_factory.hpp:77] Creating layer layer_256_4_scale1
I0201 21:16:47.535801  2647 net.cpp:150] Setting up layer_256_4_scale1
I0201 21:16:47.535807  2647 net.cpp:157] Top shape: 8 1024 14 14 (1605632)
I0201 21:16:47.535810  2647 net.cpp:165] Memory required for data: 1562280032
I0201 21:16:47.535815  2647 layer_factory.hpp:77] Creating layer layer_256_4_relu1
I0201 21:16:47.535818  2647 net.cpp:100] Creating Layer layer_256_4_relu1
I0201 21:16:47.535821  2647 net.cpp:434] layer_256_4_relu1 <- layer_256_4_bn1
I0201 21:16:47.535825  2647 net.cpp:395] layer_256_4_relu1 -> layer_256_4_bn1 (in-place)
I0201 21:16:47.535941  2647 net.cpp:150] Setting up layer_256_4_relu1
I0201 21:16:47.535948  2647 net.cpp:157] Top shape: 8 1024 14 14 (1605632)
I0201 21:16:47.535950  2647 net.cpp:165] Memory required for data: 1568702560
I0201 21:16:47.535953  2647 layer_factory.hpp:77] Creating layer layer_256_4_conv1
I0201 21:16:47.535959  2647 net.cpp:100] Creating Layer layer_256_4_conv1
I0201 21:16:47.535962  2647 net.cpp:434] layer_256_4_conv1 <- layer_256_4_bn1
I0201 21:16:47.535966  2647 net.cpp:408] layer_256_4_conv1 -> layer_256_4_conv1
I0201 21:16:47.541363  2647 net.cpp:150] Setting up layer_256_4_conv1
I0201 21:16:47.541375  2647 net.cpp:157] Top shape: 8 256 14 14 (401408)
I0201 21:16:47.541378  2647 net.cpp:165] Memory required for data: 1570308192
I0201 21:16:47.541383  2647 layer_factory.hpp:77] Creating layer layer_256_4_bn2
I0201 21:16:47.541388  2647 net.cpp:100] Creating Layer layer_256_4_bn2
I0201 21:16:47.541393  2647 net.cpp:434] layer_256_4_bn2 <- layer_256_4_conv1
I0201 21:16:47.541395  2647 net.cpp:395] layer_256_4_bn2 -> layer_256_4_conv1 (in-place)
I0201 21:16:47.541532  2647 net.cpp:150] Setting up layer_256_4_bn2
I0201 21:16:47.541537  2647 net.cpp:157] Top shape: 8 256 14 14 (401408)
I0201 21:16:47.541539  2647 net.cpp:165] Memory required for data: 1571913824
I0201 21:16:47.541544  2647 layer_factory.hpp:77] Creating layer layer_256_4_scale2
I0201 21:16:47.541549  2647 net.cpp:100] Creating Layer layer_256_4_scale2
I0201 21:16:47.541553  2647 net.cpp:434] layer_256_4_scale2 <- layer_256_4_conv1
I0201 21:16:47.541558  2647 net.cpp:395] layer_256_4_scale2 -> layer_256_4_conv1 (in-place)
I0201 21:16:47.541595  2647 layer_factory.hpp:77] Creating layer layer_256_4_scale2
I0201 21:16:47.541681  2647 net.cpp:150] Setting up layer_256_4_scale2
I0201 21:16:47.541685  2647 net.cpp:157] Top shape: 8 256 14 14 (401408)
I0201 21:16:47.541687  2647 net.cpp:165] Memory required for data: 1573519456
I0201 21:16:47.541692  2647 layer_factory.hpp:77] Creating layer layer_256_4_relu2
I0201 21:16:47.541697  2647 net.cpp:100] Creating Layer layer_256_4_relu2
I0201 21:16:47.541699  2647 net.cpp:434] layer_256_4_relu2 <- layer_256_4_conv1
I0201 21:16:47.541702  2647 net.cpp:395] layer_256_4_relu2 -> layer_256_4_conv1 (in-place)
I0201 21:16:47.541816  2647 net.cpp:150] Setting up layer_256_4_relu2
I0201 21:16:47.541822  2647 net.cpp:157] Top shape: 8 256 14 14 (401408)
I0201 21:16:47.541826  2647 net.cpp:165] Memory required for data: 1575125088
I0201 21:16:47.541828  2647 layer_factory.hpp:77] Creating layer layer_256_4_conv2
I0201 21:16:47.541836  2647 net.cpp:100] Creating Layer layer_256_4_conv2
I0201 21:16:47.541838  2647 net.cpp:434] layer_256_4_conv2 <- layer_256_4_conv1
I0201 21:16:47.541843  2647 net.cpp:408] layer_256_4_conv2 -> layer_256_4_conv2
I0201 21:16:47.554118  2647 net.cpp:150] Setting up layer_256_4_conv2
I0201 21:16:47.554150  2647 net.cpp:157] Top shape: 8 256 14 14 (401408)
I0201 21:16:47.554155  2647 net.cpp:165] Memory required for data: 1576730720
I0201 21:16:47.554160  2647 layer_factory.hpp:77] Creating layer layer_256_4_bn3
I0201 21:16:47.554167  2647 net.cpp:100] Creating Layer layer_256_4_bn3
I0201 21:16:47.554172  2647 net.cpp:434] layer_256_4_bn3 <- layer_256_4_conv2
I0201 21:16:47.554190  2647 net.cpp:395] layer_256_4_bn3 -> layer_256_4_conv2 (in-place)
I0201 21:16:47.554335  2647 net.cpp:150] Setting up layer_256_4_bn3
I0201 21:16:47.554340  2647 net.cpp:157] Top shape: 8 256 14 14 (401408)
I0201 21:16:47.554343  2647 net.cpp:165] Memory required for data: 1578336352
I0201 21:16:47.554348  2647 layer_factory.hpp:77] Creating layer layer_256_4_scale3
I0201 21:16:47.554353  2647 net.cpp:100] Creating Layer layer_256_4_scale3
I0201 21:16:47.554358  2647 net.cpp:434] layer_256_4_scale3 <- layer_256_4_conv2
I0201 21:16:47.554360  2647 net.cpp:395] layer_256_4_scale3 -> layer_256_4_conv2 (in-place)
I0201 21:16:47.554391  2647 layer_factory.hpp:77] Creating layer layer_256_4_scale3
I0201 21:16:47.554487  2647 net.cpp:150] Setting up layer_256_4_scale3
I0201 21:16:47.554497  2647 net.cpp:157] Top shape: 8 256 14 14 (401408)
I0201 21:16:47.554502  2647 net.cpp:165] Memory required for data: 1579941984
I0201 21:16:47.554507  2647 layer_factory.hpp:77] Creating layer layer_256_4_relu3
I0201 21:16:47.554512  2647 net.cpp:100] Creating Layer layer_256_4_relu3
I0201 21:16:47.554514  2647 net.cpp:434] layer_256_4_relu3 <- layer_256_4_conv2
I0201 21:16:47.554518  2647 net.cpp:395] layer_256_4_relu3 -> layer_256_4_conv2 (in-place)
I0201 21:16:47.554649  2647 net.cpp:150] Setting up layer_256_4_relu3
I0201 21:16:47.554657  2647 net.cpp:157] Top shape: 8 256 14 14 (401408)
I0201 21:16:47.554659  2647 net.cpp:165] Memory required for data: 1581547616
I0201 21:16:47.554662  2647 layer_factory.hpp:77] Creating layer layer_256_4_conv3
I0201 21:16:47.554671  2647 net.cpp:100] Creating Layer layer_256_4_conv3
I0201 21:16:47.554673  2647 net.cpp:434] layer_256_4_conv3 <- layer_256_4_conv2
I0201 21:16:47.554677  2647 net.cpp:408] layer_256_4_conv3 -> layer_256_4_conv3
I0201 21:16:47.560462  2647 net.cpp:150] Setting up layer_256_4_conv3
I0201 21:16:47.560475  2647 net.cpp:157] Top shape: 8 1024 14 14 (1605632)
I0201 21:16:47.560478  2647 net.cpp:165] Memory required for data: 1587970144
I0201 21:16:47.560483  2647 layer_factory.hpp:77] Creating layer layer_256_4_sum
I0201 21:16:47.560489  2647 net.cpp:100] Creating Layer layer_256_4_sum
I0201 21:16:47.560493  2647 net.cpp:434] layer_256_4_sum <- layer_256_4_conv3
I0201 21:16:47.560497  2647 net.cpp:434] layer_256_4_sum <- layer_256_3_sum_layer_256_3_sum_0_split_1
I0201 21:16:47.560503  2647 net.cpp:408] layer_256_4_sum -> layer_256_4_sum
I0201 21:16:47.560523  2647 net.cpp:150] Setting up layer_256_4_sum
I0201 21:16:47.560530  2647 net.cpp:157] Top shape: 8 1024 14 14 (1605632)
I0201 21:16:47.560539  2647 net.cpp:165] Memory required for data: 1594392672
I0201 21:16:47.560541  2647 layer_factory.hpp:77] Creating layer layer_256_4_sum_layer_256_4_sum_0_split
I0201 21:16:47.560546  2647 net.cpp:100] Creating Layer layer_256_4_sum_layer_256_4_sum_0_split
I0201 21:16:47.560549  2647 net.cpp:434] layer_256_4_sum_layer_256_4_sum_0_split <- layer_256_4_sum
I0201 21:16:47.560554  2647 net.cpp:408] layer_256_4_sum_layer_256_4_sum_0_split -> layer_256_4_sum_layer_256_4_sum_0_split_0
I0201 21:16:47.560557  2647 net.cpp:408] layer_256_4_sum_layer_256_4_sum_0_split -> layer_256_4_sum_layer_256_4_sum_0_split_1
I0201 21:16:47.560585  2647 net.cpp:150] Setting up layer_256_4_sum_layer_256_4_sum_0_split
I0201 21:16:47.560588  2647 net.cpp:157] Top shape: 8 1024 14 14 (1605632)
I0201 21:16:47.560591  2647 net.cpp:157] Top shape: 8 1024 14 14 (1605632)
I0201 21:16:47.560595  2647 net.cpp:165] Memory required for data: 1607237728
I0201 21:16:47.560596  2647 layer_factory.hpp:77] Creating layer layer_256_5_bn1
I0201 21:16:47.560601  2647 net.cpp:100] Creating Layer layer_256_5_bn1
I0201 21:16:47.560605  2647 net.cpp:434] layer_256_5_bn1 <- layer_256_4_sum_layer_256_4_sum_0_split_0
I0201 21:16:47.560608  2647 net.cpp:408] layer_256_5_bn1 -> layer_256_5_bn1
I0201 21:16:47.560752  2647 net.cpp:150] Setting up layer_256_5_bn1
I0201 21:16:47.560757  2647 net.cpp:157] Top shape: 8 1024 14 14 (1605632)
I0201 21:16:47.560760  2647 net.cpp:165] Memory required for data: 1613660256
I0201 21:16:47.560765  2647 layer_factory.hpp:77] Creating layer layer_256_5_scale1
I0201 21:16:47.560770  2647 net.cpp:100] Creating Layer layer_256_5_scale1
I0201 21:16:47.560772  2647 net.cpp:434] layer_256_5_scale1 <- layer_256_5_bn1
I0201 21:16:47.560776  2647 net.cpp:395] layer_256_5_scale1 -> layer_256_5_bn1 (in-place)
I0201 21:16:47.560806  2647 layer_factory.hpp:77] Creating layer layer_256_5_scale1
I0201 21:16:47.560886  2647 net.cpp:150] Setting up layer_256_5_scale1
I0201 21:16:47.560891  2647 net.cpp:157] Top shape: 8 1024 14 14 (1605632)
I0201 21:16:47.560894  2647 net.cpp:165] Memory required for data: 1620082784
I0201 21:16:47.560899  2647 layer_factory.hpp:77] Creating layer layer_256_5_relu1
I0201 21:16:47.560902  2647 net.cpp:100] Creating Layer layer_256_5_relu1
I0201 21:16:47.560904  2647 net.cpp:434] layer_256_5_relu1 <- layer_256_5_bn1
I0201 21:16:47.560909  2647 net.cpp:395] layer_256_5_relu1 -> layer_256_5_bn1 (in-place)
I0201 21:16:47.561205  2647 net.cpp:150] Setting up layer_256_5_relu1
I0201 21:16:47.561213  2647 net.cpp:157] Top shape: 8 1024 14 14 (1605632)
I0201 21:16:47.561216  2647 net.cpp:165] Memory required for data: 1626505312
I0201 21:16:47.561218  2647 layer_factory.hpp:77] Creating layer layer_256_5_conv1
I0201 21:16:47.561226  2647 net.cpp:100] Creating Layer layer_256_5_conv1
I0201 21:16:47.561229  2647 net.cpp:434] layer_256_5_conv1 <- layer_256_5_bn1
I0201 21:16:47.561233  2647 net.cpp:408] layer_256_5_conv1 -> layer_256_5_conv1
I0201 21:16:47.566414  2647 net.cpp:150] Setting up layer_256_5_conv1
I0201 21:16:47.566426  2647 net.cpp:157] Top shape: 8 256 14 14 (401408)
I0201 21:16:47.566428  2647 net.cpp:165] Memory required for data: 1628110944
I0201 21:16:47.566433  2647 layer_factory.hpp:77] Creating layer layer_256_5_bn2
I0201 21:16:47.566438  2647 net.cpp:100] Creating Layer layer_256_5_bn2
I0201 21:16:47.566442  2647 net.cpp:434] layer_256_5_bn2 <- layer_256_5_conv1
I0201 21:16:47.566445  2647 net.cpp:395] layer_256_5_bn2 -> layer_256_5_conv1 (in-place)
I0201 21:16:47.566582  2647 net.cpp:150] Setting up layer_256_5_bn2
I0201 21:16:47.566588  2647 net.cpp:157] Top shape: 8 256 14 14 (401408)
I0201 21:16:47.566592  2647 net.cpp:165] Memory required for data: 1629716576
I0201 21:16:47.566599  2647 layer_factory.hpp:77] Creating layer layer_256_5_scale2
I0201 21:16:47.566606  2647 net.cpp:100] Creating Layer layer_256_5_scale2
I0201 21:16:47.566611  2647 net.cpp:434] layer_256_5_scale2 <- layer_256_5_conv1
I0201 21:16:47.566620  2647 net.cpp:395] layer_256_5_scale2 -> layer_256_5_conv1 (in-place)
I0201 21:16:47.566668  2647 layer_factory.hpp:77] Creating layer layer_256_5_scale2
I0201 21:16:47.566761  2647 net.cpp:150] Setting up layer_256_5_scale2
I0201 21:16:47.566771  2647 net.cpp:157] Top shape: 8 256 14 14 (401408)
I0201 21:16:47.566773  2647 net.cpp:165] Memory required for data: 1631322208
I0201 21:16:47.566781  2647 layer_factory.hpp:77] Creating layer layer_256_5_relu2
I0201 21:16:47.566786  2647 net.cpp:100] Creating Layer layer_256_5_relu2
I0201 21:16:47.566789  2647 net.cpp:434] layer_256_5_relu2 <- layer_256_5_conv1
I0201 21:16:47.566794  2647 net.cpp:395] layer_256_5_relu2 -> layer_256_5_conv1 (in-place)
I0201 21:16:47.567239  2647 net.cpp:150] Setting up layer_256_5_relu2
I0201 21:16:47.567251  2647 net.cpp:157] Top shape: 8 256 14 14 (401408)
I0201 21:16:47.567255  2647 net.cpp:165] Memory required for data: 1632927840
I0201 21:16:47.567260  2647 layer_factory.hpp:77] Creating layer layer_256_5_conv2
I0201 21:16:47.567271  2647 net.cpp:100] Creating Layer layer_256_5_conv2
I0201 21:16:47.567277  2647 net.cpp:434] layer_256_5_conv2 <- layer_256_5_conv1
I0201 21:16:47.567284  2647 net.cpp:408] layer_256_5_conv2 -> layer_256_5_conv2
I0201 21:16:47.579202  2647 net.cpp:150] Setting up layer_256_5_conv2
I0201 21:16:47.579234  2647 net.cpp:157] Top shape: 8 256 14 14 (401408)
I0201 21:16:47.579238  2647 net.cpp:165] Memory required for data: 1634533472
I0201 21:16:47.579244  2647 layer_factory.hpp:77] Creating layer layer_256_5_bn3
I0201 21:16:47.579251  2647 net.cpp:100] Creating Layer layer_256_5_bn3
I0201 21:16:47.579254  2647 net.cpp:434] layer_256_5_bn3 <- layer_256_5_conv2
I0201 21:16:47.579259  2647 net.cpp:395] layer_256_5_bn3 -> layer_256_5_conv2 (in-place)
I0201 21:16:47.579421  2647 net.cpp:150] Setting up layer_256_5_bn3
I0201 21:16:47.579426  2647 net.cpp:157] Top shape: 8 256 14 14 (401408)
I0201 21:16:47.579428  2647 net.cpp:165] Memory required for data: 1636139104
I0201 21:16:47.579433  2647 layer_factory.hpp:77] Creating layer layer_256_5_scale3
I0201 21:16:47.579438  2647 net.cpp:100] Creating Layer layer_256_5_scale3
I0201 21:16:47.579442  2647 net.cpp:434] layer_256_5_scale3 <- layer_256_5_conv2
I0201 21:16:47.579444  2647 net.cpp:395] layer_256_5_scale3 -> layer_256_5_conv2 (in-place)
I0201 21:16:47.579478  2647 layer_factory.hpp:77] Creating layer layer_256_5_scale3
I0201 21:16:47.579556  2647 net.cpp:150] Setting up layer_256_5_scale3
I0201 21:16:47.579560  2647 net.cpp:157] Top shape: 8 256 14 14 (401408)
I0201 21:16:47.579563  2647 net.cpp:165] Memory required for data: 1637744736
I0201 21:16:47.579567  2647 layer_factory.hpp:77] Creating layer layer_256_5_relu3
I0201 21:16:47.579571  2647 net.cpp:100] Creating Layer layer_256_5_relu3
I0201 21:16:47.579574  2647 net.cpp:434] layer_256_5_relu3 <- layer_256_5_conv2
I0201 21:16:47.579578  2647 net.cpp:395] layer_256_5_relu3 -> layer_256_5_conv2 (in-place)
I0201 21:16:47.579699  2647 net.cpp:150] Setting up layer_256_5_relu3
I0201 21:16:47.579704  2647 net.cpp:157] Top shape: 8 256 14 14 (401408)
I0201 21:16:47.579706  2647 net.cpp:165] Memory required for data: 1639350368
I0201 21:16:47.579708  2647 layer_factory.hpp:77] Creating layer layer_256_5_conv3
I0201 21:16:47.579715  2647 net.cpp:100] Creating Layer layer_256_5_conv3
I0201 21:16:47.579718  2647 net.cpp:434] layer_256_5_conv3 <- layer_256_5_conv2
I0201 21:16:47.579723  2647 net.cpp:408] layer_256_5_conv3 -> layer_256_5_conv3
I0201 21:16:47.585846  2647 net.cpp:150] Setting up layer_256_5_conv3
I0201 21:16:47.585865  2647 net.cpp:157] Top shape: 8 1024 14 14 (1605632)
I0201 21:16:47.585870  2647 net.cpp:165] Memory required for data: 1645772896
I0201 21:16:47.585876  2647 layer_factory.hpp:77] Creating layer layer_256_5_sum
I0201 21:16:47.585883  2647 net.cpp:100] Creating Layer layer_256_5_sum
I0201 21:16:47.585887  2647 net.cpp:434] layer_256_5_sum <- layer_256_5_conv3
I0201 21:16:47.585892  2647 net.cpp:434] layer_256_5_sum <- layer_256_4_sum_layer_256_4_sum_0_split_1
I0201 21:16:47.585896  2647 net.cpp:408] layer_256_5_sum -> layer_256_5_sum
I0201 21:16:47.585928  2647 net.cpp:150] Setting up layer_256_5_sum
I0201 21:16:47.585933  2647 net.cpp:157] Top shape: 8 1024 14 14 (1605632)
I0201 21:16:47.585935  2647 net.cpp:165] Memory required for data: 1652195424
I0201 21:16:47.585938  2647 layer_factory.hpp:77] Creating layer layer_256_5_sum_layer_256_5_sum_0_split
I0201 21:16:47.585942  2647 net.cpp:100] Creating Layer layer_256_5_sum_layer_256_5_sum_0_split
I0201 21:16:47.585945  2647 net.cpp:434] layer_256_5_sum_layer_256_5_sum_0_split <- layer_256_5_sum
I0201 21:16:47.585949  2647 net.cpp:408] layer_256_5_sum_layer_256_5_sum_0_split -> layer_256_5_sum_layer_256_5_sum_0_split_0
I0201 21:16:47.585954  2647 net.cpp:408] layer_256_5_sum_layer_256_5_sum_0_split -> layer_256_5_sum_layer_256_5_sum_0_split_1
I0201 21:16:47.585980  2647 net.cpp:150] Setting up layer_256_5_sum_layer_256_5_sum_0_split
I0201 21:16:47.585985  2647 net.cpp:157] Top shape: 8 1024 14 14 (1605632)
I0201 21:16:47.585989  2647 net.cpp:157] Top shape: 8 1024 14 14 (1605632)
I0201 21:16:47.585991  2647 net.cpp:165] Memory required for data: 1665040480
I0201 21:16:47.585994  2647 layer_factory.hpp:77] Creating layer layer_256_6_bn1
I0201 21:16:47.585997  2647 net.cpp:100] Creating Layer layer_256_6_bn1
I0201 21:16:47.586000  2647 net.cpp:434] layer_256_6_bn1 <- layer_256_5_sum_layer_256_5_sum_0_split_0
I0201 21:16:47.586004  2647 net.cpp:408] layer_256_6_bn1 -> layer_256_6_bn1
I0201 21:16:47.586156  2647 net.cpp:150] Setting up layer_256_6_bn1
I0201 21:16:47.586161  2647 net.cpp:157] Top shape: 8 1024 14 14 (1605632)
I0201 21:16:47.586164  2647 net.cpp:165] Memory required for data: 1671463008
I0201 21:16:47.586169  2647 layer_factory.hpp:77] Creating layer layer_256_6_scale1
I0201 21:16:47.586175  2647 net.cpp:100] Creating Layer layer_256_6_scale1
I0201 21:16:47.586179  2647 net.cpp:434] layer_256_6_scale1 <- layer_256_6_bn1
I0201 21:16:47.586181  2647 net.cpp:395] layer_256_6_scale1 -> layer_256_6_bn1 (in-place)
I0201 21:16:47.586212  2647 layer_factory.hpp:77] Creating layer layer_256_6_scale1
I0201 21:16:47.586295  2647 net.cpp:150] Setting up layer_256_6_scale1
I0201 21:16:47.586300  2647 net.cpp:157] Top shape: 8 1024 14 14 (1605632)
I0201 21:16:47.586303  2647 net.cpp:165] Memory required for data: 1677885536
I0201 21:16:47.586308  2647 layer_factory.hpp:77] Creating layer layer_256_6_relu1
I0201 21:16:47.586311  2647 net.cpp:100] Creating Layer layer_256_6_relu1
I0201 21:16:47.586314  2647 net.cpp:434] layer_256_6_relu1 <- layer_256_6_bn1
I0201 21:16:47.586318  2647 net.cpp:395] layer_256_6_relu1 -> layer_256_6_bn1 (in-place)
I0201 21:16:47.586450  2647 net.cpp:150] Setting up layer_256_6_relu1
I0201 21:16:47.586459  2647 net.cpp:157] Top shape: 8 1024 14 14 (1605632)
I0201 21:16:47.586463  2647 net.cpp:165] Memory required for data: 1684308064
I0201 21:16:47.586467  2647 layer_factory.hpp:77] Creating layer layer_256_6_conv1
I0201 21:16:47.586477  2647 net.cpp:100] Creating Layer layer_256_6_conv1
I0201 21:16:47.586483  2647 net.cpp:434] layer_256_6_conv1 <- layer_256_6_bn1
I0201 21:16:47.586491  2647 net.cpp:408] layer_256_6_conv1 -> layer_256_6_conv1
I0201 21:16:47.591933  2647 net.cpp:150] Setting up layer_256_6_conv1
I0201 21:16:47.591948  2647 net.cpp:157] Top shape: 8 256 14 14 (401408)
I0201 21:16:47.591951  2647 net.cpp:165] Memory required for data: 1685913696
I0201 21:16:47.591956  2647 layer_factory.hpp:77] Creating layer layer_256_6_bn2
I0201 21:16:47.591962  2647 net.cpp:100] Creating Layer layer_256_6_bn2
I0201 21:16:47.591966  2647 net.cpp:434] layer_256_6_bn2 <- layer_256_6_conv1
I0201 21:16:47.591970  2647 net.cpp:395] layer_256_6_bn2 -> layer_256_6_conv1 (in-place)
I0201 21:16:47.592114  2647 net.cpp:150] Setting up layer_256_6_bn2
I0201 21:16:47.592119  2647 net.cpp:157] Top shape: 8 256 14 14 (401408)
I0201 21:16:47.592123  2647 net.cpp:165] Memory required for data: 1687519328
I0201 21:16:47.592128  2647 layer_factory.hpp:77] Creating layer layer_256_6_scale2
I0201 21:16:47.592133  2647 net.cpp:100] Creating Layer layer_256_6_scale2
I0201 21:16:47.592140  2647 net.cpp:434] layer_256_6_scale2 <- layer_256_6_conv1
I0201 21:16:47.592149  2647 net.cpp:395] layer_256_6_scale2 -> layer_256_6_conv1 (in-place)
I0201 21:16:47.592181  2647 layer_factory.hpp:77] Creating layer layer_256_6_scale2
I0201 21:16:47.592259  2647 net.cpp:150] Setting up layer_256_6_scale2
I0201 21:16:47.592264  2647 net.cpp:157] Top shape: 8 256 14 14 (401408)
I0201 21:16:47.592267  2647 net.cpp:165] Memory required for data: 1689124960
I0201 21:16:47.592272  2647 layer_factory.hpp:77] Creating layer layer_256_6_relu2
I0201 21:16:47.592275  2647 net.cpp:100] Creating Layer layer_256_6_relu2
I0201 21:16:47.592278  2647 net.cpp:434] layer_256_6_relu2 <- layer_256_6_conv1
I0201 21:16:47.592281  2647 net.cpp:395] layer_256_6_relu2 -> layer_256_6_conv1 (in-place)
I0201 21:16:47.592397  2647 net.cpp:150] Setting up layer_256_6_relu2
I0201 21:16:47.592403  2647 net.cpp:157] Top shape: 8 256 14 14 (401408)
I0201 21:16:47.592406  2647 net.cpp:165] Memory required for data: 1690730592
I0201 21:16:47.592408  2647 layer_factory.hpp:77] Creating layer layer_256_6_conv2
I0201 21:16:47.592416  2647 net.cpp:100] Creating Layer layer_256_6_conv2
I0201 21:16:47.592418  2647 net.cpp:434] layer_256_6_conv2 <- layer_256_6_conv1
I0201 21:16:47.592423  2647 net.cpp:408] layer_256_6_conv2 -> layer_256_6_conv2
I0201 21:16:47.604604  2647 net.cpp:150] Setting up layer_256_6_conv2
I0201 21:16:47.604636  2647 net.cpp:157] Top shape: 8 256 14 14 (401408)
I0201 21:16:47.604640  2647 net.cpp:165] Memory required for data: 1692336224
I0201 21:16:47.604646  2647 layer_factory.hpp:77] Creating layer layer_256_6_bn3
I0201 21:16:47.604653  2647 net.cpp:100] Creating Layer layer_256_6_bn3
I0201 21:16:47.604658  2647 net.cpp:434] layer_256_6_bn3 <- layer_256_6_conv2
I0201 21:16:47.604662  2647 net.cpp:395] layer_256_6_bn3 -> layer_256_6_conv2 (in-place)
I0201 21:16:47.604835  2647 net.cpp:150] Setting up layer_256_6_bn3
I0201 21:16:47.604840  2647 net.cpp:157] Top shape: 8 256 14 14 (401408)
I0201 21:16:47.604843  2647 net.cpp:165] Memory required for data: 1693941856
I0201 21:16:47.604848  2647 layer_factory.hpp:77] Creating layer layer_256_6_scale3
I0201 21:16:47.604854  2647 net.cpp:100] Creating Layer layer_256_6_scale3
I0201 21:16:47.604857  2647 net.cpp:434] layer_256_6_scale3 <- layer_256_6_conv2
I0201 21:16:47.604861  2647 net.cpp:395] layer_256_6_scale3 -> layer_256_6_conv2 (in-place)
I0201 21:16:47.604894  2647 layer_factory.hpp:77] Creating layer layer_256_6_scale3
I0201 21:16:47.604975  2647 net.cpp:150] Setting up layer_256_6_scale3
I0201 21:16:47.604980  2647 net.cpp:157] Top shape: 8 256 14 14 (401408)
I0201 21:16:47.604982  2647 net.cpp:165] Memory required for data: 1695547488
I0201 21:16:47.604986  2647 layer_factory.hpp:77] Creating layer layer_256_6_relu3
I0201 21:16:47.604991  2647 net.cpp:100] Creating Layer layer_256_6_relu3
I0201 21:16:47.604995  2647 net.cpp:434] layer_256_6_relu3 <- layer_256_6_conv2
I0201 21:16:47.604997  2647 net.cpp:395] layer_256_6_relu3 -> layer_256_6_conv2 (in-place)
I0201 21:16:47.605116  2647 net.cpp:150] Setting up layer_256_6_relu3
I0201 21:16:47.605121  2647 net.cpp:157] Top shape: 8 256 14 14 (401408)
I0201 21:16:47.605124  2647 net.cpp:165] Memory required for data: 1697153120
I0201 21:16:47.605126  2647 layer_factory.hpp:77] Creating layer layer_256_6_conv3
I0201 21:16:47.605134  2647 net.cpp:100] Creating Layer layer_256_6_conv3
I0201 21:16:47.605137  2647 net.cpp:434] layer_256_6_conv3 <- layer_256_6_conv2
I0201 21:16:47.605141  2647 net.cpp:408] layer_256_6_conv3 -> layer_256_6_conv3
I0201 21:16:47.610937  2647 net.cpp:150] Setting up layer_256_6_conv3
I0201 21:16:47.610950  2647 net.cpp:157] Top shape: 8 1024 14 14 (1605632)
I0201 21:16:47.610966  2647 net.cpp:165] Memory required for data: 1703575648
I0201 21:16:47.610970  2647 layer_factory.hpp:77] Creating layer layer_256_6_sum
I0201 21:16:47.610977  2647 net.cpp:100] Creating Layer layer_256_6_sum
I0201 21:16:47.610981  2647 net.cpp:434] layer_256_6_sum <- layer_256_6_conv3
I0201 21:16:47.610988  2647 net.cpp:434] layer_256_6_sum <- layer_256_5_sum_layer_256_5_sum_0_split_1
I0201 21:16:47.610998  2647 net.cpp:408] layer_256_6_sum -> layer_256_6_sum
I0201 21:16:47.611019  2647 net.cpp:150] Setting up layer_256_6_sum
I0201 21:16:47.611023  2647 net.cpp:157] Top shape: 8 1024 14 14 (1605632)
I0201 21:16:47.611027  2647 net.cpp:165] Memory required for data: 1709998176
I0201 21:16:47.611029  2647 layer_factory.hpp:77] Creating layer layer_512_1_bn1
I0201 21:16:47.611033  2647 net.cpp:100] Creating Layer layer_512_1_bn1
I0201 21:16:47.611037  2647 net.cpp:434] layer_512_1_bn1 <- layer_256_6_sum
I0201 21:16:47.611040  2647 net.cpp:408] layer_512_1_bn1 -> layer_512_1_bn1
I0201 21:16:47.611193  2647 net.cpp:150] Setting up layer_512_1_bn1
I0201 21:16:47.611198  2647 net.cpp:157] Top shape: 8 1024 14 14 (1605632)
I0201 21:16:47.611201  2647 net.cpp:165] Memory required for data: 1716420704
I0201 21:16:47.611205  2647 layer_factory.hpp:77] Creating layer layer_512_1_scale1
I0201 21:16:47.611210  2647 net.cpp:100] Creating Layer layer_512_1_scale1
I0201 21:16:47.611212  2647 net.cpp:434] layer_512_1_scale1 <- layer_512_1_bn1
I0201 21:16:47.611217  2647 net.cpp:395] layer_512_1_scale1 -> layer_512_1_bn1 (in-place)
I0201 21:16:47.611246  2647 layer_factory.hpp:77] Creating layer layer_512_1_scale1
I0201 21:16:47.611330  2647 net.cpp:150] Setting up layer_512_1_scale1
I0201 21:16:47.611335  2647 net.cpp:157] Top shape: 8 1024 14 14 (1605632)
I0201 21:16:47.611336  2647 net.cpp:165] Memory required for data: 1722843232
I0201 21:16:47.611340  2647 layer_factory.hpp:77] Creating layer layer_512_1_relu1
I0201 21:16:47.611344  2647 net.cpp:100] Creating Layer layer_512_1_relu1
I0201 21:16:47.611347  2647 net.cpp:434] layer_512_1_relu1 <- layer_512_1_bn1
I0201 21:16:47.611351  2647 net.cpp:395] layer_512_1_relu1 -> layer_512_1_bn1 (in-place)
I0201 21:16:47.611652  2647 net.cpp:150] Setting up layer_512_1_relu1
I0201 21:16:47.611660  2647 net.cpp:157] Top shape: 8 1024 14 14 (1605632)
I0201 21:16:47.611663  2647 net.cpp:165] Memory required for data: 1729265760
I0201 21:16:47.611665  2647 layer_factory.hpp:77] Creating layer layer_512_1_bn1_layer_512_1_relu1_0_split
I0201 21:16:47.611670  2647 net.cpp:100] Creating Layer layer_512_1_bn1_layer_512_1_relu1_0_split
I0201 21:16:47.611672  2647 net.cpp:434] layer_512_1_bn1_layer_512_1_relu1_0_split <- layer_512_1_bn1
I0201 21:16:47.611677  2647 net.cpp:408] layer_512_1_bn1_layer_512_1_relu1_0_split -> layer_512_1_bn1_layer_512_1_relu1_0_split_0
I0201 21:16:47.611682  2647 net.cpp:408] layer_512_1_bn1_layer_512_1_relu1_0_split -> layer_512_1_bn1_layer_512_1_relu1_0_split_1
I0201 21:16:47.611713  2647 net.cpp:150] Setting up layer_512_1_bn1_layer_512_1_relu1_0_split
I0201 21:16:47.611718  2647 net.cpp:157] Top shape: 8 1024 14 14 (1605632)
I0201 21:16:47.611721  2647 net.cpp:157] Top shape: 8 1024 14 14 (1605632)
I0201 21:16:47.611724  2647 net.cpp:165] Memory required for data: 1742110816
I0201 21:16:47.611726  2647 layer_factory.hpp:77] Creating layer layer_512_1_conv1
I0201 21:16:47.611733  2647 net.cpp:100] Creating Layer layer_512_1_conv1
I0201 21:16:47.611737  2647 net.cpp:434] layer_512_1_conv1 <- layer_512_1_bn1_layer_512_1_relu1_0_split_0
I0201 21:16:47.611740  2647 net.cpp:408] layer_512_1_conv1 -> layer_512_1_conv1
I0201 21:16:47.622210  2647 net.cpp:150] Setting up layer_512_1_conv1
I0201 21:16:47.622225  2647 net.cpp:157] Top shape: 8 512 14 14 (802816)
I0201 21:16:47.622228  2647 net.cpp:165] Memory required for data: 1745322080
I0201 21:16:47.622234  2647 layer_factory.hpp:77] Creating layer layer_512_1_bn2
I0201 21:16:47.622241  2647 net.cpp:100] Creating Layer layer_512_1_bn2
I0201 21:16:47.622246  2647 net.cpp:434] layer_512_1_bn2 <- layer_512_1_conv1
I0201 21:16:47.622251  2647 net.cpp:395] layer_512_1_bn2 -> layer_512_1_conv1 (in-place)
I0201 21:16:47.622402  2647 net.cpp:150] Setting up layer_512_1_bn2
I0201 21:16:47.622407  2647 net.cpp:157] Top shape: 8 512 14 14 (802816)
I0201 21:16:47.622409  2647 net.cpp:165] Memory required for data: 1748533344
I0201 21:16:47.622418  2647 layer_factory.hpp:77] Creating layer layer_512_1_scale2
I0201 21:16:47.622428  2647 net.cpp:100] Creating Layer layer_512_1_scale2
I0201 21:16:47.622431  2647 net.cpp:434] layer_512_1_scale2 <- layer_512_1_conv1
I0201 21:16:47.622436  2647 net.cpp:395] layer_512_1_scale2 -> layer_512_1_conv1 (in-place)
I0201 21:16:47.622465  2647 layer_factory.hpp:77] Creating layer layer_512_1_scale2
I0201 21:16:47.622548  2647 net.cpp:150] Setting up layer_512_1_scale2
I0201 21:16:47.622553  2647 net.cpp:157] Top shape: 8 512 14 14 (802816)
I0201 21:16:47.622556  2647 net.cpp:165] Memory required for data: 1751744608
I0201 21:16:47.622560  2647 layer_factory.hpp:77] Creating layer layer_512_1_relu2
I0201 21:16:47.622565  2647 net.cpp:100] Creating Layer layer_512_1_relu2
I0201 21:16:47.622567  2647 net.cpp:434] layer_512_1_relu2 <- layer_512_1_conv1
I0201 21:16:47.622571  2647 net.cpp:395] layer_512_1_relu2 -> layer_512_1_conv1 (in-place)
I0201 21:16:47.623073  2647 net.cpp:150] Setting up layer_512_1_relu2
I0201 21:16:47.623081  2647 net.cpp:157] Top shape: 8 512 14 14 (802816)
I0201 21:16:47.623085  2647 net.cpp:165] Memory required for data: 1754955872
I0201 21:16:47.623087  2647 layer_factory.hpp:77] Creating layer layer_512_1_conv2
I0201 21:16:47.623095  2647 net.cpp:100] Creating Layer layer_512_1_conv2
I0201 21:16:47.623097  2647 net.cpp:434] layer_512_1_conv2 <- layer_512_1_conv1
I0201 21:16:47.623103  2647 net.cpp:408] layer_512_1_conv2 -> layer_512_1_conv2
I0201 21:16:47.667515  2647 net.cpp:150] Setting up layer_512_1_conv2
I0201 21:16:47.667549  2647 net.cpp:157] Top shape: 8 512 7 7 (200704)
I0201 21:16:47.667553  2647 net.cpp:165] Memory required for data: 1755758688
I0201 21:16:47.667559  2647 layer_factory.hpp:77] Creating layer layer_512_1_bn3
I0201 21:16:47.667579  2647 net.cpp:100] Creating Layer layer_512_1_bn3
I0201 21:16:47.667584  2647 net.cpp:434] layer_512_1_bn3 <- layer_512_1_conv2
I0201 21:16:47.667588  2647 net.cpp:395] layer_512_1_bn3 -> layer_512_1_conv2 (in-place)
I0201 21:16:47.667750  2647 net.cpp:150] Setting up layer_512_1_bn3
I0201 21:16:47.667755  2647 net.cpp:157] Top shape: 8 512 7 7 (200704)
I0201 21:16:47.667757  2647 net.cpp:165] Memory required for data: 1756561504
I0201 21:16:47.667788  2647 layer_factory.hpp:77] Creating layer layer_512_1_scale3
I0201 21:16:47.667796  2647 net.cpp:100] Creating Layer layer_512_1_scale3
I0201 21:16:47.667799  2647 net.cpp:434] layer_512_1_scale3 <- layer_512_1_conv2
I0201 21:16:47.667804  2647 net.cpp:395] layer_512_1_scale3 -> layer_512_1_conv2 (in-place)
I0201 21:16:47.667836  2647 layer_factory.hpp:77] Creating layer layer_512_1_scale3
I0201 21:16:47.667922  2647 net.cpp:150] Setting up layer_512_1_scale3
I0201 21:16:47.667925  2647 net.cpp:157] Top shape: 8 512 7 7 (200704)
I0201 21:16:47.667928  2647 net.cpp:165] Memory required for data: 1757364320
I0201 21:16:47.667932  2647 layer_factory.hpp:77] Creating layer layer_512_1_relu3
I0201 21:16:47.667937  2647 net.cpp:100] Creating Layer layer_512_1_relu3
I0201 21:16:47.667940  2647 net.cpp:434] layer_512_1_relu3 <- layer_512_1_conv2
I0201 21:16:47.667943  2647 net.cpp:395] layer_512_1_relu3 -> layer_512_1_conv2 (in-place)
I0201 21:16:47.668061  2647 net.cpp:150] Setting up layer_512_1_relu3
I0201 21:16:47.668067  2647 net.cpp:157] Top shape: 8 512 7 7 (200704)
I0201 21:16:47.668071  2647 net.cpp:165] Memory required for data: 1758167136
I0201 21:16:47.668073  2647 layer_factory.hpp:77] Creating layer layer_512_1_conv3
I0201 21:16:47.668081  2647 net.cpp:100] Creating Layer layer_512_1_conv3
I0201 21:16:47.668083  2647 net.cpp:434] layer_512_1_conv3 <- layer_512_1_conv2
I0201 21:16:47.668087  2647 net.cpp:408] layer_512_1_conv3 -> layer_512_1_conv3
I0201 21:16:47.688845  2647 net.cpp:150] Setting up layer_512_1_conv3
I0201 21:16:47.688881  2647 net.cpp:157] Top shape: 8 2048 7 7 (802816)
I0201 21:16:47.688885  2647 net.cpp:165] Memory required for data: 1761378400
I0201 21:16:47.688904  2647 layer_factory.hpp:77] Creating layer layer_512_1_conv_expand
I0201 21:16:47.688915  2647 net.cpp:100] Creating Layer layer_512_1_conv_expand
I0201 21:16:47.688928  2647 net.cpp:434] layer_512_1_conv_expand <- layer_512_1_bn1_layer_512_1_relu1_0_split_1
I0201 21:16:47.688935  2647 net.cpp:408] layer_512_1_conv_expand -> layer_512_1_conv_expand
I0201 21:16:47.728633  2647 net.cpp:150] Setting up layer_512_1_conv_expand
I0201 21:16:47.728667  2647 net.cpp:157] Top shape: 8 2048 7 7 (802816)
I0201 21:16:47.728672  2647 net.cpp:165] Memory required for data: 1764589664
I0201 21:16:47.728678  2647 layer_factory.hpp:77] Creating layer layer_512_1_sum
I0201 21:16:47.728685  2647 net.cpp:100] Creating Layer layer_512_1_sum
I0201 21:16:47.728689  2647 net.cpp:434] layer_512_1_sum <- layer_512_1_conv3
I0201 21:16:47.728708  2647 net.cpp:434] layer_512_1_sum <- layer_512_1_conv_expand
I0201 21:16:47.728713  2647 net.cpp:408] layer_512_1_sum -> layer_512_1_sum
I0201 21:16:47.728739  2647 net.cpp:150] Setting up layer_512_1_sum
I0201 21:16:47.728744  2647 net.cpp:157] Top shape: 8 2048 7 7 (802816)
I0201 21:16:47.728747  2647 net.cpp:165] Memory required for data: 1767800928
I0201 21:16:47.728749  2647 layer_factory.hpp:77] Creating layer layer_512_1_sum_layer_512_1_sum_0_split
I0201 21:16:47.728754  2647 net.cpp:100] Creating Layer layer_512_1_sum_layer_512_1_sum_0_split
I0201 21:16:47.728756  2647 net.cpp:434] layer_512_1_sum_layer_512_1_sum_0_split <- layer_512_1_sum
I0201 21:16:47.728760  2647 net.cpp:408] layer_512_1_sum_layer_512_1_sum_0_split -> layer_512_1_sum_layer_512_1_sum_0_split_0
I0201 21:16:47.728765  2647 net.cpp:408] layer_512_1_sum_layer_512_1_sum_0_split -> layer_512_1_sum_layer_512_1_sum_0_split_1
I0201 21:16:47.728795  2647 net.cpp:150] Setting up layer_512_1_sum_layer_512_1_sum_0_split
I0201 21:16:47.728799  2647 net.cpp:157] Top shape: 8 2048 7 7 (802816)
I0201 21:16:47.728802  2647 net.cpp:157] Top shape: 8 2048 7 7 (802816)
I0201 21:16:47.728804  2647 net.cpp:165] Memory required for data: 1774223456
I0201 21:16:47.728807  2647 layer_factory.hpp:77] Creating layer layer_512_2_bn1
I0201 21:16:47.728811  2647 net.cpp:100] Creating Layer layer_512_2_bn1
I0201 21:16:47.728814  2647 net.cpp:434] layer_512_2_bn1 <- layer_512_1_sum_layer_512_1_sum_0_split_0
I0201 21:16:47.728818  2647 net.cpp:408] layer_512_2_bn1 -> layer_512_2_bn1
I0201 21:16:47.728986  2647 net.cpp:150] Setting up layer_512_2_bn1
I0201 21:16:47.728989  2647 net.cpp:157] Top shape: 8 2048 7 7 (802816)
I0201 21:16:47.728992  2647 net.cpp:165] Memory required for data: 1777434720
I0201 21:16:47.728997  2647 layer_factory.hpp:77] Creating layer layer_512_2_scale1
I0201 21:16:47.729003  2647 net.cpp:100] Creating Layer layer_512_2_scale1
I0201 21:16:47.729007  2647 net.cpp:434] layer_512_2_scale1 <- layer_512_2_bn1
I0201 21:16:47.729009  2647 net.cpp:395] layer_512_2_scale1 -> layer_512_2_bn1 (in-place)
I0201 21:16:47.729043  2647 layer_factory.hpp:77] Creating layer layer_512_2_scale1
I0201 21:16:47.729128  2647 net.cpp:150] Setting up layer_512_2_scale1
I0201 21:16:47.729133  2647 net.cpp:157] Top shape: 8 2048 7 7 (802816)
I0201 21:16:47.729135  2647 net.cpp:165] Memory required for data: 1780645984
I0201 21:16:47.729140  2647 layer_factory.hpp:77] Creating layer layer_512_2_relu1
I0201 21:16:47.729146  2647 net.cpp:100] Creating Layer layer_512_2_relu1
I0201 21:16:47.729147  2647 net.cpp:434] layer_512_2_relu1 <- layer_512_2_bn1
I0201 21:16:47.729151  2647 net.cpp:395] layer_512_2_relu1 -> layer_512_2_bn1 (in-place)
I0201 21:16:47.729266  2647 net.cpp:150] Setting up layer_512_2_relu1
I0201 21:16:47.729272  2647 net.cpp:157] Top shape: 8 2048 7 7 (802816)
I0201 21:16:47.729274  2647 net.cpp:165] Memory required for data: 1783857248
I0201 21:16:47.729277  2647 layer_factory.hpp:77] Creating layer layer_512_2_conv1
I0201 21:16:47.729285  2647 net.cpp:100] Creating Layer layer_512_2_conv1
I0201 21:16:47.729288  2647 net.cpp:434] layer_512_2_conv1 <- layer_512_2_bn1
I0201 21:16:47.729292  2647 net.cpp:408] layer_512_2_conv1 -> layer_512_2_conv1
I0201 21:16:47.749619  2647 net.cpp:150] Setting up layer_512_2_conv1
I0201 21:16:47.749637  2647 net.cpp:157] Top shape: 8 512 7 7 (200704)
I0201 21:16:47.749644  2647 net.cpp:165] Memory required for data: 1784660064
I0201 21:16:47.749655  2647 layer_factory.hpp:77] Creating layer layer_512_2_bn2
I0201 21:16:47.749663  2647 net.cpp:100] Creating Layer layer_512_2_bn2
I0201 21:16:47.749670  2647 net.cpp:434] layer_512_2_bn2 <- layer_512_2_conv1
I0201 21:16:47.749675  2647 net.cpp:395] layer_512_2_bn2 -> layer_512_2_conv1 (in-place)
I0201 21:16:47.749838  2647 net.cpp:150] Setting up layer_512_2_bn2
I0201 21:16:47.749843  2647 net.cpp:157] Top shape: 8 512 7 7 (200704)
I0201 21:16:47.749846  2647 net.cpp:165] Memory required for data: 1785462880
I0201 21:16:47.749851  2647 layer_factory.hpp:77] Creating layer layer_512_2_scale2
I0201 21:16:47.749857  2647 net.cpp:100] Creating Layer layer_512_2_scale2
I0201 21:16:47.749861  2647 net.cpp:434] layer_512_2_scale2 <- layer_512_2_conv1
I0201 21:16:47.749866  2647 net.cpp:395] layer_512_2_scale2 -> layer_512_2_conv1 (in-place)
I0201 21:16:47.749897  2647 layer_factory.hpp:77] Creating layer layer_512_2_scale2
I0201 21:16:47.749985  2647 net.cpp:150] Setting up layer_512_2_scale2
I0201 21:16:47.749990  2647 net.cpp:157] Top shape: 8 512 7 7 (200704)
I0201 21:16:47.749992  2647 net.cpp:165] Memory required for data: 1786265696
I0201 21:16:47.749997  2647 layer_factory.hpp:77] Creating layer layer_512_2_relu2
I0201 21:16:47.750001  2647 net.cpp:100] Creating Layer layer_512_2_relu2
I0201 21:16:47.750005  2647 net.cpp:434] layer_512_2_relu2 <- layer_512_2_conv1
I0201 21:16:47.750007  2647 net.cpp:395] layer_512_2_relu2 -> layer_512_2_conv1 (in-place)
I0201 21:16:47.750123  2647 net.cpp:150] Setting up layer_512_2_relu2
I0201 21:16:47.750129  2647 net.cpp:157] Top shape: 8 512 7 7 (200704)
I0201 21:16:47.750133  2647 net.cpp:165] Memory required for data: 1787068512
I0201 21:16:47.750134  2647 layer_factory.hpp:77] Creating layer layer_512_2_conv2
I0201 21:16:47.750141  2647 net.cpp:100] Creating Layer layer_512_2_conv2
I0201 21:16:47.750144  2647 net.cpp:434] layer_512_2_conv2 <- layer_512_2_conv1
I0201 21:16:47.750149  2647 net.cpp:408] layer_512_2_conv2 -> layer_512_2_conv2
I0201 21:16:47.794909  2647 net.cpp:150] Setting up layer_512_2_conv2
I0201 21:16:47.794929  2647 net.cpp:157] Top shape: 8 512 7 7 (200704)
I0201 21:16:47.794947  2647 net.cpp:165] Memory required for data: 1787871328
I0201 21:16:47.794953  2647 layer_factory.hpp:77] Creating layer layer_512_2_bn3
I0201 21:16:47.794961  2647 net.cpp:100] Creating Layer layer_512_2_bn3
I0201 21:16:47.794965  2647 net.cpp:434] layer_512_2_bn3 <- layer_512_2_conv2
I0201 21:16:47.794971  2647 net.cpp:395] layer_512_2_bn3 -> layer_512_2_conv2 (in-place)
I0201 21:16:47.795145  2647 net.cpp:150] Setting up layer_512_2_bn3
I0201 21:16:47.795150  2647 net.cpp:157] Top shape: 8 512 7 7 (200704)
I0201 21:16:47.795153  2647 net.cpp:165] Memory required for data: 1788674144
I0201 21:16:47.795158  2647 layer_factory.hpp:77] Creating layer layer_512_2_scale3
I0201 21:16:47.795163  2647 net.cpp:100] Creating Layer layer_512_2_scale3
I0201 21:16:47.795166  2647 net.cpp:434] layer_512_2_scale3 <- layer_512_2_conv2
I0201 21:16:47.795171  2647 net.cpp:395] layer_512_2_scale3 -> layer_512_2_conv2 (in-place)
I0201 21:16:47.795202  2647 layer_factory.hpp:77] Creating layer layer_512_2_scale3
I0201 21:16:47.795289  2647 net.cpp:150] Setting up layer_512_2_scale3
I0201 21:16:47.795294  2647 net.cpp:157] Top shape: 8 512 7 7 (200704)
I0201 21:16:47.795296  2647 net.cpp:165] Memory required for data: 1789476960
I0201 21:16:47.795300  2647 layer_factory.hpp:77] Creating layer layer_512_2_relu3
I0201 21:16:47.795305  2647 net.cpp:100] Creating Layer layer_512_2_relu3
I0201 21:16:47.795307  2647 net.cpp:434] layer_512_2_relu3 <- layer_512_2_conv2
I0201 21:16:47.795311  2647 net.cpp:395] layer_512_2_relu3 -> layer_512_2_conv2 (in-place)
I0201 21:16:47.795429  2647 net.cpp:150] Setting up layer_512_2_relu3
I0201 21:16:47.795435  2647 net.cpp:157] Top shape: 8 512 7 7 (200704)
I0201 21:16:47.795438  2647 net.cpp:165] Memory required for data: 1790279776
I0201 21:16:47.795444  2647 layer_factory.hpp:77] Creating layer layer_512_2_conv3
I0201 21:16:47.795457  2647 net.cpp:100] Creating Layer layer_512_2_conv3
I0201 21:16:47.795460  2647 net.cpp:434] layer_512_2_conv3 <- layer_512_2_conv2
I0201 21:16:47.795465  2647 net.cpp:408] layer_512_2_conv3 -> layer_512_2_conv3
I0201 21:16:47.815835  2647 net.cpp:150] Setting up layer_512_2_conv3
I0201 21:16:47.815855  2647 net.cpp:157] Top shape: 8 2048 7 7 (802816)
I0201 21:16:47.815860  2647 net.cpp:165] Memory required for data: 1793491040
I0201 21:16:47.815865  2647 layer_factory.hpp:77] Creating layer layer_512_2_sum
I0201 21:16:47.815872  2647 net.cpp:100] Creating Layer layer_512_2_sum
I0201 21:16:47.815876  2647 net.cpp:434] layer_512_2_sum <- layer_512_2_conv3
I0201 21:16:47.815881  2647 net.cpp:434] layer_512_2_sum <- layer_512_1_sum_layer_512_1_sum_0_split_1
I0201 21:16:47.815886  2647 net.cpp:408] layer_512_2_sum -> layer_512_2_sum
I0201 21:16:47.815910  2647 net.cpp:150] Setting up layer_512_2_sum
I0201 21:16:47.815914  2647 net.cpp:157] Top shape: 8 2048 7 7 (802816)
I0201 21:16:47.815917  2647 net.cpp:165] Memory required for data: 1796702304
I0201 21:16:47.815919  2647 layer_factory.hpp:77] Creating layer layer_512_2_sum_layer_512_2_sum_0_split
I0201 21:16:47.815924  2647 net.cpp:100] Creating Layer layer_512_2_sum_layer_512_2_sum_0_split
I0201 21:16:47.815928  2647 net.cpp:434] layer_512_2_sum_layer_512_2_sum_0_split <- layer_512_2_sum
I0201 21:16:47.815932  2647 net.cpp:408] layer_512_2_sum_layer_512_2_sum_0_split -> layer_512_2_sum_layer_512_2_sum_0_split_0
I0201 21:16:47.815937  2647 net.cpp:408] layer_512_2_sum_layer_512_2_sum_0_split -> layer_512_2_sum_layer_512_2_sum_0_split_1
I0201 21:16:47.815964  2647 net.cpp:150] Setting up layer_512_2_sum_layer_512_2_sum_0_split
I0201 21:16:47.815968  2647 net.cpp:157] Top shape: 8 2048 7 7 (802816)
I0201 21:16:47.815973  2647 net.cpp:157] Top shape: 8 2048 7 7 (802816)
I0201 21:16:47.815974  2647 net.cpp:165] Memory required for data: 1803124832
I0201 21:16:47.815976  2647 layer_factory.hpp:77] Creating layer layer_512_3_bn1
I0201 21:16:47.815981  2647 net.cpp:100] Creating Layer layer_512_3_bn1
I0201 21:16:47.815984  2647 net.cpp:434] layer_512_3_bn1 <- layer_512_2_sum_layer_512_2_sum_0_split_0
I0201 21:16:47.815987  2647 net.cpp:408] layer_512_3_bn1 -> layer_512_3_bn1
I0201 21:16:47.816153  2647 net.cpp:150] Setting up layer_512_3_bn1
I0201 21:16:47.816156  2647 net.cpp:157] Top shape: 8 2048 7 7 (802816)
I0201 21:16:47.816159  2647 net.cpp:165] Memory required for data: 1806336096
I0201 21:16:47.816164  2647 layer_factory.hpp:77] Creating layer layer_512_3_scale1
I0201 21:16:47.816170  2647 net.cpp:100] Creating Layer layer_512_3_scale1
I0201 21:16:47.816174  2647 net.cpp:434] layer_512_3_scale1 <- layer_512_3_bn1
I0201 21:16:47.816177  2647 net.cpp:395] layer_512_3_scale1 -> layer_512_3_bn1 (in-place)
I0201 21:16:47.816210  2647 layer_factory.hpp:77] Creating layer layer_512_3_scale1
I0201 21:16:47.816299  2647 net.cpp:150] Setting up layer_512_3_scale1
I0201 21:16:47.816304  2647 net.cpp:157] Top shape: 8 2048 7 7 (802816)
I0201 21:16:47.816308  2647 net.cpp:165] Memory required for data: 1809547360
I0201 21:16:47.816311  2647 layer_factory.hpp:77] Creating layer layer_512_3_relu1
I0201 21:16:47.816315  2647 net.cpp:100] Creating Layer layer_512_3_relu1
I0201 21:16:47.816318  2647 net.cpp:434] layer_512_3_relu1 <- layer_512_3_bn1
I0201 21:16:47.816323  2647 net.cpp:395] layer_512_3_relu1 -> layer_512_3_bn1 (in-place)
I0201 21:16:47.816439  2647 net.cpp:150] Setting up layer_512_3_relu1
I0201 21:16:47.816444  2647 net.cpp:157] Top shape: 8 2048 7 7 (802816)
I0201 21:16:47.816447  2647 net.cpp:165] Memory required for data: 1812758624
I0201 21:16:47.816450  2647 layer_factory.hpp:77] Creating layer layer_512_3_conv1
I0201 21:16:47.816457  2647 net.cpp:100] Creating Layer layer_512_3_conv1
I0201 21:16:47.816460  2647 net.cpp:434] layer_512_3_conv1 <- layer_512_3_bn1
I0201 21:16:47.816464  2647 net.cpp:408] layer_512_3_conv1 -> layer_512_3_conv1
I0201 21:16:47.836977  2647 net.cpp:150] Setting up layer_512_3_conv1
I0201 21:16:47.837004  2647 net.cpp:157] Top shape: 8 512 7 7 (200704)
I0201 21:16:47.837016  2647 net.cpp:165] Memory required for data: 1813561440
I0201 21:16:47.837023  2647 layer_factory.hpp:77] Creating layer layer_512_3_bn2
I0201 21:16:47.837031  2647 net.cpp:100] Creating Layer layer_512_3_bn2
I0201 21:16:47.837036  2647 net.cpp:434] layer_512_3_bn2 <- layer_512_3_conv1
I0201 21:16:47.837040  2647 net.cpp:395] layer_512_3_bn2 -> layer_512_3_conv1 (in-place)
I0201 21:16:47.837285  2647 net.cpp:150] Setting up layer_512_3_bn2
I0201 21:16:47.837296  2647 net.cpp:157] Top shape: 8 512 7 7 (200704)
I0201 21:16:47.837301  2647 net.cpp:165] Memory required for data: 1814364256
I0201 21:16:47.837311  2647 layer_factory.hpp:77] Creating layer layer_512_3_scale2
I0201 21:16:47.837318  2647 net.cpp:100] Creating Layer layer_512_3_scale2
I0201 21:16:47.837324  2647 net.cpp:434] layer_512_3_scale2 <- layer_512_3_conv1
I0201 21:16:47.837332  2647 net.cpp:395] layer_512_3_scale2 -> layer_512_3_conv1 (in-place)
I0201 21:16:47.837381  2647 layer_factory.hpp:77] Creating layer layer_512_3_scale2
I0201 21:16:47.837488  2647 net.cpp:150] Setting up layer_512_3_scale2
I0201 21:16:47.837494  2647 net.cpp:157] Top shape: 8 512 7 7 (200704)
I0201 21:16:47.837497  2647 net.cpp:165] Memory required for data: 1815167072
I0201 21:16:47.837502  2647 layer_factory.hpp:77] Creating layer layer_512_3_relu2
I0201 21:16:47.837507  2647 net.cpp:100] Creating Layer layer_512_3_relu2
I0201 21:16:47.837509  2647 net.cpp:434] layer_512_3_relu2 <- layer_512_3_conv1
I0201 21:16:47.837512  2647 net.cpp:395] layer_512_3_relu2 -> layer_512_3_conv1 (in-place)
I0201 21:16:47.837857  2647 net.cpp:150] Setting up layer_512_3_relu2
I0201 21:16:47.837865  2647 net.cpp:157] Top shape: 8 512 7 7 (200704)
I0201 21:16:47.837868  2647 net.cpp:165] Memory required for data: 1815969888
I0201 21:16:47.837872  2647 layer_factory.hpp:77] Creating layer layer_512_3_conv2
I0201 21:16:47.837878  2647 net.cpp:100] Creating Layer layer_512_3_conv2
I0201 21:16:47.837882  2647 net.cpp:434] layer_512_3_conv2 <- layer_512_3_conv1
I0201 21:16:47.837887  2647 net.cpp:408] layer_512_3_conv2 -> layer_512_3_conv2
I0201 21:16:47.882328  2647 net.cpp:150] Setting up layer_512_3_conv2
I0201 21:16:47.882361  2647 net.cpp:157] Top shape: 8 512 7 7 (200704)
I0201 21:16:47.882365  2647 net.cpp:165] Memory required for data: 1816772704
I0201 21:16:47.882372  2647 layer_factory.hpp:77] Creating layer layer_512_3_bn3
I0201 21:16:47.882380  2647 net.cpp:100] Creating Layer layer_512_3_bn3
I0201 21:16:47.882385  2647 net.cpp:434] layer_512_3_bn3 <- layer_512_3_conv2
I0201 21:16:47.882390  2647 net.cpp:395] layer_512_3_bn3 -> layer_512_3_conv2 (in-place)
I0201 21:16:47.882568  2647 net.cpp:150] Setting up layer_512_3_bn3
I0201 21:16:47.882573  2647 net.cpp:157] Top shape: 8 512 7 7 (200704)
I0201 21:16:47.882576  2647 net.cpp:165] Memory required for data: 1817575520
I0201 21:16:47.882581  2647 layer_factory.hpp:77] Creating layer layer_512_3_scale3
I0201 21:16:47.882586  2647 net.cpp:100] Creating Layer layer_512_3_scale3
I0201 21:16:47.882589  2647 net.cpp:434] layer_512_3_scale3 <- layer_512_3_conv2
I0201 21:16:47.882593  2647 net.cpp:395] layer_512_3_scale3 -> layer_512_3_conv2 (in-place)
I0201 21:16:47.882625  2647 layer_factory.hpp:77] Creating layer layer_512_3_scale3
I0201 21:16:47.882715  2647 net.cpp:150] Setting up layer_512_3_scale3
I0201 21:16:47.882719  2647 net.cpp:157] Top shape: 8 512 7 7 (200704)
I0201 21:16:47.882722  2647 net.cpp:165] Memory required for data: 1818378336
I0201 21:16:47.882726  2647 layer_factory.hpp:77] Creating layer layer_512_3_relu3
I0201 21:16:47.882730  2647 net.cpp:100] Creating Layer layer_512_3_relu3
I0201 21:16:47.882733  2647 net.cpp:434] layer_512_3_relu3 <- layer_512_3_conv2
I0201 21:16:47.882736  2647 net.cpp:395] layer_512_3_relu3 -> layer_512_3_conv2 (in-place)
I0201 21:16:47.882859  2647 net.cpp:150] Setting up layer_512_3_relu3
I0201 21:16:47.882865  2647 net.cpp:157] Top shape: 8 512 7 7 (200704)
I0201 21:16:47.882871  2647 net.cpp:165] Memory required for data: 1819181152
I0201 21:16:47.882879  2647 layer_factory.hpp:77] Creating layer layer_512_3_conv3
I0201 21:16:47.882887  2647 net.cpp:100] Creating Layer layer_512_3_conv3
I0201 21:16:47.882890  2647 net.cpp:434] layer_512_3_conv3 <- layer_512_3_conv2
I0201 21:16:47.882895  2647 net.cpp:408] layer_512_3_conv3 -> layer_512_3_conv3
I0201 21:16:47.902808  2647 net.cpp:150] Setting up layer_512_3_conv3
I0201 21:16:47.902842  2647 net.cpp:157] Top shape: 8 2048 7 7 (802816)
I0201 21:16:47.902844  2647 net.cpp:165] Memory required for data: 1822392416
I0201 21:16:47.902850  2647 layer_factory.hpp:77] Creating layer layer_512_3_sum
I0201 21:16:47.902871  2647 net.cpp:100] Creating Layer layer_512_3_sum
I0201 21:16:47.902876  2647 net.cpp:434] layer_512_3_sum <- layer_512_3_conv3
I0201 21:16:47.902880  2647 net.cpp:434] layer_512_3_sum <- layer_512_2_sum_layer_512_2_sum_0_split_1
I0201 21:16:47.902884  2647 net.cpp:408] layer_512_3_sum -> layer_512_3_sum
I0201 21:16:47.902909  2647 net.cpp:150] Setting up layer_512_3_sum
I0201 21:16:47.902912  2647 net.cpp:157] Top shape: 8 2048 7 7 (802816)
I0201 21:16:47.902915  2647 net.cpp:165] Memory required for data: 1825603680
I0201 21:16:47.902917  2647 layer_factory.hpp:77] Creating layer last_bn
I0201 21:16:47.902921  2647 net.cpp:100] Creating Layer last_bn
I0201 21:16:47.902925  2647 net.cpp:434] last_bn <- layer_512_3_sum
I0201 21:16:47.902928  2647 net.cpp:395] last_bn -> layer_512_3_sum (in-place)
I0201 21:16:47.903089  2647 net.cpp:150] Setting up last_bn
I0201 21:16:47.903093  2647 net.cpp:157] Top shape: 8 2048 7 7 (802816)
I0201 21:16:47.903095  2647 net.cpp:165] Memory required for data: 1828814944
I0201 21:16:47.903101  2647 layer_factory.hpp:77] Creating layer last_scale
I0201 21:16:47.903106  2647 net.cpp:100] Creating Layer last_scale
I0201 21:16:47.903110  2647 net.cpp:434] last_scale <- layer_512_3_sum
I0201 21:16:47.903112  2647 net.cpp:395] last_scale -> layer_512_3_sum (in-place)
I0201 21:16:47.903146  2647 layer_factory.hpp:77] Creating layer last_scale
I0201 21:16:47.903236  2647 net.cpp:150] Setting up last_scale
I0201 21:16:47.903240  2647 net.cpp:157] Top shape: 8 2048 7 7 (802816)
I0201 21:16:47.903244  2647 net.cpp:165] Memory required for data: 1832026208
I0201 21:16:47.903247  2647 layer_factory.hpp:77] Creating layer last_relu
I0201 21:16:47.903252  2647 net.cpp:100] Creating Layer last_relu
I0201 21:16:47.903255  2647 net.cpp:434] last_relu <- layer_512_3_sum
I0201 21:16:47.903259  2647 net.cpp:395] last_relu -> layer_512_3_sum (in-place)
I0201 21:16:47.903378  2647 net.cpp:150] Setting up last_relu
I0201 21:16:47.903383  2647 net.cpp:157] Top shape: 8 2048 7 7 (802816)
I0201 21:16:47.903386  2647 net.cpp:165] Memory required for data: 1835237472
I0201 21:16:47.903388  2647 layer_factory.hpp:77] Creating layer global_pool
I0201 21:16:47.903393  2647 net.cpp:100] Creating Layer global_pool
I0201 21:16:47.903396  2647 net.cpp:434] global_pool <- layer_512_3_sum
I0201 21:16:47.903400  2647 net.cpp:408] global_pool -> global_pool
I0201 21:16:47.903532  2647 net.cpp:150] Setting up global_pool
I0201 21:16:47.903537  2647 net.cpp:157] Top shape: 8 2048 1 1 (16384)
I0201 21:16:47.903540  2647 net.cpp:165] Memory required for data: 1835303008
I0201 21:16:47.903543  2647 layer_factory.hpp:77] Creating layer score
I0201 21:16:47.903548  2647 net.cpp:100] Creating Layer score
I0201 21:16:47.903550  2647 net.cpp:434] score <- global_pool
I0201 21:16:47.903556  2647 net.cpp:408] score -> score
I0201 21:16:47.906033  2647 net.cpp:150] Setting up score
I0201 21:16:47.906054  2647 net.cpp:157] Top shape: 8 1000 (8000)
I0201 21:16:47.906057  2647 net.cpp:165] Memory required for data: 1835335008
I0201 21:16:47.906064  2647 layer_factory.hpp:77] Creating layer score_score_0_split
I0201 21:16:47.906071  2647 net.cpp:100] Creating Layer score_score_0_split
I0201 21:16:47.906075  2647 net.cpp:434] score_score_0_split <- score
I0201 21:16:47.906081  2647 net.cpp:408] score_score_0_split -> score_score_0_split_0
I0201 21:16:47.906092  2647 net.cpp:408] score_score_0_split -> score_score_0_split_1
I0201 21:16:47.906136  2647 net.cpp:150] Setting up score_score_0_split
I0201 21:16:47.906141  2647 net.cpp:157] Top shape: 8 1000 (8000)
I0201 21:16:47.906144  2647 net.cpp:157] Top shape: 8 1000 (8000)
I0201 21:16:47.906147  2647 net.cpp:165] Memory required for data: 1835399008
I0201 21:16:47.906149  2647 layer_factory.hpp:77] Creating layer accuracy
I0201 21:16:47.906153  2647 net.cpp:100] Creating Layer accuracy
I0201 21:16:47.906157  2647 net.cpp:434] accuracy <- score_score_0_split_0
I0201 21:16:47.906160  2647 net.cpp:434] accuracy <- label_data_1_split_0
I0201 21:16:47.906164  2647 net.cpp:408] accuracy -> accuracy
…
