…
I0121 13:17:46.282503  4195 net.cpp:322] The NetState phase (0) differed from the phase (1) specified by a rule in layer accuracy5
I0121 13:17:46.283088  4195 net.cpp:58] Initializing net from parameters: 
state {
  phase: TRAIN
  level: 0
  stage: ""
}
layer {
  name: "data"
  type: "ImageData"
  top: "data"
  top: "label"
  include {
    phase: TRAIN
  }
  transform_param {
    mirror: true
    crop_size: 224
  }
  image_data_param {
    source: "/media/yves/sandisk3/caffe-master/data/ilsvrc12/train.txt"
    batch_size: 8
    shuffle: true
    root_folder: "/media/yves/sandisk3/caffe-master/data/ilsvrc12/original.imagenet/train/"
  }
}
layer {
  name: "data_bn"
  type: "BatchNorm"
  bottom: "data"
  top: "data_bn"
}
layer {
  name: "data_scale"
  type: "Scale"
  bottom: "data_bn"
  top: "data_bn"
  param {
    lr_mult: 1
    decay_mult: 1
  }
  param {
    lr_mult: 2
    decay_mult: 1
  }
  scale_param {
    bias_term: true
  }
}
layer {
  name: "conv1"
  type: "Convolution"
  bottom: "data_bn"
  top: "conv1"
  param {
    lr_mult: 1
    decay_mult: 1
  }
  param {
    lr_mult: 2
    decay_mult: 1
  }
  convolution_param {
    num_output: 64
    pad: 3
    kernel_size: 7
    stride: 2
    weight_filler {
      type: "msra"
      variance_norm: FAN_OUT
    }
    bias_filler {
      type: "constant"
      value: 0
    }
  }
}
layer {
  name: "conv1_bn"
  type: "BatchNorm"
  bottom: "conv1"
  top: "conv1"
}
layer {
  name: "conv1_scale"
  type: "Scale"
  bottom: "conv1"
  top: "conv1"
  param {
    lr_mult: 1
    decay_mult: 1
  }
  param {
    lr_mult: 2
    decay_mult: 1
  }
  scale_param {
    bias_term: true
  }
}
layer {
  name: "conv1_relu"
  type: "ReLU"
  bottom: "conv1"
  top: "conv1"
}
layer {
  name: "conv1_pool"
  type: "Pooling"
  bottom: "conv1"
  top: "conv1_pool"
  pooling_param {
    kernel_size: 3
    stride: 2
  }
}
layer {
  name: "layer_64_1_conv1"
  type: "Convolution"
  bottom: "conv1_pool"
  top: "layer_64_1_conv1"
  param {
    lr_mult: 1
    decay_mult: 1
  }
  convolution_param {
    num_output: 64
    bias_term: false
    pad: 0
    kernel_size: 1
    stride: 1
    weight_filler {
      type: "msra"
    }
    bias_filler {
      type: "constant"
      value: 0
    }
  }
}
layer {
  name: "layer_64_1_bn2"
  type: "BatchNorm"
  bottom: "layer_64_1_conv1"
  top: "layer_64_1_conv1"
}
layer {
  name: "layer_64_1_scale2"
  type: "Scale"
  bottom: "layer_64_1_conv1"
  top: "layer_64_1_conv1"
  param {
    lr_mult: 1
    decay_mult: 1
  }
  param {
    lr_mult: 2
    decay_mult: 1
  }
  scale_param {
    bias_term: true
  }
}
layer {
  name: "layer_64_1_relu2"
  type: "ReLU"
  bottom: "layer_64_1_conv1"
  top: "layer_64_1_conv1"
}
layer {
  name: "layer_64_1_conv2"
  type: "Convolution"
  bottom: "layer_64_1_conv1"
  top: "layer_64_1_conv2"
  param {
    lr_mult: 1
    decay_mult: 1
  }
  convolution_param {
    num_output: 64
    bias_term: false
    pad: 1
    kernel_size: 3
    stride: 1
    weight_filler {
      type: "msra"
    }
    bias_filler {
      type: "constant"
      value: 0
    }
  }
}
layer {
  name: "layer_64_1_bn3"
  type: "BatchNorm"
  bottom: "layer_64_1_conv2"
  top: "layer_64_1_conv2"
}
layer {
  name: "layer_64_1_scale3"
  type: "Scale"
  bottom: "layer_64_1_conv2"
  top: "layer_64_1_conv2"
  param {
    lr_mult: 1
    decay_mult: 1
  }
  param {
    lr_mult: 2
    decay_mult: 1
  }
  scale_param {
    bias_term: true
  }
}
layer {
  name: "layer_64_1_relu3"
  type: "ReLU"
  bottom: "layer_64_1_conv2"
  top: "layer_64_1_conv2"
}
layer {
  name: "layer_64_1_conv3"
  type: "Convolution"
  bottom: "layer_64_1_conv2"
  top: "layer_64_1_conv3"
  param {
    lr_mult: 1
    decay_mult: 1
  }
  convolution_param {
    num_output: 256
    bias_term: false
    pad: 0
    kernel_size: 1
    stride: 1
    weight_filler {
      type: "msra"
    }
    bias_filler {
      type: "constant"
      value: 0
    }
  }
}
layer {
  name: "layer_64_1_conv_expand"
  type: "Convolution"
  bottom: "layer_64_1_conv1"
  top: "layer_64_1_conv_expand"
  param {
    lr_mult: 1
    decay_mult: 1
  }
  convolution_param {
    num_output: 256
    bias_term: false
    pad: 0
    kernel_size: 1
    stride: 1
    weight_filler {
      type: "msra"
    }
    bias_filler {
      type: "constant"
      value: 0
    }
  }
}
layer {
  name: "layer_64_1_sum"
  type: "Eltwise"
  bottom: "layer_64_1_conv3"
  bottom: "layer_64_1_conv_expand"
  top: "layer_64_1_sum"
}
layer {
  name: "layer_64_2_bn1"
  type: "BatchNorm"
  bottom: "layer_64_1_sum"
  top: "layer_64_2_bn1"
}
layer {
  name: "layer_64_2_scale1"
  type: "Scale"
  bottom: "layer_64_2_bn1"
  top: "layer_64_2_bn1"
  param {
    lr_mult: 1
    decay_mult: 1
  }
  param {
    lr_mult: 2
    decay_mult: 1
  }
  scale_param {
    bias_term: true
  }
}
layer {
  name: "layer_64_2_relu1"
  type: "ReLU"
  bottom: "layer_64_2_bn1"
  top: "layer_64_2_bn1"
}
layer {
  name: "layer_64_2_conv1"
  type: "Convolution"
  bottom: "layer_64_2_bn1"
  top: "layer_64_2_conv1"
  param {
    lr_mult: 1
    decay_mult: 1
  }
  convolution_param {
    num_output: 64
    bias_term: false
    pad: 0
    kernel_size: 1
    stride: 1
    weight_filler {
      type: "msra"
    }
    bias_filler {
      type: "constant"
      value: 0
    }
  }
}
layer {
  name: "layer_64_2_bn2"
  type: "BatchNorm"
  bottom: "layer_64_2_conv1"
  top: "layer_64_2_conv1"
}
layer {
  name: "layer_64_2_scale2"
  type: "Scale"
  bottom: "layer_64_2_conv1"
  top: "layer_64_2_conv1"
  param {
    lr_mult: 1
    decay_mult: 1
  }
  param {
    lr_mult: 2
    decay_mult: 1
  }
  scale_param {
    bias_term: true
  }
}
layer {
  name: "layer_64_2_relu2"
  type: "ReLU"
  bottom: "layer_64_2_conv1"
  top: "layer_64_2_conv1"
}
layer {
  name: "layer_64_2_conv2"
  type: "Convolution"
  bottom: "layer_64_2_conv1"
  top: "layer_64_2_conv2"
  param {
    lr_mult: 1
    decay_mult: 1
  }
  convolution_param {
    num_output: 64
    bias_term: false
    pad: 1
    kernel_size: 3
    stride: 1
    weight_filler {
      type: "msra"
    }
    bias_filler {
      type: "constant"
      value: 0
    }
  }
}
layer {
  name: "layer_64_2_bn3"
  type: "BatchNorm"
  bottom: "layer_64_2_conv2"
  top: "layer_64_2_conv2"
}
layer {
  name: "layer_64_2_scale3"
  type: "Scale"
  bottom: "layer_64_2_conv2"
  top: "layer_64_2_conv2"
  param {
    lr_mult: 1
    decay_mult: 1
  }
  param {
    lr_mult: 2
    decay_mult: 1
  }
  scale_param {
    bias_term: true
  }
}
layer {
  name: "layer_64_2_relu3"
  type: "ReLU"
  bottom: "layer_64_2_conv2"
  top: "layer_64_2_conv2"
}
layer {
  name: "layer_64_2_conv3"
  type: "Convolution"
  bottom: "layer_64_2_conv2"
  top: "layer_64_2_conv3"
  param {
    lr_mult: 1
    decay_mult: 1
  }
  convolution_param {
    num_output: 256
    bias_term: false
    pad: 0
    kernel_size: 1
    stride: 1
    weight_filler {
      type: "msra"
    }
    bias_filler {
      type: "constant"
      value: 0
    }
  }
}
layer {
  name: "layer_64_2_sum"
  type: "Eltwise"
  bottom: "layer_64_2_conv3"
  bottom: "layer_64_1_sum"
  top: "layer_64_2_sum"
}
layer {
  name: "layer_64_3_bn1"
  type: "BatchNorm"
  bottom: "layer_64_2_sum"
  top: "layer_64_3_bn1"
}
layer {
  name: "layer_64_3_scale1"
  type: "Scale"
  bottom: "layer_64_3_bn1"
  top: "layer_64_3_bn1"
  param {
    lr_mult: 1
    decay_mult: 1
  }
  param {
    lr_mult: 2
    decay_mult: 1
  }
  scale_param {
    bias_term: true
  }
}
layer {
  name: "layer_64_3_relu1"
  type: "ReLU"
  bottom: "layer_64_3_bn1"
  top: "layer_64_3_bn1"
}
layer {
  name: "layer_64_3_conv1"
  type: "Convolution"
  bottom: "layer_64_3_bn1"
  top: "layer_64_3_conv1"
  param {
    lr_mult: 1
    decay_mult: 1
  }
  convolution_param {
    num_output: 64
    bias_term: false
    pad: 0
    kernel_size: 1
    stride: 1
    weight_filler {
      type: "msra"
    }
    bias_filler {
      type: "constant"
      value: 0
    }
  }
}
layer {
  name: "layer_64_3_bn2"
  type: "BatchNorm"
  bottom: "layer_64_3_conv1"
  top: "layer_64_3_conv1"
}
layer {
  name: "layer_64_3_scale2"
  type: "Scale"
  bottom: "layer_64_3_conv1"
  top: "layer_64_3_conv1"
  param {
    lr_mult: 1
    decay_mult: 1
  }
  param {
    lr_mult: 2
    decay_mult: 1
  }
  scale_param {
    bias_term: true
  }
}
layer {
  name: "layer_64_3_relu2"
  type: "ReLU"
  bottom: "layer_64_3_conv1"
  top: "layer_64_3_conv1"
}
layer {
  name: "layer_64_3_conv2"
  type: "Convolution"
  bottom: "layer_64_3_conv1"
  top: "layer_64_3_conv2"
  param {
    lr_mult: 1
    decay_mult: 1
  }
  convolution_param {
    num_output: 64
    bias_term: false
    pad: 1
    kernel_size: 3
    stride: 1
    weight_filler {
      type: "msra"
    }
    bias_filler {
      type: "constant"
      value: 0
    }
  }
}
layer {
  name: "layer_64_3_bn3"
  type: "BatchNorm"
  bottom: "layer_64_3_conv2"
  top: "layer_64_3_conv2"
}
layer {
  name: "layer_64_3_scale3"
  type: "Scale"
  bottom: "layer_64_3_conv2"
  top: "layer_64_3_conv2"
  param {
    lr_mult: 1
    decay_mult: 1
  }
  param {
    lr_mult: 2
    decay_mult: 1
  }
  scale_param {
    bias_term: true
  }
}
layer {
  name: "layer_64_3_relu3"
  type: "ReLU"
  bottom: "layer_64_3_conv2"
  top: "layer_64_3_conv2"
}
layer {
  name: "layer_64_3_conv3"
  type: "Convolution"
  bottom: "layer_64_3_conv2"
  top: "layer_64_3_conv3"
  param {
    lr_mult: 1
    decay_mult: 1
  }
  convolution_param {
    num_output: 256
    bias_term: false
    pad: 0
    kernel_size: 1
    stride: 1
    weight_filler {
      type: "msra"
    }
    bias_filler {
      type: "constant"
      value: 0
    }
  }
}
layer {
  name: "layer_64_3_sum"
  type: "Eltwise"
  bottom: "layer_64_3_conv3"
  bottom: "layer_64_2_sum"
  top: "layer_64_3_sum"
}
layer {
  name: "layer_128_1_bn1"
  type: "BatchNorm"
  bottom: "layer_64_3_sum"
  top: "layer_128_1_bn1"
}
layer {
  name: "layer_128_1_scale1"
  type: "Scale"
  bottom: "layer_128_1_bn1"
  top: "layer_128_1_bn1"
  param {
    lr_mult: 1
    decay_mult: 1
  }
  param {
    lr_mult: 2
    decay_mult: 1
  }
  scale_param {
    bias_term: true
  }
}
layer {
  name: "layer_128_1_relu1"
  type: "ReLU"
  bottom: "layer_128_1_bn1"
  top: "layer_128_1_bn1"
}
layer {
  name: "layer_128_1_conv1"
  type: "Convolution"
  bottom: "layer_128_1_bn1"
  top: "layer_128_1_conv1"
  param {
    lr_mult: 1
    decay_mult: 1
  }
  convolution_param {
    num_output: 128
    bias_term: false
    pad: 0
    kernel_size: 1
    stride: 1
    weight_filler {
      type: "msra"
    }
    bias_filler {
      type: "constant"
      value: 0
    }
  }
}
layer {
  name: "layer_128_1_bn2"
  type: "BatchNorm"
  bottom: "layer_128_1_conv1"
  top: "layer_128_1_conv1"
}
layer {
  name: "layer_128_1_scale2"
  type: "Scale"
  bottom: "layer_128_1_conv1"
  top: "layer_128_1_conv1"
  param {
    lr_mult: 1
    decay_mult: 1
  }
  param {
    lr_mult: 2
    decay_mult: 1
  }
  scale_param {
    bias_term: true
  }
}
layer {
  name: "layer_128_1_relu2"
  type: "ReLU"
  bottom: "layer_128_1_conv1"
  top: "layer_128_1_conv1"
}
layer {
  name: "layer_128_1_conv2"
  type: "Convolution"
  bottom: "layer_128_1_conv1"
  top: "layer_128_1_conv2"
  param {
    lr_mult: 1
    decay_mult: 1
  }
  convolution_param {
    num_output: 128
    bias_term: false
    pad: 1
    kernel_size: 3
    stride: 2
    weight_filler {
      type: "msra"
    }
    bias_filler {
      type: "constant"
      value: 0
    }
  }
}
layer {
  name: "layer_128_1_bn3"
  type: "BatchNorm"
  bottom: "layer_128_1_conv2"
  top: "layer_128_1_conv2"
}
layer {
  name: "layer_128_1_scale3"
  type: "Scale"
  bottom: "layer_128_1_conv2"
  top: "layer_128_1_conv2"
  param {
    lr_mult: 1
    decay_mult: 1
  }
  param {
    lr_mult: 2
    decay_mult: 1
  }
  scale_param {
    bias_term: true
  }
}
layer {
  name: "layer_128_1_relu3"
  type: "ReLU"
  bottom: "layer_128_1_conv2"
  top: "layer_128_1_conv2"
}
layer {
  name: "layer_128_1_conv3"
  type: "Convolution"
  bottom: "layer_128_1_conv2"
  top: "layer_128_1_conv3"
  param {
    lr_mult: 1
    decay_mult: 1
  }
  convolution_param {
    num_output: 512
    bias_term: false
    pad: 0
    kernel_size: 1
    stride: 1
    weight_filler {
      type: "msra"
    }
    bias_filler {
      type: "constant"
      value: 0
    }
  }
}
layer {
  name: "layer_128_1_conv_expand"
  type: "Convolution"
  bottom: "layer_128_1_bn1"
  top: "layer_128_1_conv_expand"
  param {
    lr_mult: 1
    decay_mult: 1
  }
  convolution_param {
    num_output: 512
    bias_term: false
    pad: 0
    kernel_size: 1
    stride: 2
    weight_filler {
      type: "msra"
    }
    bias_filler {
      type: "constant"
      value: 0
    }
  }
}
layer {
  name: "layer_128_1_sum"
  type: "Eltwise"
  bottom: "layer_128_1_conv3"
  bottom: "layer_128_1_conv_expand"
  top: "layer_128_1_sum"
}
layer {
  name: "layer_128_2_bn1"
  type: "BatchNorm"
  bottom: "layer_128_1_sum"
  top: "layer_128_2_bn1"
}
layer {
  name: "layer_128_2_scale1"
  type: "Scale"
  bottom: "layer_128_2_bn1"
  top: "layer_128_2_bn1"
  param {
    lr_mult: 1
    decay_mult: 1
  }
  param {
    lr_mult: 2
    decay_mult: 1
  }
  scale_param {
    bias_term: true
  }
}
layer {
  name: "layer_128_2_relu1"
  type: "ReLU"
  bottom: "layer_128_2_bn1"
  top: "layer_128_2_bn1"
}
layer {
  name: "layer_128_2_conv1"
  type: "Convolution"
  bottom: "layer_128_2_bn1"
  top: "layer_128_2_conv1"
  param {
    lr_mult: 1
    decay_mult: 1
  }
  convolution_param {
    num_output: 128
    bias_term: false
    pad: 0
    kernel_size: 1
    stride: 1
    weight_filler {
      type: "msra"
    }
    bias_filler {
      type: "constant"
      value: 0
    }
  }
}
layer {
  name: "layer_128_2_bn2"
  type: "BatchNorm"
  bottom: "layer_128_2_conv1"
  top: "layer_128_2_conv1"
}
layer {
  name: "layer_128_2_scale2"
  type: "Scale"
  bottom: "layer_128_2_conv1"
  top: "layer_128_2_conv1"
  param {
    lr_mult: 1
    decay_mult: 1
  }
  param {
    lr_mult: 2
    decay_mult: 1
  }
  scale_param {
    bias_term: true
  }
}
layer {
  name: "layer_128_2_relu2"
  type: "ReLU"
  bottom: "layer_128_2_conv1"
  top: "layer_128_2_conv1"
}
layer {
  name: "layer_128_2_conv2"
  type: "Convolution"
  bottom: "layer_128_2_conv1"
  top: "layer_128_2_conv2"
  param {
    lr_mult: 1
    decay_mult: 1
  }
  convolution_param {
    num_output: 128
    bias_term: false
    pad: 1
    kernel_size: 3
    stride: 1
    weight_filler {
      type: "msra"
    }
    bias_filler {
      type: "constant"
      value: 0
    }
  }
}
layer {
  name: "layer_128_2_bn3"
  type: "BatchNorm"
  bottom: "layer_128_2_conv2"
  top: "layer_128_2_conv2"
}
layer {
  name: "layer_128_2_scale3"
  type: "Scale"
  bottom: "layer_128_2_conv2"
  top: "layer_128_2_conv2"
  param {
    lr_mult: 1
    decay_mult: 1
  }
  param {
    lr_mult: 2
    decay_mult: 1
  }
  scale_param {
    bias_term: true
  }
}
layer {
  name: "layer_128_2_relu3"
  type: "ReLU"
  bottom: "layer_128_2_conv2"
  top: "layer_128_2_conv2"
}
layer {
  name: "layer_128_2_conv3"
  type: "Convolution"
  bottom: "layer_128_2_conv2"
  top: "layer_128_2_conv3"
  param {
    lr_mult: 1
    decay_mult: 1
  }
  convolution_param {
    num_output: 512
    bias_term: false
    pad: 0
    kernel_size: 1
    stride: 1
    weight_filler {
      type: "msra"
    }
    bias_filler {
      type: "constant"
      value: 0
    }
  }
}
layer {
  name: "layer_128_2_sum"
  type: "Eltwise"
  bottom: "layer_128_2_conv3"
  bottom: "layer_128_1_sum"
  top: "layer_128_2_sum"
}
layer {
  name: "layer_128_3_bn1"
  type: "BatchNorm"
  bottom: "layer_128_2_sum"
  top: "layer_128_3_bn1"
}
layer {
  name: "layer_128_3_scale1"
  type: "Scale"
  bottom: "layer_128_3_bn1"
  top: "layer_128_3_bn1"
  param {
    lr_mult: 1
    decay_mult: 1
  }
  param {
    lr_mult: 2
    decay_mult: 1
  }
  scale_param {
    bias_term: true
  }
}
layer {
  name: "layer_128_3_relu1"
  type: "ReLU"
  bottom: "layer_128_3_bn1"
  top: "layer_128_3_bn1"
}
layer {
  name: "layer_128_3_conv1"
  type: "Convolution"
  bottom: "layer_128_3_bn1"
  top: "layer_128_3_conv1"
  param {
    lr_mult: 1
    decay_mult: 1
  }
  convolution_param {
    num_output: 128
    bias_term: false
    pad: 0
    kernel_size: 1
    stride: 1
    weight_filler {
      type: "msra"
    }
    bias_filler {
      type: "constant"
      value: 0
    }
  }
}
layer {
  name: "layer_128_3_bn2"
  type: "BatchNorm"
  bottom: "layer_128_3_conv1"
  top: "layer_128_3_conv1"
}
layer {
  name: "layer_128_3_scale2"
  type: "Scale"
  bottom: "layer_128_3_conv1"
  top: "layer_128_3_conv1"
  param {
    lr_mult: 1
    decay_mult: 1
  }
  param {
    lr_mult: 2
    decay_mult: 1
  }
  scale_param {
    bias_term: true
  }
}
layer {
  name: "layer_128_3_relu2"
  type: "ReLU"
  bottom: "layer_128_3_conv1"
  top: "layer_128_3_conv1"
}
layer {
  name: "layer_128_3_conv2"
  type: "Convolution"
  bottom: "layer_128_3_conv1"
  top: "layer_128_3_conv2"
  param {
    lr_mult: 1
    decay_mult: 1
  }
  convolution_param {
    num_output: 128
    bias_term: false
    pad: 1
    kernel_size: 3
    stride: 1
    weight_filler {
      type: "msra"
    }
    bias_filler {
      type: "constant"
      value: 0
    }
  }
}
layer {
  name: "layer_128_3_bn3"
  type: "BatchNorm"
  bottom: "layer_128_3_conv2"
  top: "layer_128_3_conv2"
}
layer {
  name: "layer_128_3_scale3"
  type: "Scale"
  bottom: "layer_128_3_conv2"
  top: "layer_128_3_conv2"
  param {
    lr_mult: 1
    decay_mult: 1
  }
  param {
    lr_mult: 2
    decay_mult: 1
  }
  scale_param {
    bias_term: true
  }
}
layer {
  name: "layer_128_3_relu3"
  type: "ReLU"
  bottom: "layer_128_3_conv2"
  top: "layer_128_3_conv2"
}
layer {
  name: "layer_128_3_conv3"
  type: "Convolution"
  bottom: "layer_128_3_conv2"
  top: "layer_128_3_conv3"
  param {
    lr_mult: 1
    decay_mult: 1
  }
  convolution_param {
    num_output: 512
    bias_term: false
    pad: 0
    kernel_size: 1
    stride: 1
    weight_filler {
      type: "msra"
    }
    bias_filler {
      type: "constant"
      value: 0
    }
  }
}
layer {
  name: "layer_128_3_sum"
  type: "Eltwise"
  bottom: "layer_128_3_conv3"
  bottom: "layer_128_2_sum"
  top: "layer_128_3_sum"
}
layer {
  name: "layer_128_4_bn1"
  type: "BatchNorm"
  bottom: "layer_128_3_sum"
  top: "layer_128_4_bn1"
}
layer {
  name: "layer_128_4_scale1"
  type: "Scale"
  bottom: "layer_128_4_bn1"
  top: "layer_128_4_bn1"
  param {
    lr_mult: 1
    decay_mult: 1
  }
  param {
    lr_mult: 2
    decay_mult: 1
  }
  scale_param {
    bias_term: true
  }
}
layer {
  name: "layer_128_4_relu1"
  type: "ReLU"
  bottom: "layer_128_4_bn1"
  top: "layer_128_4_bn1"
}
layer {
  name: "layer_128_4_conv1"
  type: "Convolution"
  bottom: "layer_128_4_bn1"
  top: "layer_128_4_conv1"
  param {
    lr_mult: 1
    decay_mult: 1
  }
  convolution_param {
    num_output: 128
    bias_term: false
    pad: 0
    kernel_size: 1
    stride: 1
    weight_filler {
      type: "msra"
    }
    bias_filler {
      type: "constant"
      value: 0
    }
  }
}
layer {
  name: "layer_128_4_bn2"
  type: "BatchNorm"
  bottom: "layer_128_4_conv1"
  top: "layer_128_4_conv1"
}
layer {
  name: "layer_128_4_scale2"
  type: "Scale"
  bottom: "layer_128_4_conv1"
  top: "layer_128_4_conv1"
  param {
    lr_mult: 1
    decay_mult: 1
  }
  param {
    lr_mult: 2
    decay_mult: 1
  }
  scale_param {
    bias_term: true
  }
}
layer {
  name: "layer_128_4_relu2"
  type: "ReLU"
  bottom: "layer_128_4_conv1"
  top: "layer_128_4_conv1"
}
layer {
  name: "layer_128_4_conv2"
  type: "Convolution"
  bottom: "layer_128_4_conv1"
  top: "layer_128_4_conv2"
  param {
    lr_mult: 1
    decay_mult: 1
  }
  convolution_param {
    num_output: 128
    bias_term: false
    pad: 1
    kernel_size: 3
    stride: 1
    weight_filler {
      type: "msra"
    }
    bias_filler {
      type: "constant"
      value: 0
    }
  }
}
layer {
  name: "layer_128_4_bn3"
  type: "BatchNorm"
  bottom: "layer_128_4_conv2"
  top: "layer_128_4_conv2"
}
layer {
  name: "layer_128_4_scale3"
  type: "Scale"
  bottom: "layer_128_4_conv2"
  top: "layer_128_4_conv2"
  param {
    lr_mult: 1
    decay_mult: 1
  }
  param {
    lr_mult: 2
    decay_mult: 1
  }
  scale_param {
    bias_term: true
  }
}
layer {
  name: "layer_128_4_relu3"
  type: "ReLU"
  bottom: "layer_128_4_conv2"
  top: "layer_128_4_conv2"
}
layer {
  name: "layer_128_4_conv3"
  type: "Convolution"
  bottom: "layer_128_4_conv2"
  top: "layer_128_4_conv3"
  param {
    lr_mult: 1
    decay_mult: 1
  }
  convolution_param {
    num_output: 512
    bias_term: false
    pad: 0
    kernel_size: 1
    stride: 1
    weight_filler {
      type: "msra"
    }
    bias_filler {
      type: "constant"
      value: 0
    }
  }
}
layer {
  name: "layer_128_4_sum"
  type: "Eltwise"
  bottom: "layer_128_4_conv3"
  bottom: "layer_128_3_sum"
  top: "layer_128_4_sum"
}
layer {
  name: "layer_256_1_bn1"
  type: "BatchNorm"
  bottom: "layer_128_4_sum"
  top: "layer_256_1_bn1"
}
layer {
  name: "layer_256_1_scale1"
  type: "Scale"
  bottom: "layer_256_1_bn1"
  top: "layer_256_1_bn1"
  param {
    lr_mult: 1
    decay_mult: 1
  }
  param {
    lr_mult: 2
    decay_mult: 1
  }
  scale_param {
    bias_term: true
  }
}
layer {
  name: "layer_256_1_relu1"
  type: "ReLU"
  bottom: "layer_256_1_bn1"
  top: "layer_256_1_bn1"
}
layer {
  name: "layer_256_1_conv1"
  type: "Convolution"
  bottom: "layer_256_1_bn1"
  top: "layer_256_1_conv1"
  param {
    lr_mult: 1
    decay_mult: 1
  }
  convolution_param {
    num_output: 256
    bias_term: false
    pad: 0
    kernel_size: 1
    stride: 1
    weight_filler {
      type: "msra"
    }
    bias_filler {
      type: "constant"
      value: 0
    }
  }
}
layer {
  name: "layer_256_1_bn2"
  type: "BatchNorm"
  bottom: "layer_256_1_conv1"
  top: "layer_256_1_conv1"
}
layer {
  name: "layer_256_1_scale2"
  type: "Scale"
  bottom: "layer_256_1_conv1"
  top: "layer_256_1_conv1"
  param {
    lr_mult: 1
    decay_mult: 1
  }
  param {
    lr_mult: 2
    decay_mult: 1
  }
  scale_param {
    bias_term: true
  }
}
layer {
  name: "layer_256_1_relu2"
  type: "ReLU"
  bottom: "layer_256_1_conv1"
  top: "layer_256_1_conv1"
}
layer {
  name: "layer_256_1_conv2"
  type: "Convolution"
  bottom: "layer_256_1_conv1"
  top: "layer_256_1_conv2"
  param {
    lr_mult: 1
    decay_mult: 1
  }
  convolution_param {
    num_output: 256
    bias_term: false
    pad: 1
    kernel_size: 3
    stride: 2
    weight_filler {
      type: "msra"
    }
    bias_filler {
      type: "constant"
      value: 0
    }
  }
}
layer {
  name: "layer_256_1_bn3"
  type: "BatchNorm"
  bottom: "layer_256_1_conv2"
  top: "layer_256_1_conv2"
}
layer {
  name: "layer_256_1_scale3"
  type: "Scale"
  bottom: "layer_256_1_conv2"
  top: "layer_256_1_conv2"
  param {
    lr_mult: 1
    decay_mult: 1
  }
  param {
    lr_mult: 2
    decay_mult: 1
  }
  scale_param {
    bias_term: true
  }
}
layer {
  name: "layer_256_1_relu3"
  type: "ReLU"
  bottom: "layer_256_1_conv2"
  top: "layer_256_1_conv2"
}
layer {
  name: "layer_256_1_conv3"
  type: "Convolution"
  bottom: "layer_256_1_conv2"
  top: "layer_256_1_conv3"
  param {
    lr_mult: 1
    decay_mult: 1
  }
  convolution_param {
    num_output: 1024
    bias_term: false
    pad: 0
    kernel_size: 1
    stride: 1
    weight_filler {
      type: "msra"
    }
    bias_filler {
      type: "constant"
      value: 0
    }
  }
}
layer {
  name: "layer_256_1_conv_expand"
  type: "Convolution"
  bottom: "layer_256_1_bn1"
  top: "layer_256_1_conv_expand"
  param {
    lr_mult: 1
    decay_mult: 1
  }
  convolution_param {
    num_output: 1024
    bias_term: false
    pad: 0
    kernel_size: 1
    stride: 2
    weight_filler {
      type: "msra"
    }
    bias_filler {
      type: "constant"
      value: 0
    }
  }
}
layer {
  name: "layer_256_1_sum"
  type: "Eltwise"
  bottom: "layer_256_1_conv3"
  bottom: "layer_256_1_conv_expand"
  top: "layer_256_1_sum"
}
layer {
  name: "layer_256_2_bn1"
  type: "BatchNorm"
  bottom: "layer_256_1_sum"
  top: "layer_256_2_bn1"
}
layer {
  name: "layer_256_2_scale1"
  type: "Scale"
  bottom: "layer_256_2_bn1"
  top: "layer_256_2_bn1"
  param {
    lr_mult: 1
    decay_mult: 1
  }
  param {
    lr_mult: 2
    decay_mult: 1
  }
  scale_param {
    bias_term: true
  }
}
layer {
  name: "layer_256_2_relu1"
  type: "ReLU"
  bottom: "layer_256_2_bn1"
  top: "layer_256_2_bn1"
}
layer {
  name: "layer_256_2_conv1"
  type: "Convolution"
  bottom: "layer_256_2_bn1"
  top: "layer_256_2_conv1"
  param {
    lr_mult: 1
    decay_mult: 1
  }
  convolution_param {
    num_output: 256
    bias_term: false
    pad: 0
    kernel_size: 1
    stride: 1
    weight_filler {
      type: "msra"
    }
    bias_filler {
      type: "constant"
      value: 0
    }
  }
}
layer {
  name: "layer_256_2_bn2"
  type: "BatchNorm"
  bottom: "layer_256_2_conv1"
  top: "layer_256_2_conv1"
}
layer {
  name: "layer_256_2_scale2"
  type: "Scale"
  bottom: "layer_256_2_conv1"
  top: "layer_256_2_conv1"
  param {
    lr_mult: 1
    decay_mult: 1
  }
  param {
    lr_mult: 2
    decay_mult: 1
  }
  scale_param {
    bias_term: true
  }
}
layer {
  name: "layer_256_2_relu2"
  type: "ReLU"
  bottom: "layer_256_2_conv1"
  top: "layer_256_2_conv1"
}
layer {
  name: "layer_256_2_conv2"
  type: "Convolution"
  bottom: "layer_256_2_conv1"
  top: "layer_256_2_conv2"
  param {
    lr_mult: 1
    decay_mult: 1
  }
  convolution_param {
    num_output: 256
    bias_term: false
    pad: 1
    kernel_size: 3
    stride: 1
    weight_filler {
      type: "msra"
    }
    bias_filler {
      type: "constant"
      value: 0
    }
  }
}
layer {
  name: "layer_256_2_bn3"
  type: "BatchNorm"
  bottom: "layer_256_2_conv2"
  top: "layer_256_2_conv2"
}
layer {
  name: "layer_256_2_scale3"
  type: "Scale"
  bottom: "layer_256_2_conv2"
  top: "layer_256_2_conv2"
  param {
    lr_mult: 1
    decay_mult: 1
  }
  param {
    lr_mult: 2
    decay_mult: 1
  }
  scale_param {
    bias_term: true
  }
}
layer {
  name: "layer_256_2_relu3"
  type: "ReLU"
  bottom: "layer_256_2_conv2"
  top: "layer_256_2_conv2"
}
layer {
  name: "layer_256_2_conv3"
  type: "Convolution"
  bottom: "layer_256_2_conv2"
  top: "layer_256_2_conv3"
  param {
    lr_mult: 1
    decay_mult: 1
  }
  convolution_param {
    num_output: 1024
    bias_term: false
    pad: 0
    kernel_size: 1
    stride: 1
    weight_filler {
      type: "msra"
    }
    bias_filler {
      type: "constant"
      value: 0
    }
  }
}
layer {
  name: "layer_256_2_sum"
  type: "Eltwise"
  bottom: "layer_256_2_conv3"
  bottom: "layer_256_1_sum"
  top: "layer_256_2_sum"
}
layer {
  name: "layer_256_3_bn1"
  type: "BatchNorm"
  bottom: "layer_256_2_sum"
  top: "layer_256_3_bn1"
}
layer {
  name: "layer_256_3_scale1"
  type: "Scale"
  bottom: "layer_256_3_bn1"
  top: "layer_256_3_bn1"
  param {
    lr_mult: 1
    decay_mult: 1
  }
  param {
    lr_mult: 2
    decay_mult: 1
  }
  scale_param {
    bias_term: true
  }
}
layer {
  name: "layer_256_3_relu1"
  type: "ReLU"
  bottom: "layer_256_3_bn1"
  top: "layer_256_3_bn1"
}
layer {
  name: "layer_256_3_conv1"
  type: "Convolution"
  bottom: "layer_256_3_bn1"
  top: "layer_256_3_conv1"
  param {
    lr_mult: 1
    decay_mult: 1
  }
  convolution_param {
    num_output: 256
    bias_term: false
    pad: 0
    kernel_size: 1
    stride: 1
    weight_filler {
      type: "msra"
    }
    bias_filler {
      type: "constant"
      value: 0
    }
  }
}
layer {
  name: "layer_256_3_bn2"
  type: "BatchNorm"
  bottom: "layer_256_3_conv1"
  top: "layer_256_3_conv1"
}
layer {
  name: "layer_256_3_scale2"
  type: "Scale"
  bottom: "layer_256_3_conv1"
  top: "layer_256_3_conv1"
  param {
    lr_mult: 1
    decay_mult: 1
  }
  param {
    lr_mult: 2
    decay_mult: 1
  }
  scale_param {
    bias_term: true
  }
}
layer {
  name: "layer_256_3_relu2"
  type: "ReLU"
  bottom: "layer_256_3_conv1"
  top: "layer_256_3_conv1"
}
layer {
  name: "layer_256_3_conv2"
  type: "Convolution"
  bottom: "layer_256_3_conv1"
  top: "layer_256_3_conv2"
  param {
    lr_mult: 1
    decay_mult: 1
  }
  convolution_param {
    num_output: 256
    bias_term: false
    pad: 1
    kernel_size: 3
    stride: 1
    weight_filler {
      type: "msra"
    }
    bias_filler {
      type: "constant"
      value: 0
    }
  }
}
layer {
  name: "layer_256_3_bn3"
  type: "BatchNorm"
  bottom: "layer_256_3_conv2"
  top: "layer_256_3_conv2"
}
layer {
  name: "layer_256_3_scale3"
  type: "Scale"
  bottom: "layer_256_3_conv2"
  top: "layer_256_3_conv2"
  param {
    lr_mult: 1
    decay_mult: 1
  }
  param {
    lr_mult: 2
    decay_mult: 1
  }
  scale_param {
    bias_term: true
  }
}
layer {
  name: "layer_256_3_relu3"
  type: "ReLU"
  bottom: "layer_256_3_conv2"
  top: "layer_256_3_conv2"
}
layer {
  name: "layer_256_3_conv3"
  type: "Convolution"
  bottom: "layer_256_3_conv2"
  top: "layer_256_3_conv3"
  param {
    lr_mult: 1
    decay_mult: 1
  }
  convolution_param {
    num_output: 1024
    bias_term: false
    pad: 0
    kernel_size: 1
    stride: 1
    weight_filler {
      type: "msra"
    }
    bias_filler {
      type: "constant"
      value: 0
    }
  }
}
layer {
  name: "layer_256_3_sum"
  type: "Eltwise"
  bottom: "layer_256_3_conv3"
  bottom: "layer_256_2_sum"
  top: "layer_256_3_sum"
}
layer {
  name: "layer_256_4_bn1"
  type: "BatchNorm"
  bottom: "layer_256_3_sum"
  top: "layer_256_4_bn1"
}
layer {
  name: "layer_256_4_scale1"
  type: "Scale"
  bottom: "layer_256_4_bn1"
  top: "layer_256_4_bn1"
  param {
    lr_mult: 1
    decay_mult: 1
  }
  param {
    lr_mult: 2
    decay_mult: 1
  }
  scale_param {
    bias_term: true
  }
}
layer {
  name: "layer_256_4_relu1"
  type: "ReLU"
  bottom: "layer_256_4_bn1"
  top: "layer_256_4_bn1"
}
layer {
  name: "layer_256_4_conv1"
  type: "Convolution"
  bottom: "layer_256_4_bn1"
  top: "layer_256_4_conv1"
  param {
    lr_mult: 1
    decay_mult: 1
  }
  convolution_param {
    num_output: 256
    bias_term: false
    pad: 0
    kernel_size: 1
    stride: 1
    weight_filler {
      type: "msra"
    }
    bias_filler {
      type: "constant"
      value: 0
    }
  }
}
layer {
  name: "layer_256_4_bn2"
  type: 
I0121 13:17:46.283643  4195 layer_factory.hpp:77] Creating layer data
I0121 13:17:46.283670  4195 net.cpp:100] Creating Layer data
I0121 13:17:46.283677  4195 net.cpp:408] data -> data
I0121 13:17:46.283691  4195 net.cpp:408] data -> label
I0121 13:17:46.283710  4195 image_data_layer.cpp:38] Opening file /media/yves/sandisk3/caffe-master/data/ilsvrc12/train.txt
I0121 13:17:46.511445  4195 image_data_layer.cpp:53] Shuffling data
I0121 13:17:46.690140  4195 image_data_layer.cpp:58] A total of 1281167 images.
I0121 13:17:46.696251  4195 image_data_layer.cpp:85] output data size: 8,3,224,224
I0121 13:17:46.702075  4195 net.cpp:150] Setting up data
I0121 13:17:46.702100  4195 net.cpp:157] Top shape: 8 3 224 224 (1204224)
I0121 13:17:46.702105  4195 net.cpp:157] Top shape: 8 (8)
I0121 13:17:46.702109  4195 net.cpp:165] Memory required for data: 4816928
I0121 13:17:46.702116  4195 layer_factory.hpp:77] Creating layer label_data_1_split
I0121 13:17:46.702131  4195 net.cpp:100] Creating Layer label_data_1_split
I0121 13:17:46.702139  4195 net.cpp:434] label_data_1_split <- label
I0121 13:17:46.702153  4195 net.cpp:408] label_data_1_split -> label_data_1_split_0
I0121 13:17:46.702165  4195 net.cpp:408] label_data_1_split -> label_data_1_split_1
I0121 13:17:46.702199  4195 net.cpp:150] Setting up label_data_1_split
I0121 13:17:46.702208  4195 net.cpp:157] Top shape: 8 (8)
I0121 13:17:46.702213  4195 net.cpp:157] Top shape: 8 (8)
I0121 13:17:46.702217  4195 net.cpp:165] Memory required for data: 4816992
I0121 13:17:46.702224  4195 layer_factory.hpp:77] Creating layer data_bn
I0121 13:17:46.702234  4195 net.cpp:100] Creating Layer data_bn
I0121 13:17:46.702240  4195 net.cpp:434] data_bn <- data
I0121 13:17:46.702255  4195 net.cpp:408] data_bn -> data_bn
I0121 13:17:46.702805  4195 net.cpp:150] Setting up data_bn
I0121 13:17:46.702814  4195 net.cpp:157] Top shape: 8 3 224 224 (1204224)
I0121 13:17:46.702818  4195 net.cpp:165] Memory required for data: 9633888
I0121 13:17:46.702837  4195 layer_factory.hpp:77] Creating layer data_scale
I0121 13:17:46.702852  4195 net.cpp:100] Creating Layer data_scale
I0121 13:17:46.702859  4195 net.cpp:434] data_scale <- data_bn
I0121 13:17:46.702867  4195 net.cpp:395] data_scale -> data_bn (in-place)
I0121 13:17:46.702906  4195 layer_factory.hpp:77] Creating layer data_scale
I0121 13:17:46.702996  4195 net.cpp:150] Setting up data_scale
I0121 13:17:46.703004  4195 net.cpp:157] Top shape: 8 3 224 224 (1204224)
I0121 13:17:46.703008  4195 net.cpp:165] Memory required for data: 14450784
I0121 13:17:46.703018  4195 layer_factory.hpp:77] Creating layer conv1
I0121 13:17:46.703034  4195 net.cpp:100] Creating Layer conv1
I0121 13:17:46.703042  4195 net.cpp:434] conv1 <- data_bn
I0121 13:17:46.703050  4195 net.cpp:408] conv1 -> conv1
I0121 13:17:46.836935  4195 net.cpp:150] Setting up conv1
I0121 13:17:46.836977  4195 net.cpp:157] Top shape: 8 64 112 112 (6422528)
I0121 13:17:46.836982  4195 net.cpp:165] Memory required for data: 40140896
I0121 13:17:46.836990  4195 layer_factory.hpp:77] Creating layer conv1_bn
I0121 13:17:46.837021  4195 net.cpp:100] Creating Layer conv1_bn
I0121 13:17:46.837025  4195 net.cpp:434] conv1_bn <- conv1
I0121 13:17:46.837030  4195 net.cpp:395] conv1_bn -> conv1 (in-place)
I0121 13:17:46.837160  4195 net.cpp:150] Setting up conv1_bn
I0121 13:17:46.837168  4195 net.cpp:157] Top shape: 8 64 112 112 (6422528)
I0121 13:17:46.837172  4195 net.cpp:165] Memory required for data: 65831008
I0121 13:17:46.837184  4195 layer_factory.hpp:77] Creating layer conv1_scale
I0121 13:17:46.837193  4195 net.cpp:100] Creating Layer conv1_scale
I0121 13:17:46.837199  4195 net.cpp:434] conv1_scale <- conv1
I0121 13:17:46.837203  4195 net.cpp:395] conv1_scale -> conv1 (in-place)
I0121 13:17:46.837234  4195 layer_factory.hpp:77] Creating layer conv1_scale
I0121 13:17:46.837314  4195 net.cpp:150] Setting up conv1_scale
I0121 13:17:46.837322  4195 net.cpp:157] Top shape: 8 64 112 112 (6422528)
I0121 13:17:46.837326  4195 net.cpp:165] Memory required for data: 91521120
I0121 13:17:46.837330  4195 layer_factory.hpp:77] Creating layer conv1_relu
I0121 13:17:46.837335  4195 net.cpp:100] Creating Layer conv1_relu
I0121 13:17:46.837338  4195 net.cpp:434] conv1_relu <- conv1
I0121 13:17:46.837342  4195 net.cpp:395] conv1_relu -> conv1 (in-place)
I0121 13:17:46.837466  4195 net.cpp:150] Setting up conv1_relu
I0121 13:17:46.837474  4195 net.cpp:157] Top shape: 8 64 112 112 (6422528)
I0121 13:17:46.837477  4195 net.cpp:165] Memory required for data: 117211232
I0121 13:17:46.837481  4195 layer_factory.hpp:77] Creating layer conv1_pool
I0121 13:17:46.837488  4195 net.cpp:100] Creating Layer conv1_pool
I0121 13:17:46.837491  4195 net.cpp:434] conv1_pool <- conv1
I0121 13:17:46.837496  4195 net.cpp:408] conv1_pool -> conv1_pool
I0121 13:17:46.837538  4195 net.cpp:150] Setting up conv1_pool
I0121 13:17:46.837548  4195 net.cpp:157] Top shape: 8 64 56 56 (1605632)
I0121 13:17:46.837550  4195 net.cpp:165] Memory required for data: 123633760
I0121 13:17:46.837553  4195 layer_factory.hpp:77] Creating layer layer_64_1_conv1
I0121 13:17:46.837561  4195 net.cpp:100] Creating Layer layer_64_1_conv1
I0121 13:17:46.837564  4195 net.cpp:434] layer_64_1_conv1 <- conv1_pool
I0121 13:17:46.837569  4195 net.cpp:408] layer_64_1_conv1 -> layer_64_1_conv1
I0121 13:17:46.838659  4195 net.cpp:150] Setting up layer_64_1_conv1
I0121 13:17:46.838670  4195 net.cpp:157] Top shape: 8 64 56 56 (1605632)
I0121 13:17:46.838675  4195 net.cpp:165] Memory required for data: 130056288
I0121 13:17:46.838680  4195 layer_factory.hpp:77] Creating layer layer_64_1_bn2
I0121 13:17:46.838688  4195 net.cpp:100] Creating Layer layer_64_1_bn2
I0121 13:17:46.838695  4195 net.cpp:434] layer_64_1_bn2 <- layer_64_1_conv1
I0121 13:17:46.838706  4195 net.cpp:395] layer_64_1_bn2 -> layer_64_1_conv1 (in-place)
I0121 13:17:46.838838  4195 net.cpp:150] Setting up layer_64_1_bn2
I0121 13:17:46.838846  4195 net.cpp:157] Top shape: 8 64 56 56 (1605632)
I0121 13:17:46.838850  4195 net.cpp:165] Memory required for data: 136478816
I0121 13:17:46.838858  4195 layer_factory.hpp:77] Creating layer layer_64_1_scale2
I0121 13:17:46.838867  4195 net.cpp:100] Creating Layer layer_64_1_scale2
I0121 13:17:46.838874  4195 net.cpp:434] layer_64_1_scale2 <- layer_64_1_conv1
I0121 13:17:46.838881  4195 net.cpp:395] layer_64_1_scale2 -> layer_64_1_conv1 (in-place)
I0121 13:17:46.838917  4195 layer_factory.hpp:77] Creating layer layer_64_1_scale2
I0121 13:17:46.838999  4195 net.cpp:150] Setting up layer_64_1_scale2
I0121 13:17:46.839005  4195 net.cpp:157] Top shape: 8 64 56 56 (1605632)
I0121 13:17:46.839010  4195 net.cpp:165] Memory required for data: 142901344
I0121 13:17:46.839021  4195 layer_factory.hpp:77] Creating layer layer_64_1_relu2
I0121 13:17:46.839030  4195 net.cpp:100] Creating Layer layer_64_1_relu2
I0121 13:17:46.839035  4195 net.cpp:434] layer_64_1_relu2 <- layer_64_1_conv1
I0121 13:17:46.839043  4195 net.cpp:395] layer_64_1_relu2 -> layer_64_1_conv1 (in-place)
I0121 13:17:46.839323  4195 net.cpp:150] Setting up layer_64_1_relu2
I0121 13:17:46.839334  4195 net.cpp:157] Top shape: 8 64 56 56 (1605632)
I0121 13:17:46.839339  4195 net.cpp:165] Memory required for data: 149323872
I0121 13:17:46.839341  4195 layer_factory.hpp:77] Creating layer layer_64_1_conv1_layer_64_1_relu2_0_split
I0121 13:17:46.839347  4195 net.cpp:100] Creating Layer layer_64_1_conv1_layer_64_1_relu2_0_split
I0121 13:17:46.839350  4195 net.cpp:434] layer_64_1_conv1_layer_64_1_relu2_0_split <- layer_64_1_conv1
I0121 13:17:46.839355  4195 net.cpp:408] layer_64_1_conv1_layer_64_1_relu2_0_split -> layer_64_1_conv1_layer_64_1_relu2_0_split_0
I0121 13:17:46.839362  4195 net.cpp:408] layer_64_1_conv1_layer_64_1_relu2_0_split -> layer_64_1_conv1_layer_64_1_relu2_0_split_1
I0121 13:17:46.839388  4195 net.cpp:150] Setting up layer_64_1_conv1_layer_64_1_relu2_0_split
I0121 13:17:46.839395  4195 net.cpp:157] Top shape: 8 64 56 56 (1605632)
I0121 13:17:46.839398  4195 net.cpp:157] Top shape: 8 64 56 56 (1605632)
I0121 13:17:46.839402  4195 net.cpp:165] Memory required for data: 162168928
I0121 13:17:46.839406  4195 layer_factory.hpp:77] Creating layer layer_64_1_conv2
I0121 13:17:46.839413  4195 net.cpp:100] Creating Layer layer_64_1_conv2
I0121 13:17:46.839417  4195 net.cpp:434] layer_64_1_conv2 <- layer_64_1_conv1_layer_64_1_relu2_0_split_0
I0121 13:17:46.839422  4195 net.cpp:408] layer_64_1_conv2 -> layer_64_1_conv2
I0121 13:17:46.840529  4195 net.cpp:150] Setting up layer_64_1_conv2
I0121 13:17:46.840541  4195 net.cpp:157] Top shape: 8 64 56 56 (1605632)
I0121 13:17:46.840545  4195 net.cpp:165] Memory required for data: 168591456
I0121 13:17:46.840550  4195 layer_factory.hpp:77] Creating layer layer_64_1_bn3
I0121 13:17:46.840556  4195 net.cpp:100] Creating Layer layer_64_1_bn3
I0121 13:17:46.840560  4195 net.cpp:434] layer_64_1_bn3 <- layer_64_1_conv2
I0121 13:17:46.840565  4195 net.cpp:395] layer_64_1_bn3 -> layer_64_1_conv2 (in-place)
I0121 13:17:46.840683  4195 net.cpp:150] Setting up layer_64_1_bn3
I0121 13:17:46.840689  4195 net.cpp:157] Top shape: 8 64 56 56 (1605632)
I0121 13:17:46.840692  4195 net.cpp:165] Memory required for data: 175013984
I0121 13:17:46.840699  4195 layer_factory.hpp:77] Creating layer layer_64_1_scale3
I0121 13:17:46.840705  4195 net.cpp:100] Creating Layer layer_64_1_scale3
I0121 13:17:46.840709  4195 net.cpp:434] layer_64_1_scale3 <- layer_64_1_conv2
I0121 13:17:46.840714  4195 net.cpp:395] layer_64_1_scale3 -> layer_64_1_conv2 (in-place)
I0121 13:17:46.840740  4195 layer_factory.hpp:77] Creating layer layer_64_1_scale3
I0121 13:17:46.840811  4195 net.cpp:150] Setting up layer_64_1_scale3
I0121 13:17:46.840816  4195 net.cpp:157] Top shape: 8 64 56 56 (1605632)
I0121 13:17:46.840821  4195 net.cpp:165] Memory required for data: 181436512
I0121 13:17:46.840824  4195 layer_factory.hpp:77] Creating layer layer_64_1_relu3
I0121 13:17:46.840837  4195 net.cpp:100] Creating Layer layer_64_1_relu3
I0121 13:17:46.840840  4195 net.cpp:434] layer_64_1_relu3 <- layer_64_1_conv2
I0121 13:17:46.840845  4195 net.cpp:395] layer_64_1_relu3 -> layer_64_1_conv2 (in-place)
I0121 13:17:46.841122  4195 net.cpp:150] Setting up layer_64_1_relu3
I0121 13:17:46.841132  4195 net.cpp:157] Top shape: 8 64 56 56 (1605632)
I0121 13:17:46.841136  4195 net.cpp:165] Memory required for data: 187859040
I0121 13:17:46.841140  4195 layer_factory.hpp:77] Creating layer layer_64_1_conv3
I0121 13:17:46.841148  4195 net.cpp:100] Creating Layer layer_64_1_conv3
I0121 13:17:46.841153  4195 net.cpp:434] layer_64_1_conv3 <- layer_64_1_conv2
I0121 13:17:46.841159  4195 net.cpp:408] layer_64_1_conv3 -> layer_64_1_conv3
I0121 13:17:46.842048  4195 net.cpp:150] Setting up layer_64_1_conv3
I0121 13:17:46.842059  4195 net.cpp:157] Top shape: 8 256 56 56 (6422528)
I0121 13:17:46.842063  4195 net.cpp:165] Memory required for data: 213549152
I0121 13:17:46.842068  4195 layer_factory.hpp:77] Creating layer layer_64_1_conv_expand
I0121 13:17:46.842077  4195 net.cpp:100] Creating Layer layer_64_1_conv_expand
I0121 13:17:46.842082  4195 net.cpp:434] layer_64_1_conv_expand <- layer_64_1_conv1_layer_64_1_relu2_0_split_1
I0121 13:17:46.842087  4195 net.cpp:408] layer_64_1_conv_expand -> layer_64_1_conv_expand
I0121 13:17:46.842803  4195 net.cpp:150] Setting up layer_64_1_conv_expand
I0121 13:17:46.842813  4195 net.cpp:157] Top shape: 8 256 56 56 (6422528)
I0121 13:17:46.842815  4195 net.cpp:165] Memory required for data: 239239264
I0121 13:17:46.842820  4195 layer_factory.hpp:77] Creating layer layer_64_1_sum
I0121 13:17:46.842826  4195 net.cpp:100] Creating Layer layer_64_1_sum
I0121 13:17:46.842830  4195 net.cpp:434] layer_64_1_sum <- layer_64_1_conv3
I0121 13:17:46.842834  4195 net.cpp:434] layer_64_1_sum <- layer_64_1_conv_expand
I0121 13:17:46.842839  4195 net.cpp:408] layer_64_1_sum -> layer_64_1_sum
I0121 13:17:46.842857  4195 net.cpp:150] Setting up layer_64_1_sum
I0121 13:17:46.842864  4195 net.cpp:157] Top shape: 8 256 56 56 (6422528)
I0121 13:17:46.842866  4195 net.cpp:165] Memory required for data: 264929376
I0121 13:17:46.842870  4195 layer_factory.hpp:77] Creating layer layer_64_1_sum_layer_64_1_sum_0_split
I0121 13:17:46.842875  4195 net.cpp:100] Creating Layer layer_64_1_sum_layer_64_1_sum_0_split
I0121 13:17:46.842880  4195 net.cpp:434] layer_64_1_sum_layer_64_1_sum_0_split <- layer_64_1_sum
I0121 13:17:46.842883  4195 net.cpp:408] layer_64_1_sum_layer_64_1_sum_0_split -> layer_64_1_sum_layer_64_1_sum_0_split_0
I0121 13:17:46.842888  4195 net.cpp:408] layer_64_1_sum_layer_64_1_sum_0_split -> layer_64_1_sum_layer_64_1_sum_0_split_1
I0121 13:17:46.842911  4195 net.cpp:150] Setting up layer_64_1_sum_layer_64_1_sum_0_split
I0121 13:17:46.842916  4195 net.cpp:157] Top shape: 8 256 56 56 (6422528)
I0121 13:17:46.842921  4195 net.cpp:157] Top shape: 8 256 56 56 (6422528)
I0121 13:17:46.842923  4195 net.cpp:165] Memory required for data: 316309600
I0121 13:17:46.842927  4195 layer_factory.hpp:77] Creating layer layer_64_2_bn1
I0121 13:17:46.842931  4195 net.cpp:100] Creating Layer layer_64_2_bn1
I0121 13:17:46.842936  4195 net.cpp:434] layer_64_2_bn1 <- layer_64_1_sum_layer_64_1_sum_0_split_0
I0121 13:17:46.842941  4195 net.cpp:408] layer_64_2_bn1 -> layer_64_2_bn1
I0121 13:17:46.843055  4195 net.cpp:150] Setting up layer_64_2_bn1
I0121 13:17:46.843061  4195 net.cpp:157] Top shape: 8 256 56 56 (6422528)
I0121 13:17:46.843065  4195 net.cpp:165] Memory required for data: 341999712
I0121 13:17:46.843071  4195 layer_factory.hpp:77] Creating layer layer_64_2_scale1
I0121 13:17:46.843077  4195 net.cpp:100] Creating Layer layer_64_2_scale1
I0121 13:17:46.843081  4195 net.cpp:434] layer_64_2_scale1 <- layer_64_2_bn1
I0121 13:17:46.843086  4195 net.cpp:395] layer_64_2_scale1 -> layer_64_2_bn1 (in-place)
I0121 13:17:46.843111  4195 layer_factory.hpp:77] Creating layer layer_64_2_scale1
I0121 13:17:46.843176  4195 net.cpp:150] Setting up layer_64_2_scale1
I0121 13:17:46.843185  4195 net.cpp:157] Top shape: 8 256 56 56 (6422528)
I0121 13:17:46.843192  4195 net.cpp:165] Memory required for data: 367689824
I0121 13:17:46.843197  4195 layer_factory.hpp:77] Creating layer layer_64_2_relu1
I0121 13:17:46.843204  4195 net.cpp:100] Creating Layer layer_64_2_relu1
I0121 13:17:46.843207  4195 net.cpp:434] layer_64_2_relu1 <- layer_64_2_bn1
I0121 13:17:46.843211  4195 net.cpp:395] layer_64_2_relu1 -> layer_64_2_bn1 (in-place)
I0121 13:17:46.843482  4195 net.cpp:150] Setting up layer_64_2_relu1
I0121 13:17:46.843492  4195 net.cpp:157] Top shape: 8 256 56 56 (6422528)
I0121 13:17:46.843495  4195 net.cpp:165] Memory required for data: 393379936
I0121 13:17:46.843498  4195 layer_factory.hpp:77] Creating layer layer_64_2_conv1
I0121 13:17:46.843507  4195 net.cpp:100] Creating Layer layer_64_2_conv1
I0121 13:17:46.843510  4195 net.cpp:434] layer_64_2_conv1 <- layer_64_2_bn1
I0121 13:17:46.843516  4195 net.cpp:408] layer_64_2_conv1 -> layer_64_2_conv1
I0121 13:17:46.844414  4195 net.cpp:150] Setting up layer_64_2_conv1
I0121 13:17:46.844425  4195 net.cpp:157] Top shape: 8 64 56 56 (1605632)
I0121 13:17:46.844429  4195 net.cpp:165] Memory required for data: 399802464
I0121 13:17:46.844434  4195 layer_factory.hpp:77] Creating layer layer_64_2_bn2
I0121 13:17:46.844440  4195 net.cpp:100] Creating Layer layer_64_2_bn2
I0121 13:17:46.844444  4195 net.cpp:434] layer_64_2_bn2 <- layer_64_2_conv1
I0121 13:17:46.844449  4195 net.cpp:395] layer_64_2_bn2 -> layer_64_2_conv1 (in-place)
I0121 13:17:46.844564  4195 net.cpp:150] Setting up layer_64_2_bn2
I0121 13:17:46.844570  4195 net.cpp:157] Top shape: 8 64 56 56 (1605632)
I0121 13:17:46.844574  4195 net.cpp:165] Memory required for data: 406224992
I0121 13:17:46.844583  4195 layer_factory.hpp:77] Creating layer layer_64_2_scale2
I0121 13:17:46.844590  4195 net.cpp:100] Creating Layer layer_64_2_scale2
I0121 13:17:46.844594  4195 net.cpp:434] layer_64_2_scale2 <- layer_64_2_conv1
I0121 13:17:46.844597  4195 net.cpp:395] layer_64_2_scale2 -> layer_64_2_conv1 (in-place)
I0121 13:17:46.844624  4195 layer_factory.hpp:77] Creating layer layer_64_2_scale2
I0121 13:17:46.844699  4195 net.cpp:150] Setting up layer_64_2_scale2
I0121 13:17:46.844707  4195 net.cpp:157] Top shape: 8 64 56 56 (1605632)
I0121 13:17:46.844709  4195 net.cpp:165] Memory required for data: 412647520
I0121 13:17:46.844714  4195 layer_factory.hpp:77] Creating layer layer_64_2_relu2
I0121 13:17:46.844719  4195 net.cpp:100] Creating Layer layer_64_2_relu2
I0121 13:17:46.844723  4195 net.cpp:434] layer_64_2_relu2 <- layer_64_2_conv1
I0121 13:17:46.844727  4195 net.cpp:395] layer_64_2_relu2 -> layer_64_2_conv1 (in-place)
I0121 13:17:46.844836  4195 net.cpp:150] Setting up layer_64_2_relu2
I0121 13:17:46.844843  4195 net.cpp:157] Top shape: 8 64 56 56 (1605632)
I0121 13:17:46.844847  4195 net.cpp:165] Memory required for data: 419070048
I0121 13:17:46.844851  4195 layer_factory.hpp:77] Creating layer layer_64_2_conv2
I0121 13:17:46.844858  4195 net.cpp:100] Creating Layer layer_64_2_conv2
I0121 13:17:46.844862  4195 net.cpp:434] layer_64_2_conv2 <- layer_64_2_conv1
I0121 13:17:46.844869  4195 net.cpp:408] layer_64_2_conv2 -> layer_64_2_conv2
I0121 13:17:46.846122  4195 net.cpp:150] Setting up layer_64_2_conv2
I0121 13:17:46.846134  4195 net.cpp:157] Top shape: 8 64 56 56 (1605632)
I0121 13:17:46.846138  4195 net.cpp:165] Memory required for data: 425492576
I0121 13:17:46.846143  4195 layer_factory.hpp:77] Creating layer layer_64_2_bn3
I0121 13:17:46.846149  4195 net.cpp:100] Creating Layer layer_64_2_bn3
I0121 13:17:46.846153  4195 net.cpp:434] layer_64_2_bn3 <- layer_64_2_conv2
I0121 13:17:46.846158  4195 net.cpp:395] layer_64_2_bn3 -> layer_64_2_conv2 (in-place)
I0121 13:17:46.846276  4195 net.cpp:150] Setting up layer_64_2_bn3
I0121 13:17:46.846282  4195 net.cpp:157] Top shape: 8 64 56 56 (1605632)
I0121 13:17:46.846287  4195 net.cpp:165] Memory required for data: 431915104
I0121 13:17:46.846292  4195 layer_factory.hpp:77] Creating layer layer_64_2_scale3
I0121 13:17:46.846300  4195 net.cpp:100] Creating Layer layer_64_2_scale3
I0121 13:17:46.846308  4195 net.cpp:434] layer_64_2_scale3 <- layer_64_2_conv2
I0121 13:17:46.846312  4195 net.cpp:395] layer_64_2_scale3 -> layer_64_2_conv2 (in-place)
I0121 13:17:46.846340  4195 layer_factory.hpp:77] Creating layer layer_64_2_scale3
I0121 13:17:46.846412  4195 net.cpp:150] Setting up layer_64_2_scale3
I0121 13:17:46.846418  4195 net.cpp:157] Top shape: 8 64 56 56 (1605632)
I0121 13:17:46.846422  4195 net.cpp:165] Memory required for data: 438337632
I0121 13:17:46.846427  4195 layer_factory.hpp:77] Creating layer layer_64_2_relu3
I0121 13:17:46.846433  4195 net.cpp:100] Creating Layer layer_64_2_relu3
I0121 13:17:46.846437  4195 net.cpp:434] layer_64_2_relu3 <- layer_64_2_conv2
I0121 13:17:46.846442  4195 net.cpp:395] layer_64_2_relu3 -> layer_64_2_conv2 (in-place)
I0121 13:17:46.846549  4195 net.cpp:150] Setting up layer_64_2_relu3
I0121 13:17:46.846556  4195 net.cpp:157] Top shape: 8 64 56 56 (1605632)
I0121 13:17:46.846560  4195 net.cpp:165] Memory required for data: 444760160
I0121 13:17:46.846563  4195 layer_factory.hpp:77] Creating layer layer_64_2_conv3
I0121 13:17:46.846570  4195 net.cpp:100] Creating Layer layer_64_2_conv3
I0121 13:17:46.846575  4195 net.cpp:434] layer_64_2_conv3 <- layer_64_2_conv2
I0121 13:17:46.846580  4195 net.cpp:408] layer_64_2_conv3 -> layer_64_2_conv3
I0121 13:17:46.847481  4195 net.cpp:150] Setting up layer_64_2_conv3
I0121 13:17:46.847492  4195 net.cpp:157] Top shape: 8 256 56 56 (6422528)
I0121 13:17:46.847497  4195 net.cpp:165] Memory required for data: 470450272
I0121 13:17:46.847501  4195 layer_factory.hpp:77] Creating layer layer_64_2_sum
I0121 13:17:46.847507  4195 net.cpp:100] Creating Layer layer_64_2_sum
I0121 13:17:46.847512  4195 net.cpp:434] layer_64_2_sum <- layer_64_2_conv3
I0121 13:17:46.847517  4195 net.cpp:434] layer_64_2_sum <- layer_64_1_sum_layer_64_1_sum_0_split_1
I0121 13:17:46.847523  4195 net.cpp:408] layer_64_2_sum -> layer_64_2_sum
I0121 13:17:46.847540  4195 net.cpp:150] Setting up layer_64_2_sum
I0121 13:17:46.847545  4195 net.cpp:157] Top shape: 8 256 56 56 (6422528)
I0121 13:17:46.847549  4195 net.cpp:165] Memory required for data: 496140384
I0121 13:17:46.847553  4195 layer_factory.hpp:77] Creating layer layer_64_2_sum_layer_64_2_sum_0_split
I0121 13:17:46.847558  4195 net.cpp:100] Creating Layer layer_64_2_sum_layer_64_2_sum_0_split
I0121 13:17:46.847563  4195 net.cpp:434] layer_64_2_sum_layer_64_2_sum_0_split <- layer_64_2_sum
I0121 13:17:46.847566  4195 net.cpp:408] layer_64_2_sum_layer_64_2_sum_0_split -> layer_64_2_sum_layer_64_2_sum_0_split_0
I0121 13:17:46.847571  4195 net.cpp:408] layer_64_2_sum_layer_64_2_sum_0_split -> layer_64_2_sum_layer_64_2_sum_0_split_1
I0121 13:17:46.847595  4195 net.cpp:150] Setting up layer_64_2_sum_layer_64_2_sum_0_split
I0121 13:17:46.847601  4195 net.cpp:157] Top shape: 8 256 56 56 (6422528)
I0121 13:17:46.847605  4195 net.cpp:157] Top shape: 8 256 56 56 (6422528)
I0121 13:17:46.847609  4195 net.cpp:165] Memory required for data: 547520608
I0121 13:17:46.847611  4195 layer_factory.hpp:77] Creating layer layer_64_3_bn1
I0121 13:17:46.847617  4195 net.cpp:100] Creating Layer layer_64_3_bn1
I0121 13:17:46.847621  4195 net.cpp:434] layer_64_3_bn1 <- layer_64_2_sum_layer_64_2_sum_0_split_0
I0121 13:17:46.847625  4195 net.cpp:408] layer_64_3_bn1 -> layer_64_3_bn1
I0121 13:17:46.847741  4195 net.cpp:150] Setting up layer_64_3_bn1
I0121 13:17:46.847748  4195 net.cpp:157] Top shape: 8 256 56 56 (6422528)
I0121 13:17:46.847751  4195 net.cpp:165] Memory required for data: 573210720
I0121 13:17:46.847756  4195 layer_factory.hpp:77] Creating layer layer_64_3_scale1
I0121 13:17:46.847761  4195 net.cpp:100] Creating Layer layer_64_3_scale1
I0121 13:17:46.847765  4195 net.cpp:434] layer_64_3_scale1 <- layer_64_3_bn1
I0121 13:17:46.847770  4195 net.cpp:395] layer_64_3_scale1 -> layer_64_3_bn1 (in-place)
I0121 13:17:46.847796  4195 layer_factory.hpp:77] Creating layer layer_64_3_scale1
I0121 13:17:46.847865  4195 net.cpp:150] Setting up layer_64_3_scale1
I0121 13:17:46.847875  4195 net.cpp:157] Top shape: 8 256 56 56 (6422528)
I0121 13:17:46.847882  4195 net.cpp:165] Memory required for data: 598900832
I0121 13:17:46.847887  4195 layer_factory.hpp:77] Creating layer layer_64_3_relu1
I0121 13:17:46.847892  4195 net.cpp:100] Creating Layer layer_64_3_relu1
I0121 13:17:46.847896  4195 net.cpp:434] layer_64_3_relu1 <- layer_64_3_bn1
I0121 13:17:46.847900  4195 net.cpp:395] layer_64_3_relu1 -> layer_64_3_bn1 (in-place)
I0121 13:17:46.848011  4195 net.cpp:150] Setting up layer_64_3_relu1
I0121 13:17:46.848019  4195 net.cpp:157] Top shape: 8 256 56 56 (6422528)
I0121 13:17:46.848023  4195 net.cpp:165] Memory required for data: 624590944
I0121 13:17:46.848026  4195 layer_factory.hpp:77] Creating layer layer_64_3_conv1
I0121 13:17:46.848048  4195 net.cpp:100] Creating Layer layer_64_3_conv1
I0121 13:17:46.848055  4195 net.cpp:434] layer_64_3_conv1 <- layer_64_3_bn1
I0121 13:17:46.848062  4195 net.cpp:408] layer_64_3_conv1 -> layer_64_3_conv1
I0121 13:17:46.849298  4195 net.cpp:150] Setting up layer_64_3_conv1
I0121 13:17:46.849309  4195 net.cpp:157] Top shape: 8 64 56 56 (1605632)
I0121 13:17:46.849313  4195 net.cpp:165] Memory required for data: 631013472
I0121 13:17:46.849319  4195 layer_factory.hpp:77] Creating layer layer_64_3_bn2
I0121 13:17:46.849325  4195 net.cpp:100] Creating Layer layer_64_3_bn2
I0121 13:17:46.849329  4195 net.cpp:434] layer_64_3_bn2 <- layer_64_3_conv1
I0121 13:17:46.849334  4195 net.cpp:395] layer_64_3_bn2 -> layer_64_3_conv1 (in-place)
I0121 13:17:46.849457  4195 net.cpp:150] Setting up layer_64_3_bn2
I0121 13:17:46.849463  4195 net.cpp:157] Top shape: 8 64 56 56 (1605632)
I0121 13:17:46.849467  4195 net.cpp:165] Memory required for data: 637436000
I0121 13:17:46.849473  4195 layer_factory.hpp:77] Creating layer layer_64_3_scale2
I0121 13:17:46.849480  4195 net.cpp:100] Creating Layer layer_64_3_scale2
I0121 13:17:46.849484  4195 net.cpp:434] layer_64_3_scale2 <- layer_64_3_conv1
I0121 13:17:46.849488  4195 net.cpp:395] layer_64_3_scale2 -> layer_64_3_conv1 (in-place)
I0121 13:17:46.849514  4195 layer_factory.hpp:77] Creating layer layer_64_3_scale2
I0121 13:17:46.849589  4195 net.cpp:150] Setting up layer_64_3_scale2
I0121 13:17:46.849596  4195 net.cpp:157] Top shape: 8 64 56 56 (1605632)
I0121 13:17:46.849601  4195 net.cpp:165] Memory required for data: 643858528
I0121 13:17:46.849604  4195 layer_factory.hpp:77] Creating layer layer_64_3_relu2
I0121 13:17:46.849609  4195 net.cpp:100] Creating Layer layer_64_3_relu2
I0121 13:17:46.849613  4195 net.cpp:434] layer_64_3_relu2 <- layer_64_3_conv1
I0121 13:17:46.849618  4195 net.cpp:395] layer_64_3_relu2 -> layer_64_3_conv1 (in-place)
I0121 13:17:46.849728  4195 net.cpp:150] Setting up layer_64_3_relu2
I0121 13:17:46.849736  4195 net.cpp:157] Top shape: 8 64 56 56 (1605632)
I0121 13:17:46.849740  4195 net.cpp:165] Memory required for data: 650281056
I0121 13:17:46.849743  4195 layer_factory.hpp:77] Creating layer layer_64_3_conv2
I0121 13:17:46.849751  4195 net.cpp:100] Creating Layer layer_64_3_conv2
I0121 13:17:46.849756  4195 net.cpp:434] layer_64_3_conv2 <- layer_64_3_conv1
I0121 13:17:46.849762  4195 net.cpp:408] layer_64_3_conv2 -> layer_64_3_conv2
I0121 13:17:46.851037  4195 net.cpp:150] Setting up layer_64_3_conv2
I0121 13:17:46.851047  4195 net.cpp:157] Top shape: 8 64 56 56 (1605632)
I0121 13:17:46.851052  4195 net.cpp:165] Memory required for data: 656703584
I0121 13:17:46.851058  4195 layer_factory.hpp:77] Creating layer layer_64_3_bn3
I0121 13:17:46.851063  4195 net.cpp:100] Creating Layer layer_64_3_bn3
I0121 13:17:46.851068  4195 net.cpp:434] layer_64_3_bn3 <- layer_64_3_conv2
I0121 13:17:46.851073  4195 net.cpp:395] layer_64_3_bn3 -> layer_64_3_conv2 (in-place)
I0121 13:17:46.851196  4195 net.cpp:150] Setting up layer_64_3_bn3
I0121 13:17:46.851202  4195 net.cpp:157] Top shape: 8 64 56 56 (1605632)
I0121 13:17:46.851205  4195 net.cpp:165] Memory required for data: 663126112
I0121 13:17:46.851212  4195 layer_factory.hpp:77] Creating layer layer_64_3_scale3
I0121 13:17:46.851218  4195 net.cpp:100] Creating Layer layer_64_3_scale3
I0121 13:17:46.851224  4195 net.cpp:434] layer_64_3_scale3 <- layer_64_3_conv2
I0121 13:17:46.851233  4195 net.cpp:395] layer_64_3_scale3 -> layer_64_3_conv2 (in-place)
I0121 13:17:46.851260  4195 layer_factory.hpp:77] Creating layer layer_64_3_scale3
I0121 13:17:46.851333  4195 net.cpp:150] Setting up layer_64_3_scale3
I0121 13:17:46.851341  4195 net.cpp:157] Top shape: 8 64 56 56 (1605632)
I0121 13:17:46.851343  4195 net.cpp:165] Memory required for data: 669548640
I0121 13:17:46.851348  4195 layer_factory.hpp:77] Creating layer layer_64_3_relu3
I0121 13:17:46.851354  4195 net.cpp:100] Creating Layer layer_64_3_relu3
I0121 13:17:46.851358  4195 net.cpp:434] layer_64_3_relu3 <- layer_64_3_conv2
I0121 13:17:46.851362  4195 net.cpp:395] layer_64_3_relu3 -> layer_64_3_conv2 (in-place)
I0121 13:17:46.851630  4195 net.cpp:150] Setting up layer_64_3_relu3
I0121 13:17:46.851640  4195 net.cpp:157] Top shape: 8 64 56 56 (1605632)
I0121 13:17:46.851644  4195 net.cpp:165] Memory required for data: 675971168
I0121 13:17:46.851649  4195 layer_factory.hpp:77] Creating layer layer_64_3_conv3
I0121 13:17:46.851656  4195 net.cpp:100] Creating Layer layer_64_3_conv3
I0121 13:17:46.851661  4195 net.cpp:434] layer_64_3_conv3 <- layer_64_3_conv2
I0121 13:17:46.851666  4195 net.cpp:408] layer_64_3_conv3 -> layer_64_3_conv3
I0121 13:17:46.852416  4195 net.cpp:150] Setting up layer_64_3_conv3
I0121 13:17:46.852427  4195 net.cpp:157] Top shape: 8 256 56 56 (6422528)
I0121 13:17:46.852432  4195 net.cpp:165] Memory required for data: 701661280
I0121 13:17:46.852437  4195 layer_factory.hpp:77] Creating layer layer_64_3_sum
I0121 13:17:46.852443  4195 net.cpp:100] Creating Layer layer_64_3_sum
I0121 13:17:46.852447  4195 net.cpp:434] layer_64_3_sum <- layer_64_3_conv3
I0121 13:17:46.852452  4195 net.cpp:434] layer_64_3_sum <- layer_64_2_sum_layer_64_2_sum_0_split_1
I0121 13:17:46.852457  4195 net.cpp:408] layer_64_3_sum -> layer_64_3_sum
I0121 13:17:46.852473  4195 net.cpp:150] Setting up layer_64_3_sum
I0121 13:17:46.852479  4195 net.cpp:157] Top shape: 8 256 56 56 (6422528)
I0121 13:17:46.852483  4195 net.cpp:165] Memory required for data: 727351392
I0121 13:17:46.852486  4195 layer_factory.hpp:77] Creating layer layer_128_1_bn1
I0121 13:17:46.852493  4195 net.cpp:100] Creating Layer layer_128_1_bn1
I0121 13:17:46.852496  4195 net.cpp:434] layer_128_1_bn1 <- layer_64_3_sum
I0121 13:17:46.852500  4195 net.cpp:408] layer_128_1_bn1 -> layer_128_1_bn1
I0121 13:17:46.852623  4195 net.cpp:150] Setting up layer_128_1_bn1
I0121 13:17:46.852629  4195 net.cpp:157] Top shape: 8 256 56 56 (6422528)
I0121 13:17:46.852633  4195 net.cpp:165] Memory required for data: 753041504
I0121 13:17:46.852646  4195 layer_factory.hpp:77] Creating layer layer_128_1_scale1
I0121 13:17:46.852653  4195 net.cpp:100] Creating Layer layer_128_1_scale1
I0121 13:17:46.852656  4195 net.cpp:434] layer_128_1_scale1 <- layer_128_1_bn1
I0121 13:17:46.852663  4195 net.cpp:395] layer_128_1_scale1 -> layer_128_1_bn1 (in-place)
I0121 13:17:46.852689  4195 layer_factory.hpp:77] Creating layer layer_128_1_scale1
I0121 13:17:46.852758  4195 net.cpp:150] Setting up layer_128_1_scale1
I0121 13:17:46.852764  4195 net.cpp:157] Top shape: 8 256 56 56 (6422528)
I0121 13:17:46.852768  4195 net.cpp:165] Memory required for data: 778731616
I0121 13:17:46.852773  4195 layer_factory.hpp:77] Creating layer layer_128_1_relu1
I0121 13:17:46.852779  4195 net.cpp:100] Creating Layer layer_128_1_relu1
I0121 13:17:46.852783  4195 net.cpp:434] layer_128_1_relu1 <- layer_128_1_bn1
I0121 13:17:46.852787  4195 net.cpp:395] layer_128_1_relu1 -> layer_128_1_bn1 (in-place)
I0121 13:17:46.853057  4195 net.cpp:150] Setting up layer_128_1_relu1
I0121 13:17:46.853067  4195 net.cpp:157] Top shape: 8 256 56 56 (6422528)
I0121 13:17:46.853071  4195 net.cpp:165] Memory required for data: 804421728
I0121 13:17:46.853075  4195 layer_factory.hpp:77] Creating layer layer_128_1_bn1_layer_128_1_relu1_0_split
I0121 13:17:46.853080  4195 net.cpp:100] Creating Layer layer_128_1_bn1_layer_128_1_relu1_0_split
I0121 13:17:46.853088  4195 net.cpp:434] layer_128_1_bn1_layer_128_1_relu1_0_split <- layer_128_1_bn1
I0121 13:17:46.853096  4195 net.cpp:408] layer_128_1_bn1_layer_128_1_relu1_0_split -> layer_128_1_bn1_layer_128_1_relu1_0_split_0
I0121 13:17:46.853103  4195 net.cpp:408] layer_128_1_bn1_layer_128_1_relu1_0_split -> layer_128_1_bn1_layer_128_1_relu1_0_split_1
I0121 13:17:46.853130  4195 net.cpp:150] Setting up layer_128_1_bn1_layer_128_1_relu1_0_split
I0121 13:17:46.853137  4195 net.cpp:157] Top shape: 8 256 56 56 (6422528)
I0121 13:17:46.853142  4195 net.cpp:157] Top shape: 8 256 56 56 (6422528)
I0121 13:17:46.853144  4195 net.cpp:165] Memory required for data: 855801952
I0121 13:17:46.853147  4195 layer_factory.hpp:77] Creating layer layer_128_1_conv1
I0121 13:17:46.853155  4195 net.cpp:100] Creating Layer layer_128_1_conv1
I0121 13:17:46.853159  4195 net.cpp:434] layer_128_1_conv1 <- layer_128_1_bn1_layer_128_1_relu1_0_split_0
I0121 13:17:46.853164  4195 net.cpp:408] layer_128_1_conv1 -> layer_128_1_conv1
I0121 13:17:46.854372  4195 net.cpp:150] Setting up layer_128_1_conv1
I0121 13:17:46.854384  4195 net.cpp:157] Top shape: 8 128 56 56 (3211264)
I0121 13:17:46.854388  4195 net.cpp:165] Memory required for data: 868647008
I0121 13:17:46.854393  4195 layer_factory.hpp:77] Creating layer layer_128_1_bn2
I0121 13:17:46.854398  4195 net.cpp:100] Creating Layer layer_128_1_bn2
I0121 13:17:46.854403  4195 net.cpp:434] layer_128_1_bn2 <- layer_128_1_conv1
I0121 13:17:46.854408  4195 net.cpp:395] layer_128_1_bn2 -> layer_128_1_conv1 (in-place)
I0121 13:17:46.854526  4195 net.cpp:150] Setting up layer_128_1_bn2
I0121 13:17:46.854532  4195 net.cpp:157] Top shape: 8 128 56 56 (3211264)
I0121 13:17:46.854537  4195 net.cpp:165] Memory required for data: 881492064
I0121 13:17:46.854542  4195 layer_factory.hpp:77] Creating layer layer_128_1_scale2
I0121 13:17:46.854548  4195 net.cpp:100] Creating Layer layer_128_1_scale2
I0121 13:17:46.854552  4195 net.cpp:434] layer_128_1_scale2 <- layer_128_1_conv1
I0121 13:17:46.854557  4195 net.cpp:395] layer_128_1_scale2 -> layer_128_1_conv1 (in-place)
I0121 13:17:46.854583  4195 layer_factory.hpp:77] Creating layer layer_128_1_scale2
I0121 13:17:46.854651  4195 net.cpp:150] Setting up layer_128_1_scale2
I0121 13:17:46.854658  4195 net.cpp:157] Top shape: 8 128 56 56 (3211264)
I0121 13:17:46.854662  4195 net.cpp:165] Memory required for data: 894337120
I0121 13:17:46.854666  4195 layer_factory.hpp:77] Creating layer layer_128_1_relu2
I0121 13:17:46.854672  4195 net.cpp:100] Creating Layer layer_128_1_relu2
I0121 13:17:46.854676  4195 net.cpp:434] layer_128_1_relu2 <- layer_128_1_conv1
I0121 13:17:46.854681  4195 net.cpp:395] layer_128_1_relu2 -> layer_128_1_conv1 (in-place)
I0121 13:17:46.854794  4195 net.cpp:150] Setting up layer_128_1_relu2
I0121 13:17:46.854800  4195 net.cpp:157] Top shape: 8 128 56 56 (3211264)
I0121 13:17:46.854804  4195 net.cpp:165] Memory required for data: 907182176
I0121 13:17:46.854809  4195 layer_factory.hpp:77] Creating layer layer_128_1_conv2
I0121 13:17:46.854815  4195 net.cpp:100] Creating Layer layer_128_1_conv2
I0121 13:17:46.854820  4195 net.cpp:434] layer_128_1_conv2 <- layer_128_1_conv1
I0121 13:17:46.854825  4195 net.cpp:408] layer_128_1_conv2 -> layer_128_1_conv2
I0121 13:17:46.858783  4195 net.cpp:150] Setting up layer_128_1_conv2
I0121 13:17:46.858798  4195 net.cpp:157] Top shape: 8 128 28 28 (802816)
I0121 13:17:46.858803  4195 net.cpp:165] Memory required for data: 910393440
I0121 13:17:46.858808  4195 layer_factory.hpp:77] Creating layer layer_128_1_bn3
I0121 13:17:46.858814  4195 net.cpp:100] Creating Layer layer_128_1_bn3
I0121 13:17:46.858819  4195 net.cpp:434] layer_128_1_bn3 <- layer_128_1_conv2
I0121 13:17:46.858824  4195 net.cpp:395] layer_128_1_bn3 -> layer_128_1_conv2 (in-place)
I0121 13:17:46.859338  4195 net.cpp:150] Setting up layer_128_1_bn3
I0121 13:17:46.859346  4195 net.cpp:157] Top shape: 8 128 28 28 (802816)
I0121 13:17:46.859350  4195 net.cpp:165] Memory required for data: 913604704
I0121 13:17:46.859359  4195 layer_factory.hpp:77] Creating layer layer_128_1_scale3
I0121 13:17:46.859375  4195 net.cpp:100] Creating Layer layer_128_1_scale3
I0121 13:17:46.859378  4195 net.cpp:434] layer_128_1_scale3 <- layer_128_1_conv2
I0121 13:17:46.859383  4195 net.cpp:395] layer_128_1_scale3 -> layer_128_1_conv2 (in-place)
I0121 13:17:46.859414  4195 layer_factory.hpp:77] Creating layer layer_128_1_scale3
I0121 13:17:46.859485  4195 net.cpp:150] Setting up layer_128_1_scale3
I0121 13:17:46.859493  4195 net.cpp:157] Top shape: 8 128 28 28 (802816)
I0121 13:17:46.859495  4195 net.cpp:165] Memory required for data: 916815968
I0121 13:17:46.859500  4195 layer_factory.hpp:77] Creating layer layer_128_1_relu3
I0121 13:17:46.859506  4195 net.cpp:100] Creating Layer layer_128_1_relu3
I0121 13:17:46.859509  4195 net.cpp:434] layer_128_1_relu3 <- layer_128_1_conv2
I0121 13:17:46.859513  4195 net.cpp:395] layer_128_1_relu3 -> layer_128_1_conv2 (in-place)
I0121 13:17:46.859632  4195 net.cpp:150] Setting up layer_128_1_relu3
I0121 13:17:46.859638  4195 net.cpp:157] Top shape: 8 128 28 28 (802816)
I0121 13:17:46.859642  4195 net.cpp:165] Memory required for data: 920027232
I0121 13:17:46.859645  4195 layer_factory.hpp:77] Creating layer layer_128_1_conv3
I0121 13:17:46.859653  4195 net.cpp:100] Creating Layer layer_128_1_conv3
I0121 13:17:46.859658  4195 net.cpp:434] layer_128_1_conv3 <- layer_128_1_conv2
I0121 13:17:46.859663  4195 net.cpp:408] layer_128_1_conv3 -> layer_128_1_conv3
I0121 13:17:46.861481  4195 net.cpp:150] Setting up layer_128_1_conv3
I0121 13:17:46.861495  4195 net.cpp:157] Top shape: 8 512 28 28 (3211264)
I0121 13:17:46.861498  4195 net.cpp:165] Memory required for data: 932872288
I0121 13:17:46.861503  4195 layer_factory.hpp:77] Creating layer layer_128_1_conv_expand
I0121 13:17:46.861511  4195 net.cpp:100] Creating Layer layer_128_1_conv_expand
I0121 13:17:46.861516  4195 net.cpp:434] layer_128_1_conv_expand <- layer_128_1_bn1_layer_128_1_relu1_0_split_1
I0121 13:17:46.861522  4195 net.cpp:408] layer_128_1_conv_expand -> layer_128_1_conv_expand
I0121 13:17:46.864634  4195 net.cpp:150] Setting up layer_128_1_conv_expand
I0121 13:17:46.864650  4195 net.cpp:157] Top shape: 8 512 28 28 (3211264)
I0121 13:17:46.864655  4195 net.cpp:165] Memory required for data: 945717344
I0121 13:17:46.864663  4195 layer_factory.hpp:77] Creating layer layer_128_1_sum
I0121 13:17:46.864672  4195 net.cpp:100] Creating Layer layer_128_1_sum
I0121 13:17:46.864680  4195 net.cpp:434] layer_128_1_sum <- layer_128_1_conv3
I0121 13:17:46.864686  4195 net.cpp:434] layer_128_1_sum <- layer_128_1_conv_expand
I0121 13:17:46.864694  4195 net.cpp:408] layer_128_1_sum -> layer_128_1_sum
I0121 13:17:46.864719  4195 net.cpp:150] Setting up layer_128_1_sum
I0121 13:17:46.864728  4195 net.cpp:157] Top shape: 8 512 28 28 (3211264)
I0121 13:17:46.864733  4195 net.cpp:165] Memory required for data: 958562400
I0121 13:17:46.864738  4195 layer_factory.hpp:77] Creating layer layer_128_1_sum_layer_128_1_sum_0_split
I0121 13:17:46.864753  4195 net.cpp:100] Creating Layer layer_128_1_sum_layer_128_1_sum_0_split
I0121 13:17:46.864759  4195 net.cpp:434] layer_128_1_sum_layer_128_1_sum_0_split <- layer_128_1_sum
I0121 13:17:46.864768  4195 net.cpp:408] layer_128_1_sum_layer_128_1_sum_0_split -> layer_128_1_sum_layer_128_1_sum_0_split_0
I0121 13:17:46.864776  4195 net.cpp:408] layer_128_1_sum_layer_128_1_sum_0_split -> layer_128_1_sum_layer_128_1_sum_0_split_1
I0121 13:17:46.864810  4195 net.cpp:150] Setting up layer_128_1_sum_layer_128_1_sum_0_split
I0121 13:17:46.864820  4195 net.cpp:157] Top shape: 8 512 28 28 (3211264)
I0121 13:17:46.864826  4195 net.cpp:157] Top shape: 8 512 28 28 (3211264)
I0121 13:17:46.864831  4195 net.cpp:165] Memory required for data: 984252512
I0121 13:17:46.864836  4195 layer_factory.hpp:77] Creating layer layer_128_2_bn1
I0121 13:17:46.864843  4195 net.cpp:100] Creating Layer layer_128_2_bn1
I0121 13:17:46.864850  4195 net.cpp:434] layer_128_2_bn1 <- layer_128_1_sum_layer_128_1_sum_0_split_0
I0121 13:17:46.864856  4195 net.cpp:408] layer_128_2_bn1 -> layer_128_2_bn1
I0121 13:17:46.865031  4195 net.cpp:150] Setting up layer_128_2_bn1
I0121 13:17:46.865044  4195 net.cpp:157] Top shape: 8 512 28 28 (3211264)
I0121 13:17:46.865049  4195 net.cpp:165] Memory required for data: 997097568
I0121 13:17:46.865059  4195 layer_factory.hpp:77] Creating layer layer_128_2_scale1
I0121 13:17:46.865068  4195 net.cpp:100] Creating Layer layer_128_2_scale1
I0121 13:17:46.865074  4195 net.cpp:434] layer_128_2_scale1 <- layer_128_2_bn1
I0121 13:17:46.865082  4195 net.cpp:395] layer_128_2_scale1 -> layer_128_2_bn1 (in-place)
I0121 13:17:46.865120  4195 layer_factory.hpp:77] Creating layer layer_128_2_scale1
I0121 13:17:46.865216  4195 net.cpp:150] Setting up layer_128_2_scale1
I0121 13:17:46.865226  4195 net.cpp:157] Top shape: 8 512 28 28 (3211264)
I0121 13:17:46.865231  4195 net.cpp:165] Memory required for data: 1009942624
I0121 13:17:46.865238  4195 layer_factory.hpp:77] Creating layer layer_128_2_relu1
I0121 13:17:46.865245  4195 net.cpp:100] Creating Layer layer_128_2_relu1
I0121 13:17:46.865250  4195 net.cpp:434] layer_128_2_relu1 <- layer_128_2_bn1
I0121 13:17:46.865258  4195 net.cpp:395] layer_128_2_relu1 -> layer_128_2_bn1 (in-place)
I0121 13:17:46.865422  4195 net.cpp:150] Setting up layer_128_2_relu1
I0121 13:17:46.865432  4195 net.cpp:157] Top shape: 8 512 28 28 (3211264)
I0121 13:17:46.865437  4195 net.cpp:165] Memory required for data: 1022787680
I0121 13:17:46.865442  4195 layer_factory.hpp:77] Creating layer layer_128_2_conv1
I0121 13:17:46.865453  4195 net.cpp:100] Creating Layer layer_128_2_conv1
I0121 13:17:46.865459  4195 net.cpp:434] layer_128_2_conv1 <- layer_128_2_bn1
I0121 13:17:46.865468  4195 net.cpp:408] layer_128_2_conv1 -> layer_128_2_conv1
I0121 13:17:46.867372  4195 net.cpp:150] Setting up layer_128_2_conv1
I0121 13:17:46.867384  4195 net.cpp:157] Top shape: 8 128 28 28 (802816)
I0121 13:17:46.867388  4195 net.cpp:165] Memory required for data: 1025998944
I0121 13:17:46.867393  4195 layer_factory.hpp:77] Creating layer layer_128_2_bn2
I0121 13:17:46.867401  4195 net.cpp:100] Creating Layer layer_128_2_bn2
I0121 13:17:46.867405  4195 net.cpp:434] layer_128_2_bn2 <- layer_128_2_conv1
I0121 13:17:46.867410  4195 net.cpp:395] layer_128_2_bn2 -> layer_128_2_conv1 (in-place)
I0121 13:17:46.867530  4195 net.cpp:150] Setting up layer_128_2_bn2
I0121 13:17:46.867537  4195 net.cpp:157] Top shape: 8 128 28 28 (802816)
I0121 13:17:46.867540  4195 net.cpp:165] Memory required for data: 1029210208
I0121 13:17:46.867545  4195 layer_factory.hpp:77] Creating layer layer_128_2_scale2
I0121 13:17:46.867552  4195 net.cpp:100] Creating Layer layer_128_2_scale2
I0121 13:17:46.867555  4195 net.cpp:434] layer_128_2_scale2 <- layer_128_2_conv1
I0121 13:17:46.867560  4195 net.cpp:395] layer_128_2_scale2 -> layer_128_2_conv1 (in-place)
I0121 13:17:46.867586  4195 layer_factory.hpp:77] Creating layer layer_128_2_scale2
I0121 13:17:46.867656  4195 net.cpp:150] Setting up layer_128_2_scale2
I0121 13:17:46.867662  4195 net.cpp:157] Top shape: 8 128 28 28 (802816)
I0121 13:17:46.867666  4195 net.cpp:165] Memory required for data: 1032421472
I0121 13:17:46.867671  4195 layer_factory.hpp:77] Creating layer layer_128_2_relu2
I0121 13:17:46.867676  4195 net.cpp:100] Creating Layer layer_128_2_relu2
I0121 13:17:46.867681  4195 net.cpp:434] layer_128_2_relu2 <- layer_128_2_conv1
I0121 13:17:46.867686  4195 net.cpp:395] layer_128_2_relu2 -> layer_128_2_conv1 (in-place)
I0121 13:17:46.867800  4195 net.cpp:150] Setting up layer_128_2_relu2
I0121 13:17:46.867807  4195 net.cpp:157] Top shape: 8 128 28 28 (802816)
I0121 13:17:46.867811  4195 net.cpp:165] Memory required for data: 1035632736
I0121 13:17:46.867815  4195 layer_factory.hpp:77] Creating layer layer_128_2_conv2
I0121 13:17:46.867823  4195 net.cpp:100] Creating Layer layer_128_2_conv2
I0121 13:17:46.867827  4195 net.cpp:434] layer_128_2_conv2 <- layer_128_2_conv1
I0121 13:17:46.867833  4195 net.cpp:408] layer_128_2_conv2 -> layer_128_2_conv2
I0121 13:17:46.871263  4195 net.cpp:150] Setting up layer_128_2_conv2
I0121 13:17:46.871276  4195 net.cpp:157] Top shape: 8 128 28 28 (802816)
I0121 13:17:46.871284  4195 net.cpp:165] Memory required for data: 1038844000
I0121 13:17:46.871295  4195 layer_factory.hpp:77] Creating layer layer_128_2_bn3
I0121 13:17:46.871302  4195 net.cpp:100] Creating Layer layer_128_2_bn3
I0121 13:17:46.871306  4195 net.cpp:434] layer_128_2_bn3 <- layer_128_2_conv2
I0121 13:17:46.871312  4195 net.cpp:395] layer_128_2_bn3 -> layer_128_2_conv2 (in-place)
I0121 13:17:46.871438  4195 net.cpp:150] Setting up layer_128_2_bn3
I0121 13:17:46.871444  4195 net.cpp:157] Top shape: 8 128 28 28 (802816)
I0121 13:17:46.871448  4195 net.cpp:165] Memory required for data: 1042055264
I0121 13:17:46.871454  4195 layer_factory.hpp:77] Creating layer layer_128_2_scale3
I0121 13:17:46.871459  4195 net.cpp:100] Creating Layer layer_128_2_scale3
I0121 13:17:46.871464  4195 net.cpp:434] layer_128_2_scale3 <- layer_128_2_conv2
I0121 13:17:46.871469  4195 net.cpp:395] layer_128_2_scale3 -> layer_128_2_conv2 (in-place)
I0121 13:17:46.871495  4195 layer_factory.hpp:77] Creating layer layer_128_2_scale3
I0121 13:17:46.871567  4195 net.cpp:150] Setting up layer_128_2_scale3
I0121 13:17:46.871573  4195 net.cpp:157] Top shape: 8 128 28 28 (802816)
I0121 13:17:46.871577  4195 net.cpp:165] Memory required for data: 1045266528
I0121 13:17:46.871582  4195 layer_factory.hpp:77] Creating layer layer_128_2_relu3
I0121 13:17:46.871587  4195 net.cpp:100] Creating Layer layer_128_2_relu3
I0121 13:17:46.871592  4195 net.cpp:434] layer_128_2_relu3 <- layer_128_2_conv2
I0121 13:17:46.871595  4195 net.cpp:395] layer_128_2_relu3 -> layer_128_2_conv2 (in-place)
I0121 13:17:46.871711  4195 net.cpp:150] Setting up layer_128_2_relu3
I0121 13:17:46.871718  4195 net.cpp:157] Top shape: 8 128 28 28 (802816)
I0121 13:17:46.871722  4195 net.cpp:165] Memory required for data: 1048477792
I0121 13:17:46.871727  4195 layer_factory.hpp:77] Creating layer layer_128_2_conv3
I0121 13:17:46.871734  4195 net.cpp:100] Creating Layer layer_128_2_conv3
I0121 13:17:46.871739  4195 net.cpp:434] layer_128_2_conv3 <- layer_128_2_conv2
I0121 13:17:46.871744  4195 net.cpp:408] layer_128_2_conv3 -> layer_128_2_conv3
I0121 13:17:46.873553  4195 net.cpp:150] Setting up layer_128_2_conv3
I0121 13:17:46.873564  4195 net.cpp:157] Top shape: 8 512 28 28 (3211264)
I0121 13:17:46.873567  4195 net.cpp:165] Memory required for data: 1061322848
I0121 13:17:46.873572  4195 layer_factory.hpp:77] Creating layer layer_128_2_sum
I0121 13:17:46.873579  4195 net.cpp:100] Creating Layer layer_128_2_sum
I0121 13:17:46.873584  4195 net.cpp:434] layer_128_2_sum <- layer_128_2_conv3
I0121 13:17:46.873589  4195 net.cpp:434] layer_128_2_sum <- layer_128_1_sum_layer_128_1_sum_0_split_1
I0121 13:17:46.873594  4195 net.cpp:408] layer_128_2_sum -> layer_128_2_sum
I0121 13:17:46.873613  4195 net.cpp:150] Setting up layer_128_2_sum
I0121 13:17:46.873620  4195 net.cpp:157] Top shape: 8 512 28 28 (3211264)
I0121 13:17:46.873622  4195 net.cpp:165] Memory required for data: 1074167904
I0121 13:17:46.873626  4195 layer_factory.hpp:77] Creating layer layer_128_2_sum_layer_128_2_sum_0_split
I0121 13:17:46.873632  4195 net.cpp:100] Creating Layer layer_128_2_sum_layer_128_2_sum_0_split
I0121 13:17:46.873636  4195 net.cpp:434] layer_128_2_sum_layer_128_2_sum_0_split <- layer_128_2_sum
I0121 13:17:46.873641  4195 net.cpp:408] layer_128_2_sum_layer_128_2_sum_0_split -> layer_128_2_sum_layer_128_2_sum_0_split_0
I0121 13:17:46.873646  4195 net.cpp:408] layer_128_2_sum_layer_128_2_sum_0_split -> layer_128_2_sum_layer_128_2_sum_0_split_1
I0121 13:17:46.873672  4195 net.cpp:150] Setting up layer_128_2_sum_layer_128_2_sum_0_split
I0121 13:17:46.873677  4195 net.cpp:157] Top shape: 8 512 28 28 (3211264)
I0121 13:17:46.873682  4195 net.cpp:157] Top shape: 8 512 28 28 (3211264)
I0121 13:17:46.873685  4195 net.cpp:165] Memory required for data: 1099858016
I0121 13:17:46.873688  4195 layer_factory.hpp:77] Creating layer layer_128_3_bn1
I0121 13:17:46.873693  4195 net.cpp:100] Creating Layer layer_128_3_bn1
I0121 13:17:46.873698  4195 net.cpp:434] layer_128_3_bn1 <- layer_128_2_sum_layer_128_2_sum_0_split_0
I0121 13:17:46.873705  4195 net.cpp:408] layer_128_3_bn1 -> layer_128_3_bn1
I0121 13:17:46.873836  4195 net.cpp:150] Setting up layer_128_3_bn1
I0121 13:17:46.873842  4195 net.cpp:157] Top shape: 8 512 28 28 (3211264)
I0121 13:17:46.873845  4195 net.cpp:165] Memory required for data: 1112703072
I0121 13:17:46.873852  4195 layer_factory.hpp:77] Creating layer layer_128_3_scale1
I0121 13:17:46.873857  4195 net.cpp:100] Creating Layer layer_128_3_scale1
I0121 13:17:46.873862  4195 net.cpp:434] layer_128_3_scale1 <- layer_128_3_bn1
I0121 13:17:46.873867  4195 net.cpp:395] layer_128_3_scale1 -> layer_128_3_bn1 (in-place)
I0121 13:17:46.873894  4195 layer_factory.hpp:77] Creating layer layer_128_3_scale1
I0121 13:17:46.873962  4195 net.cpp:150] Setting up layer_128_3_scale1
I0121 13:17:46.873970  4195 net.cpp:157] Top shape: 8 512 28 28 (3211264)
I0121 13:17:46.873973  4195 net.cpp:165] Memory required for data: 1125548128
I0121 13:17:46.873978  4195 layer_factory.hpp:77] Creating layer layer_128_3_relu1
I0121 13:17:46.873983  4195 net.cpp:100] Creating Layer layer_128_3_relu1
I0121 13:17:46.873987  4195 net.cpp:434] layer_128_3_relu1 <- layer_128_3_bn1
I0121 13:17:46.873991  4195 net.cpp:395] layer_128_3_relu1 -> layer_128_3_bn1 (in-place)
I0121 13:17:46.874269  4195 net.cpp:150] Setting up layer_128_3_relu1
I0121 13:17:46.874279  4195 net.cpp:157] Top shape: 8 512 28 28 (3211264)
I0121 13:17:46.874284  4195 net.cpp:165] Memory required for data: 1138393184
I0121 13:17:46.874287  4195 layer_factory.hpp:77] Creating layer layer_128_3_conv1
I0121 13:17:46.874295  4195 net.cpp:100] Creating Layer layer_128_3_conv1
I0121 13:17:46.874300  4195 net.cpp:434] layer_128_3_conv1 <- layer_128_3_bn1
I0121 13:17:46.874306  4195 net.cpp:408] layer_128_3_conv1 -> layer_128_3_conv1
I0121 13:17:46.876554  4195 net.cpp:150] Setting up layer_128_3_conv1
I0121 13:17:46.876567  4195 net.cpp:157] Top shape: 8 128 28 28 (802816)
I0121 13:17:46.876571  4195 net.cpp:165] Memory required for data: 1141604448
I0121 13:17:46.876576  4195 layer_factory.hpp:77] Creating layer layer_128_3_bn2
I0121 13:17:46.876583  4195 net.cpp:100] Creating Layer layer_128_3_bn2
I0121 13:17:46.876588  4195 net.cpp:434] layer_128_3_bn2 <- layer_128_3_conv1
I0121 13:17:46.876595  4195 net.cpp:395] layer_128_3_bn2 -> layer_128_3_conv1 (in-place)
I0121 13:17:46.876718  4195 net.cpp:150] Setting up layer_128_3_bn2
I0121 13:17:46.876724  4195 net.cpp:157] Top shape: 8 128 28 28 (802816)
I0121 13:17:46.876727  4195 net.cpp:165] Memory required for data: 1144815712
I0121 13:17:46.876734  4195 layer_factory.hpp:77] Creating layer layer_128_3_scale2
I0121 13:17:46.876740  4195 net.cpp:100] Creating Layer layer_128_3_scale2
I0121 13:17:46.876745  4195 net.cpp:434] layer_128_3_scale2 <- layer_128_3_conv1
I0121 13:17:46.876750  4195 net.cpp:395] layer_128_3_scale2 -> layer_128_3_conv1 (in-place)
I0121 13:17:46.876777  4195 layer_factory.hpp:77] Creating layer layer_128_3_scale2
I0121 13:17:46.876852  4195 net.cpp:150] Setting up layer_128_3_scale2
I0121 13:17:46.876857  4195 net.cpp:157] Top shape: 8 128 28 28 (802816)
I0121 13:17:46.876860  4195 net.cpp:165] Memory required for data: 1148026976
I0121 13:17:46.876866  4195 layer_factory.hpp:77] Creating layer layer_128_3_relu2
I0121 13:17:46.876871  4195 net.cpp:100] Creating Layer layer_128_3_relu2
I0121 13:17:46.876875  4195 net.cpp:434] layer_128_3_relu2 <- layer_128_3_conv1
I0121 13:17:46.876880  4195 net.cpp:395] layer_128_3_relu2 -> layer_128_3_conv1 (in-place)
I0121 13:17:46.876994  4195 net.cpp:150] Setting up layer_128_3_relu2
I0121 13:17:46.877003  4195 net.cpp:157] Top shape: 8 128 28 28 (802816)
I0121 13:17:46.877007  4195 net.cpp:165] Memory required for data: 1151238240
I0121 13:17:46.877010  4195 layer_factory.hpp:77] Creating layer layer_128_3_conv2
I0121 13:17:46.877020  4195 net.cpp:100] Creating Layer layer_128_3_conv2
I0121 13:17:46.877025  4195 net.cpp:434] layer_128_3_conv2 <- layer_128_3_conv1
I0121 13:17:46.877029  4195 net.cpp:408] layer_128_3_conv2 -> layer_128_3_conv2
I0121 13:17:46.881026  4195 net.cpp:150] Setting up layer_128_3_conv2
I0121 13:17:46.881054  4195 net.cpp:157] Top shape: 8 128 28 28 (802816)
I0121 13:17:46.881058  4195 net.cpp:165] Memory required for data: 1154449504
I0121 13:17:46.881064  4195 layer_factory.hpp:77] Creating layer layer_128_3_bn3
I0121 13:17:46.881072  4195 net.cpp:100] Creating Layer layer_128_3_bn3
I0121 13:17:46.881078  4195 net.cpp:434] layer_128_3_bn3 <- layer_128_3_conv2
I0121 13:17:46.881083  4195 net.cpp:395] layer_128_3_bn3 -> layer_128_3_conv2 (in-place)
I0121 13:17:46.881220  4195 net.cpp:150] Setting up layer_128_3_bn3
I0121 13:17:46.881227  4195 net.cpp:157] Top shape: 8 128 28 28 (802816)
I0121 13:17:46.881230  4195 net.cpp:165] Memory required for data: 1157660768
I0121 13:17:46.881235  4195 layer_factory.hpp:77] Creating layer layer_128_3_scale3
I0121 13:17:46.881242  4195 net.cpp:100] Creating Layer layer_128_3_scale3
I0121 13:17:46.881247  4195 net.cpp:434] layer_128_3_scale3 <- layer_128_3_conv2
I0121 13:17:46.881250  4195 net.cpp:395] layer_128_3_scale3 -> layer_128_3_conv2 (in-place)
I0121 13:17:46.881281  4195 layer_factory.hpp:77] Creating layer layer_128_3_scale3
I0121 13:17:46.881353  4195 net.cpp:150] Setting up layer_128_3_scale3
I0121 13:17:46.881359  4195 net.cpp:157] Top shape: 8 128 28 28 (802816)
I0121 13:17:46.881363  4195 net.cpp:165] Memory required for data: 1160872032
I0121 13:17:46.881367  4195 layer_factory.hpp:77] Creating layer layer_128_3_relu3
I0121 13:17:46.881373  4195 net.cpp:100] Creating Layer layer_128_3_relu3
I0121 13:17:46.881376  4195 net.cpp:434] layer_128_3_relu3 <- layer_128_3_conv2
I0121 13:17:46.881381  4195 net.cpp:395] layer_128_3_relu3 -> layer_128_3_conv2 (in-place)
I0121 13:17:46.881501  4195 net.cpp:150] Setting up layer_128_3_relu3
I0121 13:17:46.881510  4195 net.cpp:157] Top shape: 8 128 28 28 (802816)
I0121 13:17:46.881512  4195 net.cpp:165] Memory required for data: 1164083296
I0121 13:17:46.881516  4195 layer_factory.hpp:77] Creating layer layer_128_3_conv3
I0121 13:17:46.881525  4195 net.cpp:100] Creating Layer layer_128_3_conv3
I0121 13:17:46.881530  4195 net.cpp:434] layer_128_3_conv3 <- layer_128_3_conv2
I0121 13:17:46.881536  4195 net.cpp:408] layer_128_3_conv3 -> layer_128_3_conv3
I0121 13:17:46.883373  4195 net.cpp:150] Setting up layer_128_3_conv3
I0121 13:17:46.883384  4195 net.cpp:157] Top shape: 8 512 28 28 (3211264)
I0121 13:17:46.883388  4195 net.cpp:165] Memory required for data: 1176928352
I0121 13:17:46.883394  4195 layer_factory.hpp:77] Creating layer layer_128_3_sum
I0121 13:17:46.883399  4195 net.cpp:100] Creating Layer layer_128_3_sum
I0121 13:17:46.883402  4195 net.cpp:434] layer_128_3_sum <- layer_128_3_conv3
I0121 13:17:46.883406  4195 net.cpp:434] layer_128_3_sum <- layer_128_2_sum_layer_128_2_sum_0_split_1
I0121 13:17:46.883411  4195 net.cpp:408] layer_128_3_sum -> layer_128_3_sum
I0121 13:17:46.883430  4195 net.cpp:150] Setting up layer_128_3_sum
I0121 13:17:46.883435  4195 net.cpp:157] Top shape: 8 512 28 28 (3211264)
I0121 13:17:46.883438  4195 net.cpp:165] Memory required for data: 1189773408
I0121 13:17:46.883441  4195 layer_factory.hpp:77] Creating layer layer_128_3_sum_layer_128_3_sum_0_split
I0121 13:17:46.883445  4195 net.cpp:100] Creating Layer layer_128_3_sum_layer_128_3_sum_0_split
I0121 13:17:46.883448  4195 net.cpp:434] layer_128_3_sum_layer_128_3_sum_0_split <- layer_128_3_sum
I0121 13:17:46.883452  4195 net.cpp:408] layer_128_3_sum_layer_128_3_sum_0_split -> layer_128_3_sum_layer_128_3_sum_0_split_0
I0121 13:17:46.883457  4195 net.cpp:408] layer_128_3_sum_layer_128_3_sum_0_split -> layer_128_3_sum_layer_128_3_sum_0_split_1
I0121 13:17:46.883481  4195 net.cpp:150] Setting up layer_128_3_sum_layer_128_3_sum_0_split
I0121 13:17:46.883486  4195 net.cpp:157] Top shape: 8 512 28 28 (3211264)
I0121 13:17:46.883489  4195 net.cpp:157] Top shape: 8 512 28 28 (3211264)
I0121 13:17:46.883492  4195 net.cpp:165] Memory required for data: 1215463520
I0121 13:17:46.883496  4195 layer_factory.hpp:77] Creating layer layer_128_4_bn1
I0121 13:17:46.883499  4195 net.cpp:100] Creating Layer layer_128_4_bn1
I0121 13:17:46.883505  4195 net.cpp:434] layer_128_4_bn1 <- layer_128_3_sum_layer_128_3_sum_0_split_0
I0121 13:17:46.883513  4195 net.cpp:408] layer_128_4_bn1 -> layer_128_4_bn1
I0121 13:17:46.883641  4195 net.cpp:150] Setting up layer_128_4_bn1
I0121 13:17:46.883647  4195 net.cpp:157] Top shape: 8 512 28 28 (3211264)
I0121 13:17:46.883651  4195 net.cpp:165] Memory required for data: 1228308576
I0121 13:17:46.883656  4195 layer_factory.hpp:77] Creating layer layer_128_4_scale1
I0121 13:17:46.883661  4195 net.cpp:100] Creating Layer layer_128_4_scale1
I0121 13:17:46.883664  4195 net.cpp:434] layer_128_4_scale1 <- layer_128_4_bn1
I0121 13:17:46.883668  4195 net.cpp:395] layer_128_4_scale1 -> layer_128_4_bn1 (in-place)
I0121 13:17:46.883697  4195 layer_factory.hpp:77] Creating layer layer_128_4_scale1
I0121 13:17:46.883766  4195 net.cpp:150] Setting up layer_128_4_scale1
I0121 13:17:46.883772  4195 net.cpp:157] Top shape: 8 512 28 28 (3211264)
I0121 13:17:46.883775  4195 net.cpp:165] Memory required for data: 1241153632
I0121 13:17:46.883780  4195 layer_factory.hpp:77] Creating layer layer_128_4_relu1
I0121 13:17:46.883785  4195 net.cpp:100] Creating Layer layer_128_4_relu1
I0121 13:17:46.883788  4195 net.cpp:434] layer_128_4_relu1 <- layer_128_4_bn1
I0121 13:17:46.883791  4195 net.cpp:395] layer_128_4_relu1 -> layer_128_4_bn1 (in-place)
I0121 13:17:46.883903  4195 net.cpp:150] Setting up layer_128_4_relu1
I0121 13:17:46.883909  4195 net.cpp:157] Top shape: 8 512 28 28 (3211264)
I0121 13:17:46.883913  4195 net.cpp:165] Memory required for data: 1253998688
I0121 13:17:46.883915  4195 layer_factory.hpp:77] Creating layer layer_128_4_conv1
I0121 13:17:46.883922  4195 net.cpp:100] Creating Layer layer_128_4_conv1
I0121 13:17:46.883927  4195 net.cpp:434] layer_128_4_conv1 <- layer_128_4_bn1
I0121 13:17:46.883932  4195 net.cpp:408] layer_128_4_conv1 -> layer_128_4_conv1
I0121 13:17:46.885748  4195 net.cpp:150] Setting up layer_128_4_conv1
I0121 13:17:46.885759  4195 net.cpp:157] Top shape: 8 128 28 28 (802816)
I0121 13:17:46.885763  4195 net.cpp:165] Memory required for data: 1257209952
I0121 13:17:46.885767  4195 layer_factory.hpp:77] Creating layer layer_128_4_bn2
I0121 13:17:46.885773  4195 net.cpp:100] Creating Layer layer_128_4_bn2
I0121 13:17:46.885776  4195 net.cpp:434] layer_128_4_bn2 <- layer_128_4_conv1
I0121 13:17:46.885781  4195 net.cpp:395] layer_128_4_bn2 -> layer_128_4_conv1 (in-place)
I0121 13:17:46.885905  4195 net.cpp:150] Setting up layer_128_4_bn2
I0121 13:17:46.885910  4195 net.cpp:157] Top shape: 8 128 28 28 (802816)
I0121 13:17:46.885913  4195 net.cpp:165] Memory required for data: 1260421216
I0121 13:17:46.885920  4195 layer_factory.hpp:77] Creating layer layer_128_4_scale2
I0121 13:17:46.885924  4195 net.cpp:100] Creating Layer layer_128_4_scale2
I0121 13:17:46.885927  4195 net.cpp:434] layer_128_4_scale2 <- layer_128_4_conv1
I0121 13:17:46.885931  4195 net.cpp:395] layer_128_4_scale2 -> layer_128_4_conv1 (in-place)
I0121 13:17:46.885958  4195 layer_factory.hpp:77] Creating layer layer_128_4_scale2
I0121 13:17:46.886028  4195 net.cpp:150] Setting up layer_128_4_scale2
I0121 13:17:46.886034  4195 net.cpp:157] Top shape: 8 128 28 28 (802816)
I0121 13:17:46.886036  4195 net.cpp:165] Memory required for data: 1263632480
I0121 13:17:46.886040  4195 layer_factory.hpp:77] Creating layer layer_128_4_relu2
I0121 13:17:46.886044  4195 net.cpp:100] Creating Layer layer_128_4_relu2
I0121 13:17:46.886047  4195 net.cpp:434] layer_128_4_relu2 <- layer_128_4_conv1
I0121 13:17:46.886051  4195 net.cpp:395] layer_128_4_relu2 -> layer_128_4_conv1 (in-place)
I0121 13:17:46.886165  4195 net.cpp:150] Setting up layer_128_4_relu2
I0121 13:17:46.886171  4195 net.cpp:157] Top shape: 8 128 28 28 (802816)
I0121 13:17:46.886174  4195 net.cpp:165] Memory required for data: 1266843744
I0121 13:17:46.886178  4195 layer_factory.hpp:77] Creating layer layer_128_4_conv2
I0121 13:17:46.886184  4195 net.cpp:100] Creating Layer layer_128_4_conv2
I0121 13:17:46.886188  4195 net.cpp:434] layer_128_4_conv2 <- layer_128_4_conv1
I0121 13:17:46.886195  4195 net.cpp:408] layer_128_4_conv2 -> layer_128_4_conv2
I0121 13:17:46.889627  4195 net.cpp:150] Setting up layer_128_4_conv2
I0121 13:17:46.889639  4195 net.cpp:157] Top shape: 8 128 28 28 (802816)
I0121 13:17:46.889642  4195 net.cpp:165] Memory required for data: 1270055008
I0121 13:17:46.889658  4195 layer_factory.hpp:77] Creating layer layer_128_4_bn3
I0121 13:17:46.889664  4195 net.cpp:100] Creating Layer layer_128_4_bn3
I0121 13:17:46.889667  4195 net.cpp:434] layer_128_4_bn3 <- layer_128_4_conv2
I0121 13:17:46.889672  4195 net.cpp:395] layer_128_4_bn3 -> layer_128_4_conv2 (in-place)
I0121 13:17:46.889798  4195 net.cpp:150] Setting up layer_128_4_bn3
I0121 13:17:46.889803  4195 net.cpp:157] Top shape: 8 128 28 28 (802816)
I0121 13:17:46.889806  4195 net.cpp:165] Memory required for data: 1273266272
I0121 13:17:46.889811  4195 layer_factory.hpp:77] Creating layer layer_128_4_scale3
I0121 13:17:46.889816  4195 net.cpp:100] Creating Layer layer_128_4_scale3
I0121 13:17:46.889819  4195 net.cpp:434] layer_128_4_scale3 <- layer_128_4_conv2
I0121 13:17:46.889824  4195 net.cpp:395] layer_128_4_scale3 -> layer_128_4_conv2 (in-place)
I0121 13:17:46.889850  4195 layer_factory.hpp:77] Creating layer layer_128_4_scale3
I0121 13:17:46.889921  4195 net.cpp:150] Setting up layer_128_4_scale3
I0121 13:17:46.889927  4195 net.cpp:157] Top shape: 8 128 28 28 (802816)
I0121 13:17:46.889930  4195 net.cpp:165] Memory required for data: 1276477536
I0121 13:17:46.889935  4195 layer_factory.hpp:77] Creating layer layer_128_4_relu3
I0121 13:17:46.889938  4195 net.cpp:100] Creating Layer layer_128_4_relu3
I0121 13:17:46.889941  4195 net.cpp:434] layer_128_4_relu3 <- layer_128_4_conv2
I0121 13:17:46.889945  4195 net.cpp:395] layer_128_4_relu3 -> layer_128_4_conv2 (in-place)
I0121 13:17:46.890064  4195 net.cpp:150] Setting up layer_128_4_relu3
I0121 13:17:46.890070  4195 net.cpp:157] Top shape: 8 128 28 28 (802816)
I0121 13:17:46.890074  4195 net.cpp:165] Memory required for data: 1279688800
I0121 13:17:46.890076  4195 layer_factory.hpp:77] Creating layer layer_128_4_conv3
I0121 13:17:46.890082  4195 net.cpp:100] Creating Layer layer_128_4_conv3
I0121 13:17:46.890085  4195 net.cpp:434] layer_128_4_conv3 <- layer_128_4_conv2
I0121 13:17:46.890090  4195 net.cpp:408] layer_128_4_conv3 -> layer_128_4_conv3
I0121 13:17:46.891897  4195 net.cpp:150] Setting up layer_128_4_conv3
I0121 13:17:46.891908  4195 net.cpp:157] Top shape: 8 512 28 28 (3211264)
I0121 13:17:46.891911  4195 net.cpp:165] Memory required for data: 1292533856
I0121 13:17:46.891916  4195 layer_factory.hpp:77] Creating layer layer_128_4_sum
I0121 13:17:46.891921  4195 net.cpp:100] Creating Layer layer_128_4_sum
I0121 13:17:46.891924  4195 net.cpp:434] layer_128_4_sum <- layer_128_4_conv3
I0121 13:17:46.891928  4195 net.cpp:434] layer_128_4_sum <- layer_128_3_sum_layer_128_3_sum_0_split_1
I0121 13:17:46.891934  4195 net.cpp:408] layer_128_4_sum -> layer_128_4_sum
I0121 13:17:46.891952  4195 net.cpp:150] Setting up layer_128_4_sum
I0121 13:17:46.891957  4195 net.cpp:157] Top shape: 8 512 28 28 (3211264)
I0121 13:17:46.891960  4195 net.cpp:165] Memory required for data: 1305378912
I0121 13:17:46.891963  4195 layer_factory.hpp:77] Creating layer layer_256_1_bn1
I0121 13:17:46.891968  4195 net.cpp:100] Creating Layer layer_256_1_bn1
I0121 13:17:46.891971  4195 net.cpp:434] layer_256_1_bn1 <- layer_128_4_sum
I0121 13:17:46.891975  4195 net.cpp:408] layer_256_1_bn1 -> layer_256_1_bn1
I0121 13:17:46.892115  4195 net.cpp:150] Setting up layer_256_1_bn1
I0121 13:17:46.892123  4195 net.cpp:157] Top shape: 8 512 28 28 (3211264)
I0121 13:17:46.892127  4195 net.cpp:165] Memory required for data: 1318223968
I0121 13:17:46.892132  4195 layer_factory.hpp:77] Creating layer layer_256_1_scale1
I0121 13:17:46.892137  4195 net.cpp:100] Creating Layer layer_256_1_scale1
I0121 13:17:46.892139  4195 net.cpp:434] layer_256_1_scale1 <- layer_256_1_bn1
I0121 13:17:46.892143  4195 net.cpp:395] layer_256_1_scale1 -> layer_256_1_bn1 (in-place)
I0121 13:17:46.892171  4195 layer_factory.hpp:77] Creating layer layer_256_1_scale1
I0121 13:17:46.892249  4195 net.cpp:150] Setting up layer_256_1_scale1
I0121 13:17:46.892256  4195 net.cpp:157] Top shape: 8 512 28 28 (3211264)
I0121 13:17:46.892258  4195 net.cpp:165] Memory required for data: 1331069024
I0121 13:17:46.892263  4195 layer_factory.hpp:77] Creating layer layer_256_1_relu1
I0121 13:17:46.892267  4195 net.cpp:100] Creating Layer layer_256_1_relu1
I0121 13:17:46.892271  4195 net.cpp:434] layer_256_1_relu1 <- layer_256_1_bn1
I0121 13:17:46.892276  4195 net.cpp:395] layer_256_1_relu1 -> layer_256_1_bn1 (in-place)
I0121 13:17:46.892560  4195 net.cpp:150] Setting up layer_256_1_relu1
I0121 13:17:46.892570  4195 net.cpp:157] Top shape: 8 512 28 28 (3211264)
I0121 13:17:46.892572  4195 net.cpp:165] Memory required for data: 1343914080
I0121 13:17:46.892576  4195 layer_factory.hpp:77] Creating layer layer_256_1_bn1_layer_256_1_relu1_0_split
I0121 13:17:46.892580  4195 net.cpp:100] Creating Layer layer_256_1_bn1_layer_256_1_relu1_0_split
I0121 13:17:46.892583  4195 net.cpp:434] layer_256_1_bn1_layer_256_1_relu1_0_split <- layer_256_1_bn1
I0121 13:17:46.892590  4195 net.cpp:408] layer_256_1_bn1_layer_256_1_relu1_0_split -> layer_256_1_bn1_layer_256_1_relu1_0_split_0
I0121 13:17:46.892596  4195 net.cpp:408] layer_256_1_bn1_layer_256_1_relu1_0_split -> layer_256_1_bn1_layer_256_1_relu1_0_split_1
I0121 13:17:46.892622  4195 net.cpp:150] Setting up layer_256_1_bn1_layer_256_1_relu1_0_split
I0121 13:17:46.892627  4195 net.cpp:157] Top shape: 8 512 28 28 (3211264)
I0121 13:17:46.892632  4195 net.cpp:157] Top shape: 8 512 28 28 (3211264)
I0121 13:17:46.892633  4195 net.cpp:165] Memory required for data: 1369604192
I0121 13:17:46.892637  4195 layer_factory.hpp:77] Creating layer layer_256_1_conv1
I0121 13:17:46.892644  4195 net.cpp:100] Creating Layer layer_256_1_conv1
I0121 13:17:46.892647  4195 net.cpp:434] layer_256_1_conv1 <- layer_256_1_bn1_layer_256_1_relu1_0_split_0
I0121 13:17:46.892652  4195 net.cpp:408] layer_256_1_conv1 -> layer_256_1_conv1
I0121 13:17:46.895613  4195 net.cpp:150] Setting up layer_256_1_conv1
I0121 13:17:46.895624  4195 net.cpp:157] Top shape: 8 256 28 28 (1605632)
I0121 13:17:46.895628  4195 net.cpp:165] Memory required for data: 1376026720
I0121 13:17:46.895632  4195 layer_factory.hpp:77] Creating layer layer_256_1_bn2
I0121 13:17:46.895638  4195 net.cpp:100] Creating Layer layer_256_1_bn2
I0121 13:17:46.895642  4195 net.cpp:434] layer_256_1_bn2 <- layer_256_1_conv1
I0121 13:17:46.895647  4195 net.cpp:395] layer_256_1_bn2 -> layer_256_1_conv1 (in-place)
I0121 13:17:46.895768  4195 net.cpp:150] Setting up layer_256_1_bn2
I0121 13:17:46.895774  4195 net.cpp:157] Top shape: 8 256 28 28 (1605632)
I0121 13:17:46.895777  4195 net.cpp:165] Memory required for data: 1382449248
I0121 13:17:46.895783  4195 layer_factory.hpp:77] Creating layer layer_256_1_scale2
I0121 13:17:46.895788  4195 net.cpp:100] Creating Layer layer_256_1_scale2
I0121 13:17:46.895792  4195 net.cpp:434] layer_256_1_scale2 <- layer_256_1_conv1
I0121 13:17:46.895795  4195 net.cpp:395] layer_256_1_scale2 -> layer_256_1_conv1 (in-place)
I0121 13:17:46.895831  4195 layer_factory.hpp:77] Creating layer layer_256_1_scale2
I0121 13:17:46.895931  4195 net.cpp:150] Setting up layer_256_1_scale2
I0121 13:17:46.895937  4195 net.cpp:157] Top shape: 8 256 28 28 (1605632)
I0121 13:17:46.895942  4195 net.cpp:165] Memory required for data: 1388871776
I0121 13:17:46.895948  4195 layer_factory.hpp:77] Creating layer layer_256_1_relu2
I0121 13:17:46.895956  4195 net.cpp:100] Creating Layer layer_256_1_relu2
I0121 13:17:46.895959  4195 net.cpp:434] layer_256_1_relu2 <- layer_256_1_conv1
I0121 13:17:46.895964  4195 net.cpp:395] layer_256_1_relu2 -> layer_256_1_conv1 (in-place)
I0121 13:17:46.896127  4195 net.cpp:150] Setting up layer_256_1_relu2
I0121 13:17:46.896138  4195 net.cpp:157] Top shape: 8 256 28 28 (1605632)
I0121 13:17:46.896142  4195 net.cpp:165] Memory required for data: 1395294304
I0121 13:17:46.896147  4195 layer_factory.hpp:77] Creating layer layer_256_1_conv2
I0121 13:17:46.896162  4195 net.cpp:100] Creating Layer layer_256_1_conv2
I0121 13:17:46.896173  4195 net.cpp:434] layer_256_1_conv2 <- layer_256_1_conv1
I0121 13:17:46.896180  4195 net.cpp:408] layer_256_1_conv2 -> layer_256_1_conv2
I0121 13:17:46.908519  4195 net.cpp:150] Setting up layer_256_1_conv2
I0121 13:17:46.908545  4195 net.cpp:157] Top shape: 8 256 14 14 (401408)
I0121 13:17:46.908550  4195 net.cpp:165] Memory required for data: 1396899936
I0121 13:17:46.908560  4195 layer_factory.hpp:77] Creating layer layer_256_1_bn3
I0121 13:17:46.908571  4195 net.cpp:100] Creating Layer layer_256_1_bn3
I0121 13:17:46.908578  4195 net.cpp:434] layer_256_1_bn3 <- layer_256_1_conv2
I0121 13:17:46.908586  4195 net.cpp:395] layer_256_1_bn3 -> layer_256_1_conv2 (in-place)
I0121 13:17:46.908774  4195 net.cpp:150] Setting up layer_256_1_bn3
I0121 13:17:46.908783  4195 net.cpp:157] Top shape: 8 256 14 14 (401408)
I0121 13:17:46.908788  4195 net.cpp:165] Memory required for data: 1398505568
I0121 13:17:46.908798  4195 layer_factory.hpp:77] Creating layer layer_256_1_scale3
I0121 13:17:46.908807  4195 net.cpp:100] Creating Layer layer_256_1_scale3
I0121 13:17:46.908813  4195 net.cpp:434] layer_256_1_scale3 <- layer_256_1_conv2
I0121 13:17:46.908820  4195 net.cpp:395] layer_256_1_scale3 -> layer_256_1_conv2 (in-place)
I0121 13:17:46.908861  4195 layer_factory.hpp:77] Creating layer layer_256_1_scale3
I0121 13:17:46.908962  4195 net.cpp:150] Setting up layer_256_1_scale3
I0121 13:17:46.908970  4195 net.cpp:157] Top shape: 8 256 14 14 (401408)
I0121 13:17:46.908973  4195 net.cpp:165] Memory required for data: 1400111200
I0121 13:17:46.908980  4195 layer_factory.hpp:77] Creating layer layer_256_1_relu3
I0121 13:17:46.908988  4195 net.cpp:100] Creating Layer layer_256_1_relu3
I0121 13:17:46.908994  4195 net.cpp:434] layer_256_1_relu3 <- layer_256_1_conv2
I0121 13:17:46.909001  4195 net.cpp:395] layer_256_1_relu3 -> layer_256_1_conv2 (in-place)
I0121 13:17:46.909152  4195 net.cpp:150] Setting up layer_256_1_relu3
I0121 13:17:46.909164  4195 net.cpp:157] Top shape: 8 256 14 14 (401408)
I0121 13:17:46.909171  4195 net.cpp:165] Memory required for data: 1401716832
I0121 13:17:46.909175  4195 layer_factory.hpp:77] Creating layer layer_256_1_conv3
I0121 13:17:46.909184  4195 net.cpp:100] Creating Layer layer_256_1_conv3
I0121 13:17:46.909189  4195 net.cpp:434] layer_256_1_conv3 <- layer_256_1_conv2
I0121 13:17:46.909195  4195 net.cpp:408] layer_256_1_conv3 -> layer_256_1_conv3
I0121 13:17:46.914970  4195 net.cpp:150] Setting up layer_256_1_conv3
I0121 13:17:46.914985  4195 net.cpp:157] Top shape: 8 1024 14 14 (1605632)
I0121 13:17:46.914989  4195 net.cpp:165] Memory required for data: 1408139360
I0121 13:17:46.914995  4195 layer_factory.hpp:77] Creating layer layer_256_1_conv_expand
I0121 13:17:46.915005  4195 net.cpp:100] Creating Layer layer_256_1_conv_expand
I0121 13:17:46.915010  4195 net.cpp:434] layer_256_1_conv_expand <- layer_256_1_bn1_layer_256_1_relu1_0_split_1
I0121 13:17:46.915017  4195 net.cpp:408] layer_256_1_conv_expand -> layer_256_1_conv_expand
I0121 13:17:46.925879  4195 net.cpp:150] Setting up layer_256_1_conv_expand
I0121 13:17:46.925895  4195 net.cpp:157] Top shape: 8 1024 14 14 (1605632)
I0121 13:17:46.925899  4195 net.cpp:165] Memory required for data: 1414561888
I0121 13:17:46.925905  4195 layer_factory.hpp:77] Creating layer layer_256_1_sum
I0121 13:17:46.925914  4195 net.cpp:100] Creating Layer layer_256_1_sum
I0121 13:17:46.925918  4195 net.cpp:434] layer_256_1_sum <- layer_256_1_conv3
I0121 13:17:46.925923  4195 net.cpp:434] layer_256_1_sum <- layer_256_1_conv_expand
I0121 13:17:46.925951  4195 net.cpp:408] layer_256_1_sum -> layer_256_1_sum
I0121 13:17:46.925984  4195 net.cpp:150] Setting up layer_256_1_sum
I0121 13:17:46.925992  4195 net.cpp:157] Top shape: 8 1024 14 14 (1605632)
I0121 13:17:46.925997  4195 net.cpp:165] Memory required for data: 1420984416
I0121 13:17:46.925999  4195 layer_factory.hpp:77] Creating layer layer_256_1_sum_layer_256_1_sum_0_split
I0121 13:17:46.926003  4195 net.cpp:100] Creating Layer layer_256_1_sum_layer_256_1_sum_0_split
I0121 13:17:46.926009  4195 net.cpp:434] layer_256_1_sum_layer_256_1_sum_0_split <- layer_256_1_sum
I0121 13:17:46.926018  4195 net.cpp:408] layer_256_1_sum_layer_256_1_sum_0_split -> layer_256_1_sum_layer_256_1_sum_0_split_0
I0121 13:17:46.926023  4195 net.cpp:408] layer_256_1_sum_layer_256_1_sum_0_split -> layer_256_1_sum_layer_256_1_sum_0_split_1
I0121 13:17:46.926055  4195 net.cpp:150] Setting up layer_256_1_sum_layer_256_1_sum_0_split
I0121 13:17:46.926064  4195 net.cpp:157] Top shape: 8 1024 14 14 (1605632)
I0121 13:17:46.926069  4195 net.cpp:157] Top shape: 8 1024 14 14 (1605632)
I0121 13:17:46.926071  4195 net.cpp:165] Memory required for data: 1433829472
I0121 13:17:46.926074  4195 layer_factory.hpp:77] Creating layer layer_256_2_bn1
I0121 13:17:46.926079  4195 net.cpp:100] Creating Layer layer_256_2_bn1
I0121 13:17:46.926084  4195 net.cpp:434] layer_256_2_bn1 <- layer_256_1_sum_layer_256_1_sum_0_split_0
I0121 13:17:46.926087  4195 net.cpp:408] layer_256_2_bn1 -> layer_256_2_bn1
I0121 13:17:46.926239  4195 net.cpp:150] Setting up layer_256_2_bn1
I0121 13:17:46.926246  4195 net.cpp:157] Top shape: 8 1024 14 14 (1605632)
I0121 13:17:46.926249  4195 net.cpp:165] Memory required for data: 1440252000
I0121 13:17:46.926254  4195 layer_factory.hpp:77] Creating layer layer_256_2_scale1
I0121 13:17:46.926260  4195 net.cpp:100] Creating Layer layer_256_2_scale1
I0121 13:17:46.926264  4195 net.cpp:434] layer_256_2_scale1 <- layer_256_2_bn1
I0121 13:17:46.926267  4195 net.cpp:395] layer_256_2_scale1 -> layer_256_2_bn1 (in-place)
I0121 13:17:46.926297  4195 layer_factory.hpp:77] Creating layer layer_256_2_scale1
I0121 13:17:46.926383  4195 net.cpp:150] Setting up layer_256_2_scale1
I0121 13:17:46.926393  4195 net.cpp:157] Top shape: 8 1024 14 14 (1605632)
I0121 13:17:46.926398  4195 net.cpp:165] Memory required for data: 1446674528
I0121 13:17:46.926403  4195 layer_factory.hpp:77] Creating layer layer_256_2_relu1
I0121 13:17:46.926407  4195 net.cpp:100] Creating Layer layer_256_2_relu1
I0121 13:17:46.926410  4195 net.cpp:434] layer_256_2_relu1 <- layer_256_2_bn1
I0121 13:17:46.926415  4195 net.cpp:395] layer_256_2_relu1 -> layer_256_2_bn1 (in-place)
I0121 13:17:46.926719  4195 net.cpp:150] Setting up layer_256_2_relu1
I0121 13:17:46.926730  4195 net.cpp:157] Top shape: 8 1024 14 14 (1605632)
I0121 13:17:46.926733  4195 net.cpp:165] Memory required for data: 1453097056
I0121 13:17:46.926736  4195 layer_factory.hpp:77] Creating layer layer_256_2_conv1
I0121 13:17:46.926744  4195 net.cpp:100] Creating Layer layer_256_2_conv1
I0121 13:17:46.926749  4195 net.cpp:434] layer_256_2_conv1 <- layer_256_2_bn1
I0121 13:17:46.926755  4195 net.cpp:408] layer_256_2_conv1 -> layer_256_2_conv1
I0121 13:17:46.932108  4195 net.cpp:150] Setting up layer_256_2_conv1
I0121 13:17:46.932121  4195 net.cpp:157] Top shape: 8 256 14 14 (401408)
I0121 13:17:46.932126  4195 net.cpp:165] Memory required for data: 1454702688
I0121 13:17:46.932130  4195 layer_factory.hpp:77] Creating layer layer_256_2_bn2
I0121 13:17:46.932138  4195 net.cpp:100] Creating Layer layer_256_2_bn2
I0121 13:17:46.932147  4195 net.cpp:434] layer_256_2_bn2 <- layer_256_2_conv1
I0121 13:17:46.932154  4195 net.cpp:395] layer_256_2_bn2 -> layer_256_2_conv1 (in-place)
I0121 13:17:46.932291  4195 net.cpp:150] Setting up layer_256_2_bn2
I0121 13:17:46.932297  4195 net.cpp:157] Top shape: 8 256 14 14 (401408)
I0121 13:17:46.932301  4195 net.cpp:165] Memory required for data: 1456308320
I0121 13:17:46.932307  4195 layer_factory.hpp:77] Creating layer layer_256_2_scale2
I0121 13:17:46.932313  4195 net.cpp:100] Creating Layer layer_256_2_scale2
I0121 13:17:46.932318  4195 net.cpp:434] layer_256_2_scale2 <- layer_256_2_conv1
I0121 13:17:46.932322  4195 net.cpp:395] layer_256_2_scale2 -> layer_256_2_conv1 (in-place)
I0121 13:17:46.932353  4195 layer_factory.hpp:77] Creating layer layer_256_2_scale2
I0121 13:17:46.932425  4195 net.cpp:150] Setting up layer_256_2_scale2
I0121 13:17:46.932431  4195 net.cpp:157] Top shape: 8 256 14 14 (401408)
I0121 13:17:46.932435  4195 net.cpp:165] Memory required for data: 1457913952
I0121 13:17:46.932447  4195 layer_factory.hpp:77] Creating layer layer_256_2_relu2
I0121 13:17:46.932462  4195 net.cpp:100] Creating Layer layer_256_2_relu2
I0121 13:17:46.932467  4195 net.cpp:434] layer_256_2_relu2 <- layer_256_2_conv1
I0121 13:17:46.932472  4195 net.cpp:395] layer_256_2_relu2 -> layer_256_2_conv1 (in-place)
I0121 13:17:46.932588  4195 net.cpp:150] Setting up layer_256_2_relu2
I0121 13:17:46.932595  4195 net.cpp:157] Top shape: 8 256 14 14 (401408)
I0121 13:17:46.932600  4195 net.cpp:165] Memory required for data: 1459519584
I0121 13:17:46.932603  4195 layer_factory.hpp:77] Creating layer layer_256_2_conv2
I0121 13:17:46.932612  4195 net.cpp:100] Creating Layer layer_256_2_conv2
I0121 13:17:46.932617  4195 net.cpp:434] layer_256_2_conv2 <- layer_256_2_conv1
I0121 13:17:46.932623  4195 net.cpp:408] layer_256_2_conv2 -> layer_256_2_conv2
I0121 13:17:46.944391  4195 net.cpp:150] Setting up layer_256_2_conv2
I0121 13:17:46.944427  4195 net.cpp:157] Top shape: 8 256 14 14 (401408)
I0121 13:17:46.944430  4195 net.cpp:165] Memory required for data: 1461125216
I0121 13:17:46.944437  4195 layer_factory.hpp:77] Creating layer layer_256_2_bn3
I0121 13:17:46.944458  4195 net.cpp:100] Creating Layer layer_256_2_bn3
I0121 13:17:46.944463  4195 net.cpp:434] layer_256_2_bn3 <- layer_256_2_conv2
I0121 13:17:46.944468  4195 net.cpp:395] layer_256_2_bn3 -> layer_256_2_conv2 (in-place)
I0121 13:17:46.944608  4195 net.cpp:150] Setting up layer_256_2_bn3
I0121 13:17:46.944614  4195 net.cpp:157] Top shape: 8 256 14 14 (401408)
I0121 13:17:46.944617  4195 net.cpp:165] Memory required for data: 1462730848
I0121 13:17:46.944622  4195 layer_factory.hpp:77] Creating layer layer_256_2_scale3
I0121 13:17:46.944628  4195 net.cpp:100] Creating Layer layer_256_2_scale3
I0121 13:17:46.944631  4195 net.cpp:434] layer_256_2_scale3 <- layer_256_2_conv2
I0121 13:17:46.944635  4195 net.cpp:395] layer_256_2_scale3 -> layer_256_2_conv2 (in-place)
I0121 13:17:46.944666  4195 layer_factory.hpp:77] Creating layer layer_256_2_scale3
I0121 13:17:46.944739  4195 net.cpp:150] Setting up layer_256_2_scale3
I0121 13:17:46.944746  4195 net.cpp:157] Top shape: 8 256 14 14 (401408)
I0121 13:17:46.944748  4195 net.cpp:165] Memory required for data: 1464336480
I0121 13:17:46.944752  4195 layer_factory.hpp:77] Creating layer layer_256_2_relu3
I0121 13:17:46.944756  4195 net.cpp:100] Creating Layer layer_256_2_relu3
I0121 13:17:46.944759  4195 net.cpp:434] layer_256_2_relu3 <- layer_256_2_conv2
I0121 13:17:46.944763  4195 net.cpp:395] layer_256_2_relu3 -> layer_256_2_conv2 (in-place)
I0121 13:17:46.944882  4195 net.cpp:150] Setting up layer_256_2_relu3
I0121 13:17:46.944890  4195 net.cpp:157] Top shape: 8 256 14 14 (401408)
I0121 13:17:46.944895  4195 net.cpp:165] Memory required for data: 1465942112
I0121 13:17:46.944897  4195 layer_factory.hpp:77] Creating layer layer_256_2_conv3
I0121 13:17:46.944905  4195 net.cpp:100] Creating Layer layer_256_2_conv3
I0121 13:17:46.944910  4195 net.cpp:434] layer_256_2_conv3 <- layer_256_2_conv2
I0121 13:17:46.944916  4195 net.cpp:408] layer_256_2_conv3 -> layer_256_2_conv3
I0121 13:17:46.950615  4195 net.cpp:150] Setting up layer_256_2_conv3
I0121 13:17:46.950629  4195 net.cpp:157] Top shape: 8 1024 14 14 (1605632)
I0121 13:17:46.950634  4195 net.cpp:165] Memory required for data: 1472364640
I0121 13:17:46.950637  4195 layer_factory.hpp:77] Creating layer layer_256_2_sum
I0121 13:17:46.950644  4195 net.cpp:100] Creating Layer layer_256_2_sum
I0121 13:17:46.950647  4195 net.cpp:434] layer_256_2_sum <- layer_256_2_conv3
I0121 13:17:46.950651  4195 net.cpp:434] layer_256_2_sum <- layer_256_1_sum_layer_256_1_sum_0_split_1
I0121 13:17:46.950656  4195 net.cpp:408] layer_256_2_sum -> layer_256_2_sum
I0121 13:17:46.950676  4195 net.cpp:150] Setting up layer_256_2_sum
I0121 13:17:46.950682  4195 net.cpp:157] Top shape: 8 1024 14 14 (1605632)
I0121 13:17:46.950685  4195 net.cpp:165] Memory required for data: 1478787168
I0121 13:17:46.950688  4195 layer_factory.hpp:77] Creating layer layer_256_2_sum_layer_256_2_sum_0_split
I0121 13:17:46.950701  4195 net.cpp:100] Creating Layer layer_256_2_sum_layer_256_2_sum_0_split
I0121 13:17:46.950706  4195 net.cpp:434] layer_256_2_sum_layer_256_2_sum_0_split <- layer_256_2_sum
I0121 13:17:46.950709  4195 net.cpp:408] layer_256_2_sum_layer_256_2_sum_0_split -> layer_256_2_sum_layer_256_2_sum_0_split_0
I0121 13:17:46.950716  4195 net.cpp:408] layer_256_2_sum_layer_256_2_sum_0_split -> layer_256_2_sum_layer_256_2_sum_0_split_1
I0121 13:17:46.950740  4195 net.cpp:150] Setting up layer_256_2_sum_layer_256_2_sum_0_split
I0121 13:17:46.950747  4195 net.cpp:157] Top shape: 8 1024 14 14 (1605632)
I0121 13:17:46.950750  4195 net.cpp:157] Top shape: 8 1024 14 14 (1605632)
I0121 13:17:46.950752  4195 net.cpp:165] Memory required for data: 1491632224
I0121 13:17:46.950755  4195 layer_factory.hpp:77] Creating layer layer_256_3_bn1
I0121 13:17:46.950760  4195 net.cpp:100] Creating Layer layer_256_3_bn1
I0121 13:17:46.950763  4195 net.cpp:434] layer_256_3_bn1 <- layer_256_2_sum_layer_256_2_sum_0_split_0
I0121 13:17:46.950767  4195 net.cpp:408] layer_256_3_bn1 -> layer_256_3_bn1
I0121 13:17:46.950902  4195 net.cpp:150] Setting up layer_256_3_bn1
I0121 13:17:46.950909  4195 net.cpp:157] Top shape: 8 1024 14 14 (1605632)
I0121 13:17:46.950912  4195 net.cpp:165] Memory required for data: 1498054752
I0121 13:17:46.950918  4195 layer_factory.hpp:77] Creating layer layer_256_3_scale1
I0121 13:17:46.950924  4195 net.cpp:100] Creating Layer layer_256_3_scale1
I0121 13:17:46.950928  4195 net.cpp:434] layer_256_3_scale1 <- layer_256_3_bn1
I0121 13:17:46.950932  4195 net.cpp:395] layer_256_3_scale1 -> layer_256_3_bn1 (in-place)
I0121 13:17:46.950961  4195 layer_factory.hpp:77] Creating layer layer_256_3_scale1
I0121 13:17:46.951038  4195 net.cpp:150] Setting up layer_256_3_scale1
I0121 13:17:46.951045  4195 net.cpp:157] Top shape: 8 1024 14 14 (1605632)
I0121 13:17:46.951048  4195 net.cpp:165] Memory required for data: 1504477280
I0121 13:17:46.951052  4195 layer_factory.hpp:77] Creating layer layer_256_3_relu1
I0121 13:17:46.951057  4195 net.cpp:100] Creating Layer layer_256_3_relu1
I0121 13:17:46.951062  4195 net.cpp:434] layer_256_3_relu1 <- layer_256_3_bn1
I0121 13:17:46.951066  4195 net.cpp:395] layer_256_3_relu1 -> layer_256_3_bn1 (in-place)
I0121 13:17:46.951359  4195 net.cpp:150] Setting up layer_256_3_relu1
I0121 13:17:46.951370  4195 net.cpp:157] Top shape: 8 1024 14 14 (1605632)
I0121 13:17:46.951373  4195 net.cpp:165] Memory required for data: 1510899808
I0121 13:17:46.951377  4195 layer_factory.hpp:77] Creating layer layer_256_3_conv1
I0121 13:17:46.951385  4195 net.cpp:100] Creating Layer layer_256_3_conv1
I0121 13:17:46.951390  4195 net.cpp:434] layer_256_3_conv1 <- layer_256_3_bn1
I0121 13:17:46.951397  4195 net.cpp:408] layer_256_3_conv1 -> layer_256_3_conv1
I0121 13:17:46.956868  4195 net.cpp:150] Setting up layer_256_3_conv1
I0121 13:17:46.956882  4195 net.cpp:157] Top shape: 8 256 14 14 (401408)
I0121 13:17:46.956887  4195 net.cpp:165] Memory required for data: 1512505440
I0121 13:17:46.956893  4195 layer_factory.hpp:77] Creating layer layer_256_3_bn2
I0121 13:17:46.956903  4195 net.cpp:100] Creating Layer layer_256_3_bn2
I0121 13:17:46.956910  4195 net.cpp:434] layer_256_3_bn2 <- layer_256_3_conv1
I0121 13:17:46.956919  4195 net.cpp:395] layer_256_3_bn2 -> layer_256_3_conv1 (in-place)
I0121 13:17:46.957053  4195 net.cpp:150] Setting up layer_256_3_bn2
I0121 13:17:46.957060  4195 net.cpp:157] Top shape: 8 256 14 14 (401408)
I0121 13:17:46.957063  4195 net.cpp:165] Memory required for data: 1514111072
I0121 13:17:46.957069  4195 layer_factory.hpp:77] Creating layer layer_256_3_scale2
I0121 13:17:46.957075  4195 net.cpp:100] Creating Layer layer_256_3_scale2
I0121 13:17:46.957079  4195 net.cpp:434] layer_256_3_scale2 <- layer_256_3_conv1
I0121 13:17:46.957083  4195 net.cpp:395] layer_256_3_scale2 -> layer_256_3_conv1 (in-place)
I0121 13:17:46.957113  4195 layer_factory.hpp:77] Creating layer layer_256_3_scale2
I0121 13:17:46.957185  4195 net.cpp:150] Setting up layer_256_3_scale2
I0121 13:17:46.957195  4195 net.cpp:157] Top shape: 8 256 14 14 (401408)
I0121 13:17:46.957202  4195 net.cpp:165] Memory required for data: 1515716704
I0121 13:17:46.957207  4195 layer_factory.hpp:77] Creating layer layer_256_3_relu2
I0121 13:17:46.957213  4195 net.cpp:100] Creating Layer layer_256_3_relu2
I0121 13:17:46.957217  4195 net.cpp:434] layer_256_3_relu2 <- layer_256_3_conv1
I0121 13:17:46.957221  4195 net.cpp:395] layer_256_3_relu2 -> layer_256_3_conv1 (in-place)
I0121 13:17:46.957531  4195 net.cpp:150] Setting up layer_256_3_relu2
I0121 13:17:46.957541  4195 net.cpp:157] Top shape: 8 256 14 14 (401408)
I0121 13:17:46.957546  4195 net.cpp:165] Memory required for data: 1517322336
I0121 13:17:46.957550  4195 layer_factory.hpp:77] Creating layer layer_256_3_conv2
I0121 13:17:46.957558  4195 net.cpp:100] Creating Layer layer_256_3_conv2
I0121 13:17:46.957563  4195 net.cpp:434] layer_256_3_conv2 <- layer_256_3_conv1
I0121 13:17:46.957569  4195 net.cpp:408] layer_256_3_conv2 -> layer_256_3_conv2
I0121 13:17:46.969553  4195 net.cpp:150] Setting up layer_256_3_conv2
I0121 13:17:46.969569  4195 net.cpp:157] Top shape: 8 256 14 14 (401408)
I0121 13:17:46.969573  4195 net.cpp:165] Memory required for data: 1518927968
I0121 13:17:46.969580  4195 layer_factory.hpp:77] Creating layer layer_256_3_bn3
I0121 13:17:46.969588  4195 net.cpp:100] Creating Layer layer_256_3_bn3
I0121 13:17:46.969594  4195 net.cpp:434] layer_256_3_bn3 <- layer_256_3_conv2
I0121 13:17:46.969599  4195 net.cpp:395] layer_256_3_bn3 -> layer_256_3_conv2 (in-place)
I0121 13:17:46.969746  4195 net.cpp:150] Setting up layer_256_3_bn3
I0121 13:17:46.969754  4195 net.cpp:157] Top shape: 8 256 14 14 (401408)
I0121 13:17:46.969758  4195 net.cpp:165] Memory required for data: 1520533600
I0121 13:17:46.969766  4195 layer_factory.hpp:77] Creating layer layer_256_3_scale3
I0121 13:17:46.969776  4195 net.cpp:100] Creating Layer layer_256_3_scale3
I0121 13:17:46.969784  4195 net.cpp:434] layer_256_3_scale3 <- layer_256_3_conv2
I0121 13:17:46.969790  4195 net.cpp:395] layer_256_3_scale3 -> layer_256_3_conv2 (in-place)
I0121 13:17:46.969830  4195 layer_factory.hpp:77] Creating layer layer_256_3_scale3
I0121 13:17:46.969919  4195 net.cpp:150] Setting up layer_256_3_scale3
I0121 13:17:46.969926  4195 net.cpp:157] Top shape: 8 256 14 14 (401408)
I0121 13:17:46.969930  4195 net.cpp:165] Memory required for data: 1522139232
I0121 13:17:46.969938  4195 layer_factory.hpp:77] Creating layer layer_256_3_relu3
I0121 13:17:46.969946  4195 net.cpp:100] Creating Layer layer_256_3_relu3
I0121 13:17:46.969952  4195 net.cpp:434] layer_256_3_relu3 <- layer_256_3_conv2
I0121 13:17:46.969961  4195 net.cpp:395] layer_256_3_relu3 -> layer_256_3_conv2 (in-place)
I0121 13:17:46.970089  4195 net.cpp:150] Setting up layer_256_3_relu3
I0121 13:17:46.970098  4195 net.cpp:157] Top shape: 8 256 14 14 (401408)
I0121 13:17:46.970103  4195 net.cpp:165] Memory required for data: 1523744864
I0121 13:17:46.970108  4195 layer_factory.hpp:77] Creating layer layer_256_3_conv3
I0121 13:17:46.970120  4195 net.cpp:100] Creating Layer layer_256_3_conv3
I0121 13:17:46.970127  4195 net.cpp:434] layer_256_3_conv3 <- layer_256_3_conv2
I0121 13:17:46.970136  4195 net.cpp:408] layer_256_3_conv3 -> layer_256_3_conv3
I0121 13:17:46.975910  4195 net.cpp:150] Setting up layer_256_3_conv3
I0121 13:17:46.975924  4195 net.cpp:157] Top shape: 8 1024 14 14 (1605632)
I0121 13:17:46.975929  4195 net.cpp:165] Memory required for data: 1530167392
I0121 13:17:46.975936  4195 layer_factory.hpp:77] Creating layer layer_256_3_sum
I0121 13:17:46.975947  4195 net.cpp:100] Creating Layer layer_256_3_sum
I0121 13:17:46.975955  4195 net.cpp:434] layer_256_3_sum <- layer_256_3_conv3
I0121 13:17:46.975965  4195 net.cpp:434] layer_256_3_sum <- layer_256_2_sum_layer_256_2_sum_0_split_1
I0121 13:17:46.975973  4195 net.cpp:408] layer_256_3_sum -> layer_256_3_sum
I0121 13:17:46.976003  4195 net.cpp:150] Setting up layer_256_3_sum
I0121 13:17:46.976011  4195 net.cpp:157] Top shape: 8 1024 14 14 (1605632)
I0121 13:17:46.976016  4195 net.cpp:165] Memory required for data: 1536589920
I0121 13:17:46.976032  4195 layer_factory.hpp:77] Creating layer layer_256_3_sum_layer_256_3_sum_0_split
I0121 13:17:46.976053  4195 net.cpp:100] Creating Layer layer_256_3_sum_layer_256_3_sum_0_split
I0121 13:17:46.976059  4195 net.cpp:434] layer_256_3_sum_layer_256_3_sum_0_split <- layer_256_3_sum
I0121 13:17:46.976068  4195 net.cpp:408] layer_256_3_sum_layer_256_3_sum_0_split -> layer_256_3_sum_layer_256_3_sum_0_split_0
I0121 13:17:46.976078  4195 net.cpp:408] layer_256_3_sum_layer_256_3_sum_0_split -> layer_256_3_sum_layer_256_3_sum_0_split_1
I0121 13:17:46.976115  4195 net.cpp:150] Setting up layer_256_3_sum_layer_256_3_sum_0_split
I0121 13:17:46.976122  4195 net.cpp:157] Top shape: 8 1024 14 14 (1605632)
I0121 13:17:46.976128  4195 net.cpp:157] Top shape: 8 1024 14 14 (1605632)
I0121 13:17:46.976133  4195 net.cpp:165] Memory required for data: 1549434976
I0121 13:17:46.976140  4195 layer_factory.hpp:77] Creating layer layer_256_4_bn1
I0121 13:17:46.976147  4195 net.cpp:100] Creating Layer layer_256_4_bn1
I0121 13:17:46.976155  4195 net.cpp:434] layer_256_4_bn1 <- layer_256_3_sum_layer_256_3_sum_0_split_0
I0121 13:17:46.976162  4195 net.cpp:408] layer_256_4_bn1 -> layer_256_4_bn1
I0121 13:17:46.976307  4195 net.cpp:150] Setting up layer_256_4_bn1
I0121 13:17:46.976313  4195 net.cpp:157] Top shape: 8 1024 14 14 (1605632)
I0121 13:17:46.976317  4195 net.cpp:165] Memory required for data: 1555857504
I0121 13:17:46.976323  4195 layer_factory.hpp:77] Creating layer layer_256_4_scale1
I0121 13:17:46.976330  4195 net.cpp:100] Creating Layer layer_256_4_scale1
I0121 13:17:46.976333  4195 net.cpp:434] layer_256_4_scale1 <- layer_256_4_bn1
I0121 13:17:46.976337  4195 net.cpp:395] layer_256_4_scale1 -> layer_256_4_bn1 (in-place)
I0121 13:17:46.976367  4195 layer_factory.hpp:77] Creating layer layer_256_4_scale1
I0121 13:17:46.976449  4195 net.cpp:150] Setting up layer_256_4_scale1
I0121 13:17:46.976454  4195 net.cpp:157] Top shape: 8 1024 14 14 (1605632)
I0121 13:17:46.976459  4195 net.cpp:165] Memory required for data: 1562280032
I0121 13:17:46.976464  4195 layer_factory.hpp:77] Creating layer layer_256_4_relu1
I0121 13:17:46.976469  4195 net.cpp:100] Creating Layer layer_256_4_relu1
I0121 13:17:46.976474  4195 net.cpp:434] layer_256_4_relu1 <- layer_256_4_bn1
I0121 13:17:46.976477  4195 net.cpp:395] layer_256_4_relu1 -> layer_256_4_bn1 (in-place)
I0121 13:17:46.976595  4195 net.cpp:150] Setting up layer_256_4_relu1
I0121 13:17:46.976603  4195 net.cpp:157] Top shape: 8 1024 14 14 (1605632)
I0121 13:17:46.976608  4195 net.cpp:165] Memory required for data: 1568702560
I0121 13:17:46.976610  4195 layer_factory.hpp:77] Creating layer layer_256_4_conv1
I0121 13:17:46.976618  4195 net.cpp:100] Creating Layer layer_256_4_conv1
I0121 13:17:46.976621  4195 net.cpp:434] layer_256_4_conv1 <- layer_256_4_bn1
I0121 13:17:46.976629  4195 net.cpp:408] layer_256_4_conv1 -> layer_256_4_conv1
I0121 13:17:46.981956  4195 net.cpp:150] Setting up layer_256_4_conv1
I0121 13:17:46.981969  4195 net.cpp:157] Top shape: 8 256 14 14 (401408)
I0121 13:17:46.981973  4195 net.cpp:165] Memory required for data: 1570308192
I0121 13:17:46.981978  4195 layer_factory.hpp:77] Creating layer layer_256_4_bn2
I0121 13:17:46.981986  4195 net.cpp:100] Creating Layer layer_256_4_bn2
I0121 13:17:46.981989  4195 net.cpp:434] layer_256_4_bn2 <- layer_256_4_conv1
I0121 13:17:46.981994  4195 net.cpp:395] layer_256_4_bn2 -> layer_256_4_conv1 (in-place)
I0121 13:17:46.982130  4195 net.cpp:150] Setting up layer_256_4_bn2
I0121 13:17:46.982136  4195 net.cpp:157] Top shape: 8 256 14 14 (401408)
I0121 13:17:46.982139  4195 net.cpp:165] Memory required for data: 1571913824
I0121 13:17:46.982146  4195 layer_factory.hpp:77] Creating layer layer_256_4_scale2
I0121 13:17:46.982151  4195 net.cpp:100] Creating Layer layer_256_4_scale2
I0121 13:17:46.982154  4195 net.cpp:434] layer_256_4_scale2 <- layer_256_4_conv1
I0121 13:17:46.982159  4195 net.cpp:395] layer_256_4_scale2 -> layer_256_4_conv1 (in-place)
I0121 13:17:46.982190  4195 layer_factory.hpp:77] Creating layer layer_256_4_scale2
I0121 13:17:46.982298  4195 net.cpp:150] Setting up layer_256_4_scale2
I0121 13:17:46.982308  4195 net.cpp:157] Top shape: 8 256 14 14 (401408)
I0121 13:17:46.982313  4195 net.cpp:165] Memory required for data: 1573519456
I0121 13:17:46.982321  4195 layer_factory.hpp:77] Creating layer layer_256_4_relu2
I0121 13:17:46.982329  4195 net.cpp:100] Creating Layer layer_256_4_relu2
I0121 13:17:46.982336  4195 net.cpp:434] layer_256_4_relu2 <- layer_256_4_conv1
I0121 13:17:46.982342  4195 net.cpp:395] layer_256_4_relu2 -> layer_256_4_conv1 (in-place)
I0121 13:17:46.982499  4195 net.cpp:150] Setting up layer_256_4_relu2
I0121 13:17:46.982509  4195 net.cpp:157] Top shape: 8 256 14 14 (401408)
I0121 13:17:46.982516  4195 net.cpp:165] Memory required for data: 1575125088
I0121 13:17:46.982520  4195 layer_factory.hpp:77] Creating layer layer_256_4_conv2
I0121 13:17:46.982532  4195 net.cpp:100] Creating Layer layer_256_4_conv2
I0121 13:17:46.982538  4195 net.cpp:434] layer_256_4_conv2 <- layer_256_4_conv1
I0121 13:17:46.982547  4195 net.cpp:408] layer_256_4_conv2 -> layer_256_4_conv2
I0121 13:17:46.994489  4195 net.cpp:150] Setting up layer_256_4_conv2
I0121 13:17:46.994509  4195 net.cpp:157] Top shape: 8 256 14 14 (401408)
I0121 13:17:46.994513  4195 net.cpp:165] Memory required for data: 1576730720
I0121 13:17:46.994521  4195 layer_factory.hpp:77] Creating layer layer_256_4_bn3
I0121 13:17:46.994534  4195 net.cpp:100] Creating Layer layer_256_4_bn3
I0121 13:17:46.994542  4195 net.cpp:434] layer_256_4_bn3 <- layer_256_4_conv2
I0121 13:17:46.994550  4195 net.cpp:395] layer_256_4_bn3 -> layer_256_4_conv2 (in-place)
I0121 13:17:46.994705  4195 net.cpp:150] Setting up layer_256_4_bn3
I0121 13:17:46.994714  4195 net.cpp:157] Top shape: 8 256 14 14 (401408)
I0121 13:17:46.994717  4195 net.cpp:165] Memory required for data: 1578336352
I0121 13:17:46.994726  4195 layer_factory.hpp:77] Creating layer layer_256_4_scale3
I0121 13:17:46.994736  4195 net.cpp:100] Creating Layer layer_256_4_scale3
I0121 13:17:46.994743  4195 net.cpp:434] layer_256_4_scale3 <- layer_256_4_conv2
I0121 13:17:46.994752  4195 net.cpp:395] layer_256_4_scale3 -> layer_256_4_conv2 (in-place)
I0121 13:17:46.994796  4195 layer_factory.hpp:77] Creating layer layer_256_4_scale3
I0121 13:17:46.994885  4195 net.cpp:150] Setting up layer_256_4_scale3
I0121 13:17:46.994894  4195 net.cpp:157] Top shape: 8 256 14 14 (401408)
I0121 13:17:46.994897  4195 net.cpp:165] Memory required for data: 1579941984
I0121 13:17:46.994905  4195 layer_factory.hpp:77] Creating layer layer_256_4_relu3
I0121 13:17:46.994913  4195 net.cpp:100] Creating Layer layer_256_4_relu3
I0121 13:17:46.994920  4195 net.cpp:434] layer_256_4_relu3 <- layer_256_4_conv2
I0121 13:17:46.994926  4195 net.cpp:395] layer_256_4_relu3 -> layer_256_4_conv2 (in-place)
I0121 13:17:46.995055  4195 net.cpp:150] Setting up layer_256_4_relu3
I0121 13:17:46.995064  4195 net.cpp:157] Top shape: 8 256 14 14 (401408)
I0121 13:17:46.995069  4195 net.cpp:165] Memory required for data: 1581547616
I0121 13:17:46.995074  4195 layer_factory.hpp:77] Creating layer layer_256_4_conv3
I0121 13:17:46.995085  4195 net.cpp:100] Creating Layer layer_256_4_conv3
I0121 13:17:46.995092  4195 net.cpp:434] layer_256_4_conv3 <- layer_256_4_conv2
I0121 13:17:46.995103  4195 net.cpp:408] layer_256_4_conv3 -> layer_256_4_conv3
I0121 13:17:47.000903  4195 net.cpp:150] Setting up layer_256_4_conv3
I0121 13:17:47.000919  4195 net.cpp:157] Top shape: 8 1024 14 14 (1605632)
I0121 13:17:47.000923  4195 net.cpp:165] Memory required for data: 1587970144
I0121 13:17:47.000929  4195 layer_factory.hpp:77] Creating layer layer_256_4_sum
I0121 13:17:47.000938  4195 net.cpp:100] Creating Layer layer_256_4_sum
I0121 13:17:47.000946  4195 net.cpp:434] layer_256_4_sum <- layer_256_4_conv3
I0121 13:17:47.000952  4195 net.cpp:434] layer_256_4_sum <- layer_256_3_sum_layer_256_3_sum_0_split_1
I0121 13:17:47.000963  4195 net.cpp:408] layer_256_4_sum -> layer_256_4_sum
I0121 13:17:47.000995  4195 net.cpp:150] Setting up layer_256_4_sum
I0121 13:17:47.001006  4195 net.cpp:157] Top shape: 8 1024 14 14 (1605632)
I0121 13:17:47.001018  4195 net.cpp:165] Memory required for data: 1594392672
I0121 13:17:47.001024  4195 layer_factory.hpp:77] Creating layer layer_256_4_sum_layer_256_4_sum_0_split
I0121 13:17:47.001030  4195 net.cpp:100] Creating Layer layer_256_4_sum_layer_256_4_sum_0_split
I0121 13:17:47.001036  4195 net.cpp:434] layer_256_4_sum_layer_256_4_sum_0_split <- layer_256_4_sum
I0121 13:17:47.001041  4195 net.cpp:408] layer_256_4_sum_layer_256_4_sum_0_split -> layer_256_4_sum_layer_256_4_sum_0_split_0
I0121 13:17:47.001049  4195 net.cpp:408] layer_256_4_sum_layer_256_4_sum_0_split -> layer_256_4_sum_layer_256_4_sum_0_split_1
I0121 13:17:47.001080  4195 net.cpp:150] Setting up layer_256_4_sum_layer_256_4_sum_0_split
I0121 13:17:47.001085  4195 net.cpp:157] Top shape: 8 1024 14 14 (1605632)
I0121 13:17:47.001090  4195 net.cpp:157] Top shape: 8 1024 14 14 (1605632)
I0121 13:17:47.001092  4195 net.cpp:165] Memory required for data: 1607237728
I0121 13:17:47.001096  4195 layer_factory.hpp:77] Creating layer layer_256_5_bn1
I0121 13:17:47.001101  4195 net.cpp:100] Creating Layer layer_256_5_bn1
I0121 13:17:47.001104  4195 net.cpp:434] layer_256_5_bn1 <- layer_256_4_sum_layer_256_4_sum_0_split_0
I0121 13:17:47.001109  4195 net.cpp:408] layer_256_5_bn1 -> layer_256_5_bn1
I0121 13:17:47.001255  4195 net.cpp:150] Setting up layer_256_5_bn1
I0121 13:17:47.001262  4195 net.cpp:157] Top shape: 8 1024 14 14 (1605632)
I0121 13:17:47.001266  4195 net.cpp:165] Memory required for data: 1613660256
I0121 13:17:47.001271  4195 layer_factory.hpp:77] Creating layer layer_256_5_scale1
I0121 13:17:47.001277  4195 net.cpp:100] Creating Layer layer_256_5_scale1
I0121 13:17:47.001282  4195 net.cpp:434] layer_256_5_scale1 <- layer_256_5_bn1
I0121 13:17:47.001286  4195 net.cpp:395] layer_256_5_scale1 -> layer_256_5_bn1 (in-place)
I0121 13:17:47.001317  4195 layer_factory.hpp:77] Creating layer layer_256_5_scale1
I0121 13:17:47.001399  4195 net.cpp:150] Setting up layer_256_5_scale1
I0121 13:17:47.001405  4195 net.cpp:157] Top shape: 8 1024 14 14 (1605632)
I0121 13:17:47.001408  4195 net.cpp:165] Memory required for data: 1620082784
I0121 13:17:47.001413  4195 layer_factory.hpp:77] Creating layer layer_256_5_relu1
I0121 13:17:47.001418  4195 net.cpp:100] Creating Layer layer_256_5_relu1
I0121 13:17:47.001422  4195 net.cpp:434] layer_256_5_relu1 <- layer_256_5_bn1
I0121 13:17:47.001427  4195 net.cpp:395] layer_256_5_relu1 -> layer_256_5_bn1 (in-place)
I0121 13:17:47.001735  4195 net.cpp:150] Setting up layer_256_5_relu1
I0121 13:17:47.001745  4195 net.cpp:157] Top shape: 8 1024 14 14 (1605632)
I0121 13:17:47.001749  4195 net.cpp:165] Memory required for data: 1626505312
I0121 13:17:47.001754  4195 layer_factory.hpp:77] Creating layer layer_256_5_conv1
I0121 13:17:47.001761  4195 net.cpp:100] Creating Layer layer_256_5_conv1
I0121 13:17:47.001765  4195 net.cpp:434] layer_256_5_conv1 <- layer_256_5_bn1
I0121 13:17:47.001772  4195 net.cpp:408] layer_256_5_conv1 -> layer_256_5_conv1
I0121 13:17:47.006932  4195 net.cpp:150] Setting up layer_256_5_conv1
I0121 13:17:47.006943  4195 net.cpp:157] Top shape: 8 256 14 14 (401408)
I0121 13:17:47.006947  4195 net.cpp:165] Memory required for data: 1628110944
I0121 13:17:47.006953  4195 layer_factory.hpp:77] Creating layer layer_256_5_bn2
I0121 13:17:47.006958  4195 net.cpp:100] Creating Layer layer_256_5_bn2
I0121 13:17:47.006963  4195 net.cpp:434] layer_256_5_bn2 <- layer_256_5_conv1
I0121 13:17:47.006968  4195 net.cpp:395] layer_256_5_bn2 -> layer_256_5_conv1 (in-place)
I0121 13:17:47.007102  4195 net.cpp:150] Setting up layer_256_5_bn2
I0121 13:17:47.007109  4195 net.cpp:157] Top shape: 8 256 14 14 (401408)
I0121 13:17:47.007112  4195 net.cpp:165] Memory required for data: 1629716576
I0121 13:17:47.007118  4195 layer_factory.hpp:77] Creating layer layer_256_5_scale2
I0121 13:17:47.007123  4195 net.cpp:100] Creating Layer layer_256_5_scale2
I0121 13:17:47.007128  4195 net.cpp:434] layer_256_5_scale2 <- layer_256_5_conv1
I0121 13:17:47.007135  4195 net.cpp:395] layer_256_5_scale2 -> layer_256_5_conv1 (in-place)
I0121 13:17:47.007171  4195 layer_factory.hpp:77] Creating layer layer_256_5_scale2
I0121 13:17:47.007248  4195 net.cpp:150] Setting up layer_256_5_scale2
I0121 13:17:47.007256  4195 net.cpp:157] Top shape: 8 256 14 14 (401408)
I0121 13:17:47.007258  4195 net.cpp:165] Memory required for data: 1631322208
I0121 13:17:47.007263  4195 layer_factory.hpp:77] Creating layer layer_256_5_relu2
I0121 13:17:47.007268  4195 net.cpp:100] Creating Layer layer_256_5_relu2
I0121 13:17:47.007272  4195 net.cpp:434] layer_256_5_relu2 <- layer_256_5_conv1
I0121 13:17:47.007277  4195 net.cpp:395] layer_256_5_relu2 -> layer_256_5_conv1 (in-place)
I0121 13:17:47.007586  4195 net.cpp:150] Setting up layer_256_5_relu2
I0121 13:17:47.007596  4195 net.cpp:157] Top shape: 8 256 14 14 (401408)
I0121 13:17:47.007601  4195 net.cpp:165] Memory required for data: 1632927840
I0121 13:17:47.007603  4195 layer_factory.hpp:77] Creating layer layer_256_5_conv2
I0121 13:17:47.007611  4195 net.cpp:100] Creating Layer layer_256_5_conv2
I0121 13:17:47.007616  4195 net.cpp:434] layer_256_5_conv2 <- layer_256_5_conv1
I0121 13:17:47.007622  4195 net.cpp:408] layer_256_5_conv2 -> layer_256_5_conv2
I0121 13:17:47.019747  4195 net.cpp:150] Setting up layer_256_5_conv2
I0121 13:17:47.019763  4195 net.cpp:157] Top shape: 8 256 14 14 (401408)
I0121 13:17:47.019767  4195 net.cpp:165] Memory required for data: 1634533472
I0121 13:17:47.019774  4195 layer_factory.hpp:77] Creating layer layer_256_5_bn3
I0121 13:17:47.019785  4195 net.cpp:100] Creating Layer layer_256_5_bn3
I0121 13:17:47.019793  4195 net.cpp:434] layer_256_5_bn3 <- layer_256_5_conv2
I0121 13:17:47.019801  4195 net.cpp:395] layer_256_5_bn3 -> layer_256_5_conv2 (in-place)
I0121 13:17:47.019956  4195 net.cpp:150] Setting up layer_256_5_bn3
I0121 13:17:47.019964  4195 net.cpp:157] Top shape: 8 256 14 14 (401408)
I0121 13:17:47.019969  4195 net.cpp:165] Memory required for data: 1636139104
I0121 13:17:47.019979  4195 layer_factory.hpp:77] Creating layer layer_256_5_scale3
I0121 13:17:47.019989  4195 net.cpp:100] Creating Layer layer_256_5_scale3
I0121 13:17:47.019995  4195 net.cpp:434] layer_256_5_scale3 <- layer_256_5_conv2
I0121 13:17:47.020004  4195 net.cpp:395] layer_256_5_scale3 -> layer_256_5_conv2 (in-place)
I0121 13:17:47.020048  4195 layer_factory.hpp:77] Creating layer layer_256_5_scale3
I0121 13:17:47.020139  4195 net.cpp:150] Setting up layer_256_5_scale3
I0121 13:17:47.020146  4195 net.cpp:157] Top shape: 8 256 14 14 (401408)
I0121 13:17:47.020151  4195 net.cpp:165] Memory required for data: 1637744736
I0121 13:17:47.020159  4195 layer_factory.hpp:77] Creating layer layer_256_5_relu3
I0121 13:17:47.020166  4195 net.cpp:100] Creating Layer layer_256_5_relu3
I0121 13:17:47.020174  4195 net.cpp:434] layer_256_5_relu3 <- layer_256_5_conv2
I0121 13:17:47.020181  4195 net.cpp:395] layer_256_5_relu3 -> layer_256_5_conv2 (in-place)
I0121 13:17:47.020314  4195 net.cpp:150] Setting up layer_256_5_relu3
I0121 13:17:47.020323  4195 net.cpp:157] Top shape: 8 256 14 14 (401408)
I0121 13:17:47.020326  4195 net.cpp:165] Memory required for data: 1639350368
I0121 13:17:47.020333  4195 layer_factory.hpp:77] Creating layer layer_256_5_conv3
I0121 13:17:47.020344  4195 net.cpp:100] Creating Layer layer_256_5_conv3
I0121 13:17:47.020351  4195 net.cpp:434] layer_256_5_conv3 <- layer_256_5_conv2
I0121 13:17:47.020360  4195 net.cpp:408] layer_256_5_conv3 -> layer_256_5_conv3
I0121 13:17:47.026302  4195 net.cpp:150] Setting up layer_256_5_conv3
I0121 13:17:47.026317  4195 net.cpp:157] Top shape: 8 1024 14 14 (1605632)
I0121 13:17:47.026321  4195 net.cpp:165] Memory required for data: 1645772896
I0121 13:17:47.026329  4195 layer_factory.hpp:77] Creating layer layer_256_5_sum
I0121 13:17:47.026340  4195 net.cpp:100] Creating Layer layer_256_5_sum
I0121 13:17:47.026348  4195 net.cpp:434] layer_256_5_sum <- layer_256_5_conv3
I0121 13:17:47.026356  4195 net.cpp:434] layer_256_5_sum <- layer_256_4_sum_layer_256_4_sum_0_split_1
I0121 13:17:47.026365  4195 net.cpp:408] layer_256_5_sum -> layer_256_5_sum
I0121 13:17:47.026404  4195 net.cpp:150] Setting up layer_256_5_sum
I0121 13:17:47.026413  4195 net.cpp:157] Top shape: 8 1024 14 14 (1605632)
I0121 13:17:47.026417  4195 net.cpp:165] Memory required for data: 1652195424
I0121 13:17:47.026423  4195 layer_factory.hpp:77] Creating layer layer_256_5_sum_layer_256_5_sum_0_split
I0121 13:17:47.026432  4195 net.cpp:100] Creating Layer layer_256_5_sum_layer_256_5_sum_0_split
I0121 13:17:47.026438  4195 net.cpp:434] layer_256_5_sum_layer_256_5_sum_0_split <- layer_256_5_sum
I0121 13:17:47.026448  4195 net.cpp:408] layer_256_5_sum_layer_256_5_sum_0_split -> layer_256_5_sum_layer_256_5_sum_0_split_0
I0121 13:17:47.026458  4195 net.cpp:408] layer_256_5_sum_layer_256_5_sum_0_split -> layer_256_5_sum_layer_256_5_sum_0_split_1
I0121 13:17:47.026496  4195 net.cpp:150] Setting up layer_256_5_sum_layer_256_5_sum_0_split
I0121 13:17:47.026504  4195 net.cpp:157] Top shape: 8 1024 14 14 (1605632)
I0121 13:17:47.026510  4195 net.cpp:157] Top shape: 8 1024 14 14 (1605632)
I0121 13:17:47.026515  4195 net.cpp:165] Memory required for data: 1665040480
I0121 13:17:47.026520  4195 layer_factory.hpp:77] Creating layer layer_256_6_bn1
I0121 13:17:47.026527  4195 net.cpp:100] Creating Layer layer_256_6_bn1
I0121 13:17:47.026535  4195 net.cpp:434] layer_256_6_bn1 <- layer_256_5_sum_layer_256_5_sum_0_split_0
I0121 13:17:47.026542  4195 net.cpp:408] layer_256_6_bn1 -> layer_256_6_bn1
I0121 13:17:47.026700  4195 net.cpp:150] Setting up layer_256_6_bn1
I0121 13:17:47.026708  4195 net.cpp:157] Top shape: 8 1024 14 14 (1605632)
I0121 13:17:47.026712  4195 net.cpp:165] Memory required for data: 1671463008
I0121 13:17:47.026722  4195 layer_factory.hpp:77] Creating layer layer_256_6_scale1
I0121 13:17:47.026732  4195 net.cpp:100] Creating Layer layer_256_6_scale1
I0121 13:17:47.026739  4195 net.cpp:434] layer_256_6_scale1 <- layer_256_6_bn1
I0121 13:17:47.026746  4195 net.cpp:395] layer_256_6_scale1 -> layer_256_6_bn1 (in-place)
I0121 13:17:47.026787  4195 layer_factory.hpp:77] Creating layer layer_256_6_scale1
I0121 13:17:47.026878  4195 net.cpp:150] Setting up layer_256_6_scale1
I0121 13:17:47.026886  4195 net.cpp:157] Top shape: 8 1024 14 14 (1605632)
I0121 13:17:47.026890  4195 net.cpp:165] Memory required for data: 1677885536
I0121 13:17:47.026898  4195 layer_factory.hpp:77] Creating layer layer_256_6_relu1
I0121 13:17:47.026908  4195 net.cpp:100] Creating Layer layer_256_6_relu1
I0121 13:17:47.026914  4195 net.cpp:434] layer_256_6_relu1 <- layer_256_6_bn1
I0121 13:17:47.026921  4195 net.cpp:395] layer_256_6_relu1 -> layer_256_6_bn1 (in-place)
I0121 13:17:47.027048  4195 net.cpp:150] Setting up layer_256_6_relu1
I0121 13:17:47.027057  4195 net.cpp:157] Top shape: 8 1024 14 14 (1605632)
I0121 13:17:47.027062  4195 net.cpp:165] Memory required for data: 1684308064
I0121 13:17:47.027068  4195 layer_factory.hpp:77] Creating layer layer_256_6_conv1
I0121 13:17:47.027078  4195 net.cpp:100] Creating Layer layer_256_6_conv1
I0121 13:17:47.027086  4195 net.cpp:434] layer_256_6_conv1 <- layer_256_6_bn1
I0121 13:17:47.027096  4195 net.cpp:408] layer_256_6_conv1 -> layer_256_6_conv1
I0121 13:17:47.032469  4195 net.cpp:150] Setting up layer_256_6_conv1
I0121 13:17:47.032480  4195 net.cpp:157] Top shape: 8 256 14 14 (401408)
I0121 13:17:47.032485  4195 net.cpp:165] Memory required for data: 1685913696
I0121 13:17:47.032492  4195 layer_factory.hpp:77] Creating layer layer_256_6_bn2
I0121 13:17:47.032502  4195 net.cpp:100] Creating Layer layer_256_6_bn2
I0121 13:17:47.032510  4195 net.cpp:434] layer_256_6_bn2 <- layer_256_6_conv1
I0121 13:17:47.032518  4195 net.cpp:395] layer_256_6_bn2 -> layer_256_6_conv1 (in-place)
I0121 13:17:47.032661  4195 net.cpp:150] Setting up layer_256_6_bn2
I0121 13:17:47.032667  4195 net.cpp:157] Top shape: 8 256 14 14 (401408)
I0121 13:17:47.032671  4195 net.cpp:165] Memory required for data: 1687519328
I0121 13:17:47.032678  4195 layer_factory.hpp:77] Creating layer layer_256_6_scale2
I0121 13:17:47.032683  4195 net.cpp:100] Creating Layer layer_256_6_scale2
I0121 13:17:47.032691  4195 net.cpp:434] layer_256_6_scale2 <- layer_256_6_conv1
I0121 13:17:47.032701  4195 net.cpp:395] layer_256_6_scale2 -> layer_256_6_conv1 (in-place)
I0121 13:17:47.032732  4195 layer_factory.hpp:77] Creating layer layer_256_6_scale2
I0121 13:17:47.032809  4195 net.cpp:150] Setting up layer_256_6_scale2
I0121 13:17:47.032816  4195 net.cpp:157] Top shape: 8 256 14 14 (401408)
I0121 13:17:47.032820  4195 net.cpp:165] Memory required for data: 1689124960
I0121 13:17:47.032824  4195 layer_factory.hpp:77] Creating layer layer_256_6_relu2
I0121 13:17:47.032830  4195 net.cpp:100] Creating Layer layer_256_6_relu2
I0121 13:17:47.032835  4195 net.cpp:434] layer_256_6_relu2 <- layer_256_6_conv1
I0121 13:17:47.032838  4195 net.cpp:395] layer_256_6_relu2 -> layer_256_6_conv1 (in-place)
I0121 13:17:47.032956  4195 net.cpp:150] Setting up layer_256_6_relu2
I0121 13:17:47.032964  4195 net.cpp:157] Top shape: 8 256 14 14 (401408)
I0121 13:17:47.032968  4195 net.cpp:165] Memory required for data: 1690730592
I0121 13:17:47.032973  4195 layer_factory.hpp:77] Creating layer layer_256_6_conv2
I0121 13:17:47.032979  4195 net.cpp:100] Creating Layer layer_256_6_conv2
I0121 13:17:47.032982  4195 net.cpp:434] layer_256_6_conv2 <- layer_256_6_conv1
I0121 13:17:47.032987  4195 net.cpp:408] layer_256_6_conv2 -> layer_256_6_conv2
I0121 13:17:47.045030  4195 net.cpp:150] Setting up layer_256_6_conv2
I0121 13:17:47.045061  4195 net.cpp:157] Top shape: 8 256 14 14 (401408)
I0121 13:17:47.045065  4195 net.cpp:165] Memory required for data: 1692336224
I0121 13:17:47.045070  4195 layer_factory.hpp:77] Creating layer layer_256_6_bn3
I0121 13:17:47.045099  4195 net.cpp:100] Creating Layer layer_256_6_bn3
I0121 13:17:47.045104  4195 net.cpp:434] layer_256_6_bn3 <- layer_256_6_conv2
I0121 13:17:47.045112  4195 net.cpp:395] layer_256_6_bn3 -> layer_256_6_conv2 (in-place)
I0121 13:17:47.045269  4195 net.cpp:150] Setting up layer_256_6_bn3
I0121 13:17:47.045276  4195 net.cpp:157] Top shape: 8 256 14 14 (401408)
I0121 13:17:47.045279  4195 net.cpp:165] Memory required for data: 1693941856
I0121 13:17:47.045285  4195 layer_factory.hpp:77] Creating layer layer_256_6_scale3
I0121 13:17:47.045290  4195 net.cpp:100] Creating Layer layer_256_6_scale3
I0121 13:17:47.045295  4195 net.cpp:434] layer_256_6_scale3 <- layer_256_6_conv2
I0121 13:17:47.045298  4195 net.cpp:395] layer_256_6_scale3 -> layer_256_6_conv2 (in-place)
I0121 13:17:47.045339  4195 layer_factory.hpp:77] Creating layer layer_256_6_scale3
I0121 13:17:47.045433  4195 net.cpp:150] Setting up layer_256_6_scale3
I0121 13:17:47.045440  4195 net.cpp:157] Top shape: 8 256 14 14 (401408)
I0121 13:17:47.045444  4195 net.cpp:165] Memory required for data: 1695547488
I0121 13:17:47.045449  4195 layer_factory.hpp:77] Creating layer layer_256_6_relu3
I0121 13:17:47.045452  4195 net.cpp:100] Creating Layer layer_256_6_relu3
I0121 13:17:47.045455  4195 net.cpp:434] layer_256_6_relu3 <- layer_256_6_conv2
I0121 13:17:47.045459  4195 net.cpp:395] layer_256_6_relu3 -> layer_256_6_conv2 (in-place)
I0121 13:17:47.045590  4195 net.cpp:150] Setting up layer_256_6_relu3
I0121 13:17:47.045598  4195 net.cpp:157] Top shape: 8 256 14 14 (401408)
I0121 13:17:47.045601  4195 net.cpp:165] Memory required for data: 1697153120
I0121 13:17:47.045604  4195 layer_factory.hpp:77] Creating layer layer_256_6_conv3
I0121 13:17:47.045613  4195 net.cpp:100] Creating Layer layer_256_6_conv3
I0121 13:17:47.045615  4195 net.cpp:434] layer_256_6_conv3 <- layer_256_6_conv2
I0121 13:17:47.045621  4195 net.cpp:408] layer_256_6_conv3 -> layer_256_6_conv3
I0121 13:17:47.051502  4195 net.cpp:150] Setting up layer_256_6_conv3
I0121 13:17:47.051522  4195 net.cpp:157] Top shape: 8 1024 14 14 (1605632)
I0121 13:17:47.051525  4195 net.cpp:165] Memory required for data: 1703575648
I0121 13:17:47.051530  4195 layer_factory.hpp:77] Creating layer layer_256_6_sum
I0121 13:17:47.051540  4195 net.cpp:100] Creating Layer layer_256_6_sum
I0121 13:17:47.051548  4195 net.cpp:434] layer_256_6_sum <- layer_256_6_conv3
I0121 13:17:47.051560  4195 net.cpp:434] layer_256_6_sum <- layer_256_5_sum_layer_256_5_sum_0_split_1
I0121 13:17:47.051576  4195 net.cpp:408] layer_256_6_sum -> layer_256_6_sum
I0121 13:17:47.051609  4195 net.cpp:150] Setting up layer_256_6_sum
I0121 13:17:47.051617  4195 net.cpp:157] Top shape: 8 1024 14 14 (1605632)
I0121 13:17:47.051621  4195 net.cpp:165] Memory required for data: 1709998176
I0121 13:17:47.051626  4195 layer_factory.hpp:77] Creating layer layer_512_1_bn1
I0121 13:17:47.051635  4195 net.cpp:100] Creating Layer layer_512_1_bn1
I0121 13:17:47.051641  4195 net.cpp:434] layer_512_1_bn1 <- layer_256_6_sum
I0121 13:17:47.051651  4195 net.cpp:408] layer_512_1_bn1 -> layer_512_1_bn1
I0121 13:17:47.051815  4195 net.cpp:150] Setting up layer_512_1_bn1
I0121 13:17:47.051822  4195 net.cpp:157] Top shape: 8 1024 14 14 (1605632)
I0121 13:17:47.051826  4195 net.cpp:165] Memory required for data: 1716420704
I0121 13:17:47.051836  4195 layer_factory.hpp:77] Creating layer layer_512_1_scale1
I0121 13:17:47.051847  4195 net.cpp:100] Creating Layer layer_512_1_scale1
I0121 13:17:47.051854  4195 net.cpp:434] layer_512_1_scale1 <- layer_512_1_bn1
I0121 13:17:47.051862  4195 net.cpp:395] layer_512_1_scale1 -> layer_512_1_bn1 (in-place)
I0121 13:17:47.051903  4195 layer_factory.hpp:77] Creating layer layer_512_1_scale1
I0121 13:17:47.051995  4195 net.cpp:150] Setting up layer_512_1_scale1
I0121 13:17:47.052003  4195 net.cpp:157] Top shape: 8 1024 14 14 (1605632)
I0121 13:17:47.052007  4195 net.cpp:165] Memory required for data: 1722843232
I0121 13:17:47.052012  4195 layer_factory.hpp:77] Creating layer layer_512_1_relu1
I0121 13:17:47.052017  4195 net.cpp:100] Creating Layer layer_512_1_relu1
I0121 13:17:47.052021  4195 net.cpp:434] layer_512_1_relu1 <- layer_512_1_bn1
I0121 13:17:47.052026  4195 net.cpp:395] layer_512_1_relu1 -> layer_512_1_bn1 (in-place)
I0121 13:17:47.052348  4195 net.cpp:150] Setting up layer_512_1_relu1
I0121 13:17:47.052359  4195 net.cpp:157] Top shape: 8 1024 14 14 (1605632)
I0121 13:17:47.052363  4195 net.cpp:165] Memory required for data: 1729265760
I0121 13:17:47.052367  4195 layer_factory.hpp:77] Creating layer layer_512_1_bn1_layer_512_1_relu1_0_split
I0121 13:17:47.052373  4195 net.cpp:100] Creating Layer layer_512_1_bn1_layer_512_1_relu1_0_split
I0121 13:17:47.052377  4195 net.cpp:434] layer_512_1_bn1_layer_512_1_relu1_0_split <- layer_512_1_bn1
I0121 13:17:47.052382  4195 net.cpp:408] layer_512_1_bn1_layer_512_1_relu1_0_split -> layer_512_1_bn1_layer_512_1_relu1_0_split_0
I0121 13:17:47.052388  4195 net.cpp:408] layer_512_1_bn1_layer_512_1_relu1_0_split -> layer_512_1_bn1_layer_512_1_relu1_0_split_1
I0121 13:17:47.052423  4195 net.cpp:150] Setting up layer_512_1_bn1_layer_512_1_relu1_0_split
I0121 13:17:47.052428  4195 net.cpp:157] Top shape: 8 1024 14 14 (1605632)
I0121 13:17:47.052433  4195 net.cpp:157] Top shape: 8 1024 14 14 (1605632)
I0121 13:17:47.052436  4195 net.cpp:165] Memory required for data: 1742110816
I0121 13:17:47.052439  4195 layer_factory.hpp:77] Creating layer layer_512_1_conv1
I0121 13:17:47.052448  4195 net.cpp:100] Creating Layer layer_512_1_conv1
I0121 13:17:47.052453  4195 net.cpp:434] layer_512_1_conv1 <- layer_512_1_bn1_layer_512_1_relu1_0_split_0
I0121 13:17:47.052459  4195 net.cpp:408] layer_512_1_conv1 -> layer_512_1_conv1
I0121 13:17:47.062845  4195 net.cpp:150] Setting up layer_512_1_conv1
I0121 13:17:47.062863  4195 net.cpp:157] Top shape: 8 512 14 14 (802816)
I0121 13:17:47.062867  4195 net.cpp:165] Memory required for data: 1745322080
I0121 13:17:47.062872  4195 layer_factory.hpp:77] Creating layer layer_512_1_bn2
I0121 13:17:47.062880  4195 net.cpp:100] Creating Layer layer_512_1_bn2
I0121 13:17:47.062885  4195 net.cpp:434] layer_512_1_bn2 <- layer_512_1_conv1
I0121 13:17:47.062889  4195 net.cpp:395] layer_512_1_bn2 -> layer_512_1_conv1 (in-place)
I0121 13:17:47.063038  4195 net.cpp:150] Setting up layer_512_1_bn2
I0121 13:17:47.063045  4195 net.cpp:157] Top shape: 8 512 14 14 (802816)
I0121 13:17:47.063048  4195 net.cpp:165] Memory required for data: 1748533344
I0121 13:17:47.063057  4195 layer_factory.hpp:77] Creating layer layer_512_1_scale2
I0121 13:17:47.063067  4195 net.cpp:100] Creating Layer layer_512_1_scale2
I0121 13:17:47.063071  4195 net.cpp:434] layer_512_1_scale2 <- layer_512_1_conv1
I0121 13:17:47.063076  4195 net.cpp:395] layer_512_1_scale2 -> layer_512_1_conv1 (in-place)
I0121 13:17:47.063105  4195 layer_factory.hpp:77] Creating layer layer_512_1_scale2
I0121 13:17:47.063190  4195 net.cpp:150] Setting up layer_512_1_scale2
I0121 13:17:47.063196  4195 net.cpp:157] Top shape: 8 512 14 14 (802816)
I0121 13:17:47.063199  4195 net.cpp:165] Memory required for data: 1751744608
I0121 13:17:47.063205  4195 layer_factory.hpp:77] Creating layer layer_512_1_relu2
I0121 13:17:47.063208  4195 net.cpp:100] Creating Layer layer_512_1_relu2
I0121 13:17:47.063211  4195 net.cpp:434] layer_512_1_relu2 <- layer_512_1_conv1
I0121 13:17:47.063216  4195 net.cpp:395] layer_512_1_relu2 -> layer_512_1_conv1 (in-place)
I0121 13:17:47.063729  4195 net.cpp:150] Setting up layer_512_1_relu2
I0121 13:17:47.063740  4195 net.cpp:157] Top shape: 8 512 14 14 (802816)
I0121 13:17:47.063743  4195 net.cpp:165] Memory required for data: 1754955872
I0121 13:17:47.063747  4195 layer_factory.hpp:77] Creating layer layer_512_1_conv2
I0121 13:17:47.063755  4195 net.cpp:100] Creating Layer layer_512_1_conv2
I0121 13:17:47.063761  4195 net.cpp:434] layer_512_1_conv2 <- layer_512_1_conv1
I0121 13:17:47.063767  4195 net.cpp:408] layer_512_1_conv2 -> layer_512_1_conv2
I0121 13:17:47.108659  4195 net.cpp:150] Setting up layer_512_1_conv2
I0121 13:17:47.108682  4195 net.cpp:157] Top shape: 8 512 7 7 (200704)
I0121 13:17:47.108686  4195 net.cpp:165] Memory required for data: 1755758688
I0121 13:17:47.108693  4195 layer_factory.hpp:77] Creating layer layer_512_1_bn3
I0121 13:17:47.108701  4195 net.cpp:100] Creating Layer layer_512_1_bn3
I0121 13:17:47.108707  4195 net.cpp:434] layer_512_1_bn3 <- layer_512_1_conv2
I0121 13:17:47.108712  4195 net.cpp:395] layer_512_1_bn3 -> layer_512_1_conv2 (in-place)
I0121 13:17:47.108881  4195 net.cpp:150] Setting up layer_512_1_bn3
I0121 13:17:47.108889  4195 net.cpp:157] Top shape: 8 512 7 7 (200704)
I0121 13:17:47.108892  4195 net.cpp:165] Memory required for data: 1756561504
I0121 13:17:47.108918  4195 layer_factory.hpp:77] Creating layer layer_512_1_scale3
I0121 13:17:47.108927  4195 net.cpp:100] Creating Layer layer_512_1_scale3
I0121 13:17:47.108933  4195 net.cpp:434] layer_512_1_scale3 <- layer_512_1_conv2
I0121 13:17:47.108940  4195 net.cpp:395] layer_512_1_scale3 -> layer_512_1_conv2 (in-place)
I0121 13:17:47.108983  4195 layer_factory.hpp:77] Creating layer layer_512_1_scale3
I0121 13:17:47.109081  4195 net.cpp:150] Setting up layer_512_1_scale3
I0121 13:17:47.109089  4195 net.cpp:157] Top shape: 8 512 7 7 (200704)
I0121 13:17:47.109092  4195 net.cpp:165] Memory required for data: 1757364320
I0121 13:17:47.109097  4195 layer_factory.hpp:77] Creating layer layer_512_1_relu3
I0121 13:17:47.109102  4195 net.cpp:100] Creating Layer layer_512_1_relu3
I0121 13:17:47.109107  4195 net.cpp:434] layer_512_1_relu3 <- layer_512_1_conv2
I0121 13:17:47.109109  4195 net.cpp:395] layer_512_1_relu3 -> layer_512_1_conv2 (in-place)
I0121 13:17:47.109239  4195 net.cpp:150] Setting up layer_512_1_relu3
I0121 13:17:47.109249  4195 net.cpp:157] Top shape: 8 512 7 7 (200704)
I0121 13:17:47.109252  4195 net.cpp:165] Memory required for data: 1758167136
I0121 13:17:47.109256  4195 layer_factory.hpp:77] Creating layer layer_512_1_conv3
I0121 13:17:47.109267  4195 net.cpp:100] Creating Layer layer_512_1_conv3
I0121 13:17:47.109275  4195 net.cpp:434] layer_512_1_conv3 <- layer_512_1_conv2
I0121 13:17:47.109284  4195 net.cpp:408] layer_512_1_conv3 -> layer_512_1_conv3
I0121 13:17:47.129765  4195 net.cpp:150] Setting up layer_512_1_conv3
I0121 13:17:47.129787  4195 net.cpp:157] Top shape: 8 2048 7 7 (802816)
I0121 13:17:47.129792  4195 net.cpp:165] Memory required for data: 1761378400
I0121 13:17:47.129798  4195 layer_factory.hpp:77] Creating layer layer_512_1_conv_expand
I0121 13:17:47.129809  4195 net.cpp:100] Creating Layer layer_512_1_conv_expand
I0121 13:17:47.129823  4195 net.cpp:434] layer_512_1_conv_expand <- layer_512_1_bn1_layer_512_1_relu1_0_split_1
I0121 13:17:47.129842  4195 net.cpp:408] layer_512_1_conv_expand -> layer_512_1_conv_expand
I0121 13:17:47.169446  4195 net.cpp:150] Setting up layer_512_1_conv_expand
I0121 13:17:47.169483  4195 net.cpp:157] Top shape: 8 2048 7 7 (802816)
I0121 13:17:47.169487  4195 net.cpp:165] Memory required for data: 1764589664
I0121 13:17:47.169493  4195 layer_factory.hpp:77] Creating layer layer_512_1_sum
I0121 13:17:47.169502  4195 net.cpp:100] Creating Layer layer_512_1_sum
I0121 13:17:47.169523  4195 net.cpp:434] layer_512_1_sum <- layer_512_1_conv3
I0121 13:17:47.169528  4195 net.cpp:434] layer_512_1_sum <- layer_512_1_conv_expand
I0121 13:17:47.169533  4195 net.cpp:408] layer_512_1_sum -> layer_512_1_sum
I0121 13:17:47.169564  4195 net.cpp:150] Setting up layer_512_1_sum
I0121 13:17:47.169572  4195 net.cpp:157] Top shape: 8 2048 7 7 (802816)
I0121 13:17:47.169576  4195 net.cpp:165] Memory required for data: 1767800928
I0121 13:17:47.169579  4195 layer_factory.hpp:77] Creating layer layer_512_1_sum_layer_512_1_sum_0_split
I0121 13:17:47.169585  4195 net.cpp:100] Creating Layer layer_512_1_sum_layer_512_1_sum_0_split
I0121 13:17:47.169589  4195 net.cpp:434] layer_512_1_sum_layer_512_1_sum_0_split <- layer_512_1_sum
I0121 13:17:47.169592  4195 net.cpp:408] layer_512_1_sum_layer_512_1_sum_0_split -> layer_512_1_sum_layer_512_1_sum_0_split_0
I0121 13:17:47.169597  4195 net.cpp:408] layer_512_1_sum_layer_512_1_sum_0_split -> layer_512_1_sum_layer_512_1_sum_0_split_1
I0121 13:17:47.169633  4195 net.cpp:150] Setting up layer_512_1_sum_layer_512_1_sum_0_split
I0121 13:17:47.169641  4195 net.cpp:157] Top shape: 8 2048 7 7 (802816)
I0121 13:17:47.169646  4195 net.cpp:157] Top shape: 8 2048 7 7 (802816)
I0121 13:17:47.169648  4195 net.cpp:165] Memory required for data: 1774223456
I0121 13:17:47.169651  4195 layer_factory.hpp:77] Creating layer layer_512_2_bn1
I0121 13:17:47.169656  4195 net.cpp:100] Creating Layer layer_512_2_bn1
I0121 13:17:47.169659  4195 net.cpp:434] layer_512_2_bn1 <- layer_512_1_sum_layer_512_1_sum_0_split_0
I0121 13:17:47.169663  4195 net.cpp:408] layer_512_2_bn1 -> layer_512_2_bn1
I0121 13:17:47.169834  4195 net.cpp:150] Setting up layer_512_2_bn1
I0121 13:17:47.169842  4195 net.cpp:157] Top shape: 8 2048 7 7 (802816)
I0121 13:17:47.169844  4195 net.cpp:165] Memory required for data: 1777434720
I0121 13:17:47.169850  4195 layer_factory.hpp:77] Creating layer layer_512_2_scale1
I0121 13:17:47.169855  4195 net.cpp:100] Creating Layer layer_512_2_scale1
I0121 13:17:47.169859  4195 net.cpp:434] layer_512_2_scale1 <- layer_512_2_bn1
I0121 13:17:47.169863  4195 net.cpp:395] layer_512_2_scale1 -> layer_512_2_bn1 (in-place)
I0121 13:17:47.169899  4195 layer_factory.hpp:77] Creating layer layer_512_2_scale1
I0121 13:17:47.170002  4195 net.cpp:150] Setting up layer_512_2_scale1
I0121 13:17:47.170011  4195 net.cpp:157] Top shape: 8 2048 7 7 (802816)
I0121 13:17:47.170013  4195 net.cpp:165] Memory required for data: 1780645984
I0121 13:17:47.170018  4195 layer_factory.hpp:77] Creating layer layer_512_2_relu1
I0121 13:17:47.170023  4195 net.cpp:100] Creating Layer layer_512_2_relu1
I0121 13:17:47.170027  4195 net.cpp:434] layer_512_2_relu1 <- layer_512_2_bn1
I0121 13:17:47.170029  4195 net.cpp:395] layer_512_2_relu1 -> layer_512_2_bn1 (in-place)
I0121 13:17:47.170181  4195 net.cpp:150] Setting up layer_512_2_relu1
I0121 13:17:47.170193  4195 net.cpp:157] Top shape: 8 2048 7 7 (802816)
I0121 13:17:47.170198  4195 net.cpp:165] Memory required for data: 1783857248
I0121 13:17:47.170204  4195 layer_factory.hpp:77] Creating layer layer_512_2_conv1
I0121 13:17:47.170214  4195 net.cpp:100] Creating Layer layer_512_2_conv1
I0121 13:17:47.170222  4195 net.cpp:434] layer_512_2_conv1 <- layer_512_2_bn1
I0121 13:17:47.170230  4195 net.cpp:408] layer_512_2_conv1 -> layer_512_2_conv1
I0121 13:17:47.190512  4195 net.cpp:150] Setting up layer_512_2_conv1
I0121 13:17:47.190548  4195 net.cpp:157] Top shape: 8 512 7 7 (200704)
I0121 13:17:47.190556  4195 net.cpp:165] Memory required for data: 1784660064
I0121 13:17:47.190567  4195 layer_factory.hpp:77] Creating layer layer_512_2_bn2
I0121 13:17:47.190575  4195 net.cpp:100] Creating Layer layer_512_2_bn2
I0121 13:17:47.190582  4195 net.cpp:434] layer_512_2_bn2 <- layer_512_2_conv1
I0121 13:17:47.190608  4195 net.cpp:395] layer_512_2_bn2 -> layer_512_2_conv1 (in-place)
I0121 13:17:47.190781  4195 net.cpp:150] Setting up layer_512_2_bn2
I0121 13:17:47.190789  4195 net.cpp:157] Top shape: 8 512 7 7 (200704)
I0121 13:17:47.190794  4195 net.cpp:165] Memory required for data: 1785462880
I0121 13:17:47.190804  4195 layer_factory.hpp:77] Creating layer layer_512_2_scale2
I0121 13:17:47.190812  4195 net.cpp:100] Creating Layer layer_512_2_scale2
I0121 13:17:47.190817  4195 net.cpp:434] layer_512_2_scale2 <- layer_512_2_conv1
I0121 13:17:47.190822  4195 net.cpp:395] layer_512_2_scale2 -> layer_512_2_conv1 (in-place)
I0121 13:17:47.190857  4195 layer_factory.hpp:77] Creating layer layer_512_2_scale2
I0121 13:17:47.190954  4195 net.cpp:150] Setting up layer_512_2_scale2
I0121 13:17:47.190963  4195 net.cpp:157] Top shape: 8 512 7 7 (200704)
I0121 13:17:47.190968  4195 net.cpp:165] Memory required for data: 1786265696
I0121 13:17:47.190975  4195 layer_factory.hpp:77] Creating layer layer_512_2_relu2
I0121 13:17:47.190984  4195 net.cpp:100] Creating Layer layer_512_2_relu2
I0121 13:17:47.190991  4195 net.cpp:434] layer_512_2_relu2 <- layer_512_2_conv1
I0121 13:17:47.190997  4195 net.cpp:395] layer_512_2_relu2 -> layer_512_2_conv1 (in-place)
I0121 13:17:47.191128  4195 net.cpp:150] Setting up layer_512_2_relu2
I0121 13:17:47.191136  4195 net.cpp:157] Top shape: 8 512 7 7 (200704)
I0121 13:17:47.191140  4195 net.cpp:165] Memory required for data: 1787068512
I0121 13:17:47.191146  4195 layer_factory.hpp:77] Creating layer layer_512_2_conv2
I0121 13:17:47.191159  4195 net.cpp:100] Creating Layer layer_512_2_conv2
I0121 13:17:47.191164  4195 net.cpp:434] layer_512_2_conv2 <- layer_512_2_conv1
I0121 13:17:47.191175  4195 net.cpp:408] layer_512_2_conv2 -> layer_512_2_conv2
I0121 13:17:47.235693  4195 net.cpp:150] Setting up layer_512_2_conv2
I0121 13:17:47.235715  4195 net.cpp:157] Top shape: 8 512 7 7 (200704)
I0121 13:17:47.235719  4195 net.cpp:165] Memory required for data: 1787871328
I0121 13:17:47.235726  4195 layer_factory.hpp:77] Creating layer layer_512_2_bn3
I0121 13:17:47.235738  4195 net.cpp:100] Creating Layer layer_512_2_bn3
I0121 13:17:47.235745  4195 net.cpp:434] layer_512_2_bn3 <- layer_512_2_conv2
I0121 13:17:47.235767  4195 net.cpp:395] layer_512_2_bn3 -> layer_512_2_conv2 (in-place)
I0121 13:17:47.235954  4195 net.cpp:150] Setting up layer_512_2_bn3
I0121 13:17:47.235962  4195 net.cpp:157] Top shape: 8 512 7 7 (200704)
I0121 13:17:47.235965  4195 net.cpp:165] Memory required for data: 1788674144
I0121 13:17:47.235971  4195 layer_factory.hpp:77] Creating layer layer_512_2_scale3
I0121 13:17:47.235977  4195 net.cpp:100] Creating Layer layer_512_2_scale3
I0121 13:17:47.235981  4195 net.cpp:434] layer_512_2_scale3 <- layer_512_2_conv2
I0121 13:17:47.235985  4195 net.cpp:395] layer_512_2_scale3 -> layer_512_2_conv2 (in-place)
I0121 13:17:47.236019  4195 layer_factory.hpp:77] Creating layer layer_512_2_scale3
I0121 13:17:47.236141  4195 net.cpp:150] Setting up layer_512_2_scale3
I0121 13:17:47.236153  4195 net.cpp:157] Top shape: 8 512 7 7 (200704)
I0121 13:17:47.236158  4195 net.cpp:165] Memory required for data: 1789476960
I0121 13:17:47.236167  4195 layer_factory.hpp:77] Creating layer layer_512_2_relu3
I0121 13:17:47.236176  4195 net.cpp:100] Creating Layer layer_512_2_relu3
I0121 13:17:47.236183  4195 net.cpp:434] layer_512_2_relu3 <- layer_512_2_conv2
I0121 13:17:47.236191  4195 net.cpp:395] layer_512_2_relu3 -> layer_512_2_conv2 (in-place)
I0121 13:17:47.236361  4195 net.cpp:150] Setting up layer_512_2_relu3
I0121 13:17:47.236374  4195 net.cpp:157] Top shape: 8 512 7 7 (200704)
I0121 13:17:47.236380  4195 net.cpp:165] Memory required for data: 1790279776
I0121 13:17:47.236392  4195 layer_factory.hpp:77] Creating layer layer_512_2_conv3
I0121 13:17:47.236410  4195 net.cpp:100] Creating Layer layer_512_2_conv3
I0121 13:17:47.236419  4195 net.cpp:434] layer_512_2_conv3 <- layer_512_2_conv2
I0121 13:17:47.236428  4195 net.cpp:408] layer_512_2_conv3 -> layer_512_2_conv3
I0121 13:17:47.256819  4195 net.cpp:150] Setting up layer_512_2_conv3
I0121 13:17:47.256842  4195 net.cpp:157] Top shape: 8 2048 7 7 (802816)
I0121 13:17:47.256846  4195 net.cpp:165] Memory required for data: 1793491040
I0121 13:17:47.256852  4195 layer_factory.hpp:77] Creating layer layer_512_2_sum
I0121 13:17:47.256860  4195 net.cpp:100] Creating Layer layer_512_2_sum
I0121 13:17:47.256883  4195 net.cpp:434] layer_512_2_sum <- layer_512_2_conv3
I0121 13:17:47.256889  4195 net.cpp:434] layer_512_2_sum <- layer_512_1_sum_layer_512_1_sum_0_split_1
I0121 13:17:47.256896  4195 net.cpp:408] layer_512_2_sum -> layer_512_2_sum
I0121 13:17:47.256924  4195 net.cpp:150] Setting up layer_512_2_sum
I0121 13:17:47.256933  4195 net.cpp:157] Top shape: 8 2048 7 7 (802816)
I0121 13:17:47.256937  4195 net.cpp:165] Memory required for data: 1796702304
I0121 13:17:47.256939  4195 layer_factory.hpp:77] Creating layer layer_512_2_sum_layer_512_2_sum_0_split
I0121 13:17:47.256945  4195 net.cpp:100] Creating Layer layer_512_2_sum_layer_512_2_sum_0_split
I0121 13:17:47.256949  4195 net.cpp:434] layer_512_2_sum_layer_512_2_sum_0_split <- layer_512_2_sum
I0121 13:17:47.256953  4195 net.cpp:408] layer_512_2_sum_layer_512_2_sum_0_split -> layer_512_2_sum_layer_512_2_sum_0_split_0
I0121 13:17:47.256958  4195 net.cpp:408] layer_512_2_sum_layer_512_2_sum_0_split -> layer_512_2_sum_layer_512_2_sum_0_split_1
I0121 13:17:47.256995  4195 net.cpp:150] Setting up layer_512_2_sum_layer_512_2_sum_0_split
I0121 13:17:47.257004  4195 net.cpp:157] Top shape: 8 2048 7 7 (802816)
I0121 13:17:47.257006  4195 net.cpp:157] Top shape: 8 2048 7 7 (802816)
I0121 13:17:47.257009  4195 net.cpp:165] Memory required for data: 1803124832
I0121 13:17:47.257012  4195 layer_factory.hpp:77] Creating layer layer_512_3_bn1
I0121 13:17:47.257019  4195 net.cpp:100] Creating Layer layer_512_3_bn1
I0121 13:17:47.257021  4195 net.cpp:434] layer_512_3_bn1 <- layer_512_2_sum_layer_512_2_sum_0_split_0
I0121 13:17:47.257025  4195 net.cpp:408] layer_512_3_bn1 -> layer_512_3_bn1
I0121 13:17:47.257199  4195 net.cpp:150] Setting up layer_512_3_bn1
I0121 13:17:47.257207  4195 net.cpp:157] Top shape: 8 2048 7 7 (802816)
I0121 13:17:47.257210  4195 net.cpp:165] Memory required for data: 1806336096
I0121 13:17:47.257217  4195 layer_factory.hpp:77] Creating layer layer_512_3_scale1
I0121 13:17:47.257226  4195 net.cpp:100] Creating Layer layer_512_3_scale1
I0121 13:17:47.257232  4195 net.cpp:434] layer_512_3_scale1 <- layer_512_3_bn1
I0121 13:17:47.257241  4195 net.cpp:395] layer_512_3_scale1 -> layer_512_3_bn1 (in-place)
I0121 13:17:47.257285  4195 layer_factory.hpp:77] Creating layer layer_512_3_scale1
I0121 13:17:47.257388  4195 net.cpp:150] Setting up layer_512_3_scale1
I0121 13:17:47.257397  4195 net.cpp:157] Top shape: 8 2048 7 7 (802816)
I0121 13:17:47.257400  4195 net.cpp:165] Memory required for data: 1809547360
I0121 13:17:47.257406  4195 layer_factory.hpp:77] Creating layer layer_512_3_relu1
I0121 13:17:47.257411  4195 net.cpp:100] Creating Layer layer_512_3_relu1
I0121 13:17:47.257416  4195 net.cpp:434] layer_512_3_relu1 <- layer_512_3_bn1
I0121 13:17:47.257421  4195 net.cpp:395] layer_512_3_relu1 -> layer_512_3_bn1 (in-place)
I0121 13:17:47.257550  4195 net.cpp:150] Setting up layer_512_3_relu1
I0121 13:17:47.257560  4195 net.cpp:157] Top shape: 8 2048 7 7 (802816)
I0121 13:17:47.257563  4195 net.cpp:165] Memory required for data: 1812758624
I0121 13:17:47.257568  4195 layer_factory.hpp:77] Creating layer layer_512_3_conv1
I0121 13:17:47.257580  4195 net.cpp:100] Creating Layer layer_512_3_conv1
I0121 13:17:47.257587  4195 net.cpp:434] layer_512_3_conv1 <- layer_512_3_bn1
I0121 13:17:47.257594  4195 net.cpp:408] layer_512_3_conv1 -> layer_512_3_conv1
I0121 13:17:47.278228  4195 net.cpp:150] Setting up layer_512_3_conv1
I0121 13:17:47.278254  4195 net.cpp:157] Top shape: 8 512 7 7 (200704)
I0121 13:17:47.278262  4195 net.cpp:165] Memory required for data: 1813561440
I0121 13:17:47.278268  4195 layer_factory.hpp:77] Creating layer layer_512_3_bn2
I0121 13:17:47.278276  4195 net.cpp:100] Creating Layer layer_512_3_bn2
I0121 13:17:47.278281  4195 net.cpp:434] layer_512_3_bn2 <- layer_512_3_conv1
I0121 13:17:47.278285  4195 net.cpp:395] layer_512_3_bn2 -> layer_512_3_conv1 (in-place)
I0121 13:17:47.278463  4195 net.cpp:150] Setting up layer_512_3_bn2
I0121 13:17:47.278471  4195 net.cpp:157] Top shape: 8 512 7 7 (200704)
I0121 13:17:47.278475  4195 net.cpp:165] Memory required for data: 1814364256
I0121 13:17:47.278481  4195 layer_factory.hpp:77] Creating layer layer_512_3_scale2
I0121 13:17:47.278486  4195 net.cpp:100] Creating Layer layer_512_3_scale2
I0121 13:17:47.278489  4195 net.cpp:434] layer_512_3_scale2 <- layer_512_3_conv1
I0121 13:17:47.278493  4195 net.cpp:395] layer_512_3_scale2 -> layer_512_3_conv1 (in-place)
I0121 13:17:47.278528  4195 layer_factory.hpp:77] Creating layer layer_512_3_scale2
I0121 13:17:47.278633  4195 net.cpp:150] Setting up layer_512_3_scale2
I0121 13:17:47.278641  4195 net.cpp:157] Top shape: 8 512 7 7 (200704)
I0121 13:17:47.278645  4195 net.cpp:165] Memory required for data: 1815167072
I0121 13:17:47.278650  4195 layer_factory.hpp:77] Creating layer layer_512_3_relu2
I0121 13:17:47.278653  4195 net.cpp:100] Creating Layer layer_512_3_relu2
I0121 13:17:47.278656  4195 net.cpp:434] layer_512_3_relu2 <- layer_512_3_conv1
I0121 13:17:47.278661  4195 net.cpp:395] layer_512_3_relu2 -> layer_512_3_conv1 (in-place)
I0121 13:17:47.279001  4195 net.cpp:150] Setting up layer_512_3_relu2
I0121 13:17:47.279011  4195 net.cpp:157] Top shape: 8 512 7 7 (200704)
I0121 13:17:47.279014  4195 net.cpp:165] Memory required for data: 1815969888
I0121 13:17:47.279018  4195 layer_factory.hpp:77] Creating layer layer_512_3_conv2
I0121 13:17:47.279026  4195 net.cpp:100] Creating Layer layer_512_3_conv2
I0121 13:17:47.279029  4195 net.cpp:434] layer_512_3_conv2 <- layer_512_3_conv1
I0121 13:17:47.279036  4195 net.cpp:408] layer_512_3_conv2 -> layer_512_3_conv2
I0121 13:17:47.322971  4195 net.cpp:150] Setting up layer_512_3_conv2
I0121 13:17:47.322993  4195 net.cpp:157] Top shape: 8 512 7 7 (200704)
I0121 13:17:47.322998  4195 net.cpp:165] Memory required for data: 1816772704
I0121 13:17:47.323004  4195 layer_factory.hpp:77] Creating layer layer_512_3_bn3
I0121 13:17:47.323030  4195 net.cpp:100] Creating Layer layer_512_3_bn3
I0121 13:17:47.323036  4195 net.cpp:434] layer_512_3_bn3 <- layer_512_3_conv2
I0121 13:17:47.323055  4195 net.cpp:395] layer_512_3_bn3 -> layer_512_3_conv2 (in-place)
I0121 13:17:47.323235  4195 net.cpp:150] Setting up layer_512_3_bn3
I0121 13:17:47.323242  4195 net.cpp:157] Top shape: 8 512 7 7 (200704)
I0121 13:17:47.323246  4195 net.cpp:165] Memory required for data: 1817575520
I0121 13:17:47.323251  4195 layer_factory.hpp:77] Creating layer layer_512_3_scale3
I0121 13:17:47.323257  4195 net.cpp:100] Creating Layer layer_512_3_scale3
I0121 13:17:47.323261  4195 net.cpp:434] layer_512_3_scale3 <- layer_512_3_conv2
I0121 13:17:47.323264  4195 net.cpp:395] layer_512_3_scale3 -> layer_512_3_conv2 (in-place)
I0121 13:17:47.323298  4195 layer_factory.hpp:77] Creating layer layer_512_3_scale3
I0121 13:17:47.323400  4195 net.cpp:150] Setting up layer_512_3_scale3
I0121 13:17:47.323410  4195 net.cpp:157] Top shape: 8 512 7 7 (200704)
I0121 13:17:47.323415  4195 net.cpp:165] Memory required for data: 1818378336
I0121 13:17:47.323420  4195 layer_factory.hpp:77] Creating layer layer_512_3_relu3
I0121 13:17:47.323424  4195 net.cpp:100] Creating Layer layer_512_3_relu3
I0121 13:17:47.323428  4195 net.cpp:434] layer_512_3_relu3 <- layer_512_3_conv2
I0121 13:17:47.323432  4195 net.cpp:395] layer_512_3_relu3 -> layer_512_3_conv2 (in-place)
I0121 13:17:47.323562  4195 net.cpp:150] Setting up layer_512_3_relu3
I0121 13:17:47.323571  4195 net.cpp:157] Top shape: 8 512 7 7 (200704)
I0121 13:17:47.323580  4195 net.cpp:165] Memory required for data: 1819181152
I0121 13:17:47.323588  4195 layer_factory.hpp:77] Creating layer layer_512_3_conv3
I0121 13:17:47.323596  4195 net.cpp:100] Creating Layer layer_512_3_conv3
I0121 13:17:47.323602  4195 net.cpp:434] layer_512_3_conv3 <- layer_512_3_conv2
I0121 13:17:47.323611  4195 net.cpp:408] layer_512_3_conv3 -> layer_512_3_conv3
I0121 13:17:47.343852  4195 net.cpp:150] Setting up layer_512_3_conv3
I0121 13:17:47.343888  4195 net.cpp:157] Top shape: 8 2048 7 7 (802816)
I0121 13:17:47.343893  4195 net.cpp:165] Memory required for data: 1822392416
I0121 13:17:47.343899  4195 layer_factory.hpp:77] Creating layer layer_512_3_sum
I0121 13:17:47.343906  4195 net.cpp:100] Creating Layer layer_512_3_sum
I0121 13:17:47.343927  4195 net.cpp:434] layer_512_3_sum <- layer_512_3_conv3
I0121 13:17:47.343932  4195 net.cpp:434] layer_512_3_sum <- layer_512_2_sum_layer_512_2_sum_0_split_1
I0121 13:17:47.343940  4195 net.cpp:408] layer_512_3_sum -> layer_512_3_sum
I0121 13:17:47.343973  4195 net.cpp:150] Setting up layer_512_3_sum
I0121 13:17:47.343981  4195 net.cpp:157] Top shape: 8 2048 7 7 (802816)
I0121 13:17:47.343986  4195 net.cpp:165] Memory required for data: 1825603680
I0121 13:17:47.343989  4195 layer_factory.hpp:77] Creating layer last_bn
I0121 13:17:47.343996  4195 net.cpp:100] Creating Layer last_bn
I0121 13:17:47.343999  4195 net.cpp:434] last_bn <- layer_512_3_sum
I0121 13:17:47.344004  4195 net.cpp:395] last_bn -> layer_512_3_sum (in-place)
I0121 13:17:47.344179  4195 net.cpp:150] Setting up last_bn
I0121 13:17:47.344187  4195 net.cpp:157] Top shape: 8 2048 7 7 (802816)
I0121 13:17:47.344192  4195 net.cpp:165] Memory required for data: 1828814944
I0121 13:17:47.344199  4195 layer_factory.hpp:77] Creating layer last_scale
I0121 13:17:47.344205  4195 net.cpp:100] Creating Layer last_scale
I0121 13:17:47.344209  4195 net.cpp:434] last_scale <- layer_512_3_sum
I0121 13:17:47.344214  4195 net.cpp:395] last_scale -> layer_512_3_sum (in-place)
I0121 13:17:47.344259  4195 layer_factory.hpp:77] Creating layer last_scale
I0121 13:17:47.344364  4195 net.cpp:150] Setting up last_scale
I0121 13:17:47.344372  4195 net.cpp:157] Top shape: 8 2048 7 7 (802816)
I0121 13:17:47.344375  4195 net.cpp:165] Memory required for data: 1832026208
I0121 13:17:47.344380  4195 layer_factory.hpp:77] Creating layer last_relu
I0121 13:17:47.344386  4195 net.cpp:100] Creating Layer last_relu
I0121 13:17:47.344390  4195 net.cpp:434] last_relu <- layer_512_3_sum
I0121 13:17:47.344394  4195 net.cpp:395] last_relu -> layer_512_3_sum (in-place)
I0121 13:17:47.344522  4195 net.cpp:150] Setting up last_relu
I0121 13:17:47.344532  4195 net.cpp:157] Top shape: 8 2048 7 7 (802816)
I0121 13:17:47.344535  4195 net.cpp:165] Memory required for data: 1835237472
I0121 13:17:47.344540  4195 layer_factory.hpp:77] Creating layer global_pool
I0121 13:17:47.344548  4195 net.cpp:100] Creating Layer global_pool
I0121 13:17:47.344555  4195 net.cpp:434] global_pool <- layer_512_3_sum
I0121 13:17:47.344564  4195 net.cpp:408] global_pool -> global_pool
I0121 13:17:47.344709  4195 net.cpp:150] Setting up global_pool
I0121 13:17:47.344718  4195 net.cpp:157] Top shape: 8 2048 1 1 (16384)
I0121 13:17:47.344722  4195 net.cpp:165] Memory required for data: 1835303008
I0121 13:17:47.344725  4195 layer_factory.hpp:77] Creating layer score
I0121 13:17:47.344732  4195 net.cpp:100] Creating Layer score
I0121 13:17:47.344736  4195 net.cpp:434] score <- global_pool
I0121 13:17:47.344743  4195 net.cpp:408] score -> score
I0121 13:17:47.347123  4195 net.cpp:150] Setting up score
I0121 13:17:47.347147  4195 net.cpp:157] Top shape: 8 1000 (8000)
I0121 13:17:47.347151  4195 net.cpp:165] Memory required for data: 1835335008
I0121 13:17:47.347159  4195 layer_factory.hpp:77] Creating layer score_score_0_split
I0121 13:17:47.347167  4195 net.cpp:100] Creating Layer score_score_0_split
I0121 13:17:47.347172  4195 net.cpp:434] score_score_0_split <- score
I0121 13:17:47.347177  4195 net.cpp:408] score_score_0_split -> score_score_0_split_0
I0121 13:17:47.347189  4195 net.cpp:408] score_score_0_split -> score_score_0_split_1
I0121 13:17:47.347250  4195 net.cpp:150] Setting up score_score_0_split
I0121 13:17:47.347259  4195 net.cpp:157] Top shape: 8 1000 (8000)
I0121 13:17:47.347264  4195 net.cpp:157] Top shape: 8 1000 (8000)
I0121 13:17:47.347266  4195 net.cpp:165] Memory required for data: 1835399008
I0121 13:17:47.347270  4195 layer_factory.hpp:77] Creating layer accuracy
I0121 13:17:47.347275  4195 net.cpp:100] Creating Layer accuracy
I0121 13:17:47.347278  4195 net.cpp:434] accuracy <- score_score_0_split_0
I0121 13:17:47.347282  4195 net.cpp:434] accuracy <- label_data_1_split_0
I0121 13:17:47.347287  4195 net.cpp:408] accuracy -> accuracy
…
